saved_models/run23/model_5000.pth (torch, 141798 bytes, 6 tensors)

weight f4 [256, 4]
0	0xbf79a974	-0.9752419
1	0xbdf7ed95	-0.12105862
2	0x3d7c1f66	0.06155338
3	0x3e163b3f	0.14671038
4	0xbf7807d9	-0.96886975
5	0xbdecd8c9	-0.11564786
6	0x3e8be08d	0.27319756
7	0x3dabdf7a	0.08392234
8	0xbef8afe6	-0.485717
9	0x3e0013e2	0.12507585
10	0xbedfcc4e	-0.4371056
11	0xbe48eecf	-0.19622348
12	0xbf0e2579	-0.5552593
13	0xbc8af0d7	-0.016960545
14	0x3ef3ee43	0.47642717
15	0x3e132153	0.14368181
16	0x3dff92a8	0.12479144
17	0x3d53865b	0.051641803
18	0xbe63c24b	-0.22242086
19	0x3cae1234	0.021248914
20	0xbf64cac9	-0.89371926
21	0x3d2496d0	0.04018289
22	0xbe0d2632	-0.13784102
23	0x3de25e2d	0.11053119
24	0xbeebae1c	-0.46031272
25	0xbdcb93e4	-0.09940317
26	0x3ecd3249	0.40077427
27	0x3e5c95d4	0.2154153
28	0x3e21321e	0.15741774
29	0xbe862db0	-0.26206732
30	0xbf804458	-1.0020857
31	0x3e068f5a	0.13140622
32	0x3dac2ada	0.08406611
33	0x3dbced0c	0.092249006
34	0xbe88dbce	-0.26730198
35	0xbe1dffa2	-0.15429547
36	0x3d8d284a	0.0689245
37	0x3d5fd1ab	0.054643314
38	0xbec289d8	-0.3799579
39	0xbdd038f2	-0.101671115
40	0x3f354939	0.70814854
41	0xbd4c509e	-0.04988157
42	0x3ec9c385	0.39406982
43	0x39733d85	0.00023197204
44	0xbfbeab3b	-1.4896005
45	0xbe6e67ba	-0.23281756
46	0x3e36ab25	0.17838724
47	0x3e868916	0.26276463
48	0x3f9a5cd2	1.2059577
49	0xbc8a0b5b	-0.016851118
50	0xbe2737e3	-0.16329913
51	0xbe26a043	-0.16272072
52	0xbc22d29a	-0.009937907
53	0x3e94808e	0.2900433
54	0xbe3dad3c	-0.18523115
55	0xbe33a6bd	-0.17544074
56	0xbd08bae1	-0.033381347
57	0x3e898db7	0.26865932
58	0xbf1388dc	-0.57630706
59	0x3e4d7806	0.20065317
60	0x3ef19d70	0.47190428
61	0x3e431ae3	0.19053225
62	0x3f002808	0.5006108
63	0xbe2f2b34	-0.17106324
64	0xbdaa04ce	-0.08301698
65	0xbef0e2a9	-0.47047928
66	0xbf82c9f9	-1.0217887
67	0x3f1941ad	0.5986584
68	0x3f474e53	0.7785389
69	0xbd5b0979	-0.05347583
70	0xbe804932	-0.25055844
71	0xbd993e68	-0.07482606
72	0x3f462c30	0.77411175
73	0x3df9d448	0.121986926
74	0xbe676593	-0.22597341
75	0xbdc4e736	-0.096144125
76	0xbe67648a	-0.22596946
77	0x3d998619	0.0749628
78	0xbf307951	-0.68935114
79	0x3eb5b8ad	0.3549246
80	0x3f01debc	0.5073049
81	0x3eab4912	0.33454186
82	0xbea19f34	-0.31566775
83	0x3d8109d4	0.06300703
84	0xbf33fc9e	-0.7030734
85	0xbf4c9f6c	-0.7993076
86	0x3f309a7d	0.6898573
87	0x3e9a7617	0.3016822
88	0x3ea8d099	0.32971647
89	0x3ee75029	0.45178345
90	0xbf782ed6	-0.96946466
91	0xbe9a05c3	-0.3008252
92	0xbedc5aee	-0.43038124
93	0x3f81871d	1.0119358
94	0xbf354df4	-0.7082207
95	0xbe664b33	-0.22489624
96	0x3ce57f02	0.028014664
97	0x3df36df2	0.11886205
98	0x3e14453c	0.14479536
99	0xbdb99a7e	-0.0906267
100	0x3e807b85	0.25094238
101	0xbe0ccd6d	-0.13750239
102	0xbf504e18	-0.8136916
103	0xbe2bcb9f	-0.16776894
104	0xbf520a34	-0.8204682
105	0x3e0b4961	0.1360221
106	0x3ef076b9	0.46965578
107	0xbe6741cd	-0.22583695
108	0x3da70448	0.081551135
109	0xbd333700	-0.043753624
110	0xbee07c28	-0.43844724
111	0x3d1094c0	0.03529811
112	0xbe82d0a0	-0.25549793
113	0x3e4a8425	0.19776972
114	0x3f10116e	0.56276596
115	0xbe83782a	-0.25677615
116	0xbfbf320c	-1.4937148
117	0xbe286944	-0.16446406
118	0xbdc71a9f	-0.097218744
119	0x3e1b0795	0.15139611
120	0xbf509f5d	-0.8149317
121	0x3f0915e9	0.5354906
122	0xbed5efa5	-0.41784397
123	0x3e23a75b	0.1598181
124	0x3e78cc69	0.24296726
125	0x3eaddf72	0.33959538
126	0xbd94956c	-0.072550625
127	0xbd711624	-0.058859006
128	0xbc2c7424	-0.010525737
129	0xbea662b3	-0.32497177
130	0xbe2ceca8	-0.16887152
131	0x3f05ddfd	0.5229185
132	0xbe984fb2	-0.29748303
133	0xbec3ce66	-0.38243407
134	0x3e85bddf	0.26121423
135	0x3e30fd80	0.17284203
136	0xbf7f7a88	-0.9979634
137	0xbda6687a	-0.08125396
138	0x3e8aeea0	0.2713518
139	0x3e25852d	0.16164084
140	0xbf5f11af	-0.8713636
141	0x3e0537d3	0.13009576
142	0x3dd68f42	0.10476543
143	0xbd3c2bab	-0.045940083
144	0xbe41ee58	-0.18938577
145	0x3db6b13c	0.089205235
146	0xbe9ec144	-0.31006825
147	0x3db0b609	0.086284705
148	0x3e3cadb5	0.18425639
149	0x3e5bc1a5	0.21460588
150	0x3eda4c0c	0.42636144
151	0xbea28df6	-0.31748933
152	0xbf68e067	-0.9096741
153	0xbdc352a5	-0.095372476
154	0xbf63e76f	-0.89025015
155	0x3d8312bd	0.064000584
156	0xbf120ffc	-0.5705564
157	0xbd6fe441	-0.05856729
158	0x3e6cd3ae	0.23127624
159	0x3d233441	0.039844755
160	0xbec4d55d	-0.38444033
161	0x3e22368b	0.15841119
162	0xbf6d1414	-0.9260876
163	0xbec5bd4e	-0.3862099
164	0x3efdb737	0.49553844
165	0xbeceef9d	-0.40417185
166	0x3e1575d9	0.14595737
167	0x3be87a0f	0.0070946286
168	0x3f56d41d	0.8391741
169	0xbd37f7ca	-0.044914044
170	0xbf4604bb	-0.7735097
171	0xbc2574c9	-0.0100986445
172	0xbf0f8baf	-0.56072515
173	0x3dde2a33	0.108478926
174	0xbed62f0d	-0.41832772
175	0xbe187991	-0.14890124
176	0x3eeff8ca	0.46869498
177	0xbf0421c1	-0.51614004
178	0xbf9107c8	-1.13305
179	0x3d1446b6	0.036200248
180	0xbe49e0f6	-0.19714722
181	0x3db25067	0.08706742
182	0xbee911f2	-0.45521504
183	0xbd74e40d	-0.0597878
184	0xbeeb8e44	-0.46006978
185	0xbdfda781	-0.123854645
186	0x3eaf1e66	0.3420288
187	0x3d1d28cb	0.03836898
188	0xbf9d5798	-1.2292356
189	0x3e12e001	0.14343263
190	0xbd11eabd	-0.035624254
191	0x3ca0e34d	0.019639635
192	0x3ec35cd2	0.38156754
193	0xbe87d75c	-0.26531494
194	0xbf00a46b	-0.5025088
195	0xb76accf6	-1.3995208e-05
196	0xbf9cde35	-1.2255312
197	0xbe507172	-0.20355776
198	0x3dec7bcb	0.11547049
199	0x3e3b955d	0.18318696
200	0xbf69f16f	-0.91384023
201	0xbd014c71	-0.03156704
202	0x3d9b33a2	0.075782076
203	0xba309539	-0.0006736103
204	0x3ee21ee0	0.4416418
205	0xbee2512e	-0.4420256
206	0xbf770f55	-0.9650777
207	0x3f1d80b1	0.6152449
208	0x3f7b7960	0.9823208
209	0x3e98bf8f	0.29833648
210	0xbe8df64f	-0.2772698
211	0xbe807896	-0.25092
212	0xbd01bd6e	-0.031674795
213	0xbe23123f	-0.15924929
214	0xbf1a3711	-0.60240275
215	0x3e868550	0.26273584
216	0x3f909635	1.129584
217	0xbe0233be	-0.1271505
218	0xbe0fe7d4	-0.14053279
219	0x3ddde567	0.10834771
220	0xbfbc3706	-1.4704292
221	0xbcaee50c	-0.021349452
222	0x3d06bc3e	0.032894365
223	0x3dab7851	0.08372558
224	0x3f5d6142	0.8647653
225	0xbe21342c	-0.15742558
226	0xbe76f237	-0.24115835
227	0x3ca72ee2	0.020408098
228	0x3eec2d88	0.46128488
229	0x3e8c0520	0.2734766
230	0xbf01afac	-0.5065868
231	0xbf05e5ce	-0.5230378
232	0x3f51ec0d	0.8200081
233	0x3db00fdb	0.08596774
234	0xbeb128ba	-0.34601384
235	0xbe2b03e7	-0.16700707
236	0x3f1997c6	0.5999721
237	0xbedc37a6	-0.43011206
238	0xbf437b30	-0.76359844
239	0x3ef7288e	0.48273128
240	0x3f349b2d	0.7054928
241	0x3ee1b583	0.44083795
242	0x3d8f1ba3	0.06987693
243	0xbeebf8f0	-0.46088362
244	0x3f5e3e3f	0.8681373
245	0x3c6d04b4	0.014466453
246	0xbdc359a2	-0.095385805
247	0xbd4df2bd	-0.05028032
248	0xbe86d5a0	-0.26334858
249	0x3d90c703	0.070692085
250	0xbdd9a2ca	-0.10626753
251	0xbe129a88	-0.14316761
252	0xbe8c226c	-0.27370012
253	0x3e0c497b	0.13699906
254	0xbf0cfa3d	-0.55069333
255	0xbe2c31e6	-0.1681591

bias f4 [256]
0	0xbfc66585	-1.5499731
1	0xbfe55957	-1.7917889
2	0xbf3d0c54	-0.73846936
3	0x3f9a525f	1.2056388
4	0x3f78b4b1	0.97150713
5	0xbe8fe328	-0.28102994
6	0xbfc4bd7b	-1.5370325
7	0x3f80e3f3	1.0069565
8	0xbe30ea72	-0.17276934
9	0x3f0705d5	0.52743274
10	0xbfcd29a2	-1.602833
11	0x3eb4a5ac	0.35282648
12	0xbeb3c2aa	-0.35109454
13	0xbfa35dfd	-1.2763058
14	0xbfd1f03e	-1.6401441
15	0xbecb7288	-0.39735818
16	0xbea074ab	-0.3133901
17	0xbebcef01	-0.36901096
18	0xbcf3cafb	-0.029759875
19	0x3ebc8182	0.36817557
20	0xbf88e6dd	-1.0695454
21	0x3f8e0432	1.109503
22	0x3daa5f74	0.083189875
23	0xbf93cbff	-1.154663
24	0xbfab14bd	-1.3365704
25	0xbe0b9f01	-0.13634874
26	0x3fc9f876	1.5778949
27	0x3eeaea6a	0.4588197
28	0xbfb70b07	-1.430024
29	0x3ebdd3cd	0.37075654
30	0xbf5df08f	-0.8669519
31	0xbfa79908	-1.3093576
32	0xbfc555a1	-1.5416757
33	0x3f812fb4	1.0092683
34	0xbff125fb	-1.8839716
35	0xbf646e6d	-0.89230996
36	0xbf6d1d9c	-0.92623305
37	0x4004feff	2.0780637
38	0xbf71417d	-0.9424055
39	0xbfad611b	-1.3545259
40	0x3f6a9a00	0.91641235
41	0x3ecc97ad	0.3995947
42	0xbf282b14	-0.6569073
43	0x3edd457f	0.43217084
44	0xbf467139	-0.77516514
45	0x3f36d491	0.714181
46	0xbfb2925a	-1.3950913
47	0xbe140d26	-0.1445814
48	0xbef243ec	-0.47317445
49	0x3fd7614a	1.6826565
50	0xbf8a5b31	-1.080908
51	0x3ec356a0	0.38152027
52	0xbdc9cdc1	-0.098536976
53	0x3ecbc105	0.397957
54	0xbf6cf059	-0.9255424
55	0xbf27cb02	-0.6554414
56	0xbeeb2a14	-0.4593054
57	0xbd44827b	-0.047976
58	0xbe966f0f	-0.29381606
59	0x3f8343e4	1.0255094
60	0xbf814c69	-1.0101444
61	0xbf067bcd	-0.52532655
62	0xbf89bbee	-1.0760477
63	0x3e853138	0.26014113
64	0x3fa33682	1.275101
65	0x40020459	2.0315154
66	0xbfa9591b	-1.3230318
67	0x3f1cd5b7	0.612636
68	0x3facf30f	1.3511676
69	0xbf7f616b	-0.99758023
70	0x3f6449b2	0.8917495
71	0xbf887dc9	-1.0663387
72	0xbe28bfd8	-0.16479433
73	0x3e98c374	0.2983662
74	0x3f51fa7d	0.8202284
75	0x3ebfcbf2	0.37460285
76	0x3ecf6ae2	0.40511233
77	0xbeee8daf	-0.4659247
78	0x3fcf0440	1.6173172
79	0xbee9ed11	-0.4568868
80	0x3d9ade00	0.075618744
81	0xbf6ba136	-0.92042863
82	0xbf3441ec	-0.7041309
83	0x40038eee	2.0555987
84	0xbeb9f7ea	-0.36321956
85	0xbf76e13b	-0.96437424
86	0xbfb06a50	-1.3782444
87	0xbe8e3fb0	-0.27782965
88	0x3fdbad93	1.7162346
89	0x3e963a5a	0.29341394
90	0xbf9a1291	-1.2036916
91	0x3f52a469	0.8228212
92	0x3e343121	0.17596866
93	0xbf0c0cea	-0.54707205
94	0x3e0b8304	0.13624197
95	0xbe6496a6	-0.22323093
96	0x3efca219	0.4934242
97	0x3f243c6d	0.641547
98	0xbf1dec35	-0.6168855
99	0xbe0d493a	-0.13797465
100	0x3fa0c0df	1.255886
101	0x3e0bea97	0.13663708
102	0xbfc26316	-1.5186489
103	0xbe9dfa86	-0.30855197
104	0xbe32212b	-0.17395465
105	0xbf032ff5	-0.5124505
106	0x3f417e64	0.7558348
107	0x3f11549d	0.56769735
108	0xbeb1cb77	-0.34725544
109	0xbe85cb3a	-0.26131612
110	0x3f5b6bc5	0.8571132
111	0xbfc2e986	-1.5227516
112	0xbdc09226	-0.094028756
113	0xbf70d98a	-0.9408194
114	0xbf271d31	-0.6527892
115	0xbfa21c1c	-1.2664828
116	0xbf94b1ff	-1.161682
117	0x3ee3af98	0.44469905
118	0xbfa8cb4a	-1.3187039
119	0xbefa03d7	-0.48831055
120	0x3f8117c0	1.0085373
121	0x3ea40411	0.32034352
122	0xbfcdef04	-1.6088567
123	0x3faa2520	1.329258
124	0x3f7ca456	0.98688257
125	0x3baf0972	0.005341702
126	0xbf09635f	-0.53667253
127	0x3f9365e7	1.1515473
128	0x3f146fa9	0.5798288
129	0x3f195f8a	0.59911406
130	0x3e249206	0.16071329
131	0x3f8f35ef	1.1188334
132	0x3e0d695a	0.1380972
133	0xbf95f65a	-1.1715806
134	0x3f780008	0.9687505
135	0xbed79f3f	-0.42113683
136	0x3fcd8177	1.6055135
137	0xbf08fa28	-0.5350671
138	0xbf2a745f	-0.6658382
139	0xbfa7ecec	-1.3119178
140	0xbf850455	-1.0391947
141	0xbfd31675	-1.6491228
142	0xbfd25d95	-1.6434809
143	0x3fcd730c	1.6050735
144	0x3e760775	0.24026282
145	0x3ed85d1b	0.42258534
146	0x3f885121	1.0649759
147	0xbda5a20d	-0.08087549
148	0x3d12035a	0.035647728
149	0xbd572015	-0.05252083
150	0xbf538db3	-0.8263809
151	0x3f9296e7	1.1452302
152	0x3f9565dc	1.167171
153	0xbef376ec	-0.47551668
154	0x3e35188d	0.17685147
155	0xbf2bafe6	-0.67065275
156	0x3c0b113c	0.008487996
157	0x3f84db9a	1.0379517
158	0xbfb3db55	-1.405131
159	0x3f4c558c	0.79818034
160	0xbf73a497	-0.9517302
161	0x4002ab0e	2.0416903
162	0xbdbc3893	-0.09190478
163	0xbfd1b455	-1.6383158
164	0xbfcd212a	-1.6025746
165	0xbfc9459f	-1.5724372
166	0x3fc3e157	1.5303143
167	0xbc2fab9b	-0.010722066
168	0xbf124757	-0.57140106
169	0x3fba0755	1.4533488
170	0xbfea8c85	-1.8324133
171	0xbee2ae60	-0.44273663
172	0x3fd0ca63	1.6311764
173	0xbe89d4d9	-0.26920202
174	0xbe3b6ae1	-0.1830249
175	0x3f9c592e	1.2214715
176	0xbf1eaa3c	-0.6197851
177	0xbe900509	-0.28128842
178	0xbff35649	-1.9010707
179	0x3e956127	0.29175684
180	0x3f207683	0.62680835
181	0xbfb62014	-1.422854
182	0x3e881c71	0.265842
183	0x3ffee50c	1.991365
184	0xbf57091b	-0.8399827
185	0x3ecb1a01	0.39668277
186	0x3f6676ad	0.90024835
187	0xbf3ba1cc	-0.7329376
188	0xc00243cc	-2.035388
189	0xbf680cd5	-0.9064458
190	0xbfc612c7	-1.547448
191	0x3f959f83	1.1689304
192	0x3e130c72	0.14360216
193	0xbfa2c057	-1.2714947
194	0x3fdd1b9c	1.7274051
195	0xbeeeec86	-0.46664828
196	0xbfeb27b9	-1.8371497
197	0x3fe83078	1.8139791
198	0xbccec7d5	-0.025241772
199	0x3fa149f0	1.2600689
200	0xbf8a6cc6	-1.0814445
201	0xbf707688	-0.93930864
202	0x3fe3fe83	1.7812046
203	0x3f493983	0.7860338
204	0x3f394771	0.72374636
205	0xbf6e48be	-0.93079746
206	0x40003a6b	2.0035655
207	0x3ec8118e	0.39075893
208	0x4004ce13	2.0750778
209	0xbfa7e1fc	-1.311584
210	0xbe7a7086	-0.24456987
211	0x3ff73af1	1.9314862
212	0xbfd93304	-1.6968694
213	0xbfd5544f	-1.6666354
214	0xbfb7edde	-1.4369466
215	0xbe177fda	-0.14794865
216	0xbf071b15	-0.527757
217	0x3e34560f	0.17610954
218	0x3f0d4511	0.5518351
219	0x3f5cf9d4	0.8631871
220	0x3fec7bf5	1.8475329
221	0xbf85b458	-1.0445662
222	0x3f9d3379	1.2281333
223	0xbea5d7a4	-0.32391083
224	0xbf31310d	-0.6921547
225	0xbfbd1804	-1.4772954
226	0xbf951848	-1.1648035
227	0xbee7b9e7	-0.4525902
228	0xbfabc9f8	-1.3421011
229	0xbf33af61	-0.7018948
230	0xbf341862	-0.70349705
231	0x3f93cf95	1.1547724
232	0x3fede6a8	1.8586016
233	0xbf181491	-0.5940638
234	0x3f6b010d	0.9179848
235	0xbeda0d0c	-0.4258808
236	0xbf75a945	-0.9596141
237	0x3fb97b6d	1.4490792
238	0x3eae63b9	0.34060457
239	0x3fd75eb2	1.6825774
240	0xbf6d49d6	-0.9269079
241	0x3fc881fe	1.566467
242	0xbfae04d4	-1.3595223
243	0xbf860208	-1.046937
244	0xbf23e0da	-0.6401497
245	0xbfaccbba	-1.3499672
246	0xbf90fc51	-1.1327001
247	0xbf614640	-0.8799782
248	0xbea27518	-0.3172996
249	0xbee28551	-0.44242337
250	0xbf6bdaa6	-0.92130506
251	0xbd9d9e15	-0.076961674
252	0xbeb8546c	-0.3600191
253	0xbd62830f	-0.05530077
254	0xbe54070d	-0.20705815
255	0x3f34d02b	0.7063014

weight f4 [128, 256]
0	0xbdada3ae	-0.08478485
1	0xbd36deb6	-0.044645987
2	0xbcbaf314	-0.022820987
3	0xbd15139a	-0.036395647
4	0xbc729551	-0.014806108
5	0xbccbf24b	-0.024895808
6	0x3ce7597c	0.028240912
7	0x3d2c8bdb	0.042125564
8	0x3bbc4880	0.0057459474
9	0xbd0d7b8c	-0.03454165
10	0xbc03dd65	-0.00804839
11	0xbd719e3e	-0.058988802
12	0x3d1620bd	0.036652315
13	0xbd8d5074	-0.06900111
14	0x3d345cb0	0.044033706
15	0x3d540bbb	0.051769
16	0xbd47c485	-0.0487714
17	0x3c771496	0.015080592
18	0x3d007750	0.031363785
19	0xbc34fa9e	-0.01104608
20	0x3c97679e	0.018482026
21	0x3ce29178	0.027657256
22	0xbcc1ef64	-0.02367372
23	0x3ce9ba6f	0.028531281
24	0xbcd87c1c	-0.026426367
25	0xbd7c8aaa	-0.061655678
26	0x3ccee1ff	0.025254248
27	0x3c8df8f4	0.017330624
28	0xbd245763	-0.0401224
29	0xbd983c31	-0.074333556
30	0x3d3379cb	0.043817323
31	0x3ce865d6	0.028368872
32	0xbd50bf8e	-0.05096393
33	0x3bd79ac8	0.0065797307
34	0x3c95437a	0.018220652
35	0x3c0de2bb	0.008660014
36	0xbb05aa59	-0.0020395725
37	0x3be3f638	0.006956842
38	0xbc895453	-0.016763842
39	0xbd870f33	-0.06594696
40	0x3d3150fb	0.04329012
41	0xbcadce21	-0.021216454
42	0x3d71b765	0.05901279
43	0x3c96ceed	0.018409217
44	0xbb617c81	-0.0034406486
45	0x3c5e68a6	0.013574755
46	0xbd4dcd45	-0.05024459
47	0x3d08d4b8	0.03340599
48	0x3b90b4ba	0.0044160755
49	0xbc998e6a	-0.018744666
50	0xbcce5a5e	-0.025189575
51	0x3d1a2fdf	0.03764331
52	0xbda630af	-0.081147544
53	0x3cf71811	0.030162843
54	0xbd1c51cf	-0.038163956
55	0xbd34413b	-0.04400752
56	0x3ce94564	0.02847547
57	0xbbb3fae7	-0.0054925564
58	0x3cae8530	0.021303743
59	0xbc87c8ea	-0.016575295
60	0x3cc4eebf	0.024039624
61	0x3d1c4d91	0.03815991
62	0xbd860e88	-0.0654574
63	0xbd88e7c9	-0.066848345
64	0x3ceca13c	0.028885476
65	0x3ca50551	0.020144137
66	0x3ba8cda4	0.0051514674
67	0xbbada020	-0.0052986294
68	0xbd8286dd	-0.063733794
69	0x3c171d7b	0.009223337
70	0xbcaa15cf	-0.020762352
71	0xbd7ffd1f	-0.062497254
72	0xbd6717cc	-0.05641918
73	0xbc7e96de	-0.015538899
74	0xbc3f1bc1	-0.011664332
75	0xbd09fe1d	-0.033689607
76	0xbcdc5124	-0.02689416
77	0xbc450354	-0.012024719
78	0x3c1e3fb1	0.00965874
79	0xbd2510a6	-0.04029908
80	0x3c997caa	0.018736202
81	0xbd3854e0	-0.045002818
82	0x3c247e51	0.010039882
83	0xbd48a9ef	-0.048990186
84	0x3d05bd7b	0.032651406
85	0x3d67513e	0.056473963
86	0x3aaa4955	0.0012991825
87	0x3d2affa4	0.041747704
88	0x3d668a53	0.05628426
89	0xbc1206f3	-0.00891279
90	0xbc5692f9	-0.013096564
91	0xbcf42df1	-0.029807063
92	0xbd4cf906	-0.050042175
93	0x3d28ba24	0.041193143
94	0x3d1a883e	0.037727587
95	0xbd324ff9	-0.0435333
96	0x3c89c837	0.016819103
97	0x3c81db93	0.015851771
98	0x3d5e148a	0.054218806
99	0xbd8d8972	-0.06910981
100	0xbd5c4316	-0.053774916
101	0xbb99e05a	-0.0046959342
102	0xbbbc6769	-0.005749632
103	0x3d515aa3	0.05111183
104	0xbc92dbde	-0.017927106
105	0xbb7cf616	-0.0038598827
106	0x3c2b7795	0.010465522
107	0x3cf4a5f2	0.029864285
108	0x3b2d6e06	0.0026463284
109	0xbd66ecb4	-0.05637808
110	0x3cf8932a	0.03034361
111	0xbd882d1a	-0.066492274
112	0xbd111964	-0.035424605
113	0xbc576494	-0.013146538
114	0xbd633c24	-0.055477276
115	0x3d04dee9	0.032439146
116	0xbd3b72d7	-0.045763817
117	0xbd4b601d	-0.049652208
118	0xbd8b6d88	-0.06808001
119	0x3d547aa8	0.051874787
120	0x3c8be166	0.017075252
121	0x3d3bdae6	0.045863055
122	0xbd59a68f	-0.05313736
123	0xb9c9349b	-0.00038376902
124	0x3cb2720d	0.0217829
125	0xbd4578a1	-0.048210744
126	0x3c1214bd	0.008916077
127	0x3d05d4e7	0.032673743
128	0xbd91d8ec	-0.07121453
129	0x3c7c6153	0.015404063
130	0xbd43fca7	-0.04784837
131	0x3d12c5cf	0.035833176
132	0xbd155d18	-0.036465734
133	0xbcdc056e	-0.026858058
134	0xbc9d1542	-0.019175176
135	0xbcf53204	-0.029931076
136	0xbcba234a	-0.022721905
137	0x3d1e5839	0.038658354
138	0xbd628a9e	-0.055307977
139	0xbd29cb1a	-0.04145346
140	0xbd8e0214	-0.0693399
141	0x3b305854	0.0026908116
142	0x3bca92d3	0.0061820536
143	0x3bc08307	0.0058749947
144	0x3d1af482	0.037830837
145	0xbcd92eaa	-0.026511509
146	0x3d30c457	0.043155994
147	0x3cd3be10	0.025847465
148	0xbd5da080	-0.054108143
149	0xbc61e9ba	-0.013788635
150	0xbd9d4e04	-0.07680896
151	0x38c59123	9.420726e-05
152	0xbd1a6aa3	-0.037699353
153	0x3cf10e58	0.029425785
154	0xbccd1d68	-0.025038436
155	0xbc8fcb60	-0.017553031
156	0xbc9f0e6a	-0.019416053
157	0xbb3ae8e4	-0.0028520161
158	0x3d030efa	0.031996705
159	0x3d1e75fd	0.03868674
160	0xbd02bb8e	-0.031917147
161	0xbd4c5ee6	-0.04989519
162	0xbd153c9c	-0.036434755
163	0xbd0fbc33	-0.03509159
164	0xbd6398a0	-0.055565476
165	0x3cc63650	0.02419582
166	0x3c3569fd	0.011072633
167	0xbcb58542	-0.022158269
168	0xbcc6759d	-0.024226004
169	0xbd58de72	-0.052946515
170	0xbd2da799	-0.04239616
171	0x3d1f1e79	0.03884742
172	0xbb446637	-0.0029968151
173	0xb82ee9d2	-4.1702595e-05
174	0xbd3682a4	-0.044558182
175	0x3cb161f1	0.021653147
176	0xbc60e4ad	-0.013726396
177	0x3d177489	0.03697637
178	0xbd95b634	-0.07310143
179	0xbd891c6c	-0.06694874
180	0xbc921388	-0.017831579
181	0xb9e661f2	-0.00043941993
182	0xbd067919	-0.03283033
183	0xbd1be213	-0.038057398
184	0x3cb8e183	0.02256847
185	0x3d27fb63	0.041011225
186	0xbd19e65a	-0.037573196
187	0x3bc8deea	0.006130089
188	0x3d2f4aa2	0.042795785
189	0xbc85112f	-0.016243545
190	0xbc9eb033	-0.019371128
191	0xbd790468	-0.060795218
192	0xbd82412e	-0.06360088
193	0xbd4642ec	-0.048403665
194	0x3aa56dce	0.0012621225
195	0x3cf38ade	0.029729303
196	0xbc840334	-0.016114809
197	0xbd432cd9	-0.047650192
198	0xbd4ab7ae	-0.049491577
199	0xbaa39eab	-0.00124832
200	0xbd901f27	-0.07037192
201	0xbc921599	-0.017832564
202	0xbd9741a1	-0.073855646
203	0xbcda32da	-0.026635576
204	0xbd599424	-0.053119794
205	0x3d09a1fc	0.033601746
206	0x3c3e8de1	0.011630506
207	0x3d20a825	0.039222855
208	0xbc7bf7fc	-0.015378948
209	0xbb9c6dc0	-0.0047738254
210	0xbcf79854	-0.030224003
211	0x3c8a5774	0.016887404
212	0xbd688684	-0.05676891
213	0xbc3df6fb	-0.011594529
214	0x3d389101	0.04506016
215	0x3d534afd	0.051585186
216	0xbb3b9da0	-0.0028627887
217	0x3c6e9291	0.014561311
218	0xbd1b7677	-0.037954774
219	0xbd228c8b	-0.039684813
220	0xbcdbfa7d	-0.02685284
221	0x3c9d73ff	0.01922035
222	0xbccf8a8d	-0.02533462
223	0xbda74539	-0.081675
224	0xbd5a9c3c	-0.053371653
225	0xbccf8955	-0.02533404
226	0xbd32b88a	-0.04363302
227	0x3ce437b5	0.027858594
228	0xbd0b3da8	-0.033994347
229	0x3cc5347d	0.02407288
230	0x3cd3a4de	0.02583545
231	0xbd851a71	-0.06499184
232	0x3cc55423	0.024087971
233	0xbc892f02	-0.016746048
234	0x3cde9b18	0.027173564
235	0xbc3cc1b5	-0.011520793
236	0x3cd01b9e	0.025403794
237	0xbd055117	-0.032548036
238	0xbc8f47b7	-0.017490251
239	0xbaf09531	-0.0018355009
240	0x3c2dcedc	0.010608401
241	0xbdaa0e9e	-0.08303569
242	0x3d6949fa	0.056955315
243	0x3c686c4c	0.014185976
244	0xbd3bdb48	-0.04586342
245	0x3cd9edd2	0.02660266
246	0xbd9df3b5	-0.07712499
247	0x3ae03c9f	0.001710791
248	0x3cb4f8e8	0.022091344
249	0xbd01e56e	-0.03171294
250	0xbd63ac3c	-0.055584177
251	0xbcb5c87f	-0.02219033
252	0xbd254662	-0.040350325
253	0x3ae3c184	0.0017376398
254	0x3ab1482b	0.0013525536
255	0xbd8ee3e6	-0.06977062

bias f4 [128]
0	0x3cb260ec	0.021774732
1	0xbd0c5de1	-0.034269217
2	0x3fae80db	1.3633074
3	0x3d15765f	0.03648984
4	0x3d4ede10	0.050504744
5	0xbdacce1e	-0.08437751
6	0x3fa546cb	1.2912229
7	0xbd92ef99	-0.07174606
8	0xbd6243d0	-0.055240452
9	0xbe9e0aee	-0.30867714
10	0x3d2b8e6e	0.04188388
11	0x3d46b3a3	0.04851116
12	0x3d579ca4	0.05263962
13	0x3ecb5307	0.39711782
14	0xbe0e33df	-0.13886975
15	0xbf158ada	-0.58414996
16	0x3e345e16	0.17614016
17	0xbe460086	-0.19336137
18	0xbe14f716	-0.14547381
19	0xbd4ef085	-0.050522346
20	0xbb66c855	-0.0035214622
21	0x3c7ce43a	0.015435273
22	0xbee1a4f9	-0.44071177
23	0xbf19296e	-0.5982884
24	0x3d8aa5a8	0.06769878
25	0x3b559b06	0.0032593622
26	0xbd35d04d	-0.044388104
27	0x3bea259a	0.0071455957
28	0xbe59f627	-0.21285306
29	0xbda15629	-0.07877762
30	0xbd906cf4	-0.07052031
31	0x3fb1b681	1.3883821
32	0x3f89d1e4	1.0767179
33	0xbeef3344	-0.467188
34	0x3cc3db14	0.023908176
35	0x3cd541e6	0.0260324
36	0xbcc6abbc	-0.024251811
37	0x3c87a431	0.016557785
38	0x3e9f2d8f	0.31089446
39	0xbd299cbf	-0.04140925
40	0x3df85f1a	0.12127514
41	0xbc4e5cd4	-0.012595374
42	0xbf505567	-0.81380314
43	0x3f733008	0.94995165
44	0x3f02d565	0.51106864
45	0xbf5e95de	-0.8694743
46	0xbebd2d30	-0.36948538
47	0x3fb7de0c	1.4364638
48	0x3efcda90	0.493855
49	0x3eef82e0	0.46779537
50	0xbdae577f	-0.08512782
51	0xbebf5f90	-0.37377596
52	0x3d07dc7b	0.03316925
53	0x3d2b0e21	0.04176152
54	0xbd459f99	-0.048247907
55	0xbc84e35a	-0.01622169
56	0xbdb9a175	-0.090639986
57	0xbdf59a0c	-0.11992273
58	0xbd658922	-0.056038983
59	0x3c70ea24	0.014704261
60	0xbd72ac5d	-0.05924641
61	0xbd03845e	-0.032108657
62	0xbf0f4a1e	-0.5597247
63	0xbdd08b22	-0.101827875
64	0xbe17bdb4	-0.1481846
65	0xbef94672	-0.48686558
66	0xbd5f49df	-0.05451381
67	0xbd0fb326	-0.03508296
68	0xbd2ceb6b	-0.0422167
69	0xbb522a5e	-0.003206871
70	0x390e2346	0.00013555316
71	0x3e2d3173	0.16913395
72	0x3d267eaa	0.04064814
73	0xbd3feeaf	-0.046858486
74	0xbe273776	-0.1632975
75	0xbde26d6b	-0.11056026
76	0xbceb69be	-0.028736945
77	0xbd908430	-0.07056463
78	0xbdfc3eb2	-0.12316646
79	0x3ef92dcd	0.48667756
80	0x3c2fec9c	0.010737564
81	0xbd12d5b9	-0.035848353
82	0xbd990ce7	-0.07473164
83	0x3dc15ad9	0.09441156
84	0xbe6d9740	-0.23202229
85	0xbea0ce51	-0.31407407
86	0x3c3cc4f6	0.0115215685
87	0xbeaf7486	-0.34268588
88	0xbe0c3767	-0.1369301
89	0xbe34bf20	-0.17651033
90	0x3ba056fd	0.0048931823
91	0xbd3c718d	-0.046006728
92	0xbdd5424d	-0.104130365
93	0x3c819dd3	0.015822327
94	0x3c89558e	0.016764428
95	0xbf486690	-0.782815
96	0xbba49acf	-0.0050233374
97	0xbc6707c7	-0.014100975
98	0x3f44de08	0.7690129
99	0xbc4d9ca1	-0.01254955
100	0x3cf459cf	0.02982798
101	0x3bb37018	0.005476009
102	0x3d170546	0.036870264
103	0x3e68eb74	0.22746068
104	0x3bbaad82	0.0056969533
105	0xbee9cda8	-0.45664716
106	0x3c1f03fb	0.009705539
107	0xbdc668bf	-0.096879475
108	0x3d5b0f1e	0.053481214
109	0xbd92430c	-0.071416944
110	0xbcb6f9dc	-0.02233594
111	0x3cf3cac0	0.029759765
112	0x3e2ded2a	0.16985002
113	0x3d320850	0.04346496
114	0x3f58ce1f	0.84689516
115	0xbdfafb63	-0.122549795
116	0xbedd7343	-0.43252
117	0x3e8af553	0.27140293
118	0x3ca079e9	0.019589381
119	0xbe824ab2	-0.25447613
120	0xbd1caa8e	-0.03824859
121	0xbd111f86	-0.035430454
122	0xbd838643	-0.06422093
123	0xbe0b8a89	-0.13627066
124	0xbe33f429	-0.17573608
125	0x3c70bbe0	0.01469323
126	0xbdeb1dfa	-0.11480327
127	0x3f6ae0f6	0.91749513

weight f4 [2, 128]
0	0x3ce4ebdd	0.0279445
1	0x3da17320	0.078832865
2	0xbf52a2a3	-0.82279414
3	0x3cdb295c	0.02675312
4	0x3da761b9	0.08172936
5	0xbe99e48d	-0.30057183
6	0xbeba219e	-0.36353773
7	0xbd5c53c7	-0.053790834
8	0x3d022eae	0.0317828
9	0xbd361e2a	-0.04446236
10	0x3d82ba46	0.06383185
11	0xbd75c1cf	-0.059999283
12	0x3c15294a	0.009104082
13	0x3ed82312	0.42214257
14	0xbdb2a80d	-0.087234594
15	0xbe4bf374	-0.19917089
16	0x3ec133a2	0.37734705
17	0xbf06c790	-0.5264826
18	0x3e83ddc2	0.25755125
19	0xbca88201	-0.020569803
20	0xbd4d5e8c	-0.050138995
21	0xbbe71169	-0.007051636
22	0xc0350db7	-2.828962
23	0x3fd4fd00	1.663971
24	0x3c1c89fa	0.009554381
25	0x3da02c31	0.07820929
26	0x3d93bad8	0.07213372
27	0x3dabd0c2	0.08389427
28	0xbecd8f72	-0.40148503
29	0x3e154a26	0.14579067
30	0xbf1c3ec3	-0.61033267
31	0xbf015ebf	-0.50535196
32	0xbdfe982a	-0.12431367
33	0xbf8f8f71	-1.121565
34	0x3cb4ee9c	0.022086434
35	0x403a7cb4	2.9138613
36	0xbcffbb3a	-0.031217206
37	0xbc1e03c4	-0.0096444525
38	0xbea60d3e	-0.32431978
39	0xbdaf451d	-0.08558104
40	0x3f260c5c	0.6486261
41	0xbd644164	-0.055726424
42	0x3f0bdff8	0.54638624
43	0xbe05b9ab	-0.13059108
44	0xbeab904f	-0.33508536
45	0xbe41f947	-0.18942748
46	0xc006fffc	-2.109374
47	0xbf0aeec9	-0.5427061
48	0xbc9ab831	-0.018886657
49	0x3ea12e37	0.31480572
50	0x3d31a9b5	0.043374736
51	0xc00f02e5	-2.2345517
52	0xbd8c374a	-0.06846483
53	0x3eae5bc9	0.34054402
54	0x3e760062	0.24023584
55	0xbbf08e1e	-0.0073411604
56	0x3e3b118c	0.18268412
57	0xbd765720	-0.060141683
58	0x3a1c35f6	0.00059589685
59	0xbc012427	-0.007882155
60	0x3cd63b70	0.026151389
61	0x3d7ad30d	0.06123643
62	0xc089b27f	-4.303039
63	0xbd00013f	-0.03125119
64	0xc009cb77	-2.1530435
65	0x3f8cc84e	1.0998628
66	0xbaec18a9	-0.001801272
67	0x3ca8886a	0.02057286
68	0x3d8d66bd	0.069043614
69	0x3d8c1d8a	0.06841572
70	0xbcd702bc	-0.026246421
71	0x3f31fa72	0.69522774
72	0x3a984a26	0.0011618778
73	0xbd3d5873	-0.04622693
74	0xbed406e8	-0.4141152
75	0xbfa226ea	-1.2668126
76	0xbe7bc8af	-0.24588273
77	0xbd350ed9	-0.044203613
78	0xbcedeea9	-0.029044466
79	0x3d655c2e	0.055996113
80	0x3c6e51dc	0.014545884
81	0x3d8a65ce	0.06757699
82	0x3d7957ed	0.06087487
83	0xbcf77008	-0.030204788
84	0xbe80569d	-0.2506608
85	0x3f82342e	1.0172174
86	0xbc97936b	-0.018502912
87	0x3f2be8ca	0.6715208
88	0xbd0f5464	-0.03499259
89	0x39e8cedc	0.0004440461
90	0x3d7348b9	0.059395526
91	0x3cb0eda3	0.021597689
92	0x3e996c84	0.29965603
93	0xbd847a68	-0.0646866
94	0xbaa51fd8	-0.0012597991
95	0xbe8f3b6d	-0.27975026
96	0x3d18f492	0.037342615
97	0xbce1ffb2	-0.027587745
98	0x3dcda414	0.10041061
99	0x3d57b2a9	0.052660618
100	0x3d6d66e9	0.05795947
101	0x3d155ab1	0.036463443
102	0xba0b2ec4	-0.0005309398
103	0x3e87e608	0.26542687
104	0xbc0b00fd	-0.008484122
105	0xbdaf67f7	-0.085647516
106	0xbc42105b	-0.01184472
107	0x3d07225a	0.032991745
108	0xbcb4981d	-0.02204519
109	0xbbe00cdb	-0.00683747
110	0x3d11da5d	0.035608638
111	0x3d24e507	0.04025748
112	0x3f395ec2	0.72410214
113	0x3c8cd542	0.017191533
114	0xbeeb4a23	-0.45955
115	0xbde3a4e0	-0.11115432
116	0xc04f1fc5	-3.236314
117	0xbc182e80	-0.00928843
118	0x3d858975	0.065203585
119	0xbfbe5132	-1.4868529
120	0x3d97a63c	0.074047536
121	0x3b42bd27	0.0029714794
122	0x3e383e78	0.1799258
123	0xbd8f83f0	-0.07007587
124	0xbf3a06ef	-0.7266683
125	0xbd99f462	-0.075173154
126	0xbcf43eca	-0.029815096
127	0xbe775e20	-0.24157
128	0xbb88a92f	-0.004170559
129	0xbd8b0853	-0.06788697
130	0xbf40f533	-0.75374144
131	0xba068a93	-0.00051323435
132	0x3ec803b4	0.39065325
133	0xbf0fdf07	-0.5619969
134	0xbebba2b6	-0.36647576
135	0x3d99d035	0.075104155
136	0x39fdb1e3	0.00048388456
137	0x3ec7b279	0.3900335
138	0x3b06984c	0.0020537553
139	0x3d450c4a	0.048107423
140	0xbd9d0ac1	-0.07668067
141	0xbe4b66e9	-0.19863476
142	0xbf5ff651	-0.87485224
143	0xbe521624	-0.20516258
144	0xbf611447	-0.87921566
145	0x3dde4a40	0.10854006
146	0xbf6248de	-0.88392437
147	0x3c6c1fd0	0.014411882
148	0x3da080ec	0.0783709
149	0xbd659c8b	-0.056057494
150	0x3f32755c	0.69710326
151	0xbe6eaf75	-0.23309119
152	0xbe2cfff4	-0.16894513
153	0xbd99ea8c	-0.075154394
154	0xbd967949	-0.07347352
155	0xbd9a4a3c	-0.0753369
156	0x3f9619b6	1.1726596
157	0xbf4de75b	-0.80431145
158	0x3f037310	0.51347446
159	0xbf09b197	-0.53786606
160	0xbe793ee4	-0.24340397
161	0xbf0a1d34	-0.5395081
162	0xbc0f3262	-0.00874004
163	0x3e75a841	0.23989965
164	0x3d7019c7	0.058618333
165	0xbd95c12a	-0.07312234
166	0xbf4cc4ee	-0.7998799
167	0xbf039596	-0.51400125
168	0xc074bfdb	-3.82421
169	0x3b353a7d	0.002765327
170	0x3f6b2d68	0.9186616
171	0xbe03089b	-0.12796251
172	0xbed93223	-0.42421064
173	0xc05bc711	-3.434025
174	0x3f2f828f	0.6855859
175	0xbefd31a1	-0.49451926
176	0xbeec176e	-0.46111625
177	0x3e8c02cd	0.27345887
178	0xbc58d296	-0.013233801
179	0x3f0e366b	0.55551785
180	0x3d10c703	0.035346042
181	0x3eb01f4d	0.3439888
182	0xbd02a30c	-0.031893775
183	0xbd633fff	-0.055480953
184	0xbf40a452	-0.7525073
185	0xbf2048db	-0.6261117
186	0x3d893462	0.06699444
187	0x3d59d397	0.053180303
188	0xbd096330	-0.03354186
189	0x3c17389e	0.009229807
190	0xbdedb17e	-0.116061196
191	0xbf6cdc49	-0.9252363
192	0x3e478f47	0.1948825
193	0xc05a41fc	-3.4102774
194	0x3d0c5f58	0.034270614
195	0xbb8bfd57	-0.004272144
196	0xbd46f869	-0.048576746
197	0x3cd93df0	0.026518792
198	0x3c29799a	0.0103439335
199	0x3f503a17	0.8133864
200	0xbd4630c0	-0.048386335
201	0x3d0543fc	0.032535538
202	0xbd90c526	-0.07068853
203	0x3f618787	0.88097423
204	0x3da571ac	0.08078322
205	0x3d6f6dcf	0.05845433
206	0xbf17917f	-0.59206384
207	0xbd63f14a	-0.055650033
208	0xbb3af959	-0.002852997
209	0xbd958594	-0.07300869
210	0x3c89b98b	0.016812107
211	0x3fb03286	1.3765419
212	0x3ded90f6	0.11599915
213	0x3fb4334f	1.4078158
214	0x3d5ae029	0.053436432
215	0x3dbfa847	0.09358268
216	0xbf73dc53	-0.95258063
217	0xbf6c7867	-0.9237122
218	0x3d2dcb5d	0.04243027
219	0xbd8046ce	-0.06263505
220	0xc00e793f	-2.2261503
221	0x3cd7bd68	0.026335433
222	0x3daaea1a	0.083454326
223	0x3e7bba66	0.24582824
224	0xbc97b8a1	-0.018520655
225	0x3d466f89	0.048446212
226	0x3e47386b	0.19455115
227	0xbd237427	-0.039905693
228	0xbecb5368	-0.3971207
229	0xbd90e10a	-0.07074173
230	0xbcb67a1d	-0.022275025
231	0x3f930268	1.1485109
232	0x3ce20fb6	0.027595382
233	0xbf1a6150	-0.6030474
234	0x3c134602	0.008988859
235	0xbf5576f2	-0.8338462
236	0x3d422d77	0.04740664
237	0x3d87b1d9	0.066257186
238	0xbd27c592	-0.040959902
239	0x3da4e226	0.08050947
240	0x3f6309fa	0.886871
241	0xbbe566ed	-0.007000795
242	0xbecbad9d	-0.39780894
243	0xbf13e934	-0.57777715
244	0x3fbf4029	1.4941455
245	0x3ea8eaee	0.32991737
246	0xbd4c6f02	-0.049910553
247	0x3ec6c015	0.38818422
248	0x3d6afd40	0.057370424
249	0x3d3d9dea	0.046293177
250	0xbf49baaa	-0.7880045
251	0xbf639ce9	-0.889113
252	0x3dae7ff4	0.08520499
253	0xbd4820ec	-0.04885952
254	0xbf642ffc	-0.8913572
255	0xbeae3bf3	-0.34030113

bias f4 [2]
0	0xbff71335	-1.9302737
1	0xbfba7f5f	-1.457012
