saved_models/run2_swingup/model_3000.pth (torch, 141798 bytes, 6 tensors)

weight f4 [256, 4]
00000000: 74b9 2dbd 7993 1c3e ae8e 90be b81d 06be
00000010: b15e 90be d670 02be 4b6f 55bd 4279 18bd
00000020: 038d 2abf 9ea0 e93e e4ec f13e 8486 02be
00000030: d109 3c3e dc33 ddbd 0721 15bf 7837 3a3d
00000040: 8151 39be d1ef 203f b7e1 843e 796f 14be
00000050: 1da5 7f3c 19cb 833e 9803 d73e d420 3fbe
00000060: 7c29 263f 8ba0 183e 87ad 41bf 1412 c8be
00000070: 3aa6 ff3e 2068 753e 83ba 97be 0722 0dbe
00000080: 0f81 543f f187 b3be 6bbc 8b3e f8cd 753d
00000090: e9a7 a6bd 7aec dcbe 7c6a 3ebf 6a7d 04be
000000a0: 62e6 e0be 8716 ef3e 3138 d6be 098a 96be
000000b0: 6f57 c13e 1d71 04bf 7d34 cb3e 3142 963e
000000c0: ab6b 923e 6fe7 15bf 4128 19be dae8 993d
000000d0: aa4a f4be d82d b93e c3ad 13bf 3843 c7bd
000000e0: 99bd ea3e 0086 c5be 744b 3eba 496c 79be
000000f0: 3389 4abf bbe0 f0be 44a4 c6be 1c0f 693e
00000100: ae6d a93d 887c 453e a7ce 0d3e 8a7d 41bf
00000110: fc7d 803f 9fc3 05bf c6fc dfbe 0d75 a3be
00000120: 4faa 7c3d 2638 543f 62d2 18bf 8fb5 6dbe
00000130: 796c 793f 6913 97be 3ee5 bf3e bdb8 533e
00000140: 7f71 653f fd4f e73e 9df4 64bf a6f5 05be
00000150: dd13 87bc 8580 48be 0be6 9d3c 574f 6e3d
00000160: 0083 4cbf f101 9c3e fead c03e d252 29be
00000170: d952 df3e f327 9fbd 20b3 f23e d277 bc3d
00000180: 8fe7 263d 00f4 80bd c815 62bf d257 f13c
00000190: bf38 993f 57db 663e d759 17bf 9209 e93d
000001a0: cc09 6cbe d329 2a3f 58e2 96be 2aee cdbe
000001b0: 4ae1 ec3e 5d97 b9be 6525 c3bd 9ac8 83bd
000001c0: 873b 413f f47c e8bd fe0b 383e 5194 22bf
000001d0: dc07 17bd 9689 a0be 6cd1 78bf 26c1 a13e
000001e0: 794c b4bf 6bb7 8e3e 3ce7 543d cfcb 1fbe
000001f0: 17fb 20bf ca48 533e 1980 c8be 1464 1fbe
00000200: 467a 0f3f 541a e0bd 8f92 fa3d 7a1b ec3d
00000210: ff1c 42bf eec6 a0be cb06 e23d 3bba d73d
00000220: 3edf 893f 2682 27bf 9fd9 a7bc 8787 0bbc
00000230: 73d8 e73d 6de3 973d 6b78 e9be 6507 c1bd
00000240: d124 333f fd7e 043b 9dec 953e 973d 75bb
00000250: 68ad a53f b7d8 6e3e 8c1e babe 7684 fcbd
00000260: cd66 71bf 5bbc c73e 44ef 9f3e c09e 243e
00000270: 533f 913f f16c 4b3e 0194 a5be 79ed 24be
00000280: e6e6 acbd 4c53 e33e 927d 40bf b266 aabe
00000290: 9136 633f 3262 f0be 8fca f3be b8a2 27bd
000002a0: ed1f 053f 16fd a7bd 91b2 1c3e 93a7 46bd
000002b0: cfa6 453f 8442 1bbf 2829 efbd 2109 86bd
000002c0: f140 b4be 3901 5b3e 5dba 2bbf 9599 693d
000002d0: dee4 433e abf4 043e bb86 5d3e 0456 7ebe
000002e0: 3ab4 84be 1e07 c43e 02b4 2bbf b375 62be
000002f0: 8ebb 99be cf70 30bd cf34 8abf 916c 853f
00000300: d891 2a3f e68b 793e 940b 1fbf 0dac ac3e
00000310: e1ef b8bf 8df6 533d 5568 cb3d 14fc 50be
00000320: f194 e6be cc2f 45be c977 c13e d977 c33d
00000330: fa8a 8bbf c26f ed3e 358f dc3d 5d25 b13c
00000340: 5a87 923e 5b5a ce3e 8aaf b7bd 1cb0 3cbf
00000350: 4db6 8d3f 3c8e 413e 0295 85bd 5651 f8be
00000360: b1e9 8fbf 5bf9 393f 9643 09ba 7e2f e8ba
00000370: b8e9 44bd 9aec ab3d 365a 223f 1c69 05be
00000380: 34d9 8a3f 8f6e 40bf 2281 45be 9d7b 94bc
00000390: 4d4e 023e 001b 1dbe 5fe5 173f eabe a43d
000003a0: 44c7 36bf e3d3 2a3e 58da 35bd 3823 11be
000003b0: 4580 8c3f f86b 1bbf 3a89 26bf c28a 2c3e
000003c0: 942f 393d 45e6 ccbe 00e2 8cbf 0f07 863e
000003d0: 48d3 13bf c161 cd3e 6123 b63e 422b 70bc
000003e0: a624 86be 4e01 da3e a089 12bf 394c 25be
000003f0: d5a4 e0bd 73f3 fabe 6951 c5be b8a2 9f3c
-0.04241319 0.15290631 -0.28233856 -0.13097274 -0.28197244 -0.12738356 -0.05210809 -0.037225015
-0.66621417 0.45630354 0.47251046 -0.12746626 0.1836312 -0.10800907 -0.5825352 0.045463055
-0.18097498 0.6286593 0.25953457 -0.14495648 0.015603331 0.2574089 0.4199493 -0.18664867
0.6490705 0.14904992 -0.75655407 -0.39076293 0.49931508 0.23965502 -0.29634485 -0.13782512
0.8300943 -0.35064653 0.2729219 0.06001088 -0.08137495 -0.43149167 -0.7438123 -0.12938467
-0.43925768 0.46696874 -0.41839746 -0.29402187 0.3776202 -0.517351 0.39688483 0.29347375
0.2859777 -0.58556265 -0.14956762 0.07515116 -0.47713214 0.36167789 -0.57687014 -0.09729618
0.45847777 -0.38578796 -0.0007259168 -0.24357714 -0.791156 -0.47046456 -0.387972 0.2275967
0.08272873 0.19285786 0.13848363 -0.7558218 1.0038447 -0.5225162 -0.43747538 -0.3192524
0.061685856 0.82898176 -0.5969602 -0.2321379 0.9743114 -0.29506996 0.37479585 0.20675941
0.89626306 0.45178214 -0.8943575 -0.13081989 -0.016488964 -0.19580276 0.019274732 0.058181133
-0.7988739 0.3047023 0.37632746 -0.165355 0.43617895 -0.077712916 0.47402287 0.092025414
0.040748175 -0.06296539 -0.88314486 0.029460821 1.1970443 0.22544609 -0.5912146 0.113787785
-0.23050612 0.6647007 -0.29469562 -0.40220767 0.46265632 -0.36248294 -0.09528617 -0.06434746
0.75481457 -0.11351958 0.17973325 -0.6350756 -0.03687273 -0.3135497 -0.9719455 0.31592673
-1.4085838 0.27874312 0.051978335 -0.1560509 -0.6288313 0.20633236 -0.3916023 -0.1556552
0.5604595 -0.10942522 0.12234985 0.11528678 -0.75825495 -0.3140177 0.11036452 0.105335675
1.0771253 -0.65432966 -0.020489512 -0.008516199 0.11320581 0.07416425 -0.45599684 -0.094252385
0.6997805 0.0020217292 0.29282084 -0.0037420744 1.2943544 0.23324858 -0.3635143 -0.123299524
-0.94297487 0.3901089 0.31237233 0.16076183 1.134745 0.19865777 -0.3233948 -0.16106214
-0.08442478 0.44399488 -0.75191605 -0.33281475 0.88755137 -0.46949917 -0.47615477 -0.040926665
0.5200184 -0.08202569 0.15302493 -0.048499655 0.77207655 -0.6064837 -0.11677772 -0.0654471
-0.35205796 0.21387185 -0.6708124 0.057031233 0.19130275 0.12983958 0.21633427 -0.248375
-0.25918752 0.3828668 -0.67071545 -0.22115211 -0.30025905 -0.043076333 -1.0797366 1.0423757
0.6662879 0.24369773 -0.6212704 0.33725014 -1.4448205 0.0517488 0.09932009 -0.2040866
-0.45035508 -0.19256514 0.377867 0.095443435 -1.0901787 0.46374327 0.10769502 0.021624262
0.2861889 0.4030331 -0.08969028 -0.7370622 1.1071259 0.18901914 -0.065225616 -0.48499554
-1.1243192 0.7264611 -0.00052362063 -0.0017714349 -0.048074454 0.083947375 0.634189 -0.13028377
1.0847535 -0.751687 -0.19287542 -0.01812535 0.12725182 -0.15342331 0.5933437 0.080442265
-0.71397805 0.16682391 -0.044397682 -0.14173591 1.0976645 -0.6071162 -0.6505314 0.16849807
0.04521139 -0.40019432 -1.100647 0.2617726 -0.57744265 0.40113643 0.35573867 -0.014658751
-0.26199836 0.4257912 -0.5724125 -0.16142358 -0.10968939 -0.49013862 -0.38538674 0.01948677

bias f4 [256]
00000000: 5d35 c03f 4404 6d3e 9920 f8be 55d5 bc3f
00000010: 383b e0bf 9d4b b6bf baaa 3dbf fa2b d7bd
00000020: 0122 c13e 06ce 6f3f 27c0 de3f 3e49 41bf
00000030: 147a 323f cdb2 db3f ecec a3bf 85ec 87bf
00000040: 7a57 22bf c8fa 8c3f bcbc 9cbf e803 873e
00000050: 879d b2bf 160c b63f 3372 7ebf b668 0dbd
00000060: 601d 0e40 38fd adbf c087 8ebe 5541 353f
00000070: 57d0 38bf 4e4b d2bf 3ddf 30bf 24bf 4fbe
00000080: def0 343f 3ffb a7bf 875b 8c3d 35d6 b73f
00000090: 071c 9f3f de93 a83f e662 5dbf 5fc1 cbbf
000000a0: 9f5c 273f 8734 e9be ba39 523f 442d 7c3f
000000b0: 3dbf ba3f fe35 eabf 23e9 bd3f 9494 0ebf
000000c0: 5c07 dabf 6d86 67bf 6d30 d43f 6aea 93bf
000000d0: 7348 babf f52d 2cbe 33cf 4c3e c204 ccbf
000000e0: 9f18 1a3e 264c 9cbf 9a0d ad3f 61c5 0abf
000000f0: f2b9 ec3f 2bc2 aabf 8342 8a3f ac6e 84bf
00000100: f3d1 d83f 3f13 6dbf 56d7 ac3f 0172 6d3f
00000110: 6f0f 31bf a175 ca3f 8353 a83f e70f 943e
00000120: a756 e5bc d24a 873f cdc6 6abe 81c5 d0bf
00000130: 41e6 8dbf 0bed e2be 53cf c53e d98c 113e
00000140: 07a2 2e3f 4d14 ddbe d484 dcbf 7403 883f
00000150: 3264 a13f 1aa8 91be 271d a7bf 1bc0 e03f
00000160: add2 c1bf 0532 efbe 4070 483e 741e 00be
00000170: c3d5 ddbf f33f ccbf bac9 de3e a362 d9be
00000180: eec0 bebf 5915 dc3f f4fe aebf b4c4 b0bf
00000190: 9f4d 8a3f 4ebb cbbf dea5 9bbf bd27 743f
000001a0: e326 e93f ce58 0d3f 81e0 3fbf df63 57bf
000001b0: 8bcf 7fbf 4c06 633f b380 babf 98ab 883f
000001c0: d47f 82bf d482 8fbe 5193 c43f 3b62 b33f
000001d0: bac0 b7bf a6cb 663f 4751 93bf a0bf cebf
000001e0: 4ce4 31bf 18af be3f 2b6e ca3f f559 84bf
000001f0: ace4 d43f fa23 133e 232e e5bc 2cc7 cb3f
00000200: 87cd 82bf f25a 363f 2bb6 9f3e 9451 bcbe
00000210: 5c36 cbbe f35d b6bf 22d9 05c0 d07b 0540
00000220: 9546 23bf 4bee 883f 5b6a 8f3f 7de9 ddbf
00000230: b086 2dbf 0e83 613f c4ba 6b3f 3ee5 e7bf
00000240: 5ec3 dbbf c5aa debe 67b2 f1bf 1a3c c53f
00000250: 15ba 8abf c582 04bf 6194 40bc cdbf 823f
00000260: db15 c0bf a0f3 9bbf 15c2 a93e 8901 a0bf
00000270: a2e9 463f 16b8 57bf c0d1 35bf 7204 843f
00000280: 4f6f 193f 20ba febf bc19 923f 57cc ecbf
00000290: 8ccc 683f 8c32 e93f a012 c4bf e7bf 75bf
000002a0: 19f5 ffbe 21f3 cbbf 6592 66bf 3f6b 95bf
000002b0: 1756 483f 5f58 183f 0ca3 d23f 5142 143f
000002c0: 37b9 4cbf ce42 e7be aa53 e4bf 9285 cd3f
000002d0: 39ad a1bf 5045 82bf ce6c dcbe 7234 b0bf
000002e0: 52a0 093f 3674 c8bf 2fd2 45bd 946c b03e
000002f0: 2431 00c0 3969 e33f b712 303f 755f f73f
00000300: f304 a63f 5afd 63bf 4429 bb3f b1e9 47bd
00000310: 94d4 74bf 2780 633f 51a1 a63f 3550 32bd
00000320: 9af7 efbf 16f6 743f 319e cebf 09a4 343e
00000330: fea8 c2bf c834 81bf 266f c13f a201 b43e
00000340: 32ab 653f 7815 b83f 4af6 a0bc 5048 303f
00000350: 96e9 0ebf 4f44 7b3f 2f9c b9bf f1dc c53f
00000360: 008e b83f d02c 40bf 37ac 13be 9bd6 163f
00000370: a149 4abf 0234 d03f fdfb 083e aa64 06c0
00000380: 22eb adbe 42af cfbf 6ead 8bbf b54f 40bf
00000390: 8a5f ea3e 7931 703f ab4d 39bf b63a cebf
000003a0: a7ef e03f bec2 e23f c645 98be e1ef e0be
000003b0: 3b9a 323f 54b2 debe 5049 96be 9871 913f
000003c0: 4b54 7e3e 37b4 ec3d cba2 873f e563 efbf
000003d0: 16c1 1fbf 05f1 ba3f 57cd 6dbf 8763 8b3f
000003e0: 652a f8bf 85f9 b3bf a8dc 47bf d534 d6bf
000003f0: e439 fe3d f82d 203e 3cd3 193f 363e 55bf
1.5016285 0.23146158 -0.4846237 1.4752604 -1.7518072 -1.4241825 -0.74088633 -0.10506435
0.37721255 0.9367374 1.740239 -0.75502384 0.69717526 1.7163941 -1.2806678 -1.0619055
-0.6341473 1.1014032 -1.2245097 0.26370168 -1.3954324 1.4222438 -0.99393004 -0.03452369
2.220543 -1.3592901 -0.27837944 0.70802814 -0.721929 -1.6429231 -0.69090635 -0.20287758
0.70680034 -1.3123549 0.06853395 1.4362246 1.2430428 1.3170125 -0.8647903 -1.5918387
0.65375704 -0.45547888 0.82119334 0.9850657 1.4589611 -1.8297727 1.4836773 -0.5569546
-1.7033496 -0.9043949 1.6577278 -1.1555912 -1.455336 -0.16814406 0.20000915 -1.5938952
0.15048455 -1.2210739 1.3519776 -0.54207426 1.8494246 -1.3340505 1.0801548 -1.0346274
1.6939071 -0.9260749 1.3503215 0.9275208 -0.69164175 1.5817147 1.3150486 0.28918383
-0.02799542 1.0569708 -0.22927399 -1.6310273 -1.1085893 -0.44321474 0.38634738 0.14213885
0.68215984 -0.4317955 -1.7228036 1.0626054 1.2608702 -0.28448564 -1.3055772 1.7558626
-1.5142418 -0.4671785 0.1957407 -0.12511617 -1.733086 -1.5957016 0.4351328 -0.42458066
-1.4902627 1.7194015 -1.3671556 -1.3810029 1.0804938 -1.5916536 -1.2159994 0.95373136
1.8214992 0.5521363 -0.7495194 -0.84136766 -0.9992606 0.88681483 -1.4570526 1.0677366
-1.019526 -0.280295 1.5357457 1.4014353 -1.435569 0.9015449 -1.1509179 -1.6152229
-0.6948898 1.4897184 1.581487 -1.0339953 1.6632285 0.14369193 -0.027976101 1.5920157
-1.0218972 0.7123252 0.3119367 -0.3678099 -0.3968991 -1.4247421 -2.0913777 2.085682
-0.63779575 1.0697721 1.1204332 -1.733688 -0.6778364 0.880906 0.92081857 -1.8116834
-1.7168996 -0.43489662 -1.8882569 1.5408967 -1.0838038 -0.5176204 -0.011754126 1.0214783
-1.500667 -1.2183723 0.33155885 -1.2500468 0.77700245 -0.8426527 -0.7102318 1.0313857
0.5993547 -1.9900551 1.1414104 -1.849986 0.90937114 1.8218551 -1.5318184 -0.95995945
-0.49991682 -1.5933572 -0.9006713 -1.1673354 0.7825636 0.59509844 1.6456008 0.5791369
-0.79970115 -0.45168155 -1.7838032 1.6056387 -1.2630988 -1.0177402 -0.4305176 -1.3766005
0.53760254 -1.5660465 -0.04829615 0.3445784 -2.0029993 1.7766486 0.68778557 1.9326006
1.297026 -0.8905846 1.4621968 -0.04880685 -0.9563687 0.8886742 1.301798 -0.043533523
-1.8747437 0.95688 -1.6142026 0.176407 -1.5207822 -1.0094233 1.5112045 0.35157496
0.8971435 1.4381552 -0.01964869 0.6886034 -0.55825174 0.98151106 -1.4500788 1.5458051
1.4418335 -0.7506838 -0.14421163 0.5892121 -0.790186 1.6265872 0.13377376 -2.099894
-0.33968455 -1.622536 -1.0912302 -0.75121623 0.45776016 0.9382549 -0.72384137 -1.6111667
1.7573136 1.7715681 -0.29740733 -0.43933013 0.69766587 -0.4349543 -0.29352808 1.1362791
0.24836843 0.11557811 1.0596555 -1.870236 -0.62404 1.4604803 -0.9289145 1.0889748
-1.9387938 -1.4060522 -0.7807107 -1.6734873 0.124133855 0.15642536 0.60087943 -0.8329805

weight f4 [128, 256]
00000000: 92bb 0f3a ae34 0abd 5317 123c dd40 73bd
00000010: 516c 073d 7a17 c9bc c7fb f3bc ab4c 91bd
00000020: 10e6 033d f8f8 01bc 1629 59bc ec61 d43b
00000030: e983 7fbd 28d1 813c 22ec 58bd 27c2 5dbd
00000040: 764c ccbc 3759 7ebc 37d7 8ebd fdf6 113d
00000050: f61a ee3c 627e 46bc e05e 8cbd c2f8 77bb
00000060: b418 e138 c981 0abd b36f b73c 4488 563a
00000070: 5ef5 4fbc 0a94 77bd 693c 36bd 8004 2abc
00000080: 0ecb 04bd 8487 ad3c 2f41 5a3c 07a4 44bd
00000090: 0624 18bd 1386 03bd 53ab 96bd 5939 b0bc
000000a0: 7c29 16bc 71ea 3c3d fae4 093d 489d 91bc
000000b0: c499 2b3d 30ff 9f3c 03ae 8f3c 35bc 8a3c
000000c0: e0c3 2f3c c427 353d 113b 6b3c 9899 e93c
000000d0: 6f5b 01bd 951e 903c ada0 423d 4e98 30bc
000000e0: 5454 f03b ea3e 843c dc40 af3c 5de2 003d
000000f0: 14b4 bdbc 905e 8bbd 7697 1bbd 2d8a 4e3a
00000100: ff88 17bd 3ed2 04bd 4f7a 57bd e25f 883b
00000110: 77d0 fd3c 4d95 ccba d8ea 06bd ee46 253c
00000120: 0d73 69bb 54d5 2b3c 6489 fd3c 35e3 1e3d
00000130: bc26 aa3c 6788 3c3d a59e ecbc ec67 2e3c
00000140: a2a9 a33c 3090 5fbd fcb8 49bb b7bd 8337
00000150: 1f3f 26bb 91d5 cfbc 5f34 503d 19ec 50b9
00000160: 6258 90bb 7306 9c39 20d3 263d 8b80 97bd
00000170: 5dff 0ebd d904 18bd d06c d83c de34 c3bc
00000180: fc1e 88bc d3fb b53c a081 2a3d c7d6 97bd
00000190: 469b 1bbd 8d27 15bd be3a 48bd 9986 58bd
000001a0: 0550 6dbd 04b8 bf3c c6e2 88bd 1711 d8bc
000001b0: 648e 36bd 1ee5 80bd 1c99 c53c 8d3a 253d
000001c0: f03c 35bd 8abf 67bc 73a8 7bbd 62cf 17bd
000001d0: 4644 c4bc ebb6 6dbd e31a 0d3d cc66 b3bc
000001e0: 1817 a03c 7dc9 60bd 1660 403d 1787 7ebc
000001f0: fc0f 6dbd 8979 e13c 6306 94bd 524f 6fbd
00000200: 19a6 fd3c ab58 413d 56bc 483d 878f 503d
00000210: 463a 1fbd 5278 c4bc 3a73 01bd ab0e 03bd
00000220: f957 0cbd 777c 6dbd 5bc6 5abd fc71 c63c
00000230: aa38 233d 53bb 1dbd be49 0ebd a993 36bc
00000240: e037 463d 6fd9 a3bc 2601 70bd 6c3d 5bbb
00000250: fa76 96bc bd8d 98bb 7c41 72bd 8365 1eb8
00000260: 2ea6 9abc 1a4d c33c 64d9 9d3c 4fe6 41bd
00000270: 4405 41bd f8f6 cbbb 13e8 c53c 0513 5dbd
00000280: ab2d 5c3d 9af6 26bd d0a8 20bd 06c6 b33a
00000290: d6c8 393c 02a5 12bd add0 51bd 56c4 873a
000002a0: ef2d 8cbc a880 25bd 75c6 8ebd a347 073c
000002b0: 27e0 06bc 7397 9ebc c05f 76bd 7423 bd3c
000002c0: c79a 253d 7293 0ebd 7b9e e23c bd5c 8fbd
000002d0: 4dcd 3c3a 94ee 153d 1bf1 85bd f757 3dbd
000002e0: 84ca cc3c bd31 1fbd a7d5 17bd b847 a63c
000002f0: 5f4e 0d3d c887 c1bc c35f 98b8 de85 37bb
00000300: 74d7 d53c 4885 ddbc b73c 063c e2cd 59bd
00000310: 8a75 6ebd de97 5c3d bbad 07bc f339 adbc
00000320: 82c7 9c3c 04af 473d c705 a33a e241 293d
00000330: d823 a7bc a44c bcba dda8 22bd 6593 a6bc
00000340: 1227 36ba 8f25 403d ee0c 603d 150c b2bc
00000350: aa19 4cbd b1ff 4d3b a79b d1bc 6e3a 8e3c
00000360: b273 173d 22d7 84bd 8d27 143c d303 003d
00000370: 34f5 de3c ff21 803c add8 58bd 1acc da3c
00000380: cd1d 47bc 222f 4b3d 47f0 ebbc 8c95 1a3d
00000390: 8e69 353c 448f cdbc 2fd2 aa3c 8312 b6bc
000003a0: 6986 bc3c 3889 06bd 816e 0ebd 121f 3bbd
000003b0: 7e11 263c 90c5 a9bb a1e4 88bd f5ef 1c3d
000003c0: 92b7 233d 9fb6 59bb 861c 11bc 85f9 b13c
000003d0: e117 05bd a0b7 a13c 48be 41bd 15e2 54bd
000003e0: 1a97 5cbd 5e5f d9bc 3299 8fbb d4b8 afbc
000003f0: 8939 15bd 6e01 bf3c 8b4c 89bb 98e8 02bd
0.0005482967 -0.033741646 0.008916694 -0.05938803 0.033062283 -0.024547327 -0.029783143 -0.070947014
0.032201827 -0.007932894 -0.013254425 0.0064813998 -0.06238166 0.015846804 -0.05295957 -0.054140236
-0.024938803 -0.0155242 -0.06974643 0.035635937 0.02906559 -0.012115093 -0.068540335 -0.003783748
0.000107334374 -0.03381518 0.02239213 0.00081837573 -0.012692777 -0.060443915 -0.044491205 -0.010377049
-0.03242021 0.021182783 0.013321205 -0.04800799 -0.03714373 -0.032110285 -0.07356896 -0.02151172
-0.009165164 0.04612202 0.033665635 -0.017775193 0.04189469 0.019530863 0.01753903 0.016935447
0.010727853 0.044227377 0.014357344 0.028515622 -0.03158134 0.017592708 0.047516514 -0.0107785
0.0073342714 0.016143281 0.021393232 0.031465877 -0.023157157 -0.06805146 -0.03798624 0.0007878866
-0.036995884 -0.032427065 -0.052606877 0.0041618207 0.030983193 -0.001560846 -0.03293881 0.010087712
-0.0035621554 0.010487873 0.030949302 0.0387909 0.020770423 0.04602852 -0.028884241 0.010644894
0.019978348 -0.054580867 -0.0030780425 1.570476e-05 -0.0025367213 -0.025370391 0.050831195 -0.00019924379
-0.0044050673 0.00029759444 0.04072869 -0.073975645 -0.034911502 -0.037113998 0.026419073 -0.02382892
-0.016616337 0.022214806 0.041627526 -0.074140124 -0.037989877 -0.03641467 -0.048884146 -0.052862737
-0.05793764 0.023403175 -0.066838786 -0.026375337 -0.044569388 -0.06293701 0.02412086 0.04033904
-0.044247568 -0.014144788 -0.061439943 -0.03706301 -0.023958337 -0.058035772 0.03444947 -0.021899603
0.019542262 -0.054879654 0.046966635 -0.015535138 -0.057876572 0.027523773 -0.07227781 -0.058425255
0.03096299 0.0472037 0.049007736 0.05091813 -0.038873933 -0.023983154 -0.03160403 -0.03199641
-0.034263585 -0.057980027 -0.053411823 0.024224274 0.03984896 -0.038508724 -0.034738295 -0.011143603
0.04839313 -0.020001141 -0.058594845 -0.0033453358 -0.01836728 -0.0046555684 -0.059144482 -3.7764676e-05
-0.018878069 0.023840476 0.019268699 -0.04733878 -0.047124162 -0.0062245093 0.024158513 -0.053973217
0.05375449 -0.04076252 -0.039223492 0.0013715632 0.011339387 -0.035801895 -0.0512244 0.0010358195
-0.017111747 -0.0404059 -0.069714464 0.008256826 -0.008232153 -0.019359326 -0.060149908 0.023088194
0.04043081 -0.034808584 0.02766346 -0.0700011 0.0007202223 0.03660448 -0.06540128 -0.046226468
0.02499891 -0.038865793 -0.03706899 0.02029787 0.03449857 -0.023624316 -7.265762e-05 -0.0028003375
0.026103713 -0.027041093 0.0081931865 -0.05317486 -0.058217563 0.05385577 -0.008281167 -0.021145796
0.019138101 0.048750892 0.0012437635 0.041322596 -0.020402834 -0.0014366102 -0.03971182 -0.020333955
-0.0006948571 0.04691082 0.05469983 -0.021734277 -0.049829163 0.0031432922 -0.025586916 0.017361846
0.03697557 -0.06486346 0.009042633 0.031253647 0.027216531 0.01564121 -0.052941013 0.026708651
-0.012153101 0.049605496 -0.028801097 0.037740275 0.0110725295 -0.025092728 0.020852176 -0.022225624
0.02301331 -0.032845706 -0.034773353 -0.045683928 0.010136006 -0.005181022 -0.066842325 0.03831478
0.03996999 -0.0033220423 -0.008856898 0.021725425 -0.032493476 0.01974088 -0.047300607 -0.05197342
-0.05385504 -0.026534732 -0.004382276 -0.021450438 -0.036431823 0.023316111 -0.004190033 -0.0319601

bias f4 [128]
00000000: ecc4 86bd cd85 893c 6492 70bd 2467 823f
00000010: 6435 15bb af30 a03e 3ffc 6cbf 6527 17be
00000020: 7528 2abd 2415 6fbf ebe1 d3bc 3036 d73e
00000030: 6376 113d 031c 93bd 2d82 bfbd dd68 00bf
00000040: 09de d8be b6c4 27bf 9a94 ebbd acde 36bd
00000050: 0e2e 603d 61b4 2ebd f5d3 cfbd 3ae4 50bf
00000060: 32c6 bc3e cc0b 2dbf 2648 1ebf d3f2 6abf
00000070: a39b 61bf eb75 273e a1e3 66be 5c0b 673e
00000080: 27f6 87be 5274 5b3f 9d3b f63c cb31 fd3e
00000090: dcb0 68bf 13ae 4bbd e8ed 2abd fc1b c13c
000000a0: 7736 a3bc fbb9 74bd 54a7 473d 694f e9be
000000b0: c5e8 e4be 0df3 ccbe 44b0 83bf ec10 10bf
000000c0: 5b49 283d 796f 96bf a1c4 60bf e5d8 11bf
000000d0: 486f 5ebd a612 94bd 6407 873c e0b3 4bbf
000000e0: de3b 6a3f 9a8c 58bf 8631 0fbf a254 a13e
000000f0: b853 6cbf 7aa1 443d b7e0 0a3f 6984 5a3f
00000100: 0026 21be dc47 24bf 21ea 20bd f642 8cbd
00000110: 4df5 b7be 67f0 063f 59f4 813c 22a9 573e
00000120: e5ca 793f 26f3 e43e 4952 15bd ee09 7dbf
00000130: 8d47 9ebb 611d 56bd 3caa 08bd 6c31 2abd
00000140: a4f4 003f ebd6 133e 0aab d33e c57e abbf
00000150: ca15 54be 0210 04bd c509 51bf ed08 f7bc
00000160: f034 afba b48f aa3d 421f 53bf 50b4 0e3f
00000170: d786 0ebf bc12 a23f 9cee a33c 8d0f 143e
00000180: d312 2ebf 6c0d 443d cd66 05bd 2ab1 453c
00000190: dbbb 77bd fad0 6a3e 3c1e 12bb 0e7f 63bf
000001a0: 1f77 62bf e919 45bd 0a32 7c3b 711c 0bbf
000001b0: 6b0e 8e3e 65c4 13bd 1cf4 57bf 1e12 f6be
000001c0: 4d20 80bf 9a88 193d e456 9cbe 1d4a 15bd
000001d0: a397 c03e 0575 183f 028f 61bf 48bd 143d
000001e0: 9a61 3cbe 5fbe e53e 006a 86be c640 9c3d
000001f0: 680c da3c d948 5abf 5026 f03a 89c1 44bd
-0.065805286 0.016787434 -0.05873336 1.0187726 -0.002276742 0.31287143 -0.92572397 -0.14761122
-0.04154249 -0.93391633 -0.025864562 0.4203353 0.035513293 -0.07183077 -0.09351001 -0.5016001
-0.423569 -0.6553453 -0.11502953 -0.04464595 0.05473142 -0.04265249 -0.101478495 -0.81598246
0.3686996 -0.67596126 -0.6182884 -0.9177677 -0.8812811 0.16353576 -0.22547771 0.22562927
-0.26554987 0.85724366 0.030057723 0.49452052 -0.90894866 -0.049726557 -0.04173079 0.023572914
-0.019923432 -0.059747677 0.04874356 -0.45568398 -0.4470884 -0.40029183 -1.0288167 -0.5627582
0.041085582 -1.1752769 -0.8780003 -0.5697158 -0.054305345 -0.072301194 0.016483016 -0.7957134
0.914976 -0.8458954 -0.5593494 0.31509882 -0.92315245 0.04800556 0.5424914 0.8535829
-0.15737152 -0.6417215 -0.039285783 -0.06848709 -0.35929337 0.52710575 0.015863584 0.21060613
0.9757522 0.44716758 -0.036455426 -0.98843277 -0.004830307 -0.05227411 -0.033365473 -0.04155104
0.5037329 0.14437453 0.4134143 -1.3398062 -0.20711437 -0.03224183 -0.8165553 -0.030155623
-0.0013367217 0.083281904 -0.8246957 0.55743885 -0.556745 1.2661967 0.020011239 0.14459057
-0.67997473 0.047864363 -0.03256874 0.012066165 -0.060481887 0.2293128 -0.0022295853 -0.88865745
-0.88463014 -0.048120413 0.0038481974 -0.54340273 0.27745375 -0.03607597 -0.84356856 -0.48060697
-1.0009857 0.03748379 -0.30535042 -0.036447633 0.3761569 0.5955356 -0.8810884 0.036313325
-0.18396607 0.44871804 -0.26252747 0.07629542 0.026617244 -0.85267407 0.0018321965 -0.048036132

weight f4 [2, 128]
00000000: e514 333b f061 8a3b ee06 1bbd 7456 29be
00000010: 0347 1dbd 23cf 6040 2a13 c13d 472e 713d
00000020: 6803 e6bc f416 eb3d f895 57bd 9b2e bf3d
00000030: fccb 80bc ca36 e9bc 4aee efbd fd12 013e
00000040: 0908 abbf b2a2 2dbd 054c 4c3f 5634 213b
00000050: a9fd 16bd 1b06 58bd bad9 e9c0 9b15 4ebf
00000060: c8d3 7d3d 3733 93bc 61e9 383e 7b15 85bf
00000070: b54d 58bf 5e9a 873e 8326 27bf 051a 4fbf
00000080: 30e9 4d3d 9b72 36be 0b33 5f3d 63fc 3bbe
00000090: 92b1 53bf f1b7 bebc 09d1 99bb 5cc4 3f3c
000000a0: a16e 71bc 0c2a 0ebd c78b 813d 470b 5abd
000000b0: b57e b6bf 1c09 c83e a544 073f 2b7f 163f
000000c0: 3b49 843d 45cd e3bd 4451 06be ed1a cd3e
000000d0: a6ae 68bc 490d 503d ea74 de3c 259b 35bf
000000e0: ea73 07be 6d91 73bf 91d4 153f e706 5fbe
000000f0: 2904 00bd 106d bf3d c54d 2e3d 8b24 18be
00000100: b83c a73d b17a 8bbf 8ce0 403e 427a 36bd
00000110: 96f5 a9bf 8fcf 8bbd 7645 393d 2f68 043f
00000120: 7a18 93be ca0e 0f3e 4500 8a3d 6ad3 93be
00000130: 87a1 293d ba14 b2be f844 8dbd a85c 813c
00000140: e994 0dbe 9904 803e 940d df3d 66ec eb3c
00000150: 7542 823d c2a9 7cbd c36b 09bf 0239 b8bc
00000160: c1bd 963d 74c4 eebd f902 3cbf 54ae 49be
00000170: 59c1 04bf 6308 febe 5875 093b df43 1ac0
00000180: d1a5 c1bd 9254 443d 385c 38bb c83a a83c
00000190: 3e15 6bbc 725e abbd b10d 0cba 5dce 43bf
000001a0: 6fe6 70bf 99db 493d 97ea 403d 3e1e c1bd
000001b0: d8cb 0840 c172 a6bc 21a9 5fbf 9380 5a3e
000001c0: f956 4abe 58d8 243b 034e 2fc0 ad33 d73c
000001d0: 06b5 1b3e 0640 c5bd 2e8d 4bbf 685e 77bd
000001e0: 90e1 8b3e 6480 8bbc 6de7 013e f365 ff3c
000001f0: 4982 a43c bb60 263e fdb3 32be 5870 943d
00000200: b3e6 8c3d 42aa 073d a141 82bd a613 7cbe
00000210: 0cdc a23d 9444 75bd 6ee2 80c0 3792 593e
00000220: 7da1 1b3d 38d6 2e3e cd33 9cbc 51b9 303e
00000230: eff6 563d 98cf 36bd 293b 173e f0d4 1bbf
00000240: 906a 28bd ad14 c7bf 3c37 1c3f 0b9d 943d
00000250: ec07 673d f0cb 953b 6c13 4c3c 4abe fbbc
00000260: d596 3fbe b9da 913e ba0c 3c3e a2be 8dbd
00000270: 6770 983e 3317 983e cca3 9bbf 44a0 4bbe
00000280: 9297 0dc0 daef a6bd 70ce 273d 61b0 0240
00000290: 8688 06bd 0db4 14bd 1925 223b fc72 0ebd
000002a0: 2210 e93a 6de3 93bd 0966 a83d a32b c5bd
000002b0: f0aa 6abd 5101 0d3e c44d be3e 7d78 f5bf
000002c0: 8210 15bd 6eb2 2d3c 4c18 01be 5257 833e
000002d0: b256 e83c 6d90 4d3d eb69 023d ab21 00bd
000002e0: e30c c9bb 863b 33bc 7469 9fbf 9ebb 49be
000002f0: a0c2 05c0 3d9f 8fbe 9d98 0841 440f c6bd
00000300: 1f12 593d d5c3 94be 0224 353e 5b99 143d
00000310: 5ae8 ff3c 8cea 4bbe 030e 853d 0b81 3fbf
00000320: 5be2 7dbe 6f56 5dbd 6d1e 86bd 7cfe 33c0
00000330: 77bc ab3a 1dd9 743f dd71 ac3c 833e 44bc
00000340: 8d9f 4cbd dd54 b23e e6fd d23e 76d0 273e
00000350: 2bf8 c6bd 90b5 8e3d 45ea 233e f2c3 8d3d
00000360: 79f1 eabc c5e4 a040 4bf4 09bd 80fb 29be
00000370: f1ff f8bf 6c0a 05bf e712 1e3d 0a33 67be
00000380: dfe6 a1bf 4249 29bd c5e9 123a 3d8d 55bc
00000390: 55ff cc3c b2a7 ab3d dfd6 87bc bd17 b63d
000003a0: 1fe7 79bd d994 c3bd 3457 273d 9a6e f4bc
000003b0: 93c5 e33e c673 2d3d 08c0 d13d c76f a9bf
000003c0: 6790 8cc0 e276 a63d 3638 1ebe 27d4 c83c
000003d0: 4a02 1d3e e415 edbd 0b74 e7bc 8569 a7bd
000003e0: 3279 0b3f ebcf 77be 111c 21bf 8897 64be
000003f0: bdcb c0bc ea90 d43d 83f6 97be 08c0 7a3b
0.0027325687 0.004223101 -0.037848406 -0.16536885 -0.0383978 3.5126426 0.094274834 0.058882024
-0.028077796 0.11478987 -0.052633256 0.09335061 -0.015722267 -0.028468508 -0.11715372 0.126049
-1.3361827 -0.042391486 0.79803497 0.0024597845 -0.036863003 -0.052740198 -7.307828 -0.8050172
0.06196955 -0.017968757 0.18057777 -1.039718 -0.8449357 0.2648496 -0.6529314 -0.8089908
0.050271213 -0.17817156 0.054492038 -0.18357997 -0.82692826 -0.02328107 -0.0046941084 0.011704531
-0.014735849 -0.034708068 0.063254885 -0.05323341 -1.4257418 0.3906945 0.5283912 0.5878779
0.0645928 -0.111231364 -0.13116938 0.40059605 -0.014201796 0.05079392 0.027155358 -0.70939857
-0.13227811 -0.9514378 0.58527476 -0.21779977 -0.031253967 0.09346974 0.042554636 -0.1485769
0.08165878 -1.0896817 0.18835658 -0.044550188 -1.3278072 -0.06826698 0.04523226 0.5172147
-0.28729612 0.13970485 0.06738333 -0.28872234 0.04141381 -0.34781438 -0.0689792 0.015791252
-0.13826336 0.25003508 0.10891262 0.028799247 0.06360332 -0.06168533 -0.53680056 -0.022488121
0.073604114 -0.11658564 -0.73442036 -0.19695407 -0.51857525 -0.49615774 0.0020974483 -2.4103925
-0.09455455 0.047932215 -0.0028131139 0.020535842 -0.014348326 -0.083676234 -0.00053426164 -0.7648676
-0.94101614 0.04928169 0.047098722 -0.09429596 2.1374416 -0.02031839 -0.87367445 0.2133811
-0.1975974 0.0025153365 -2.7391365 0.026269758 0.15205774 -0.09631352 -0.795123 -0.060392767
0.27320528 -0.017028995 0.12685938 0.031176543 0.020081656 0.16247837 -0.17451473 0.0724799
0.0687994 0.033121355 -0.06360174 -0.2461687 0.07952127 -0.059879854 -4.0276403 0.21247183
0.037995804 0.17073905 -0.01906767 0.17258193 0.052481588 -0.04463157 0.14768662 -0.6087179
-0.04111725 -1.5553185 0.6102178 0.07256516 0.05640404 0.0045714304 0.012455802 -0.030730385
-0.18709882 0.28487185 0.1836423 -0.06921126 0.29773256 0.297052 -1.2159362 -0.19885355
-2.212376 -0.08151217 0.04096836 2.0420153 -0.032845043 -0.036304522 0.002474135 -0.034777626
0.0017781297 -0.072211124 0.08222587 -0.09627464 -0.057291925 0.13770033 0.37168705 -1.9177395
-0.036392696 0.010601623 -0.12606925 0.25652558 0.028361652 0.050186563 0.031839292 -0.03128211
-0.0061355694 -0.010939484 -1.2454057 -0.19700477 -2.090004 -0.28051177 8.537259 -0.096708804
0.052995797 -0.29055658 0.17689517 0.036279064 0.031238724 -0.19913691 0.06496813 -0.7480628
-0.24793379 -0.054037508 -0.06548772 -2.8124075 0.0013102432 0.9564379 0.021050388 -0.011977795
-0.049956847 0.3483037 0.41209334 0.16388115 -0.09715303 0.06968224 0.16007335 0.06922139
-0.028679596 5.027926 -0.03368024 -0.16599846 -1.9453107 -0.5196903 0.038592245 -0.22578064
-1.2648581 -0.04132963 0.00056042924 -0.013034162 0.025024096 0.08381595 -0.01658195 0.088912465
-0.06101143 -0.09549875 0.040854648 -0.029837895 0.44486675 0.04234674 0.10241705 -1.3237237
-4.3926272 0.08128144 -0.1545113 0.024515225 0.15332904 -0.11576441 -0.028253576 -0.08174423
0.54481804 -0.24200408 -0.6293345 -0.2232343 -0.02353465 0.10379203 -0.2968026 0.0038261432

bias f4 [2]
00000000: a093 abbf 2fd6 b5bf
-1.3404427 -1.4205989
