saved_models/run2_swingup/model_6000.pth (torch, 141798 bytes, 6 tensors)

weight f4 [256, 4]
0.123414464 0.24107024 -0.31158358 -0.028346334 -0.42117694 -0.031357657 -0.07563714 -0.11140281
-0.50907874 0.23437048 0.54251915 0.13363063 -0.022603422 -0.066701986 -0.8829612 0.038698327
-0.26454923 0.15965447 0.7866366 -0.132522 0.39300203 0.32851264 0.8113331 0.08603287
-0.26614356 0.21512567 -0.19818906 -0.2710783 0.05548205 0.56193703 -0.57182825 0.05521367
0.9593331 -0.22799526 -0.12016257 0.010795563 0.006377636 -0.02284474 -1.6189079 -0.27147874
-0.05589382 0.47702798 -0.7375086 -0.047398444 -0.2936127 -0.4475089 -1.6007308 -0.1164416
-0.2795325 -0.3548083 -0.115647435 -0.10697382 -0.18507597 0.52018106 -0.6393877 -0.16504884
0.06426835 -0.18807992 0.24381936 -0.19228496 -0.033844896 -0.7726879 -2.1106555 0.092030995
-0.3813846 0.04513001 0.23716593 -0.030684873 -0.005104766 -0.40311885 -0.95959044 -0.35692412
-0.08799246 0.6614244 -0.324259 -0.2634747 0.8218999 -0.15432735 -0.14566265 0.002096768
0.16317156 0.4594949 -2.0935335 -0.552824 -0.195659 0.1766001 -0.13642032 -0.12660651
0.013808063 0.15818217 0.41544312 0.00939536 0.5150345 -0.41826844 0.121817805 0.0040825093
0.009136573 -0.03700826 -0.5714008 -0.05486622 1.1048495 0.19677024 -0.87711453 0.056700382
-0.052716147 0.1307279 0.036142346 0.0058889575 0.57747346 -3.3321146e-05 0.10445421 -0.0045519457
0.2742282 0.16422966 0.21422715 0.03388277 0.13489066 -0.4723331 -3.3537722 0.52346367
-2.0414693 0.03704869 -0.20300326 -0.1244844 0.06201194 0.18111658 0.09501854 -0.27893636
-0.2053981 -0.011237092 -0.033418164 -0.03585993 -0.72673684 -0.30195868 -0.48062834 -0.12498991
0.5062829 -0.34293896 0.04093498 -0.013007971 0.11336118 -0.2173895 -3.5904212 -0.38639283
0.9391735 -0.11002227 0.16794586 0.14004369 -0.25501546 0.24414441 -0.41609544 -0.040315606
-0.28072926 0.5718038 -0.17295177 -0.09130717 0.13508916 0.38488007 -0.15201907 -0.2368716
-0.13771737 0.13409397 -0.1925955 -0.018803444 -0.33097443 -0.8484908 -0.6457238 -0.17787126
0.36851016 0.050883714 -0.36274242 0.027204778 0.451878 -0.19602881 -0.40725157 -0.039063077
0.007888931 0.20238948 -1.0424547 -0.11026731 0.009190698 0.046342738 1.1061398 -0.05136705
-0.1600032 0.20333204 -0.24867012 -0.12571885 -0.13494381 0.0050749034 -1.2611452 0.47019184
0.26988813 0.23279841 -5.359217 -0.3745913 -0.13493666 -0.15179487 0.18329611 -0.18092023
-0.75706965 0.04677824 0.08568358 -0.036326062 -0.5250169 -0.27766117 -0.83753574 0.4082929
-0.013452548 0.5295598 -0.041539807 -0.43472993 0.38000023 0.17036268 0.16630748 0.03251275
-0.34222293 0.53231734 0.021171326 0.012056466 0.23863009 0.13697118 1.3019382 0.14391069
0.7750913 -0.4170122 -0.016563699 -0.036003258 -0.13001499 -0.23187509 0.6141015 0.09245808
-0.712607 -0.045091297 0.0412326 -0.09104244 -0.51993096 -0.4495734 -0.291571 0.0038962255
0.0032134082 -0.054907594 -1.4428596 -0.02895937 0.15523526 0.45145288 -0.12539734 0.17697673
-0.09355173 0.011258818 -0.46905398 0.09158694 -0.062140975 -0.2230902 -5.2417865 -0.47857338
00000000: b9c0 fc3d 1edb 763e e287 9fbe 9236 e8bc
00000010: 81a4 d7be e370 00bd a5e7 9abd 2827 e4bd
00000020: fc52 02bf d1fe 6f3e 89e2 0a3f 78d6 083e
00000030: d02a b9bc 0d9b 88bd bf09 62bf 2382 1e3d
00000040: ff72 87be 767c 233e 0461 493f d9b3 07be
00000050: 9037 c93e cf32 a83e 87b3 4f3f 0032 b03d
00000060: f843 88be e749 5c3e 13f2 4abe c6ca 8abe
00000070: 2541 633d 1bdb 0f3f 5663 12bf bb27 623d
00000080: db96 753f 9777 69be cb17 f6bd e0df 303c
00000090: 7dfb d03b e424 bbbc 6038 cfbf 43ff 8abe
000000a0: ebf0 64bd 033d f43e 5dcd 3cbf df24 42bd
000000b0: 6754 96be e31f e5be bfe4 ccbf ef78 eebd
000000c0: e21e 8fbe 6fa9 b5be 90d8 ecbd 1715 dbbd
000000d0: 8e84 3dbe 962a 053f eaae 23bf 9002 29be
000000e0: 209f 833d 0698 40be c8ab 793e 59e6 44be
000000f0: f2a0 0abd e0ce 45bf fb14 07c0 bf7a bc3d
00000100: d844 c3be 3fda 383d a0db 723e d85e fbbc
00000110: e245 a7bb 9865 cebe b8a7 75bf c2be b6be
00000120: 6435 b4bd 1c53 293f 4705 a6be 28e6 86be
00000130: 0868 523f fd07 1ebe 9728 15be ee69 093b
00000140: 7216 273e ea42 eb3e 74fc 05c0 e085 0dbf
00000150: d55a 48be a8d6 343e c5b1 0bbe 23a5 01be
00000160: 373b 623c 82fa 213e f6b4 d43e ffee 193c
00000170: 4dd9 033f 4827 d6be 9d7b f93d 92c6 853b
00000180: 91b1 153c f995 17bd 5347 12bf 67bb 60bd
00000190: b56b 8d3f 237e 493e 948a 60bf a93e 683d
000001a0: e3ec 57bd 89dd 053e ff09 143d 28f8 c03b
000001b0: 4dd5 133f 4fc2 0bb8 17ec d53d 7d28 95bb
000001c0: a367 8c3e d22b 283e 5d5e 5b3e a9c8 0a3d
000001d0: c720 0a3e a5d5 f1be 34a4 56c0 b701 063f
000001e0: 6fa7 02c0 5ec0 173d 16e0 4fbe adf1 febd
000001f0: 3b00 7e3d a076 393e 1599 c23d bfd0 8ebe
00000200: e153 52be c81b 38bc 7ce1 08bd dde1 12bd
00000210: 6d0b 3abf 549a 9abe eb14 f6be b6fa ffbd
00000220: c29b 013f b295 afbe 70ab 273d 631f 55bc
00000230: e829 e83d 5a9b 5ebe 76c9 65c0 48d5 c5be
00000240: ad6d 703f 5b53 e1bd 00fa 2b3e 9d67 0f3e
00000250: 6391 82be fe00 7a3e 760a d5be fa21 25bd
00000260: bfbb 8fbe bc61 123f 451a 31be 41ff babd
00000270: d054 0a3e 000f c53e e3aa 1bbe 788e 72be
00000280: c805 0dbe ee4f 093e c137 45be ae09 9abc
00000290: 7b75 a9be b136 59bf 284e 25bf e223 36be
000002a0: 5dad bc3e 716b 503d 60b9 b9be 8edc de3c
000002b0: 8e5c e73e c7bb 48be 4783 d0be 9b00 20bd
000002c0: 9340 013c 303f 4f3e 286f 85bf d4d3 e1bd
000002d0: 9594 163c e2d1 3d3d fd95 8d3f 4166 52bd
000002e0: e1d7 23be 4636 503e 61a3 7ebe 71bc 00be
000002f0: b62e 0abe 604b a63b 356d a1bf fcbc f03e
00000300: c72e 8a3e b562 6e3e b57e abc0 6eca bfbe
00000310: d62c 0abe 1d70 1bbe fab1 3b3e 2743 39be
00000320: 51cf 41bf 8a9a 3f3d df7a af3d a3ca 14bd
00000330: 8267 06bf 9b29 8ebe be68 56bf c40b d13e
00000340: 1368 5cbc 3b91 073f a525 2abd ec94 debe
00000350: 648f c23e 8e73 2e3e 824c 2a3e 172c 053d
00000360: d837 afbe f345 083f 7d6f ad3c 7c88 453c
00000370: 725b 743e 2c42 0c3e e9a5 a63f 535d 133e
00000380: 626c 463f a082 d5be 98b0 87bc 2778 13bd
00000390: a622 05be aa70 6dbe c235 1d3f a95a bd3d
000003a0: 6a6d 36bf a7b1 38bd 84e3 283d 7574 babd
000003b0: 321a 05bf 7c2e e6be cb48 95be d157 7f3b
000003c0: 0b98 523b c9e6 60bd a0af b8bf 333c edbc
000003d0: fef5 1e3e d524 e73e 2968 00be 6339 353e
000003e0: 0d98 bfbd e876 383c d827 f0be ef91 bb3d
000003f0: 8987 7ebd c271 64be b7bc a7c0 9207 f5be

bias f4 [256]
0.78420895 -0.66245925 -0.5839278 2.5266912 -2.4595306 -3.4295347 -2.0615728 -0.7849307
-0.029495876 1.6706744 2.285238 -0.6592589 -0.22554007 1.4781042 -1.5538728 -0.41796523
-1.2951219 -0.20881322 -2.280403 -0.7516064 -2.9374053 1.5823559 -1.9726838 -0.22022669
3.4952338 -2.3254297 -0.9963955 1.801876 -1.4772197 -0.2491376 -2.9133508 -4.2135086
1.0534722 -2.1482754 -0.047494352 0.7829695 1.3962859 2.0172725 -1.5797347 -2.6146019
0.29952604 0.5461037 1.13821 1.0115997 2.4936001 -4.127198 1.5009158 0.8406602
-1.0061297 -0.8964965 1.7557107 -1.7340003 -2.5989988 -1.179425 0.23971435 -0.9756003
-0.32627395 -2.0174806 2.0142891 -0.6740796 3.5169318 -2.1174746 1.2069317 0.68498516
2.260594 -2.4153256 2.5113177 1.1785185 -1.7968656 2.6248465 1.6670904 2.5785868
-1.6066164 1.0834006 0.78013104 -2.6310668 -0.99556285 -1.5704161 -0.3858714 -1.1794676
0.14742243 -0.6958149 -3.0337088 1.2799181 1.5512732 -4.487852 -0.69756603 2.4284818
-1.5299436 -2.108639 -1.6379197 -0.99731755 -3.562963 -2.983976 0.97464573 0.2503526
-3.1778839 1.809759 -2.2237992 -1.8582901 0.8840274 -3.0789812 -3.9109132 0.4652135
2.3398962 -0.6752773 -1.5824782 -0.69852215 -0.5634781 -1.915366 1.1355833 1.9465371
-1.8379995 -0.3429815 1.3491398 1.459042 -3.177118 1.4507195 -4.247975 -2.7256408
0.9837884 3.1283607 1.5902925 -1.8743869 2.5183914 0.014093356 -0.57312304 1.7059344
-3.2700114 0.049011163 0.79969704 -0.83527535 -2.1184127 -2.654872 -1.9332645 2.8272746
-1.5559646 1.4127048 2.636797 -3.982669 -1.1663123 1.0954155 0.5402091 -2.429549
-1.6925073 -2.3818038 -3.8462873 2.876277 -0.6325463 -0.9678807 0.5245015 0.4350593
-1.5334607 -1.4096744 0.20372817 -3.9378653 1.252528 -0.97812533 -0.68147284 1.3079143
0.9582514 -2.757805 -0.39115196 -3.1680202 0.6564275 1.7774165 -1.6479061 -2.3856475
0.045070622 -2.1466713 -3.7168043 -1.245047 0.96319175 0.46261013 1.3514696 -0.85704905
-0.6282683 -1.0791252 -3.7408085 3.849761 -2.636445 -3.08724 0.41520503 -1.6856058
1.4330302 -3.592293 -0.0068271803 0.33116353 -2.162008 1.4616721 0.29741913 2.4953337
1.30485 -1.818824 1.9289172 -1.398941 -0.3272542 1.2875419 2.2131107 -0.50952613
-3.5014374 0.8636832 -2.2858033 -0.88159174 -2.81835 -3.8204942 1.7141339 0.023611926
1.4105561 1.6399258 -1.0528016 0.17226413 -0.4133383 1.1860824 -3.1471593 0.67976886
1.1784251 -0.47312608 -1.1682755 0.5078039 -0.6514676 2.2098672 0.7160869 -3.193121
-2.0079727 -3.3820024 -2.7298875 -3.8521988 0.18814996 1.8122123 -1.0496714 -3.09479
2.5673919 3.608912 -0.5966634 0.074258715 0.9599092 -1.6888583 0.8304634 1.3148543
-0.0710756 0.22893593 1.77238 -3.7678204 -0.46043497 3.0506306 -2.564058 -0.62148046
-2.4571693 -1.5655547 -0.047214583 -1.8323613 1.4557263 -0.5501776 1.048287 -1.9265708
00000000: ebc1 483f ee96 29bf 4b7c 15bf 4fb5 2140
00000010: f368 1dc0 7f7d 5bc0 cff0 03c0 38f1 48bf
00000020: 56a1 f1bc a9d8 d53f 5741 1240 31c5 28bf
00000030: faf3 66be 8532 bd3f 4ee5 c6bf 8aff d5be
00000040: 8ec6 a5bf 22d3 55be 1ff2 11c0 4769 40bf
00000050: 73fe 3bc0 a38a ca3f e780 fcbf 1b83 61be
00000060: e9b1 5f40 d7d3 14c0 c713 7fbf dfa3 e63f
00000070: 8915 bdbf ed1d 7fbe 5774 3ac0 10d5 86c0
00000080: 2dd8 863f 587d 09c0 7089 42bd b070 483f
00000090: 7fb9 b23f fe1a 0140 bf34 cabf a355 27c0
000000a0: 7a5b 993e 74cd 0b3f deb0 913f 197c 813f
000000b0: 2597 1f40 0212 84c0 021e c03f 8235 573f
000000c0: dcc8 80bf cb80 65bf 21bb e03f b9f3 ddbf
000000d0: ff55 26c0 66f7 96bf ae77 753e f1c0 79bf
000000e0: 610d a7be 671e 01c0 1dea 0040 7b90 2cbf
000000f0: 6915 6140 b484 07c0 bd7c 9a3f 305b 2f3f
00000100: 92ad 1040 b294 1ac0 6eb9 2040 b2d9 963f
00000110: b1ff e5bf 7cfd 2740 3863 d53f 9107 2540
00000120: 9ba5 cdbf dfac 8a3f abb6 473f 6663 28c0
00000130: 35dd 7ebf 6503 c9bf f090 c5be cbf8 96bf
00000140: e8f5 163e ed20 32bf 4928 42c0 5bd4 a33f
00000150: 1f90 c63f 7c9c 8fc0 b093 32bf 3f6c 1b40
00000160: 31d5 c3bf f1f3 06c0 5aa7 d1bf 3450 7fbf
00000170: 9607 64c0 76f9 3ec0 6282 793f 372e 803e
00000180: 7362 4bc0 2fa6 e73f ba52 0ec0 73dc edbf
00000190: 9f4f 623f 070e 45c0 674c 7ac0 7730 ee3e
000001a0: dcc0 1540 f9de 2cbf a58e cabf 59d2 32bf
000001b0: 1a40 10bf b72a f5bf cb5a 913f 2128 f93f
000001c0: 9143 ebbf 459b afbe 9db0 ac3f e3c1 ba3f
000001d0: e755 4bc0 2db1 b93f 69ef 87c0 e670 2ec0
000001e0: 8ed9 7b3f 1037 4840 b48e cb3f e9eb efbf
000001f0: 532d 2140 d2e7 663c 31b8 12bf 0f5c da3f
00000200: de47 51c0 eebf 483d f2b8 4c3f 9bd4 55bf
00000210: 1394 07c0 6ce9 29c0 3675 f7bf 11f2 3440
00000220: d929 c7bf 83d3 b43f 48c1 2840 0de4 7ec0
00000230: b949 95bf 9336 8c3f 254b 0a3f bb7d 1bc0
00000240: 14a4 d8bf 796f 18c0 9229 76c0 ec14 3840
00000250: 8eee 21bf 08c7 77bf bb45 063f 18c0 de3e
00000260: 7148 c4bf 3670 b4bf 1e9e 503e fc05 7cc0
00000270: d652 a03f 6c66 7abf 0175 2ebf bc69 a73f
00000280: f74f 753f e17f 30c0 1245 c8be d8c0 4ac0
00000290: a20b 283f 6282 e33f 96ee d2bf 73ae 18c0
000002a0: f99b 383d 1063 09c0 1fe0 6dc0 b35d 9fbf
000002b0: bc93 763f 3cdb ec3e f5fc ac3f 9167 5bbf
000002c0: 31d6 20bf c620 8abf 6869 6fc0 7c62 7640
000002d0: 84bb 28c0 5795 45c0 c195 d43e eec1 d7bf
000002e0: 896d b73f 21e8 65c0 8ab6 dfbb 448e a93e
000002f0: 575e 0ac0 1218 bb3f 5247 983e 8cb3 1f40
00000300: 5305 a73f 3acf e8bf c2e6 f63f 8010 b3bf
00000310: dd8d a7be 2cce a43f 9ba3 0d40 4e70 02bf
00000320: 8d17 60c0 581a 5d3f 9a4a 12c0 ffaf 61bf
00000330: d95f 34c0 fa82 74c0 bd68 db3f cc6d c13c
00000340: 1a8d b43f 17e9 d13f 34c2 86bf 0266 303e
00000350: 14a1 d3be 8cd1 973f 0f6b 49c0 5505 2e3f
00000360: a2d6 963f 953d f2be 0d8a 95bf 70ff 013f
00000370: 95c6 26bf 776e 0d40 7951 373f 185c 4cc0
00000380: a082 00c0 ba72 58c0 7ab6 2ec0 6d8a 76c0
00000390: 62aa 403e 93f6 e73f a25b 86bf 0a11 46c0
000003a0: 2650 2440 6af8 6640 efbe 18bf f414 983d
000003b0: 9cbc 753f 822c d8bf 4099 543f 254d a83f
000003c0: 1690 91bd 2e6e 6a3e 59dd e23f f823 71c0
000003d0: 22be ebbe 883d 4340 8719 24c0 5819 1fbf
000003e0: 4342 1dc0 1964 c8bf 1464 41bd d18a eabf
000003f0: 3d55 ba3f 70d8 0cbf 452e 863f df99 f6bf

weight f4 [128, 256]
0.0005482967 -0.033741646 0.008916694 -0.05938803 0.033062283 -0.024547327 -0.029783143 -0.070947014
0.032201827 -0.007932894 -0.013254425 0.0064813998 -0.06238166 0.015846804 -0.05295957 -0.054140236
-0.024938803 -0.0155242 -0.06974643 0.035635937 0.02906559 -0.012115093 -0.068540335 -0.003783748
0.000107334374 -0.03381518 0.02239213 0.00081837573 -0.012692777 -0.060443915 -0.044491205 -0.010377049
-0.03242021 0.021182783 0.013321205 -0.04800799 -0.03714373 -0.032110285 -0.07356896 -0.02151172
-0.009165164 0.04612202 0.033665635 -0.017775193 0.04189469 0.019530863 0.01753903 0.016935447
0.010727853 0.044227377 0.014357344 0.028515622 -0.03158134 0.017592708 0.047516514 -0.0107785
0.0073342714 0.016143281 0.021393232 0.031465877 -0.023157157 -0.06805146 -0.03798624 0.0007878866
-0.036995884 -0.032427065 -0.052606877 0.0041618207 0.030983193 -0.001560846 -0.03293881 0.010087712
-0.0035621554 0.010487873 0.030949302 0.0387909 0.020770423 0.04602852 -0.028884241 0.010644894
0.019978348 -0.054580867 -0.0030780425 1.570476e-05 -0.0025367213 -0.025370391 0.050831195 -0.00019924379
-0.0044050673 0.00029759444 0.04072869 -0.073975645 -0.034911502 -0.037113998 0.026419073 -0.02382892
-0.016616337 0.022214806 0.041627526 -0.074140124 -0.037989877 -0.03641467 -0.048884146 -0.052862737
-0.05793764 0.023403175 -0.066838786 -0.026375337 -0.044569388 -0.06293701 0.02412086 0.04033904
-0.044247568 -0.014144788 -0.061439943 -0.03706301 -0.023958337 -0.058035772 0.03444947 -0.021899603
0.019542262 -0.054879654 0.046966635 -0.015535138 -0.057876572 0.027523773 -0.07227781 -0.058425255
0.03096299 0.0472037 0.049007736 0.05091813 -0.038873933 -0.023983154 -0.03160403 -0.03199641
-0.034263585 -0.057980027 -0.053411823 0.024224274 0.03984896 -0.038508724 -0.034738295 -0.011143603
0.04839313 -0.020001141 -0.058594845 -0.0033453358 -0.01836728 -0.0046555684 -0.059144482 -3.7764676e-05
-0.018878069 0.023840476 0.019268699 -0.04733878 -0.047124162 -0.0062245093 0.024158513 -0.053973217
0.05375449 -0.04076252 -0.039223492 0.0013715632 0.011339387 -0.035801895 -0.0512244 0.0010358195
-0.017111747 -0.0404059 -0.069714464 0.008256826 -0.008232153 -0.019359326 -0.060149908 0.023088194
0.04043081 -0.034808584 0.02766346 -0.0700011 0.0007202223 0.03660448 -0.06540128 -0.046226468
0.02499891 -0.038865793 -0.03706899 0.02029787 0.03449857 -0.023624316 -7.265762e-05 -0.0028003375
0.026103713 -0.027041093 0.0081931865 -0.05317486 -0.058217563 0.05385577 -0.008281167 -0.021145796
0.019138101 0.048750892 0.0012437635 0.041322596 -0.020402834 -0.0014366102 -0.03971182 -0.020333955
-0.0006948571 0.04691082 0.05469983 -0.021734277 -0.049829163 0.0031432922 -0.025586916 0.017361846
0.03697557 -0.06486346 0.009042633 0.031253647 0.027216531 0.01564121 -0.052941013 0.026708651
-0.012153101 0.049605496 -0.028801097 0.037740275 0.0110725295 -0.025092728 0.020852176 -0.022225624
0.02301331 -0.032845706 -0.034773353 -0.045683928 0.010136006 -0.005181022 -0.066842325 0.03831478
0.03996999 -0.0033220423 -0.008856898 0.021725425 -0.032493476 0.01974088 -0.047300607 -0.05197342
-0.05385504 -0.026534732 -0.004382276 -0.021450438 -0.036431823 0.023316111 -0.004190033 -0.0319601
00000000: 92bb 0f3a ae34 0abd 5317 123c dd40 73bd
00000010: 516c 073d 7a17 c9bc c7fb f3bc ab4c 91bd
00000020: 10e6 033d f8f8 01bc 1629 59bc ec61 d43b
00000030: e983 7fbd 28d1 813c 22ec 58bd 27c2 5dbd
00000040: 764c ccbc 3759 7ebc 37d7 8ebd fdf6 113d
00000050: f61a ee3c 627e 46bc e05e 8cbd c2f8 77bb
00000060: b418 e138 c981 0abd b36f b73c 4488 563a
00000070: 5ef5 4fbc 0a94 77bd 693c 36bd 8004 2abc
00000080: 0ecb 04bd 8487 ad3c 2f41 5a3c 07a4 44bd
00000090: 0624 18bd 1386 03bd 53ab 96bd 5939 b0bc
000000a0: 7c29 16bc 71ea 3c3d fae4 093d 489d 91bc
000000b0: c499 2b3d 30ff 9f3c 03ae 8f3c 35bc 8a3c
000000c0: e0c3 2f3c c427 353d 113b 6b3c 9899 e93c
000000d0: 6f5b 01bd 951e 903c ada0 423d 4e98 30bc
000000e0: 5454 f03b ea3e 843c dc40 af3c 5de2 003d
000000f0: 14b4 bdbc 905e 8bbd 7697 1bbd 2d8a 4e3a
00000100: ff88 17bd 3ed2 04bd 4f7a 57bd e25f 883b
00000110: 77d0 fd3c 4d95 ccba d8ea 06bd ee46 253c
00000120: 0d73 69bb 54d5 2b3c 6489 fd3c 35e3 1e3d
00000130: bc26 aa3c 6788 3c3d a59e ecbc ec67 2e3c
00000140: a2a9 a33c 3090 5fbd fcb8 49bb b7bd 8337
00000150: 1f3f 26bb 91d5 cfbc 5f34 503d 19ec 50b9
00000160: 6258 90bb 7306 9c39 20d3 263d 8b80 97bd
00000170: 5dff 0ebd d904 18bd d06c d83c de34 c3bc
00000180: fc1e 88bc d3fb b53c a081 2a3d c7d6 97bd
00000190: 469b 1bbd 8d27 15bd be3a 48bd 9986 58bd
000001a0: 0550 6dbd 04b8 bf3c c6e2 88bd 1711 d8bc
000001b0: 648e 36bd 1ee5 80bd 1c99 c53c 8d3a 253d
000001c0: f03c 35bd 8abf 67bc 73a8 7bbd 62cf 17bd
000001d0: 4644 c4bc ebb6 6dbd e31a 0d3d cc66 b3bc
000001e0: 1817 a03c 7dc9 60bd 1660 403d 1787 7ebc
000001f0: fc0f 6dbd 8979 e13c 6306 94bd 524f 6fbd
00000200: 19a6 fd3c ab58 413d 56bc 483d 878f 503d
00000210: 463a 1fbd 5278 c4bc 3a73 01bd ab0e 03bd
00000220: f957 0cbd 777c 6dbd 5bc6 5abd fc71 c63c
00000230: aa38 233d 53bb 1dbd be49 0ebd a993 36bc
00000240: e037 463d 6fd9 a3bc 2601 70bd 6c3d 5bbb
00000250: fa76 96bc bd8d 98bb 7c41 72bd 8365 1eb8
00000260: 2ea6 9abc 1a4d c33c 64d9 9d3c 4fe6 41bd
00000270: 4405 41bd f8f6 cbbb 13e8 c53c 0513 5dbd
00000280: ab2d 5c3d 9af6 26bd d0a8 20bd 06c6 b33a
00000290: d6c8 393c 02a5 12bd add0 51bd 56c4 873a
000002a0: ef2d 8cbc a880 25bd 75c6 8ebd a347 073c
000002b0: 27e0 06bc 7397 9ebc c05f 76bd 7423 bd3c
000002c0: c79a 253d 7293 0ebd 7b9e e23c bd5c 8fbd
000002d0: 4dcd 3c3a 94ee 153d 1bf1 85bd f757 3dbd
000002e0: 84ca cc3c bd31 1fbd a7d5 17bd b847 a63c
000002f0: 5f4e 0d3d c887 c1bc c35f 98b8 de85 37bb
00000300: 74d7 d53c 4885 ddbc b73c 063c e2cd 59bd
00000310: 8a75 6ebd de97 5c3d bbad 07bc f339 adbc
00000320: 82c7 9c3c 04af 473d c705 a33a e241 293d
00000330: d823 a7bc a44c bcba dda8 22bd 6593 a6bc
00000340: 1227 36ba 8f25 403d ee0c 603d 150c b2bc
00000350: aa19 4cbd b1ff 4d3b a79b d1bc 6e3a 8e3c
00000360: b273 173d 22d7 84bd 8d27 143c d303 003d
00000370: 34f5 de3c ff21 803c add8 58bd 1acc da3c
00000380: cd1d 47bc 222f 4b3d 47f0 ebbc 8c95 1a3d
00000390: 8e69 353c 448f cdbc 2fd2 aa3c 8312 b6bc
000003a0: 6986 bc3c 3889 06bd 816e 0ebd 121f 3bbd
000003b0: 7e11 263c 90c5 a9bb a1e4 88bd f5ef 1c3d
000003c0: 92b7 233d 9fb6 59bb 861c 11bc 85f9 b13c
000003d0: e117 05bd a0b7 a13c 48be 41bd 15e2 54bd
000003e0: 1a97 5cbd 5e5f d9bc 3299 8fbb d4b8 afbc
000003f0: 8939 15bd 6e01 bf3c 8b4c 89bb 98e8 02bd

bias f4 [128]
-0.065805286 0.016787434 0.025650585 1.44727 -0.002276742 0.31287143 -0.9209846 0.2876692
-0.04154249 -0.98103595 0.7412355 1.0160853 0.025547432 -0.07183077 0.91345626 -0.11406926
-0.423569 -0.6553453 0.13802595 -0.049645316 0.05473142 -0.04753622 -0.10835868 -1.1350608
0.6123312 -0.4586276 0.6229403 -1.0898615 -0.99517506 0.0062867226 -0.24047713 0.24526404
-0.27001697 1.036181 0.030057723 0.49452052 -1.1672387 -0.049726557 -0.046701085 0.023572914
-0.7462096 -0.059747677 0.04061655 -1.3538316 -0.4470884 0.10699714 -1.1482457 -0.5817297
0.041085582 -1.0345379 -1.8484405 -0.644468 -0.054305345 -0.047332067 0.016483016 -1.018002
1.3458477 -1.0803676 -0.5593494 0.59296423 -0.92815137 0.18651226 0.6571527 1.2327634
0.08373757 -0.778326 -0.03703388 -0.06848709 -0.39438283 0.8167196 0.1299569 0.21060613
1.1256902 0.88777226 -0.036455426 -0.99843276 -0.004830307 0.5760549 -0.033365473 -0.047956076
1.0444219 0.4161555 0.53096503 -0.45631844 -1.4077482 -0.03224183 -1.2090878 -0.030155623
-0.0013367217 0.083281904 -1.0312198 0.586801 -0.556745 0.98489577 0.020011239 0.14459057
-0.67997473 0.04286505 -0.037497334 0.012066165 -0.5482573 -0.25773588 -0.0022295853 -1.0681516
-1.2356164 -0.15431572 -0.065617315 -0.4671434 0.01745729 -0.038459998 -1.1861145 -0.48060697
-1.1380693 0.030699585 -0.30535042 -0.036447633 1.4866143 0.8191348 -1.1232526 0.031314332
-0.35217762 -0.32809854 -0.27083147 0.31074628 0.026617244 0.0670343 -1.8519391 -0.25913018
00000000: ecc4 86bd cd85 893c 2d21 d23c 2540 b93f
00000010: 6435 15bb af30 a03e a6c5 6bbf 6149 933e
00000020: 7528 2abd 2c25 7bbf 9cc1 3d3f 150f 823f
00000030: d948 d13c 031c 93bd 45d8 693f 259d e9bd
00000040: 09de d8be b6c4 27bf ad56 0d3e e358 4bbd
00000050: 0e2e 603d 57b5 42bd 28eb ddbd ac49 91bf
00000060: bdc1 1c3f 3dd1 eabe 0479 1f3f 9580 8bbf
00000070: cbc3 7ebf da00 ce3b a33f 76be 7f26 7b3e
00000080: aa3f 8abe 94a1 843f 9d3b f63c cb31 fd3e
00000090: 1468 95bf 13ae 4bbd a349 3fbd fc1b c13c
000000a0: 9807 3fbf fbb9 74bd 8a5d 263d 5b4a adbf
000000b0: c5e8 e4be 5121 db3d b7f9 92bf 3dec 14bf
000000c0: 5b49 283d bd6b 84bf b399 ecbf dbfb 24bf
000000d0: 486f 5ebd 45df 41bd 6407 873c e44d 82bf
000000e0: bd44 ac3f 7c49 8abf 8631 0fbf 81cc 173f
000000f0: 549b 6dbf 12fd 3e3e 293b 283f 31cb 9d3f
00000100: 9a7e ab3d 5f40 47bf d6b0 17bd f642 8cbd
00000110: 8cec c9be 8914 513f 6c13 053e 22a9 573e
00000120: 9e16 903f 0b45 633f 4952 15bd 4a99 7fbf
00000130: 8d47 9ebb 5578 133f 3caa 08bd 976d 44bd
00000140: 9eaf 853f 5512 d53e 53ed 073f 92a2 e9be
00000150: 1831 b4bf 0210 04bd 64c3 9abf ed08 f7bc
00000160: f034 afba b48f aa3d 03ff 83bf 9738 163f
00000170: d786 0ebf 2122 7c3f 9cee a33c 8d0f 143e
00000180: d312 2ebf 4393 2f3d ce96 19bd 2ab1 453c
00000190: 975a 0cbf f5f5 83be 3c1e 12bb 31b9 88bf
000001a0: ae28 9ebf f104 1ebe 5f62 86bd 6b2d efbe
000001b0: 9702 8f3c 3b88 1dbd 9ad2 97bf 1e12 f6be
000001c0: 41ac 91bf b27d fb3c e456 9cbe 1d4a 15bd
000001d0: 6149 be3f d1b2 513f bec6 8fbf 7543 003d
000001e0: a050 b4be 88fc a7be 6caa 8abe 231a 9f3e
000001f0: 680c da3c 4749 893d 570c edbf b6ac 84be

weight f4 [2, 128]
0.0027325687 0.004223101 -0.6727904 0.1216559 -0.0383978 3.5126426 0.10963558 -0.27264208
-0.028077796 -0.18458252 0.69573313 0.04257257 -0.0107283695 -0.028468508 0.32673654 0.96730125
-1.3361827 -0.042391486 0.91599447 0.0024597845 -0.036863003 -0.052740198 -7.3452272 -3.7198265
0.31333256 1.0083454 0.49037012 -3.3462653 -1.1657317 0.30885217 -0.63795084 -0.95602626
0.12324081 -0.5551738 0.054492038 -0.18357997 -4.016107 -0.02328107 -0.0046941084 0.011704531
-0.29893097 -0.034708068 0.04539134 1.9503298 -1.4257418 1.3367157 0.5741798 0.5828954
0.0645928 -0.20674066 -1.9327744 -0.5138835 -0.014201796 0.5429029 0.027155358 -3.054756
-0.25767332 -4.650798 0.58527476 -1.1953053 -0.026254185 0.6397835 0.36672023 -0.88455725
0.372589 -3.0373738 0.50620097 -0.044550188 -1.2645261 -0.9005717 -0.9145214 0.5172147
-0.3436368 0.51649827 0.06738333 -0.28872234 0.04141381 1.5099041 -0.0689792 0.021155246
-0.39028072 1.0634996 0.3588945 0.084347874 -0.17037813 -0.06168533 -3.2252524 -0.022488121
0.073604114 -0.11658564 -2.6131291 -0.78175086 -0.51857525 -0.23112169 0.0020974483 -2.4103925
-0.09455455 0.047932215 0.0021611783 0.020535842 -0.9518214 -0.11158223 -0.00053426164 -1.9480382
-3.229407 0.6614797 -0.24333817 -0.37732732 -0.68869555 -0.01891043 -3.117274 0.2133811
-0.29240033 0.008651116 -2.7391365 0.026269758 0.6597188 0.5586768 -4.133991 -0.055617567
0.26988816 -0.26153535 0.121079326 -0.3647754 0.020081656 0.44510472 -0.7004015 0.7838726
0.0687994 0.033121355 -0.82092464 -0.70918465 0.07952127 -0.059879854 -7.8522534 0.6935317
0.037995804 0.30031478 0.4903565 0.3582698 0.04778291 -0.04463157 0.18143487 2.208057
-0.04111725 -1.5553185 -0.4288026 0.06758636 0.05640404 -0.000333438 0.2175317 0.53829306
-0.23598608 -0.04561913 0.8078162 -0.27373976 0.3938216 -0.15015772 -1.2159362 -0.3480237
-2.0235245 -0.47976327 0.04096836 2.0420153 -0.19646129 -0.036304522 -0.0025092175 -0.034777626
-1.203165 -0.072211124 0.07308515 -1.4943879 -0.057291925 0.5263571 -0.36139312 -1.8990074
-0.036392696 0.28561556 -0.48664618 0.25672337 0.028361652 0.37699565 0.031839292 -0.1084812
-0.3185778 1.0174804 -1.2454057 -0.041722003 -2.090004 0.10463371 9.338974 -0.02925237
0.123271264 0.0076398607 -0.32984254 0.036279064 0.113378085 -0.4500892 0.4902393 -0.7480628
-1.4682407 -0.14059602 -0.06548772 -2.8024077 0.0013102432 0.11371609 0.021050388 -0.008651962
0.30300337 0.73098135 0.09147645 0.50638473 -0.8575106 0.06968224 0.3638333 0.06922139
-0.028679596 5.027926 0.24140084 0.15201284 -1.9453107 -0.62932235 0.038592245 -0.22578064
-1.2648581 -0.036331605 0.00056042924 -0.013034162 -0.2618069 -0.40796632 -0.01658195 0.4402204
0.6407926 0.45714995 0.5270314 -0.20835665 -0.6587299 0.03395976 -0.000564896 -1.3237237
-4.4010267 0.07627058 -0.1545113 0.024515225 0.9166161 -0.8472194 -0.18478125 -0.08174423
0.26466066 -0.2682488 -0.6205636 -0.22259524 -0.02353465 0.142137 -1.0518718 -0.47965506
00000000: e514 333b f061 8a3b fe3b 2cbf ba26 f93d
00000010: 0347 1dbd 23cf 6040 9e88 e03d be97 8bbe
00000020: 6803 e6bc 3303 3dbe 911b 323f 9360 2e3d
00000030: 0bc6 2fbc ca36 e9bc 034a a73e 0ea1 773f
00000040: 0908 abbf b2a2 2dbd 9d7e 6a3f 5634 213b
00000050: a9fd 16bd 1b06 58bd 1a0c ebc0 a311 6ec0
00000060: 206d a03e 7611 813f cb11 fb3e 3629 56c0
00000070: b236 95bf df21 9e3e bf50 23bf 23be 74bf
00000080: ae65 fc3d df1f 0ebf 0b33 5f3d 63fc 3bbe
00000090: f383 80c0 f1b7 bebc 09d1 99bb 5cc4 3f3c
000000a0: 7b0d 99be 0c2a 0ebd 45ec 393d 68a4 f93f
000000b0: b57e b6bf 8019 ab3f 73fd 123f a238 153f
000000c0: 3b49 843d d3b3 53be 2765 f7bf de8d 03bf
000000d0: a6ae 68bc affb 0a3f ea74 de3c 1f81 43c0
000000e0: c2ed 83be 56d3 94c0 91d4 153f c4ff 98bf
000000f0: 0413 d7bc dac8 233f c1c2 bb3e 5872 62bf
00000100: fcc3 be3e 5564 42c0 6396 013f 427a 36bd
00000110: fedb a1bf de8b 66bf 131e 6abf 2f68 043f
00000120: 2af1 afbe 3b39 043f 4500 8a3d 6ad3 93be
00000130: 87a1 293d 8a44 c13f f844 8dbd c44d ad3c
00000140: e0d2 c7be c120 883f 05c1 b73e 94be ac3d
00000150: 9b77 2ebe c2a9 7cbd 896a 4ec0 0239 b8bc
00000160: c1bd 963d 74c4 eebd 823d 27c0 d320 48bf
00000170: 59c1 04bf 2aab 6cbe 5875 093b df43 1ac0
00000180: d1a5 c1bd 9254 443d 8ea2 0d3b c83a a83c
00000190: 91aa 73bf 3985 e4bd b10d 0cba 5159 f9bf
000001a0: 9bae 4ec0 bc56 293f a42d 79be 0c31 c1be
000001b0: 5a4e 30bf 0cea 9abc 6b81 47c0 9380 5a3e
000001c0: 7fb5 95be 69bd 0d3c 034e 2fc0 ad33 d73c
000001d0: 55e3 283f 7105 0f3f a749 84c0 3fcf 63bd
000001e0: c82e 8a3e f6e7 85be 70f8 f73d d7c3 babe
000001f0: 4982 a43c c4e4 e33e 834d 33bf e0ab 483f
00000200: b3e6 8c3d 42aa 073d 1e28 52bf 208d 35bf
00000210: 0cdc a23d 9444 75bd a945 fbc0 4b8b 313f
00000220: 7da1 1b3d dcc2 993e 0210 fb3e 246f b73e
00000230: 03b8 433d 98cf 36bd 10ca 393e ce50 0d40
00000240: 906a 28bd ad14 c7bf 048c dbbe b86a 8a3d
00000250: ec07 673d 4ad1 aeb9 a1c0 5e3e 93cd 093f
00000260: 56a6 71be 20db 3abd 0bcd 4e3f 9e27 8cbe
00000270: fca2 c93e f2c2 19be cca3 9bbf 2a30 b2be
00000280: 6d81 01c0 88a3 f5be 70ce 273d 61b0 0240
00000290: 262d 49be 0db4 14bd af71 24bb fc72 0ebd
000002a0: 5001 9abf 6de3 93bd abad 953d 1a48 bfbf
000002b0: f0aa 6abd 57bf 063f 8508 b9be ad12 f3bf
000002c0: 8210 15bd 343c 923e b029 f9be 3f71 833e
000002d0: b256 e83c 9305 c13e eb69 023d 642b debd
000002e0: a11c a3be cc3c 823f 7469 9fbf b1e4 2abd
000002f0: a0c2 05c0 334a d63d 706c 1541 aba2 efbc
00000300: a575 fc3d cc57 fa3b 1fe1 a8be 5b99 143d
00000310: c532 e83d 1772 e6be a500 fb3e 0b81 3fbf
00000320: 50ef bbbf 67f8 0fbe 6d1e 86bd a65a 33c0
00000330: 77bc ab3a fbe3 e83d dd71 ac3c f5c0 0dbc
00000340: 4223 9b3e 9821 3b3f 0158 bb3d 6ea2 013f
00000350: d185 5bbf 90b5 8e3d 5c48 ba3e f2c3 8d3d
00000360: 79f1 eabc c5e4 a040 c831 773e 41a9 1b3e
00000370: f1ff f8bf 451b 21bf e712 1e3d 0a33 67be
00000380: dfe6 a1bf 73d0 14bd c5e9 123a 3d8d 55bc
00000390: 8e0b 86be f6e0 d0be dfd6 87bc 9164 e13e
000003a0: fc0a 243f 8f0f ea3e 88eb 063f 725b 55be
000003b0: 86a2 28bf 6419 0b3d 8715 14ba c76f a9bf
000003c0: 36d5 8cc0 c033 9c3d 3638 1ebe 27d4 c83c
000003d0: 5aa7 6a3f 5fe3 58bf 4c37 3dbe 8569 a7bd
000003e0: 9a81 873e e857 89be 42dd 1ebf 02f0 63be
000003f0: bdcb c0bc 5d8c 113e bca3 86bf 5995 f5be

bias f4 [2]
0.44718286 1.1629727
00000000: 27f5 e43e 4adc 943f
