saved_models/run5/model_7999.pth (torch, 550886 bytes, 6 tensors)

weight f4 [1024, 4]
000000 ed 1f 75 bd 96 a6 9f bd 82 7c d2 3d ba 2c 1f 3f
       -0.0598449 -0.077954456 0.10277654 0.6217762
000010 9f 5d 40 3e 08 f4 b6 be 46 bb 39 bd c2 2e 64 bf
       0.18785714 -0.35733056 -0.045344613 -0.89133847
000020 51 c3 dd be f8 84 8f 3e a1 77 a5 3c c1 8a 3d 3f
       -0.43313077 0.28031135 0.020198645 0.74039847
000030 5f 33 21 3e e2 16 2e be f2 d8 2d 3e a7 9b 49 bf
       0.15742253 -0.17000917 0.1697729 -0.7875313
000040 9d ee 1e 3d ac 65 5f 3e d4 86 1f 3e 0b 76 06 3f
       0.038801778 0.21816128 0.15578777 0.5252387
000050 63 3c d8 3d b7 75 74 be 16 b8 b9 39 7c 96 ea 3e
       0.10558393 -0.2387303 0.00035423104 0.45817935
000060 2b 62 17 bf 82 c9 e9 3e b0 c4 b3 3b 3b 01 15 3f
       -0.5913417 0.4566155 0.0054860935 0.58205
000070 30 76 89 3e 55 59 86 bd b9 45 99 bd 9a a4 20 3f
       0.26847982 -0.065600075 -0.07484002 0.6275116
000080 71 1b b5 be 62 c9 10 3e 49 29 f8 bf 36 e0 5b 3e
       -0.353725 0.14139321 -1.9387599 0.21472248
000090 43 a9 19 bf dd d2 1f 3e fc b8 14 3f ae e1 34 3f
       -0.600239 0.15607782 0.58094764 0.7065686
0000a0 78 29 1d bf 45 ec dc 3d cc c0 07 bd 8b 52 29 3f
       -0.613914 0.10787252 -0.03314285 0.66141576
0000b0 25 e6 73 bc 0b 38 e5 bd f5 07 1d c0 fa 0c a0 be
       -0.014886414 -0.1119233 -2.4536107 -0.312599
0000c0 c7 14 94 3d 70 56 cb 3e 46 23 d8 3e 5b 2e 88 3e
       0.072305255 0.39714384 0.42214411 0.26597866
0000d0 64 f4 8e 3e 45 79 8b 3e b0 bb 45 3e c9 25 92 be
       0.2792083 0.2724096 0.19309878 -0.28544453
0000e0 bd d4 6e 3d 2e 70 f7 bd c0 35 56 3e cf 5a 08 3e
       0.05830835 -0.120819435 0.20918941 0.1331589
0000f0 35 42 e2 3e 8d f8 4f be 3c 30 0c be 5e 36 5e 3e
       0.44191137 -0.20309658 -0.13690275 0.21700427
000100 09 c7 86 be f3 b5 9c 3e 4b 28 5e 3d 71 db 93 3e
       -0.26323727 0.30607566 0.054237645 0.28878358
000110 b0 6a 17 3f 02 a9 4d be 4d 86 a8 3b c0 71 d3 be
       0.5914717 -0.20084003 0.005142963 -0.41297722
000120 d6 ee a9 bd fb 37 c6 3e d3 7a 14 c0 dc 43 ba 3d
       -0.082975075 0.38714585 -2.3199966 0.090949744
000130 b3 5f 34 be f5 12 1e be 34 c4 24 3e 37 79 39 bf
       -0.17614631 -0.15436919 0.1609047 -0.72450584
000140 6c bd f2 bd ac e1 ef 3e 69 0a d8 bf 06 82 24 be
       -0.118525356 0.4685186 -1.6878177 -0.16065225
000150 d9 49 88 be cf a3 66 3e 18 e2 b3 bf df 98 0c bf
       -0.2661884 0.22523426 -1.4053373 -0.5492076
000160 39 aa 3d 3d af 6e 0c 3f 7c a7 64 3e 76 d3 1c 3f
       0.046304915 0.5485639 0.22329515 0.61260164
000170 51 89 5f 3e b5 75 9d be 1f eb 45 bd 42 32 34 bf
       0.21829726 -0.30753866 -0.048319932 -0.7038919
000180 a1 e8 52 3f 28 fb 08 3e c6 4a 46 be fa bb f3 be
       0.82386214 0.13377059 -0.19364461 -0.47604352
000190 74 d3 27 bf 85 5f c6 bd 07 14 84 3e ca 7e c2 3e
       -0.65557027 -0.09686188 0.2579653 0.37987357
0001a0 8f e7 6e be 84 ef 9b 3e 0a cc 16 bd a7 1a 86 3e
       -0.2333052 0.30456173 -0.03681568 0.2619221
0001b0 14 44 db 3d c5 4b 72 3e 6f c1 20 bd 0d 1c b3 be
       0.10706344 0.23661716 -0.039246973 -0.3498234
0001c0 db 77 b1 3c 0d 82 5b be 7a 33 c9 3e 86 5d 25 be
       0.021663597 -0.21436329 0.39297086 -0.16148958
0001d0 9e f2 79 be a7 1b 5e be 7e 8b 8a 3c 92 5e 29 3f
       -0.24408957 -0.21690236 0.016912218 0.6615993
0001e0 08 60 3c bd af c9 65 bb 56 2e 20 c0 7b fa aa 3e
       -0.04599002 -0.003506284 -2.5028281 0.33394226
0001f0 24 c2 82 3e 5d 0f b0 be 58 cc 07 c0 3a 0a b0 3c
       0.25538743 -0.3438672 -2.1218472 0.021489251
000200 bf 8f 0c bc 85 b5 ae be fa b1 96 3e 16 a5 4d bf
       -0.008579194 -0.34122863 0.2943266 -0.80330026
000210 5e 3a 23 bf 39 72 3c be 3a e6 cd bc 48 be ce 3e
       -0.63760936 -0.18402947 -0.025134195 0.40379548
000220 6d c4 63 be 92 92 8d 3d 60 6c 13 3f 49 9a 0b 3f
       -0.22242899 0.06912722 0.5758724 0.54532295
000230 ff fc d4 bd da 77 c3 be ce 4f de 3e 4b 0e 41 3d
       -0.10399818 -0.38177377 0.4342026 0.04713277
000240 de 51 57 3f 7f 03 f8 bd 01 1d c0 3a 76 73 37 bf
       0.84109294 -0.12110042 0.0014657081 -0.71660554
000250 4f 62 1a bd a7 f8 a1 3e a7 72 3a 3b 2b 75 3f 3f
       -0.03769141 0.3163502 0.0028449686 0.7478816
000260 a7 dd 78 3f 68 fc d6 3e b6 97 57 be 45 85 16 bf
       0.97213215 0.41989446 -0.21053967 -0.58797103
000270 b0 97 06 bf 62 6b c2 be 27 ca d2 3e 83 78 92 3d
       -0.52575207 -0.37972552 0.41169855 0.07151892
000280 17 c4 16 3f fd 63 0b 3f 5f 72 52 bd 64 10 1f 3f
       0.5889296 0.54449445 -0.051378604 0.62134385
000290 8a e5 14 bd 41 e9 26 be 76 66 c0 bd 6e 94 22 3e
       -0.036351718 -0.16299917 -0.09394543 0.15876934
0002a0 ac e1 6b be a2 77 1c 3d 70 2a 56 3e 32 a8 91 bd
       -0.23035306 0.03820003 0.20914626 -0.07112159
0002b0 39 07 8c 3d a8 68 9d bd f3 ac 0f c0 73 06 bf 3e
       0.06837315 -0.07685977 -2.244931 0.37309608
0002c0 9b 9c e0 3d 88 ec 71 be c5 37 f1 3d 73 04 62 bf
       0.1096737 -0.23625386 0.11778215 -0.8828804
0002d0 94 db c9 be 2b 36 56 3e 36 4c 02 3f 4c c7 39 3f
       -0.39425337 0.20919101 0.5089754 0.7256973
0002e0 90 4b 19 3f b6 ff 7c be 93 4e cc bc 0d f8 23 bf
       0.59880924 -0.24706921 -0.02493981 -0.6405037
0002f0 e6 05 63 be 97 a3 03 bd dc 0b 0b 3d e3 d7 46 3f
       -0.22170219 -0.032138433 0.033946857 0.77673167
000300 59 aa ff bc 2c 19 6c be ca 52 82 be be bd 08 3f
       -0.031209158 -0.23056477 -0.25453788 0.53414524
000310 04 cd 02 3e 9c 0d 8d 3e db 9d 30 3d 7d 95 49 3f
       0.1277352 0.27549446 0.043119293 0.78743726
000320 1c ab cd 3e 60 20 4e 3e b7 b2 58 3e c3 57 20 bf
       0.4016961 0.20129538 0.21161924 -0.62633914
000330 ff 3b 09 3e 64 37 e3 3e e6 19 94 be bb f0 e3 3c
       0.13401793 0.44378197 -0.2892601 0.02782475
000340 92 ef 60 be 56 3f 5e 3e b1 7f 22 3d 01 9b 1d 3f
       -0.21966389 0.21703848 0.039672557 0.6156464
000350 18 bf 8e 3f 32 1d 98 be 3f 74 4e 3d 8a 24 fe be
       1.1152067 -0.29709774 0.05040383 -0.49637252
000360 44 35 a0 be 4d e2 a6 3d 92 1e 6c be 6d 97 75 3f
       -0.31290638 0.08148632 -0.23058537 0.9593418
000370 aa e2 14 bf 00 ed 81 be d7 4a 5f be e4 78 20 3f
       -0.5815836 -0.2537613 -0.21805893 0.62684464
000380 16 7b c5 3e 03 8c 5b 3d a4 38 a2 3e 3e 04 63 bf
       0.3857047 0.053600322 0.31683838 -0.8867835
000390 c5 38 6b bf 75 56 d2 3e e0 e3 66 3e d3 dd 93 3d
       -0.918835 0.41081586 0.22547865 0.07220044
0003a0 ae 3d 9b be 15 d5 1a 3d d0 9b 9b bf 22 ba fc 3d
       -0.30320495 0.037800867 -1.2156925 0.123401895
0003b0 13 fc 61 3e 5d f1 fa bc f8 4b 35 3e 14 bb 1b bf
       0.22068815 -0.03063267 0.17704761 -0.60832334
0003c0 6a 18 97 3d f4 11 04 3f ca 02 be bc 40 ea 54 3f
       0.073777035 0.51589894 -0.02319469 0.8316994
0003d0 1a 8c c2 3e 06 33 a7 bd 6b f5 df bf df 33 9d be
       0.37997514 -0.08164029 -1.7496771 -0.30703637
0003e0 7e bc 26 bf 68 f2 a3 be d2 d3 9a 3e 36 9f 2f bf
       -0.65131366 -0.3202088 0.3023973 -0.6860231
0003f0 13 c8 6e be fd 8f b9 3e f1 95 c0 3e 7a 72 a1 3e
       -0.2331851 0.36242667 0.37614396 0.3153265

bias f4 [1024]
000000 e4 d8 1e bf 75 6f 57 be 50 2e ac 3e 53 a2 04 bf
       -0.620497 -0.21038611 0.33629084 -0.5181019
000010 48 c2 c1 3e fd 2c 15 3e 1b 1a a0 3b af e0 30 3f
       0.37843537 0.14567943 0.0048859245 0.6909284
000020 04 98 92 3e 74 a1 2a 3e d8 fc d6 3e 50 0e fc 3d
       0.28631604 0.16663152 0.4198978 0.123074174
000030 63 5d 14 bf be 09 aa be 5d 25 a2 3e b7 90 b0 be
       -0.57954997 -0.33210558 0.3166913 -0.3448541
000040 46 d6 c3 3d e2 3b 3b be 54 84 a9 3e a7 31 04 bf
       0.09562354 -0.18284562 0.3310877 -0.51638263
000050 26 3c d6 3d d9 83 fc be c5 94 b4 3e 8b 54 52 be
       0.10460691 -0.49319342 0.35269752 -0.20540063
000060 46 7c 83 3e b7 6f 26 3e 37 d7 63 3e 2f b2 29 bf
       0.2568075 0.16253553 0.22250067 -0.6628751
000070 c4 66 b9 3e 31 a2 6c 3d 49 6d d6 3e d1 c8 a3 3e
       0.36211216 0.057771865 0.41880253 0.31989148
000080 16 f6 b4 bb c1 84 eb be c9 9b 5d 3e ea af ea 3e
       -0.0055225 -0.4599972 0.21641459 0.45837337
000090 b7 1c 83 be e8 43 78 3e b9 4b 60 be ac 97 2c 3e
       -0.25607845 0.24244654 -0.21903886 0.16854733
0000a0 74 00 e7 3d ef 8b 15 bf f0 1c 8c 3e d9 c8 0b 3f
       0.11279383 -0.58416647 0.27365828 0.54603344
0000b0 d9 ab 74 be 52 bd 80 3e 3d d4 b4 3e c9 28 42 be
       -0.2389368 0.2514444 0.35318175 -0.18960871
0000c0 28 9d 26 be eb 6f 6a 3e af 25 f1 bd 76 63 d6 bd
       -0.16270888 0.22894256 -0.11774766 -0.104681894
0000d0 5c a5 c0 be 3a 36 20 be 96 b0 13 3f 3d c7 de 3e
       -0.3762616 -0.15645686 0.57691324 0.43511382
0000e0 bf b8 ad 3d cb 31 96 be 0a 7c ed 3e 64 9b 9a 3d
       0.08482503 -0.29334864 0.46383697 0.0754917
0000f0 8c 61 b5 3b 4b fe 95 3e 96 a2 8d 3e e8 66 1b 3e
       0.00553531 0.29295573 0.27663106 0.15175974
000100 f8 8c 83 3e 87 15 75 be ca ee 0d bf 78 b0 b9 be
       0.25693488 -0.23933993 -0.5544249 -0.36267447
000110 1f 7b 69 3e 06 b5 05 3f e8 8f b2 3e 87 c1 e2 3e
       0.22800873 0.52229345 0.34875417 0.44288275
000120 e7 9e f1 3c b1 42 18 3f cb 2c b6 bd 8d be a0 3e
       0.029494716 0.59476763 -0.08895262 0.3139538
000130 be 05 e6 be ae 1b d2 3c 08 94 23 3e 30 2f d3 3d
       -0.44926256 0.025647964 0.15974438 0.10311735
000140 78 99 e1 3e 95 d1 09 3e 7d 42 7d be ac 9a b3 be
       0.440624 0.13458855 -0.24732395 -0.35078943
000150 96 c6 86 be 9d 1c fc 3e 44 c9 16 3f c7 af 93 be
       -0.26323384 0.4924058 0.58900857 -0.28845045
000160 11 76 53 3e f4 9a ad 3e 85 f8 c4 be f0 16 a7 3e
       0.20650508 0.33907282 -0.38470855 0.32634687
000170 90 52 d8 3d de a1 94 be aa c0 fd 3e 8d cd 08 be
       0.105626225 -0.29029745 0.49561054 -0.13359661
000180 31 e5 c0 bd b4 de f5 3e 00 0c 94 be 13 61 f6 be
       -0.09418715 0.48021472 -0.28915405 -0.48120937
000190 4b 6b 1d bf 8e 9f 48 3e 7c de 3a 3e f6 fc 30 3e
       -0.6149184 0.19592115 0.18248934 0.17283997
0001a0 b5 a2 b5 3c 3b e7 27 bf 06 5f c2 be 36 98 93 3e
       0.022172311 -0.65587205 -0.37963122 0.28827065
0001b0 c8 0c 10 3f eb 1b 33 3e 70 c1 cb be c8 3e e8 3d
       0.562695 0.17491119 -0.3979602 0.113400996
0001c0 6f b9 00 3e ef ac 6f 3e aa 59 3c 3e 3e d9 e9 3d
       0.12570737 0.23405813 0.18393579 0.11418389
0001d0 5d 7d a3 3e 2a 85 8b 3e dd 5b 7b 3e 7b e3 38 be
       0.31931582 0.27250034 0.24546762 -0.18055527
0001e0 17 03 67 3e c6 57 33 3d 3b ba 69 be 3e 88 ff 3e
       0.22559772 0.04378488 -0.22824948 0.49908632
0001f0 02 64 bf be 9b 3e 89 3d 65 f0 b9 be f0 98 80 be
       -0.37380987 0.06701394 -0.3631622 -0.25116682
000200 aa 99 a8 be c0 27 9e be 09 f2 da bd 93 3f 29 bf
       -0.32929736 -0.30889702 -0.10690696 -0.6611263
000210 4e bb 8f 3e 16 4f 2b 3e ba 45 30 bf c6 5e c3 bd
       0.2807259 0.16729388 -0.68856394 -0.09539561
000220 22 c5 bd 3e 7b cf 88 be 80 5c 1f 3e df 0e 0b be
       0.37064463 -0.26720795 0.1556263 -0.13579892
000230 99 cc 1c 3f 99 c8 c1 3e 1f 90 f4 be 24 6e cb 3c
       0.6124969 0.37848356 -0.47766206 0.024832793
000240 1e 5a db 3d 1a 59 be 3e b3 17 1f 3e 80 b7 d3 3e
       0.10710548 0.37177354 0.15536384 0.41350937
000250 3d 41 9f be f8 32 85 3e 64 a2 75 be d8 00 70 3e
       -0.3110446 0.2601545 -0.23987728 0.23437822
000260 ac f6 c2 be 51 8f df be c1 28 84 3e 5c 5b c4 3e
       -0.3807882 -0.4366403 0.25812343 0.38350952
000270 a3 0f 63 be ef 44 fb be 48 58 b5 3e 3e fd 20 be
       -0.22173934 -0.4907603 0.35418916 -0.15721604
000280 83 7f 44 be 85 2c 3d 3e ca 05 0c 3f eb a1 e2 be
       -0.19189267 0.18474014 0.54696333 -0.4426416
000290 b5 4e 93 be a8 b3 db be cc 8a e6 3e ef c2 c1 3e
       -0.28770986 -0.42910504 0.4502777 0.37844035
0002a0 0c 74 15 bf b3 f0 08 be 1d 71 ab be 24 38 ca 3e
       -0.583802 -0.1337307 -0.33484736 0.39495957
0002b0 51 2e 72 3e e9 60 ef bd b3 ed 39 bd 9c 84 d5 3e
       0.23650481 -0.11688406 -0.045392703 0.41702735
0002c0 66 65 f8 3e 39 32 f6 be 49 73 07 bf 53 f8 05 bf
       0.4851486 -0.48085192 -0.52910286 -0.5233204
0002d0 f5 bf 17 3f 5a 93 0d bf dc 81 19 3e 43 b9 19 bf
       0.5927728 -0.55302966 0.14990944 -0.6004831
0002e0 e8 e0 4a 3e f2 ee d7 3e ea 7f 09 bf 95 ef bb 3e
       0.19812357 0.42174488 -0.53710806 0.36706224
0002f0 0e 0a d8 be ff 32 c3 3d e3 77 40 3e 73 ec ef 3e
       -0.4219517 0.09531211 0.18795733 0.46860084
000300 13 30 3c be d0 8b 28 bf 2f 3e 8f 3e a8 71 a0 be
       -0.18377714 -0.65838337 0.2797713 -0.31336713
000310 34 e1 e6 3d 1d 86 c1 3d 0c 1e db be 8e 4f f8 3e
       0.11273423 0.09449408 -0.4279636 0.48498195
000320 c8 68 eb be de e3 e8 be f9 73 26 3f 51 74 0b bf
       -0.4597838 -0.4548635 0.6502071 -0.5447436
000330 11 30 51 3e 76 f4 0f be 5d fb 3f be 17 73 e6 ba
       0.20428492 -0.14058098 -0.18748231 -0.0017581907
000340 c3 14 f9 be 65 4e 6a 3e 09 fb 6e be d5 d8 8b 3d
       -0.48648652 0.22881468 -0.2333795 0.06828467
000350 7b a9 71 3e 1a 4c d3 3e e6 f0 db be 0b a9 f6 3e
       0.23599808 0.41268998 -0.42957228 0.48175845
000360 b8 05 be 3d 3c c4 c0 be 13 46 0e 3e 39 c0 fe 3d
       0.092784345 -0.37649715 0.13893919 0.12439007
000370 0b 3c 9b be a3 5d 1f be b0 fd e2 be 43 bd df be
       -0.30319247 -0.15563063 -0.44334173 -0.43699083
000380 2b 4d 22 3e b1 fe e3 bc ab e9 4d be 69 5e a7 be
       0.1584975 -0.027831407 -0.20108669 -0.32689217
000390 30 6c 62 be 03 77 a6 3d b6 f6 ad be ea f5 d9 3e
       -0.22111583 0.081281684 -0.33977288 0.4257043
0003a0 fd 66 87 3e bb 93 82 be f7 a8 ee 3d fa 94 2a bd
       0.2644576 -0.25503334 0.11653321 -0.04164598
0003b0 1d 7a 8e be dc eb 9b 3c fe ab 57 3e 03 22 b3 3d
       -0.2782754 0.019033365 0.21061704 0.087467216
0003c0 e5 e4 43 3c 3d 5e 90 3e 39 79 9c 3e a1 6f 5a 3e
       0.011956428 0.28196898 0.30561236 0.21331646
0003d0 c1 9a 83 3e b6 c1 a4 be 01 a1 9f be c8 62 1e 3f
       0.25704005 -0.3217904 -0.31177524 0.6186948
0003e0 f8 b7 76 3e e4 cd 1c 3e f6 6d f7 be 84 77 d6 be
       0.24093616 0.15312916 -0.4832608 -0.41888058
0003f0 e4 67 21 be 26 a7 8f bc e1 1d 85 be 88 0e 8f 3e
       -0.15762287 -0.017535757 -0.25999358 0.27940774

weight f4 [128, 1024]
000000 91 5a eb 3c 0d 2f 5f bf e9 07 5b be 6e 6e 83 bc
       0.028729709 -0.8718117 -0.21389736 -0.016043868
000010 eb 72 1b bc ff fa bc bc e4 b2 51 be 2f b5 68 bd
       -0.009487848 -0.023068903 -0.20478398 -0.056813415
000020 77 0c 69 3e e2 8a 0d 3d c2 66 d4 bd 42 2a 8d be
       0.22758661 0.034556277 -0.10371162 -0.27571303
000030 f8 64 a4 3d 05 65 33 3d 69 f7 ee 3b 75 a1 9c be
       0.08027071 0.04379751 0.007292677 -0.30591932
000040 72 25 87 3c da 38 03 bf cc 48 fa 3d 9d e2 41 3d
       0.016497348 -0.51258624 0.12220916 0.047335256
000050 42 56 67 3d 57 55 b2 3e 55 8f c0 3c a6 78 4c bf
       0.056478746 0.34830734 0.023505846 -0.79871595
000060 99 f1 f7 bd fd ba 4e 3d 90 2b a9 bd f6 7e 50 bd
       -0.12106628 0.050471295 -0.08260262 -0.05090233
000070 e7 f9 0a 3d 08 56 a6 3c f6 5b 41 3e d5 27 1d 3e
       0.03392973 0.020304695 0.18882737 0.15347226
000080 3a 2a d3 3c af e1 a8 3d 9e ae aa 3c 7f 79 0e 3d
       0.025776971 0.08246171 0.020835217 0.034783836
000090 55 4c c5 be 5b e8 ee be d2 82 34 be b1 dc 6f bb
       -0.385348 -0.46661648 -0.17628029 -0.0036600048
0000a0 94 8c 5a be d7 5a 8e be 8a 91 22 3d 64 ca af 3d
       -0.21342689 -0.2780368 0.039689578 0.08583525
0000b0 11 31 1a 3d f2 71 00 3d cf d3 eb be 03 6f 05 3d
       0.03764445 0.031358667 -0.46060035 0.032576572
0000c0 f3 54 10 3d 65 fb bb bd 3e 72 2b 3c 08 5f d0 bd
       0.035237264 -0.09178809 0.010464249 -0.10174376
0000d0 c2 61 35 bf ad b0 ef be 61 f2 29 3d 85 87 79 3d
       -0.7085229 -0.4681448 0.041490916 0.060920257
0000e0 f1 c1 d5 3c b0 00 c4 3d 7a 7a 40 3d 9c bb 61 3c
       0.026093455 0.09570444 0.046991803 0.01377764
0000f0 25 0c 83 be b3 20 73 3e 0d 95 89 3c 1c 3e 2f 3c
       -0.25595203 0.23742943 0.016794706 0.01069596
000100 aa 0b ed bd 2b 36 bf bc be 50 2a 3d 2e ea c1 3d
       -0.1157449 -0.023341259 0.041580908 0.09468494
000110 b4 f1 6d 3d aa 61 6c 3e ea 6b 02 3e 74 88 c8 3c
       0.058091834 0.23084131 0.12736478 0.024479128
000120 71 65 42 3c fc 1f a5 3c c7 27 95 be e8 f0 d0 be
       0.011865006 0.020156853 -0.2913191 -0.40808797
000130 90 99 54 bb c7 1c 0a be 6f d4 4b 3e d0 02 e9 3c
       -0.0032440163 -0.1348754 0.19905256 0.028443724
000140 6e e8 98 3e a7 a0 25 3e 8c 28 ef be 08 34 77 bc
       0.2986483 0.16174565 -0.46710622 -0.015088089
000150 f0 63 01 bf 92 cd 79 bc fa 3d 1a 3e 94 ba 73 3d
       -0.5054312 -0.015246766 0.15062705 0.059504107
000160 fe 9f 19 3e ba e1 f8 bb 4b e0 ee 3d d6 42 43 bd
       0.15002438 -0.007595268 0.11663874 -0.04767116
000170 de d5 c8 bc 74 3f 8e bf 60 30 30 bd 20 90 be bd
       -0.024516042 -1.1113114 -0.043014884 -0.093048334
000180 98 07 de be 94 2e 5c bd 34 78 5f bd 75 22 8d be
       -0.4336517 -0.053755358 -0.054557994 -0.2756535
000190 85 ba ab 3d 78 95 18 3e 37 f0 77 3d 9e 8a 00 be
       0.08385185 0.14900768 0.06053182 -0.12552878
0001a0 39 ae c6 be fc 72 4f 3d 1b d8 c5 3c f7 af c1 bc
       -0.38804796 0.050646767 0.024150899 -0.023643477
0001b0 ad 39 83 3d 1e 40 95 3d 17 48 c4 be 61 3c 0a 3d
       0.06407485 0.0728762 -0.3833625 0.033748988
0001c0 23 e6 26 3d b4 06 4d 3e 69 a5 24 3d ed 79 b0 be
       0.04074682 0.20022088 0.04019681 -0.34468022
0001d0 77 d8 ad 3c e1 f5 76 bc 68 ae 69 be 1d 9b 96 be
       0.021221383 -0.015073271 -0.22820437 -0.29415217
0001e0 14 24 a1 3c ad 7b 80 3b 07 9d 07 bf eb 8e 56 bc
       0.019670524 0.0039209933 -0.5297398 -0.013095598
0001f0 81 84 8e bf 7e 0d 60 3c 7b 6b da bb d5 55 b1 be
       -1.1134187 0.013675092 -0.0066656447 -0.34635797
000200 2d 18 15 3c 7e 48 e9 bd fb 48 13 3d 27 79 19 3d
       0.009100002 -0.1139078 0.03595827 0.037469056
000210 45 ce c1 bd 87 5b 28 3d 4f 1e cd 3d 16 7a b9 3d
       -0.09463171 0.041102912 0.100155465 0.09056489
000220 59 51 37 3e 15 59 0f be eb ea 39 3d bb c7 10 be
       0.17902125 -0.13998826 0.04539005 -0.14138691
000230 7b 89 95 3c 3b 50 22 3c 7d 3a 7a 3c 4f 6c 16 3d
       0.018254032 0.009906824 0.015272734 0.036724385
000240 94 9f ba 3c 96 c5 a2 39 05 19 fb 3d e6 f4 45 3e
       0.02278117 0.0003104626 0.122606315 0.19331703
000250 15 84 9f be fe 48 0e be 0a f1 aa bb 56 c8 1f 3d
       -0.31155458 -0.13895032 -0.0052167224 0.039009415
000260 a7 83 58 3e d1 65 15 3d b8 29 b5 bc 3e 9f 9e 3d
       0.21143971 0.036474053 -0.02211462 0.07745217
000270 9a 55 2f be 7c 2a bd 3c b4 f1 15 3f fc 38 29 be
       -0.17122498 0.023091547 0.58571935 -0.16525644
000280 12 cf 5c 3d b9 42 77 be 32 59 2e 3e 40 44 e8 bd
       0.053908415 -0.24146546 0.17026213 -0.11341143
000290 01 80 39 bb 70 8c 18 bf 25 9b 91 3e 6e 8e 1e be
       -0.0028305056 -0.5958929 0.28438678 -0.1548402
0002a0 d1 70 b7 3d 99 76 3d be a9 57 fc bb f0 64 37 3d
       0.08957065 -0.18502273 -0.0077008796 0.044773996
0002b0 f7 9b 9b bd af 92 05 bd d0 ff bf 3d 6f 52 c2 bc
       -0.07598107 -0.03261059 0.09374964 -0.023720948
0002c0 3b 1d 56 3d 17 b7 2d bd eb b0 b8 3e 09 e6 1d be
       0.05227397 -0.042410936 0.36072478 -0.15419783
0002d0 f4 f1 a1 3d 3a 78 97 bd 2b eb 29 bf 8f df c3 3d
       0.07907477 -0.07395978 -0.6637446 0.09564125
0002e0 9b fa aa bc fa b1 58 3e 55 5a 82 3d 29 1c c3 3b
       -0.020871451 0.21161643 0.06364886 0.0059542847
0002f0 36 67 04 3d a7 fd 7d 3e 66 64 8e 3d 2e 26 3a bc
       0.032324992 0.24803792 0.06952743 -0.011361642
000300 81 84 9a 3c 11 db 90 3e 34 09 44 3e 73 86 1f 3d
       0.01886201 0.28292134 0.19144136 0.03894658
000310 54 0c e4 bd c0 f5 01 3c cb 5a b4 be 14 83 8f 3e
       -0.11135164 0.0079321265 -0.3522552 0.28029692
000320 c6 db c2 3c 8c 2c 8b be 20 40 52 3e c9 70 64 3d
       0.023786437 -0.27182424 0.20532274 0.055771623
000330 67 c9 b3 3e 35 ad e1 bc cd b7 e7 be 2c e4 e1 be
       0.35114595 -0.027548412 -0.45257416 -0.44119394
000340 30 93 73 3c 52 96 1e 3d f3 cb fd bc 6a 29 12 3d
       0.014866635 0.038717575 -0.03098104 0.035684027
000350 5d 4e b1 3c 3a 23 b6 bc fe d2 9f be b9 e1 98 bd
       0.021643812 -0.022233594 -0.31215662 -0.07464928
000360 d8 00 e1 3d 72 f5 ab bd 81 17 29 bc 7e 45 7c bb
       0.10986489 -0.08396424 -0.010320545 -0.003849357
000370 29 62 fa bc b3 37 a9 be ef 10 6b be 23 a6 7e be
       -0.030564385 -0.33050308 -0.22955678 -0.24868064
000380 90 fe da bd af 01 12 bd df 81 65 3e 82 c9 29 bf
       -0.10693085 -0.035646137 0.22412823 -0.663231
000390 63 e0 8b be d2 ce db 3b cb a1 d7 3c 41 eb 88 3e
       -0.2731963 0.0067080045 0.026322266 0.26741984
0003a0 08 4f df 3c ac e4 88 bd 43 d4 66 bc 01 6c 3d be
       0.027259365 -0.06684241 -0.014088693 -0.18498231
0003b0 16 87 90 bc fc d4 99 3d d7 0d 05 be 88 15 11 bd
       -0.017642539 0.07511327 -0.1299356 -0.035420924
0003c0 fd 04 57 3d 65 a4 3b 3d fd b9 db 3e 9b 0e e5 bb
       0.05249499 0.045811076 0.42915335 -0.0069902665
0003d0 db e8 c9 bc 0c 67 3e be a3 85 9b 3d 81 89 7d 3e
       -0.024647167 -0.18593997 0.075938486 0.24759485
0003e0 1e d4 9e 3d 48 7a 15 bf 30 f1 1b 3e 33 a2 8d 3d
       0.07755302 -0.5838971 0.15228724 0.06915703
0003f0 83 0b c3 be 01 3a 46 3d 06 57 7f 3d d7 97 3c 3b
       -0.3809472 0.04839516 0.06233885 0.0028777027

bias f4 [128]
000000 49 84 10 bd f8 9f 73 bc c9 69 98 3c e3 a2 8f 3d
       -0.035282407 -0.0148696825 0.01860513 0.0701349
000010 aa 19 b1 3c 06 c8 cd 3b ac d5 13 3c cb ea c4 3c
       0.021618683 0.006279948 0.009023111 0.02403774
000020 29 42 3c bb e4 43 5d bc 35 9a 10 bd ec 44 a2 3d
       -0.0028725958 -0.013504956 -0.035303313 0.07923302
000030 5b 7c a7 3d 43 cb 96 bc 01 0c b8 bc b1 3c 0c 3e
       0.08178016 -0.01840747 -0.022466661 0.13695027
000040 bc 70 7a bc 50 16 3d bc 1b 81 fa bb 7a 33 07 3d
       -0.015285667 -0.011540964 -0.007644785 0.033008076
000050 39 3d 88 bc 33 87 d6 bc 21 1c e8 bb c9 96 ff ba
       -0.016630756 -0.026187515 -0.0070834314 -0.0019499894
000060 14 d5 8f bb cd d3 a9 3d 62 4d 3a bd 29 42 40 bb
       -0.0043894146 0.08292351 -0.045483954 -0.002933631
000070 d5 96 e0 3b 47 16 92 bc 62 12 10 bb 33 a9 b5 3d
       0.006853918 -0.017832888 -0.0021983613 0.08870163
000080 7c 9b b9 3c eb 40 bf 3c 8f 1f 60 3c 21 c0 c3 3d
       0.022657149 0.023346385 0.013679399 0.0955813
000090 7d a1 5f bb af 42 e2 ba 7f 4e 0c bd cb bd 01 bd
       -0.0034123354 -0.0017262305 -0.034254547 -0.03167514
0000a0 2f d2 92 3c 6c 9d bc 3c 2b 94 fa bb f8 71 e6 bc
       0.017922489 0.023024283 -0.0076470575 -0.028130516
0000b0 19 25 c4 3d 20 55 c0 3c c3 ae 4e bd 8c 36 14 bd
       0.09577388 0.02347809 -0.050459635 -0.036184832
0000c0 e9 71 bc bb c4 c5 c1 3c 23 df 90 3c 0d a9 8f 3d
       -0.005750884 0.023653872 0.017684525 0.07014666
0000d0 48 61 16 bc d3 ee f1 bc 7a ff 87 3d 23 e1 b4 3c
       -0.009178467 -0.029532826 0.06640525 0.02208001
0000e0 94 02 5d 3d b9 2f 43 3d 42 59 e6 bc be ad be bc
       0.053957537 0.047652934 -0.028118733 -0.023276206
0000f0 00 f5 69 3b f5 4d ad 3c 34 80 0a bd a7 86 b7 3b
       0.003569901 0.021155337 -0.03381367 0.0056007686
000100 93 7d b6 bd 90 37 5a 3c 94 40 d6 bd 48 04 d7 bc
       -0.0891067 0.013318911 -0.10461536 -0.026247159
000110 19 e7 07 3d d8 cd 24 bc b4 5e a3 3d 1f b7 05 bd
       0.033179376 -0.010058843 0.079770476 -0.03264534
000120 40 da 9d 3c 24 47 20 3b f6 2b 0a bd cd 16 4c bd
       0.019269109 0.0024456466 -0.03373333 -0.049826432
000130 7d 8f e4 3a 79 f0 8c bb 7e 50 ae 3a ff b8 aa 3d
       0.0017437782 -0.0043011275 0.0013299135 0.083360665
000140 47 5a 7c bc 07 1b 00 bd 75 26 f1 bc bf 15 75 bd
       -0.015402383 -0.031275775 -0.029437283 -0.05983519
000150 e2 e1 e0 3d e1 ec 53 bd cf 16 9a bd 88 84 12 bd
       0.10980584 -0.051739577 -0.07523882 -0.035770923
000160 f9 31 83 bd b9 4f 6c 3c 6a 97 d0 bc 8d c0 bb bc
       -0.06406016 0.014423304 -0.025462825 -0.022918964
000170 82 e9 51 bd e2 06 e2 bc 3f f0 13 bd 7d 40 da bd
       -0.05124808 -0.027591173 -0.03611779 -0.106568314
000180 fc 43 a1 bc 90 c1 5b 3b 28 a7 38 bc 01 30 55 3b
       -0.019685738 0.003353212 -0.011270322 0.0032529833
000190 40 fb d4 3d 01 89 0a bd c7 70 a6 3d 08 fd 99 3c
       0.10399485 -0.033822063 0.08126979 0.018797413
0001a0 2d 4e 77 bb 2b c7 ae 3c ab b5 d0 3d fc 35 bd 3c
       -0.0037735805 0.021335205 0.101909004 0.02309703
0001b0 db 2a 80 bd 3d 1d ae bd 96 16 bb 3c e9 1c 13 bd
       -0.06258174 -0.085016705 0.022837918 -0.035916243
0001c0 73 96 fd bd 5d 2b 2b 3c 1e 1b 38 3c 03 0c 6f 3b
       -0.123822115 0.01044735 0.011236934 0.0036475665
0001d0 e7 86 97 3c 19 eb b9 3a ba aa dd bc 1f 0a e9 bb
       0.018496944 0.0014184444 -0.027058948 -0.007111802
0001e0 b2 e4 c2 bc 19 91 36 bd 04 73 b3 3c ca 8b a1 bc
       -0.023790691 -0.04457197 0.02190543 -0.019719977
0001f0 81 c6 bd 3c 47 49 57 bc 91 3d db 3d af a5 c6 bc
       0.023165943 -0.013140029 0.10705102 -0.024248926

weight f4 [3, 128]
000000 22 e9 1a 3f 0d 27 2e 3d d3 79 5f be 32 f4 0c 3e
       0.6051198 0.04251771 -0.21823816 0.13765028
000010 49 1c 8d bc 86 a1 59 3e 2b c2 d9 bc fc 20 89 bd
       -0.017225401 0.21253023 -0.026581844 -0.066957444
000020 62 51 7c 3c ba 1d d0 3e b7 ed 10 bd a8 35 5b 3e
       0.015400263 0.4064768 -0.035382953 0.21407187
000030 d5 45 56 3e 3e f8 0a be 09 f3 a7 bd 11 9b 1d bd
       0.20925076 -0.1357126 -0.08200652 -0.03847796
000040 fc 8c 25 3c 71 4e 64 bc 06 ce 7d bd c6 5c 5c be
       0.010104414 -0.0139347175 -0.061964057 -0.21519765
000050 77 50 a5 3d 54 40 7b 3e 61 63 a1 bd 48 60 0c 3d
       0.08071988 0.24536258 -0.07880283 0.03427151
000060 c5 06 4c 3c fb 55 96 3e bc 9a 4c be 40 70 17 3e
       0.012452786 0.29362473 -0.19980901 0.14788914
000070 ba 46 9c 3d 29 d4 8b bd 2b 69 5a 3d 79 32 ce 3e
       0.076306775 -0.06827576 0.053322952 0.40272883
000080 f8 ca 14 bd 32 a7 3e bc 7a da 67 bd 26 43 9d be
       -0.03632638 -0.011636542 -0.05660484 -0.30715293
000090 ce a0 9b 3d 37 da de 3d 2e 00 47 3b 26 e3 c9 ba
       0.075990304 0.10881465 0.0030365097 -0.0015402779
0000a0 c0 44 a9 bd 3d d2 63 3d 13 04 89 bc 42 a8 62 bd
       -0.08265066 0.05562042 -0.016725576 -0.055336244
0000b0 6d 6a 05 3d 30 7d b3 3d 47 94 61 3e e9 fd 1f 3d
       0.0325722 0.08764112 0.2202922 0.039060507
0000c0 81 bd 27 bd ed 9a 2f 3d 6a 8e 76 bd e5 96 6f 3e
       -0.04095221 0.042872358 -0.06019441 0.23397405
0000d0 19 7f 55 3d fd 3d 28 bd 22 c7 73 3e f0 a3 a2 bd
       0.052123163 -0.04107474 0.23806432 -0.07941425
0000e0 cf e8 de 3e ea 4e 30 3f 48 b2 8e 3c eb 6a d0 3d
       0.43536994 0.68870413 0.017418995 0.10176643
0000f0 38 4b 65 bd a7 71 a8 bd 73 77 b3 bb 5a 15 13 bd
       -0.055979937 -0.082248025 -0.005476886 -0.035909034
000100 ec ba 95 3e 54 f9 af 3c 71 4c e0 3e 1b c7 a3 bd
       0.29244173 0.021481194 0.4380832 -0.07996961
000110 91 b6 3d 3f 29 8f 0a bd e0 2a eb 3d 02 86 c8 bc
       0.741067 -0.033827934 0.11482787 -0.024477962
000120 8f 60 ad 3c 78 49 6e bd a8 7f 80 3d a9 b7 ec 3e
       0.021164207 -0.058175534 0.062743485 0.46233872
000130 d4 65 a3 3d 90 af 99 3c d7 ff 8b bc ac 17 77 3e
       0.079784065 0.018760473 -0.017089767 0.24130124
000140 ac b5 58 bd f1 65 b1 3e 85 dc 20 bd b5 dc 3c 3e
       -0.05290763 0.34648088 -0.039272804 0.18443568
000150 52 d1 26 3f 77 71 db 3e af 32 21 3f 62 03 97 3d
       0.6516315 0.42860004 0.6296796 0.07373692
000160 1c 9c 41 3e 5c 3e ec bc ec 53 76 bd 88 a4 88 3d
       0.18907207 -0.028838329 -0.060138628 0.06672007
000170 f8 48 ed 3d dc 81 8a bd 3d c3 6e 3d 00 31 b1 be
       0.11586183 -0.0676305 0.058291662 -0.34607697
000180 a7 3d 82 bd 72 89 69 3e bb cf c3 3e 6a f5 3b bb
       -0.063594155 0.22806337 0.38244423 -0.0028680214
000190 d8 8a ba be 49 f7 31 3d a5 37 4f 3e e8 bf 02 bd
       -0.36434054 0.04344872 0.2023607 -0.031921297
0001a0 21 6f aa bd 3d 70 92 bd 35 41 4b 3f f8 2b 8a bd
       -0.083219774 -0.07150314 0.79396373 -0.067466676
0001b0 73 6c fa 3e 0a 1d b6 bd 81 16 aa bd fa c6 53 bd
       0.48910865 -0.088922575 -0.083050735 -0.05170343
0001c0 6e a8 0e be 8a 58 3d 3d 37 52 00 3e 5f c6 12 3c
       -0.13931438 0.046227016 0.12531362 0.008958428
0001d0 d6 0e a4 bc 79 6d cf 3e 8a b6 c4 3c bf 1d 04 3d
       -0.020026606 0.40513209 0.024012823 0.03225493
0001e0 2a 95 35 bd be 2b 23 3e 21 30 b4 bd 29 5c 0d 3f
       -0.044331707 0.15934655 -0.08798242 0.5521875
0001f0 b5 7f 6f bd bb 00 ca 3b 0f c8 5a bd 3a e8 58 3d
       -0.0584714 0.006164638 -0.053413447 0.052955844
000200 c8 50 cb bc 4b b3 a2 bd be 7a 8b 3e e1 2a 10 3f
       -0.024818793 -0.07944354 0.27242082 0.5631543
000210 44 f4 8f bd 7e 8b 84 3e b9 64 9b bc 34 55 7f bc
       -0.07029012 0.25887674 -0.018968927 -0.015584279
000220 b7 6f a3 bd a8 cd e8 3e a8 f6 6e ba 77 4f 24 3f
       -0.07980292 0.45469403 -0.0009115734 0.64183754
000230 33 d7 4b bf a2 2a 2a bf ba 91 7e bd af 89 dc 3e
       -0.7962524 -0.664713 -0.062150694 0.43073794
000240 ad 58 02 3c 5c 18 6e bd 68 bc a2 bc be 60 c6 3e
       0.007955712 -0.0581287 -0.01986523 0.38745683
000250 e9 03 3b bd 9f c8 94 be 08 03 6e bd a9 79 1e 3d
       -0.045658026 -0.29059312 -0.05810836 0.038690243
000260 f6 88 88 bd 5b c7 bb 3e 5a 9b 37 3e bb f8 9f 3e
       -0.06666748 0.36675534 0.17930356 0.31244454
000270 ee 5e 50 bd 27 ac 8e 3d 46 33 3a bd 51 f7 1a be
       -0.050871782 0.06966429 -0.045459054 -0.15133406
000280 18 22 ec bb 24 44 99 bd 72 d4 9e bd c1 ca 14 3e
       -0.0072062127 -0.074837 -0.077553645 0.1453047
000290 91 39 75 bd ed 1e f6 3d e9 86 dd bc 90 e7 46 bd
       -0.059869353 0.120176174 -0.02704187 -0.04856068
0002a0 67 b6 90 bc ff bd bd 3c 0b 9c c0 bc 23 e7 25 bc
       -0.017665101 0.023161886 -0.023511907 -0.010125908
0002b0 be 84 11 be df 2d b1 bd dd 21 35 3f 74 91 70 bd
       -0.14210793 -0.08651327 0.70754796 -0.058732465
0002c0 a5 a4 03 3d 72 b3 a4 bd 52 28 84 bd 86 8f 24 3f
       0.03213944 -0.08042039 -0.06453003 0.642815
0002d0 79 36 1f bd 5f 27 8f bd 7c 8e 4b bf f4 c6 b7 3d
       -0.03887031 -0.06989931 -0.7951429 0.08973494
0002e0 94 c2 66 3e 86 d6 11 be 60 54 77 bd 31 62 b9 3e
       0.22535163 -0.1424199 -0.0603832 0.36207727
0002f0 39 c0 a8 3d 4f d2 49 bc 21 b6 9c bd e4 88 76 bc
       0.082397886 -0.012318208 -0.07651926 -0.015047286
000300 ce 33 28 3f f8 17 d3 bc d6 e3 4c 3e 95 38 84 bc
       0.6570405 -0.025768265 0.20008788 -0.016140262
000310 33 9e 87 be 29 4e aa bd 95 a9 14 3f 6b 52 95 3d
       -0.26487884 -0.08315689 0.5807126 0.072911106
000320 11 2f 47 bd b8 fd 79 3d 3f ed 33 bc 63 a1 2b bd
       -0.04862887 0.06103298 -0.010981857 -0.041901957
000330 cc 58 c3 bc 31 e5 65 bd 95 5f 9f bd 2f 34 1d 3f
       -0.023846053 -0.056126777 -0.07781903 0.6140775
000340 9b f8 cd bc bd 07 c8 3e ff 01 8e bc 38 ab 74 3e
       -0.025142958 0.39068404 -0.017334936 0.2389344
000350 45 43 52 3e fe 09 0b 3f 94 76 91 3e c7 ea 37 bd
       0.20533474 0.5431212 0.2841078 -0.044901635
000360 ef 40 20 3d a1 65 05 bc 05 79 77 3d ad ff 98 bd
       0.039124426 -0.008141906 0.060418148 -0.07470641
000370 3a ed a9 3e 24 98 0d bd 03 98 d7 bc 69 25 86 be
       0.33188802 -0.03456892 -0.026317602 -0.26200417
000380 3b 57 07 3c 88 c5 0e 3f 3a 46 48 3e 85 fc f0 bc
       0.008260543 0.5577016 0.1955804 -0.029417286
000390 4b 6c ef 3e 67 ea 44 3d da b4 16 3f aa 7c 9e bc
       0.46762308 0.048075106 0.5886971 -0.019346554
0003a0 ef 48 a2 bd 13 4e 26 bc cf 77 49 bd a7 65 98 bd
       -0.07924067 -0.01015045 -0.049186524 -0.07441264
0003b0 39 ea 3c 3f e9 91 fc bb 19 1e db bc d4 0d 96 bd
       0.73794895 -0.0077078235 -0.02674775 -0.07326856
0003c0 9a 09 04 be c3 7c a8 bd b5 09 00 be fe d1 41 bc
       -0.12894288 -0.082269214 -0.12503703 -0.011829851
0003d0 0c f1 21 bd 8a e6 5f be 15 14 3c bd 50 00 cd 3c
       -0.03953652 -0.21865287 -0.04591759 0.025024563
0003e0 16 e0 3b bd 9d b6 39 3e a2 a2 9c 3d 73 6c 0b bf
       -0.045868002 0.18136068 0.07648207 -0.54462355
0003f0 41 1c 0a 3d 6e e7 46 bd e3 8c 1c be 41 6e 87 bd
       0.03371835 -0.048560552 -0.15288119 -0.06612826

bias f4 [3]
000000 8c 5f 47 bc 28 c9 20 3d 04 09 81 bd
       -0.012168776 0.039254338 -0.06300548
