saved_models/run5/model_999.pth (torch, 550876 bytes, 6 tensors)

weight f4 [1024, 4]
00000000: cdb8 933d 91e8 e5bd 2183 063e 8a34 e53e
00000010: c775 923e b8da 63be 23b8 2abe dd6e 04bf
00000020: 009a a6be 386e 1d3e dc0d 8ebc 7448 fe3e
00000030: 1a01 4f3e 6adb 11be 7c5b 8c3e 533b d8be
00000040: 563d 07bd 7253 173e f370 2b3e e21c e23e
00000050: 7aca c03d bf9b 96be b190 d5ba 4582 743e
00000060: b79c 1fbf a7c8 d13e 0e7c 3fbe 8b2d 963e
00000070: 0f28 3f3e c46a dcbd d82d 04be 7683 f03e
00000080: 5446 a0be 674e 643e 30c5 b6be 070c 3fbd
00000090: 6390 14bf 2a01 583e 8397 e63e e319 fd3e
000000a0: a027 0dbf d77f 4c3d 00b7 08be e080 cd3e
000000b0: 6f86 3f3d c9de 83bd 8a45 6dbe 52c4 23be
000000c0: 675d 083c d8eb bb3e 7a25 d63e 3f3a ab3d
000000d0: 4785 0a3e 271d 8b3e 1159 353e 8e1d 80be
000000e0: 11ae 803d 013f 1bbe 247e 8f3e 71fc 8f3d
000000f0: 5956 833e 9a19 55be 76ac 9bbd ede4 483d
00000100: 1ec0 e4bd 4352 9f3e 99ac a13c 541c 483e
00000110: 071a a73e 8854 0abd c385 f03c c404 90be
00000120: 8116 a73d ff1a d23e 093c 26bf 51de e23d
00000130: b994 ecbd 1d85 b73d 8d63 813e bcc8 d6be
00000140: 0469 41be 83de f33e b515 19bf abaf 20be
00000150: f84f c6be c156 683e 8fba c4be a469 f4be
00000160: 2cc9 843c 4b46 023f 8673 543e 4de6 0b3f
00000170: 7056 0f3d 5ae8 2cbe 0204 09be 78c0 ebbe
00000180: d6a3 e23e df16 453e b3e7 31be a6c4 9ebe
00000190: 1d7b ffbe ce1d 17be 3acd 8c3e a2bc 703e
000001a0: 6bad 83bd 3fb0 9d3e cf9a 7ebb ea86 5c3e
000001b0: 00ba 06be f455 983e 5391 85bd f4bb 70be
000001c0: 9ade f7bc 97a7 51be e46c dc3e 644c f9bd
000001d0: 9856 8dbe bdfe a2be 412c 403d dab6 c63e
000001e0: b0f1 a5bb f359 52be 5071 1abf 9a37 b13e
000001f0: 1b7f d43e 8b03 cabe 6077 1fbf 6e87 ccbd
00000200: b2ab f33c 7f78 55be 83ce cb3e 1834 04bf
00000210: d7d3 b8be 5766 61be 5cf9 523d 9934 733e
00000220: 5703 b6be 564e ca3d 89d1 cf3e 8e8b 9c3e
00000230: 9f01 69bd 8c38 efbe 3b24 f13e 9214 a73d
00000240: 507a 0e3f af42 bebb 2235 b23c ffb7 0cbf
00000250: 040e d9be 1b5a 523e a447 debc 3a34 043f
00000260: f5af dd3e 09c5 ce3e 730d 52be 9e60 12bf
00000270: ac02 04bf 6956 cebe a2a1 e13e 3e01 113e
00000280: d74e 953e 88c2 f93e 5c61 06be 667d 953e
00000290: a5c9 b6bd 5462 6abe f3f7 01be 1586 6c3d
000002a0: d537 70be cf82 323d 4eb5 803e 2486 b0bd
000002b0: f13a 213e 1a6a 47bd 9a38 02bf 308f db3e
000002c0: a15a 9b3e 7129 663d c043 163e 276f f7be
000002d0: 86b8 eabe b9e1 7e3e ac38 d63e f341 033f
000002e0: 2a4e a03e 35eb 13be 1cce 7abd b30f f9be
000002f0: 07c3 cdbd 00fa fdbd 1d44 8a3c 049a 083f
00000300: 04de cfbc befb 7cbe 3938 86be 24a1 f53e
00000310: 8aaa e3bd 536c dc3d 4d14 913d 6d28 0e3f
00000320: 6d88 913e a53c 1f3e 85cf 9a3e e14f d5be
00000330: dede 10be 2413 d73e 88e6 66be f390 0ebd
00000340: 2e8b 91be 8b23 1e3e a6bb 453b 32d0 eb3e
00000350: af64 143f f373 52be 2fe5 593d 1d4b dabe
00000360: 305b a7be 0de2 b9bd 4762 86be 962d 0c3f
00000370: 95cf f5be 2a82 a5be 7260 18be 06c3 d13e
00000380: f07c 033f 4f00 2d3e dc53 bd3e 8833 01bf
00000390: 6ad7 18bf 6225 e73e 39fd 763e 839f 28bd
000003a0: 1b14 8abe 9978 07bb 9e66 9abe 5244 3d3e
000003b0: 4af0 803e c53c f53c 7626 7e3e 1f70 95be
000003c0: 1c0f 83bd 22c1 e73e 97b8 41bd 8d30 ea3e
000003d0: 1891 a33e 5594 94bd 366e bebe c492 c3be
000003e0: 2bb3 07bf 57f9 b1be 688d a23e 281f c6be
000003f0: 2bf4 83be 529e a73e 146d bb3e e146 583e
0.07212982 -0.11225999 0.13135959 0.44766647 0.28605482 -0.22251403 -0.16671805 -0.51731664
-0.32539368 0.15374076 -0.017340593 0.49664652 0.20215264 -0.14243856 0.27413547 -0.4223276
-0.03301748 0.14777926 0.16742305 0.4416266 0.09413619 -0.294157 -0.0016293732 0.23877819
-0.623485 0.40973398 -0.18699667 0.29331622 0.18667625 -0.107625514 -0.12908113 0.46975297
-0.31303656 0.22295533 -0.35697317 -0.04664233 -0.58032817 0.21094194 0.4503747 0.49433812
-0.5513859 0.049926605 -0.13351059 0.40137386 0.046759065 -0.06438977 -0.23171058 -0.15992859
0.00832305 0.36703372 0.41825467 0.08360719 0.13527404 0.2717068 0.17709757 -0.25022548
0.062832005 -0.15160753 0.28025925 0.07030571 0.25651816 -0.20810547 -0.07601254 0.049046446
-0.11169456 0.31117448 0.019735621 0.19542056 0.32637045 -0.03377202 0.029360658 -0.28128636
0.08158589 0.4103622 -0.64935356 0.1107756 -0.11551804 0.08960936 0.25271264 -0.41950023
-0.18887717 0.476307 -0.5979875 -0.15692012 -0.38732886 0.22689344 -0.38423583 -0.47736847
0.016209207 0.5088851 0.20747194 0.54648286 0.034994543 -0.1688551 -0.13380435 -0.4604528
0.44265622 0.19247006 -0.17373542 -0.31009406 -0.49898615 -0.14757463 0.27500325 0.23509458
-0.06429561 0.30798528 -0.0038849597 0.2153584 -0.13156891 0.29753077 -0.06521859 -0.23509198
-0.030257512 -0.20474087 0.43051827 -0.121727735 -0.27605128 -0.31834975 0.046917204 0.3881138
-0.005064212 -0.20542125 -0.6032915 0.34612733 0.41503224 -0.39455828 -0.62291527 -0.09986769
0.029744957 -0.20846747 0.39805993 -0.5164199 -0.3609912 -0.22011696 0.05150734 0.23750533
-0.35549423 0.09878223 0.4058955 0.30575222 -0.05688631 -0.4672283 0.47097954 0.0815822
0.55655384 -0.005806289 0.021753851 -0.54968256 -0.42393506 0.20542185 -0.02713377 0.5164219
0.43298307 0.403847 -0.20512943 -0.57178676 -0.51566577 -0.403003 0.4406863 0.1416063
0.29161713 0.48781228 -0.13123077 0.29197234 -0.089251794 -0.22889072 -0.12692241 0.057745058
-0.23458798 0.04358178 0.25138324 -0.08619335 0.1574514 -0.04868517 -0.5086762 0.4288268
0.30342582 0.056191865 0.14674282 -0.4832699 -0.45843905 0.24890794 0.41840112 0.51272506
0.31309634 -0.14445193 -0.061231717 -0.4864479 -0.10046964 -0.12401199 0.016878182 0.5336001
-0.02537442 -0.24705407 -0.2621477 0.47974503 -0.11116512 0.10762849 0.0708395 0.55530435
0.28424397 0.15550478 0.3023645 -0.41662505 -0.14147517 0.4200679 -0.22548878 -0.034806203
-0.28426498 0.15443246 0.0030171662 0.46057278 0.5796613 -0.20552044 0.053197082 -0.42635432
-0.32686758 -0.09076319 -0.26246855 0.5475706 -0.48009935 -0.3232587 -0.14880541 0.40969104
0.51362514 0.16894649 0.36978042 -0.50469255 -0.59703696 0.45145708 0.24120034 -0.041167747
-0.26968464 -0.0020671247 -0.30156416 0.18483093 0.25183326 0.029936204 0.24819359 -0.29187104
-0.06399366 0.45264536 -0.04729518 0.45740166 0.31946635 -0.072548546 -0.3719346 -0.3819791
-0.53007764 -0.34760544 0.3174851 -0.38695645 -0.25772223 0.32737976 0.36606658 0.21120788

bias f4 [1024]
00000000: e2a2 d4be 907b 7fbe 7efd 613e 27d4 d0be
00000010: ac1e e53e a6b1 c13d bb4a 4d3d da64 163f
00000020: d561 293e 2bc2 993d 7a66 ab3e 124f 36bd
00000030: fd3b f9be 30d7 adbe 0e55 b03e 0040 cfbe
00000040: a680 d53d c666 7fbe 6e96 b33e 9885 96be
00000050: f18f a0bd f71a e5be 65fd b83e f007 b6bd
00000060: 8965 943e 793b 863e 0b37 4c3e d634 debe
00000070: fb72 d93e e12d a43d b71b d63e d499 6e3e
00000080: a95a 1e3e 6bf5 bebe 4e8b 073e 5800 003f
00000090: 8676 92be 2ab2 84bd eb2b 59be 08d2 633e
000000a0: b083 fe3d bd50 f3be 40ab b03e c192 0a3f
000000b0: f729 3bbe 437c ba3d 3a92 493e 4ddf cabd
000000c0: e9db 65be 2f99 a3bd 7894 333c 2086 00be
000000d0: 33b0 8cbe 3c28 9ebe 8eaa 963e 0f8e ba3e
000000e0: e9b8 5e3c e8fe 35be 717c bd3e abea 883e
000000f0: 9e2b eabd a0e4 823e 7426 913e 0558 4e3e
00000100: ad3c 823d d2c3 6bbd 9d92 00bf 9ba4 e4be
00000110: dab7 5e3e 4b03 103f c471 bc3e a579 003f
00000120: 7ab3 293c 4dab 113f 0b24 3abd 18c0 473e
00000130: be05 e6be 2730 86bc f88c 9c3e 2ada c93d
00000140: d27c a23e 901e df3d e4c4 75be 4c5a bdbe
00000150: ac2d 46be d0fa e93e 245d 183f 7510 4ebe
00000160: c8ec 923e 0400 943e f633 94be 705a b83e
00000170: a160 313b 0e52 55be 2e9c 033f 8384 8dbc
00000180: 0502 05be 80e3 d83e e7f4 8bbe f2c8 e4be
00000190: abd7 f7be d658 be3d 8bc9 683e 088d 213e
000001a0: 78f1 a5bd 79bd f1be 5d5c 82be 52bf 843e
000001b0: 7570 043f e232 3b3e df4a febe 6cde 173e
000001c0: eacd f43d 0fc1 273e 71a7 783e ecc8 0a3e
000001d0: e4fa cd3e 9294 493e 467c 95bd f290 81be
000001e0: 8dd6 0d3d 55a8 3f3d 555a 59be f1e7 cd3e
000001f0: 0077 9cbe 7492 ba3d fc4a 84be b891 77be
00000200: 813b 523d 0a49 41be 7462 17be 6123 08bf
00000210: 4f24 5d3e c0b5 833e d35b f5be 2a67 d03a
00000220: 83b3 d93e 8e31 49be e5f4 e23d 9dff 5d3b
00000230: 5493 213f 3189 f63e 9bff d7be 6a6b 29be
00000240: a0b6 173e d595 e43e 1a27 f03d 403e e53e
00000250: e283 8cbe 54bc 3c3e b02e 4fbe 4a40 8e3d
00000260: 211b 50be c196 d0be 105f c93e ca85 ae3e
00000270: a007 79be 39cf f6be 6307 7d3e 4159 6abe
00000280: 5667 8bbd 060b 373d 0492 eb3e d977 b9be
00000290: 722d afbd 2922 9bbe 3ffc d83e 49c0 743e
000002a0: da1d d6be 5014 4dbe 82f2 d5bd cff2 c13e
000002b0: 2838 613e 0c8a 6abd 3df1 68be 29f1 dc3e
000002c0: 5d08 003f 21c6 e1be 0fc0 bbbe 2e85 9fbe
000002d0: e332 043f fdb9 0fbf 298c d9bd be19 fdbe
000002e0: 0cc0 55ba b8fc e73e 2936 d1be ca8b b83e
000002f0: 0029 b7be 36cb 093e 23db 503e 4e31 b93e
00000300: 2657 6cbd e655 02bf dc6a 9a3e bd10 2ebe
00000310: 58f5 b43d a0d4 d73b 65c9 b4be 484f 053f
00000320: 2e6e d9be 52c6 ecbe 3ddd 203f 0a5d d2be
00000330: 1280 2f3e 8487 50be bafa 23be 01e6 15bd
00000340: 58e0 87be 530d 993e e49e 7ebe 6ac5 48bd
00000350: d05e a53e 153c f03e 2485 fcbe d7e9 f43e
00000360: 8cc3 623e 9e14 9cbe 8737 1a3e a881 d1bb
00000370: 67b0 93be 375e eebd 30a5 afbe 713c cfbe
00000380: 4fbf 593d 9c36 58bd 7bb4 1ebe 73f7 7dbe
00000390: 008a afbe 2f8c f93d 8a48 9abe 73df f13e
000003a0: 86bb f33d 0f9e 6dbe 9560 c93d 232d 39bd
000003b0: 1ed2 9dbe 7695 623c 9ebd dcbd c030 5a3c
000003c0: 397c 3cbd cc94 0d3e b800 763e 512f 9c3c
000003d0: f27f 813e 1179 bebe d375 a3be f31c 243f
000003e0: 2713 373e 6e1b 95bd 586b c1be d160 9abe
000003f0: f651 e23c ae4d 873d af9a 1cbe a092 8c3e
-0.4153052 -0.24949479 0.22069356 -0.4078686 0.44749963 0.09457712 0.050120097 0.5874764
0.16541226 0.07507738 0.3347662 -0.044509 -0.4867858 -0.33953238 0.34439892 -0.40478516
0.10424928 -0.24941549 0.35075706 -0.293988 -0.07839955 -0.44747135 0.36130825 -0.08888233
0.28983715 0.2621725 0.19942872 -0.43399686 0.42470536 0.08016563 0.4181802 0.23300868
0.15464272 -0.37296614 0.13236734 0.50000525 -0.2860605 -0.064792946 -0.2120816 0.2224809
0.12427461 -0.47522536 0.34505653 0.5413018 -0.18277727 0.09105732 0.19684687 -0.099058725
-0.2244717 -0.07988202 0.010960691 -0.12551165 -0.2747818 -0.3089007 0.29426998 0.36436507
0.013593891 -0.1777302 0.37009004 0.26741537 -0.114341006 0.25565052 0.2834965 0.20150764
0.06359229 -0.057559796 -0.50223714 -0.44656834 0.21749821 0.56255025 0.36805546 0.50185615
0.010357732 0.5690201 -0.04544453 0.19506872 -0.44926256 -0.016380383 0.305763 0.098560646
0.31735855 0.10894501 -0.24000889 -0.36982954 -0.1935336 0.45699167 0.5951712 -0.20123465
0.28696275 0.28906262 -0.28945893 0.36006498 0.0027065652 -0.20832083 0.51410186 -0.0172751
-0.12989052 0.4236107 -0.27335283 -0.4468456 -0.4840673 0.09294288 0.22733133 0.15776455
-0.08102697 -0.4721487 -0.25461093 0.25927216 0.51734096 0.18281129 -0.49666497 0.14830941
0.119533375 0.1638224 0.24282624 0.13553208 0.40230477 0.19685581 -0.07299094 -0.25305897
0.03462844 0.046791393 -0.21225865 0.4021602 -0.3055954 0.09109965 -0.2583846 -0.24176681
0.05132628 -0.18875518 -0.1478365 -0.53178984 0.21595882 0.25724602 -0.4792162 0.0015899886
0.4251977 -0.1964781 0.11081866 0.0033874281 0.6311543 0.48151544 -0.421872 -0.16544881
0.1481576 0.44645563 0.11726208 0.44774055 -0.2744437 0.18431216 -0.20232654 0.06945856
-0.20322849 -0.40740016 0.3933034 0.34086448 -0.24319315 -0.48204973 0.24709849 -0.2288561
-0.06806819 0.044688247 0.4600984 -0.3622425 -0.0855359 -0.302995 0.42379948 0.23901476
-0.4181965 -0.2002728 -0.10446645 0.3788056 0.21994078 -0.057260558 -0.22748275 0.4315274
0.5001276 -0.44096473 -0.36669967 -0.31156296 0.51640147 -0.5614317 -0.106224366 -0.49433702
-0.00081539224 0.45309997 -0.40861633 0.3604415 -0.35773468 0.13456425 0.20396094 0.3617043
-0.0577003 -0.5091232 0.30159652 -0.16998573 0.08835858 0.006586626 -0.35309902 0.520741
-0.42466873 -0.46245056 0.6283758 -0.41086608 0.17138699 -0.20364195 -0.16013613 -0.036596302
-0.26538348 0.29892978 -0.248653 -0.049016394 0.322989 0.4692084 -0.49320328 0.47834656
0.22144908 -0.3048448 0.15060245 -0.00639363 -0.28845522 -0.11639064 -0.34305716 -0.404758
0.05316096 -0.052786455 -0.15498535 -0.24801426 -0.34284973 0.12184941 -0.30133468 0.4724079
0.11901002 -0.23204826 0.09832875 -0.04520906 -0.3082437 0.01382958 -0.10778354 0.013317287
-0.046016905 0.13826293 0.24023712 0.019065531 0.25292927 -0.3720174 -0.3192583 0.64106673
0.178784 -0.072806224 -0.3777721 -0.3015199 0.027626973 0.06606613 -0.15293382 0.27455616

weight f4 [128, 1024]
00000000: 722f 58bc 8099 d3bd 4e0e 8fbd 0306 debc
00000010: 60d0 12bc 3f4e e63c ef94 a7bd 9a15 a53b
00000020: e919 143c c774 a83c ef0d 7dbc cbbb 29bd
00000030: 09e6 103d d12a 9e3b 6035 7f3c 8093 1abe
00000040: 726a b13c 01b2 b3bd 7aec 433c 183d e03b
00000050: dffd f03b 423c a13d 1737 a23c 8ea8 b9bd
00000060: d3f6 b83a 9aed 773c 0a3c 323d e88f 3bbb
00000070: 2ba7 143d 385e 063d 9d11 913c d40a 923d
00000080: 3615 c13c 9fbe 0c3a acfa 483c 2f6c 073d
00000090: 91e9 6bbd d087 c2bd 5f7c 72bd ee04 9cbc
000000a0: 145f 3dbc 3a19 0abe 8494 103d 367b 61bb
000000b0: 9119 9cbc 2df8 9e3c 84a8 11be 0a2d 15bd
000000c0: 6195 c7bb 3441 29bc 4459 4dbc 6741 e2bc
000000d0: c94d 12be 265a 2ebe 4839 16bb 0bc5 0fbc
000000e0: ed46 17bb 8808 3a3d 2d01 cbbc 12a3 dabb
000000f0: 65ab 67bd a0b9 0d3e 5240 173a 4c23 74b9
00000100: 03d4 47bd 89c3 01bd 1b27 ed3a 88ae 523d
00000110: 3f0d 523c 0c11 aa3d b0a9 733d 4b2e 08bd
00000120: 8034 963b 8cfa 83bc 1fda 88bd 3d5c e9bd
00000130: 9099 54bb 5a74 49ba a09c 133d 1c09 6bbc
00000140: 8a0c e23d 7572 f83c 668b 19be 0351 a2bc
00000150: 4878 c7bd 7877 a63c 40d2 9a3c ea86 093d
00000160: a01d 343c 191a 2a3c 29b5 a43d 278e 9cbc
00000170: 5eb1 00bd 6d6d 27be 6826 073d 3908 08bd
00000180: 13ee 2bbe 1e3f 75bb 4d21 f7bc 6386 29bd
00000190: 4245 05bc 9f7d 963d 54be a93d 3958 26bd
000001a0: 7667 7bbd 18cd 54bc b732 4fbc 9994 93bc
000001b0: 9bbc 083c 9663 0d3d f6dd b2bd 02fd b13c
000001c0: cd35 96bb de8d 9c3d 3911 9d3c a47a 93bd
000001d0: 4900 7e3c 1150 1cbc ed43 8ebd 3aa8 9abd
000001e0: 199f 3f3c a51b 37bc 5aef f2bd dc73 d9bc
000001f0: f7dc 22be b888 ad3a 3e45 1a3c fd92 0bbd
00000200: ecfe 3a3c 7827 f7bc afe0 9e3c 1e18 50ba
00000210: 9cbe 3e3d cd06 163d 72de 1a3d 867e 173d
00000220: 7730 c93d 521c 81bc ef0d b13c f654 bfbc
00000230: cbfb 0bbd f870 95bb 47be 33bc 13cd 743c
00000240: ba36 d43b d780 36bb 8faa 063c 7493 ac3d
00000250: a2a8 89bd 4d22 bb3b 31ff c73b 56a2 ee3c
00000260: 891b 453d 0bac 6a3c 2855 6abc 6809 fb3c
00000270: 5c9b 80bd 6a3c 7b3c a7f5 613e 3b28 43bd
00000280: 7801 e03c 9b1a 14bd c989 323c 70c2 82bd
00000290: 062b d13b 22f8 15be 558f 5d3d 2d7e 99bd
000002a0: 8644 7dbc f313 913a 5d36 b0bb cd76 3d3d
000002b0: d2ad a53b a3d3 2a3d 385f 38bc 4760 3fbc
000002c0: bf90 2f3c 3276 f2bb 784e c43d a666 4fbd
000002d0: 10cb 573d 9cef 6bbd f210 25be 2601 e33c
000002e0: 9323 53bd 5da7 7b3d a2ee c73c 380b 4f3c
000002f0: 254b a4bb c5e6 f83c 5eab 64bd 2cb6 d7bb
00000300: 305d 5b3b b8ba 543d 6cda 383d 8628 153c
00000310: 3f93 d1bc 38c7 5cbc deaa efbc fb43 f13d
00000320: c8ef 11bd 3583 e8bd 164d 983d 6d1c 133d
00000330: 03fb e03c 498b 89bc 68df afbd b7b2 23be
00000340: 8de2 1abd 1ca4 e23c d204 4dbc 8ac5 7b3c
00000350: 4d9c 1c3a 6111 0f3d 024c 60bd 797f 333c
00000360: 8b66 ae3d 50b7 edbc ede4 b03c 6d3b 363c
00000370: 5d9f d3bc c51c 00be 5394 8abd dda0 9cbd
00000380: c8cd dbbc 1345 3d3c 54a0 b53d 3165 53be
00000390: 0cfd 96bd 2741 2bba b42f 6dbd 950d ed3d
000003a0: f8a6 803d 9412 32bd d2c0 6fbc 7d22 21bd
000003b0: a37d e0bb 9830 183d 9769 abbc f151 97bc
000003c0: 5e52 053d 27c4 b83c fb31 213e 1216 19bc
000003d0: 7e53 9dbc f3cf 07bd 2887 343d 4ac7 143e
000003e0: abb9 cbbc 2c43 f1bd 9a9c 8f3a 234e b73b
000003f0: b17f f0bd 3e54 b53c e6c0 1b3d 0a65 cb3b
-0.013194906 -0.10332012 -0.0698515 -0.027102476 -0.008960813 0.028113483 -0.08182704 0.0050379755
0.009039381 0.020563496 -0.015445217 -0.04143886 0.03537563 0.0048268815 0.01557669 -0.1509533
0.021657202 -0.08774186 0.011958236 0.0068432204 0.0073544825 0.078728214 0.01980166 -0.090653524
0.0014111645 0.015132332 0.04351429 -0.002861971 0.036292236 0.032804698 0.017708594 0.071309716
0.023569684 0.0005368981 0.012266796 0.033062156 -0.057595793 -0.094985604 -0.05920064 -0.01904532
-0.011558313 -0.13486186 0.035297886 -0.0034405715 -0.01905516 0.019405449 -0.1422444 -0.036419906
-0.0060908054 -0.010330487 -0.01253349 -0.027619077 -0.14287485 -0.17026576 -0.0022922326 -0.008775006
-0.0023083047 0.045418292 -0.024780834 -0.0066722715 -0.05655994 0.13840342 0.00057697773 -0.00023282802
-0.048786175 -0.031680617 0.0018093319 0.051435977 0.012820541 0.08304033 0.059488 -0.033247273
0.004583895 -0.016110681 -0.06682228 -0.11394546 -0.0032440163 -0.0007684879 0.03603804 -0.014345434
0.11037548 0.030328015 -0.14994583 -0.01981402 -0.09739739 0.020320639 0.018899083 0.03357593
0.010993391 0.010382199 0.08042366 -0.019110752 -0.03141915 -0.16350336 0.03299561 -0.033210967
-0.16790037 -0.0037421654 -0.030167246 -0.041387927 -0.008134188 0.07348179 0.08288255 -0.04061148
-0.061377965 -0.012988351 -0.012646369 -0.018015193 0.008345748 0.0345188 -0.08733742 0.021727089
-0.0045840503 0.076442465 0.019173251 -0.07201126 0.015502998 -0.009540574 -0.069465496 -0.07551618
0.011695647 -0.011176025 -0.11862059 -0.026544504 -0.15904604 0.0013239598 0.009415923 -0.034075726
0.011413317 -0.030170187 0.019394247 -0.0007938164 0.046568498 0.03662758 0.037809797 0.036985897
0.09823697 -0.015760574 0.02161309 -0.023355942 -0.034175675 -0.004560586 -0.010970659 0.014941472
0.0064762505 -0.002784779 0.008219375 0.08426562 -0.06721617 0.005710876 0.0061034192 0.029130142
0.048121963 0.014323245 -0.014302529 0.030644134 -0.062796324 0.015334228 0.22066365 -0.04764579
0.02734445 -0.036158185 0.010897108 -0.06384742 0.0063833026 -0.14645436 0.05409177 -0.07494769
-0.015458232 0.0011068567 -0.0053775744 0.046255875 0.0050561214 0.04170574 -0.011253171 -0.011680669
0.0107156625 -0.007399344 0.09585279 -0.050635003 0.05268389 -0.057601556 -0.16119745 0.027710509
-0.051547598 0.061438907 0.024405781 0.012636952 -0.0050138407 0.030383477 -0.05582749 -0.006582996
0.0033472292 0.05193588 0.04513018 0.0091039 -0.025582908 -0.013475232 -0.02925628 0.11780544
-0.035629064 -0.11353151 0.07436578 0.03591578 0.027463442 -0.01679005 -0.08587533 -0.15986143
-0.037813712 0.027666144 -0.012513356 0.015366921 0.00059742184 0.034928683 -0.054759987 0.010955685
0.08515652 -0.029018074 0.021593535 0.011122567 -0.025832826 -0.12510975 -0.06766572 -0.0764787
-0.026831523 0.011552113 0.08868471 -0.2064407 -0.073724836 -0.0006532841 -0.05790682 0.11574856
0.06281847 -0.04347475 -0.014633374 -0.03933953 -0.0068509146 0.037155718 -0.020924373 -0.01847169
0.032549255 0.02255447 0.15741722 -0.009343641 -0.019204851 -0.0331573 0.044074208 0.14529148
-0.024868807 -0.1178039 0.0010956705 0.0055940314 -0.11743105 0.022134896 0.03802576 0.006207113

bias f4 [128]
00000000: 1090 083c f89f 73bc f0de 233d 9f44 3c3d
00000010: aa19 b13c 3284 c13d acd5 133c cbea c43c
00000020: 2942 3cbb ac84 963c 359a 10bd 6302 c73d
00000030: b3cd 893a 7d16 0738 010c b8bc f3c7 ac3d
00000040: bc70 7abc 5016 3dbc 1b81 fabb be94 073d
00000050: 393d 88bc da63 94bb 211c e8bb 60af 573b
00000060: 14d5 8fbb 1b8d d63d f4b1 14bd 9eb6 4c3d
00000070: d596 e03b 4716 92bc 6212 10bb 0d49 6e3d
00000080: 7c9b b93c eb40 bf3c 8f1f 603c 9344 b63c
00000090: 7da1 5fbb c51b 87ba 9478 05bd cbbd 01bd
000000a0: 2fd2 923c 181e cd3c 2b94 fabb f871 e6bc
000000b0: 14bd f53c 2055 c03c 45f5 353d 8c36 14bd
000000c0: e971 bcbb aeba ea3c 23df 903c 8328 5b3d
000000d0: 4861 16bc d3ee f1bc 9ed3 1a3d 23e1 b43c
000000e0: 2e0b 6a3d 336c 833c 4259 e6bc d8eb 0b3d
000000f0: 00f5 693b f54d ad3c 3480 0abd a786 b73b
00000100: bf0a 163b 9037 5a3c cdd5 a6bc 4804 d7bc
00000110: 1eab ac3c d8cd 24bc 4bcf 3a3d 1fb7 05bd
00000120: 40da 9d3c ccfd 763c f62b 0abd 080e 123a
00000130: 7d8f e43a 79f0 8cbb 7e50 ae3a 58ab f33c
00000140: 475a 7cbc 616c 5c3d 7526 f1bc 2b57 a2bb
00000150: 96a2 873d ab7e 49bc ad18 253c 8884 12bd
00000160: 6fab 93bc b94f 6c3c 6a97 d0bc 8dc0 bbbc
00000170: 41a9 5e3c e206 e2bc 3ff0 13bd 14ca 96bc
00000180: fc43 a1bc af22 1f3d 0c66 48bc 0130 553b
00000190: ce9f 153d a01c ecbc 08f0 243d 08fd 993c
000001a0: 2d4e 77bb 2bc7 ae3c e79d a13d fc35 bd3c
000001b0: a398 2d3d 9982 e13c 9616 bb3c e91c 13bd
000001c0: de89 913c 3598 3abc 8871 e8bc 030c 6f3b
000001d0: e786 973c e306 ee3c baaa ddbc 1f0a e9bb
000001e0: b2e4 c2bc 8517 eb3a 0473 b33c 133b 103d
000001f0: 81c6 bd3c 4749 57bc d504 2f3c afa5 c6bc
0.008335128 -0.0148696825 0.04000753 0.04596388 0.021618683 0.094490424 0.009023111 0.02403774
-0.0028725958 0.01837381 -0.035303313 0.09717252 0.0010513574 3.2207452e-05 -0.022466661 0.08436575
-0.015285667 -0.011540964 -0.007644785 0.033100836 -0.016630756 -0.004528505 -0.0070834314 0.0032910928
-0.0043894146 0.104761325 -0.03630252 0.049978845 0.006853918 -0.017832888 -0.0021983613 0.058175135
0.022657149 0.023346385 0.013679399 0.022249496 -0.0034123354 -0.0010307959 -0.032585695 -0.03167514
0.017922489 0.025038764 -0.0076470575 -0.028130516 0.029997386 0.02347809 0.04442336 -0.036184832
-0.005750884 0.028653469 0.017684525 0.05350543 -0.009178467 -0.029532826 0.03779947 0.02208001
0.057139568 0.016042804 -0.028118733 0.034160465 0.003569901 0.021155337 -0.03381367 0.0056007686
0.0022894589 0.013318911 -0.02036562 -0.026247159 0.021077689 -0.010058843 0.045607846 -0.03264534
0.019269109 0.015075158 -0.03373333 0.0005571549 0.0017437782 -0.0043011275 0.0013299135 0.029744789
-0.015402383 0.053814296 -0.029437283 -0.004954239 0.06622808 -0.012298266 0.010076684 -0.035770923
-0.018026082 0.014423304 -0.025462825 -0.022918964 0.013590158 -0.027591173 -0.03611779 -0.018406905
-0.019685738 0.038851436 -0.012231361 0.0032529833 0.036529355 -0.028822243 0.040267974 0.018797413
-0.0037735805 0.021335205 0.078914456 0.02309703 0.042381894 0.027528094 0.022837918 -0.035916243
0.017765936 -0.011388828 -0.028374448 0.0036475665 0.018496944 0.029056018 -0.027058948 -0.007111802
-0.023790691 0.0017936087 0.02190543 0.035212588 0.023165943 -0.013140029 0.010682304 -0.024248926

weight f4 [3, 128]
00000000: 75d5 f93d 0d27 2e3d 86bc 91bd a1e3 bf3c
00000010: 491c 8dbc 3988 153e 2bc2 d9bc fc20 89bd
00000020: 6251 7c3c 8f85 9e3d b7ed 10bd e9d2 1b3e
00000030: 6fd3 cd3d e4c6 9e3d 09f3 a7bd d2cd 97bc
00000040: fc8c 253c 714e 64bc 06ce 7dbd 1730 68bd
00000050: 7750 a53d e6fb b03d 6163 a1bd b9c9 203d
00000060: c506 4c3c 3016 323e 3323 73bd 0ba9 533d
00000070: ba46 9c3d 29d4 8bbd 2b69 5a3d 6ca3 373e
00000080: f8ca 14bd 32a7 3ebc 7ada 67bd 6366 9ebd
00000090: cea0 9b3d 1e81 313a 2488 ceba 26e3 c9ba
000000a0: c044 a9bd 7268 3e3d 1304 89bc 42a8 62bd
000000b0: 4adb 983c 307d b33d ab96 2f3d e9fd 1f3d
000000c0: 81bd 27bd f913 443d 6a8e 76bd 3895 7f3d
000000d0: 197f 553d fd3d 28bd d9ba 1f3e f0a3 a2bd
000000e0: a233 233e e446 263e 48b2 8e3c 568d 513c
000000f0: 384b 65bd a771 a8bd 7377 b3bb 5a15 13bd
00000100: 785c 9e3d 54f9 af3c 5c1b fc3d 1bc7 a3bd
00000110: af23 053e 298f 0abd 6565 553d 0286 c8bc
00000120: 8f60 ad3c 4e74 92bd a87f 803d 4106 e03d
00000130: d465 a33d 90af 993c d7ff 8bbc 7d98 983d
00000140: acb5 58bd cdf0 d53d 85dc 20bd e497 ce3d
00000150: 5290 423e f26a 2f3d 7d1f 293e 6203 973d
00000160: cec3 8d3d 5c3e ecbc ec53 76bd 88a4 883d
00000170: d9ae 243d dc81 8abd 3dc3 6e3d 5510 0fbe
00000180: a73d 82bd 23e6 023e 668a a53d 6af5 3bbb
00000190: ece5 dcbd 49f7 313d c5ca a03d e8bf 02bd
000001a0: 216f aabd 3d70 92bd ab21 5c3e f82b 8abd
000001b0: 0670 ec3d f0e0 6739 8116 aabd fac6 53bd
000001c0: f683 73bc 6fbf c138 3512 843d 5fc6 123c
000001d0: d60e a4bc b46a c83d 8ab6 c43c bf1d 043d
000001e0: 2a95 35bd 5960 933d 2130 b4bd 6276 cd3d
000001f0: b57f 6fbd bb00 ca3b d5b2 a1bb 3ae8 583d
00000200: 1613 573b 4bb3 a2bd 23dd e93d 987f fe3d
00000210: 44f4 8fbd de6c 063e b964 9bbc 3455 7fbc
00000220: b76f a3bd f06e 143e a8f6 6eba 5061 693e
00000230: 959d 24bd 02be 49bd ba91 7ebd bfc9 2b3e
00000240: ad58 023c 5c18 6ebd 68bc a2bc 8398 ea3d
00000250: e903 3bbd afa9 33bd 0803 6ebd b090 253d
00000260: f688 88bd 7219 443e 9025 793d 0691 a33d
00000270: ee5e 50bd 27ac 8e3d 4633 3abd b32c 313b
00000280: 1822 ecbb 2444 99bd 72d4 9ebd 9190 8a3d
00000290: 9139 75bd b4b0 983d a1eb 0fbd 90e7 46bd
000002a0: 67b6 90bc bb8d bd3c 0b9c c0bc 23e7 25bc
000002b0: 1bc6 65bc df2d b1bd 737d 1a3e 7491 70bd
000002c0: a5a4 033d 72b3 a4bd 5228 84bd 3e66 0b3e
000002d0: 7936 1fbd 5f27 8fbd 61f7 0bbe f4c6 b73d
000002e0: 801f bc3d 3e8c b53b 6054 77bd 0364 cf3d
000002f0: 39c0 a83d 4fd2 49bc 21b6 9cbd e488 76bc
00000300: 3299 163e f817 d3bc b589 383d 9538 84bc
00000310: b3bf 803c 294e aabd ee63 243e 6b52 953d
00000320: 112f 47bd dd14 833d 3fed 33bc a875 d83a
00000330: cc58 c3bc 31e5 65bd 955f 9fbd 0f93 0f3e
00000340: 9bf8 cdbc 9e6e c43d ff01 8ebc 2d48 b13d
00000350: 2417 f63c 9540 153e 8c85 bf3d c7ea 37bd
00000360: 979f 813c a165 05bc 0579 773d adff 98bd
00000370: 71eb f13d 2498 0dbd 0398 d7bc bf42 84bd
00000380: 3b57 073c 4587 023e 07b5 01ba 85fc f0bc
00000390: 21ee 373e 67ea 443d cf46 173e aa7c 9ebc
000003a0: ef48 a2bd 134e 26bc e28b cd3c a765 98bd
000003b0: 2122 fa3d a451 de3b 191e dbbc d40d 96bd
000003c0: c831 dcbc 79b0 093b 30bb 4bbd fed1 41bc
000003d0: 0cf1 21bd 9b3a 25bd 1514 3cbd 5000 cd3c
000003e0: 16e0 3bbd b638 433d a2a2 9c3d 0524 75bd
000003f0: 411c 0a3d 6ee7 46bd 308a 1ebc 416e 87bd
0.12198917 0.04251771 -0.07116036 0.023423972 -0.017225401 0.14602746 -0.026581844 -0.066957444
0.015400263 0.07740318 -0.035382953 0.15217175 0.100500934 0.07752779 -0.08200652 -0.01853076
0.010104414 -0.0139347175 -0.061964057 -0.056686487 0.08071988 0.08641796 -0.07880283 0.039254878
0.012452786 0.17391276 -0.05935974 0.051674884 0.076306775 -0.06827576 0.053322952 0.17933434
-0.03632638 -0.011636542 -0.05660484 -0.077343725 0.075990304 0.0006771254 -0.0015757126 -0.0015402779
-0.08265066 0.046486326 -0.016725576 -0.055336244 0.018659253 0.08764112 0.042868298 0.039060507
-0.04095221 0.04787061 -0.06019441 0.062398165 0.052123163 -0.04107474 0.1559862 -0.07941425
0.15937665 0.1623798 0.017418995 0.012790045 -0.055979937 -0.082248025 -0.005476886 -0.035909034
0.07732481 0.021481194 0.12309906 -0.07996961 0.13001893 -0.033827934 0.05209865 -0.024477962
0.021164207 -0.071510896 0.062743485 0.10938693 0.079784065 0.018760473 -0.017089767 0.0745096
-0.05290763 0.1044632 -0.039272804 0.100875646 0.19000366 0.0428266 0.16515918 0.07373692
0.069221124 -0.028838329 -0.060138628 0.06672007 0.04020581 -0.0676305 0.058291662 -0.13971074
-0.063594155 0.12783103 0.08083038 -0.0028680214 -0.107860416 0.04344872 0.07851175 -0.031921297
-0.083219774 -0.07150314 0.21497218 -0.067466676 0.11544804 0.00022113672 -0.083050735 -0.05170343
-0.014863005 9.2386144e-05 0.06448785 0.008958428 -0.020026606 0.09785977 0.024012823 0.03225493
-0.044331707 0.07196111 -0.08798242 0.10032345 -0.0584714 0.006164638 -0.0049346485 0.052955844
0.0032817773 -0.07944354 0.114191316 0.1242668 -0.07029012 0.13127467 -0.018968927 -0.015584279
-0.07980292 0.14495444 -0.0009115734 0.22791028 -0.040189344 -0.04925347 -0.062150694 0.16776179
0.007955712 -0.0581287 -0.01986523 0.114548706 -0.045658026 -0.043862995 -0.05810836 0.040421188
-0.06666748 0.19150332 0.060826838 0.079866454 -0.050871782 0.06966429 -0.045459054 0.00270347
-0.0072062127 -0.074837 -0.077553645 0.06765855 -0.059869353 0.074555784 -0.035136823 -0.04856068
-0.017665101 0.023138871 -0.023511907 -0.010125908 -0.014024283 -0.08651327 0.15086918 -0.058732465
0.03213944 -0.08042039 -0.06453003 0.13613221 -0.03887031 -0.06989931 -0.13668586 0.08973494
0.09185696 0.0055404 -0.0603832 0.101264976 0.082397886 -0.012318208 -0.07651926 -0.015047286
0.14706877 -0.025768265 0.045053203 -0.016140262 0.01571641 -0.08315689 0.16053745 0.072911106
-0.04862887 0.06400464 -0.010981857 0.0016514556 -0.023846053 -0.056126777 -0.07781903 0.14020942
-0.025142958 0.09591411 -0.017334936 0.086563446 0.030040331 0.14575417 0.09351644 -0.044901635
0.015823169 -0.008141906 0.060418148 -0.07470641 0.11812485 -0.03456892 -0.026317602 -0.06458043
0.008260543 0.12746914 -0.00049479346 -0.029417286 0.17961933 0.048075106 0.14773105 -0.019346554
-0.07924067 -0.01015045 0.025091115 -0.07441264 0.12213541 0.0067846347 -0.02674775 -0.07326856
-0.026879206 0.0021009727 -0.049739063 -0.011829851 -0.03953652 -0.040339094 -0.04591759 0.025024563
-0.045868002 0.047661506 0.07648207 -0.059848804 0.03371835 -0.048560552 -0.009676501 -0.06612826

bias f4 [3]
00000000: 6d69 fe3c 39f5 923d 9319 10bb
0.03105613 0.07175679 -0.00219879
