saved_models/run5/model_1999.pth (torch, 550886 bytes, 6 tensors)

weight f4 [1024, 4]
000000 34 af 18 bc 15 57 87 bd bb 99 fd 3d 2a 3d 07 3f
       -0.009319115 -0.066084065 0.123828374 0.52827704
000010 56 a2 a0 3e bf 2e aa be 29 b4 7e bd 62 96 21 bf
       0.31373852 -0.3323879 -0.062183533 -0.6312009
000020 c4 f5 f3 be a5 67 22 3e fc 98 a7 bc 79 0d 1f 3f
       -0.47648442 0.1585985 -0.02045869 0.6212993
000030 1d c7 80 3e 21 e2 30 be 0b 67 86 3e 71 fa 0a bf
       0.2515191 -0.17273761 0.2625049 -0.54288393
000040 48 87 71 bd 06 33 28 3e 9c da 2d 3e a8 66 fd 3e
       -0.058966905 0.16425714 0.16977924 0.49492383
000050 08 3b 76 3d f1 21 94 be 9c f1 03 bb 0c 74 a2 3e
       0.06011489 -0.28932145 -0.0020133024 0.31729162
000060 cd d1 23 bf 4d d8 cd 3e 82 bf 1a be 14 62 dc 3e
       -0.63992006 0.40204087 -0.15112117 0.43043578
000070 c8 8e 08 3e 8a 31 f4 bd 05 d1 cd bd d6 a3 03 3f
       0.13335717 -0.11923511 -0.10049633 0.5142187
000080 4c 54 73 be 3e eb 56 3e 38 1c 3c bf 1f 46 8e bc
       -0.23762625 0.20988175 -0.7348056 -0.01736742
000090 ed 02 2e bf f0 09 4e 3e fb d7 f7 3e aa c1 1e 3f
       -0.67973214 0.20120978 0.48406968 0.6201426
0000a0 2d 3c 16 bf 40 40 8f 3d ab f1 ba bd a0 cd 06 3f
       -0.5868557 0.069946766 -0.09128126 0.5265751
0000b0 d9 85 35 3d 1d f1 cd bd 3b ca 33 bf 65 d0 86 be
       0.0443171 -0.10055754 -0.70230454 -0.26330867
0000c0 8f fb e3 bd bd 93 c3 3e d0 c2 d3 3e f1 e4 fe 3d
       -0.11131965 0.38198653 0.41359568 0.12446011
0000d0 b5 74 18 3e e9 cc 8a 3e fc de 3f 3e 60 00 92 be
       0.1488827 0.2710946 0.18737406 -0.2851591
0000e0 72 4b b2 3d 1d 2f 10 be e0 e7 90 3e ce bf fb 3d
       0.08705796 -0.14080472 0.28301907 0.12292443
0000f0 f4 7e 83 3e ff d9 4f be 18 89 a7 bd 01 8e a0 3d
       0.25682795 -0.20298003 -0.081804454 0.07839585
000100 64 e9 05 be 0f b5 a8 3e 94 4a fd 3c 1d 30 82 3e
       -0.13077313 0.32950637 0.03091935 0.25427333
000110 0b e8 c5 3e 05 4c 80 bd 57 e9 8a 3c 68 21 c4 be
       0.38653597 -0.062644996 0.016956968 -0.38306737
000120 48 88 13 3e 31 d6 cd 3e 9f 22 81 bf ea 69 d1 3d
       0.14407456 0.40202478 -1.008869 0.1022528
000130 1d 00 c8 bd 79 5b 4e 3c f7 28 73 3e 30 ae 08 bf
       -0.097656466 0.012595051 0.23746096 -0.5339079
000140 f9 00 be bd 49 d8 f0 3e a1 bb 40 bf 2a e2 08 be
       -0.09277529 0.47040012 -0.752863 -0.13367525
000150 d0 b5 a9 be 24 de 70 3e 60 19 18 bf cd 6c ff be
       -0.33146524 0.2352224 -0.5941372 -0.49887696
000160 fa 42 32 bb be 4b 0c 3f 87 17 55 3e 5d b2 1e 3f
       -0.0027200566 0.54803073 0.20809756 0.6199091
000170 e3 4f 2b 3e ac b9 35 be 64 45 93 bd 28 2e 1a bf
       0.16729693 -0.1774661 -0.071909696 -0.6022668
000180 3b 3e 16 3f 4a dc 48 3e e4 d3 45 be ca 84 d2 be
       0.58688706 0.19615284 -0.19319111 -0.41116935
000190 1b 5d 15 bf b2 c3 f3 bd e6 18 8d 3e 73 87 95 3e
       -0.5834519 -0.1190256 0.27558059 0.29204902
0001a0 1c b4 03 bd 73 fc af 3e 82 b6 22 bc 7d 05 82 3e
       -0.032154188 0.3437229 -0.009931209 0.25394812
0001b0 42 3f 2f bd 67 66 a0 3e d6 71 9a bd ce 44 8d be
       -0.042784937 0.31328127 -0.07541244 -0.27591556
0001c0 a3 78 37 bb 95 76 49 be 19 9e dc 3e fe e1 c0 bd
       -0.002799549 -0.19674142 0.4308937 -0.094181046
0001d0 8c 06 8c be e1 ac 96 be d6 85 57 3d f5 7e 03 3f
       -0.27348745 -0.2942877 0.05261787 0.51365596
0001e0 b3 32 b3 3d b3 8b 1e be 9d 8f 84 bf f5 d3 b4 3e
       0.087499045 -0.15482979 -1.0356327 0.3531796
0001f0 37 e6 da 3e 19 54 be be e5 c9 8a bf 4d 8d e0 bd
       0.42753765 -0.37173536 -1.0842863 -0.10964451
000200 31 8d 48 3c 19 0e 8f be 22 f2 bf 3e 9e 9e 20 bf
       0.012240694 -0.27940443 0.3748942 -0.6274203
000210 94 45 f2 be c2 b7 4b be 1b 1d 52 3d cd cc a9 3e
       -0.4731871 -0.19894317 0.05129729 0.33164063
000220 83 3e d1 be 1d e8 e2 3d 01 09 e5 3e 19 b1 d5 3e
       -0.40868005 0.11079428 0.44733432 0.41736677
000230 47 4f ac bd b6 3c e4 be 69 c3 f1 3e 18 97 c5 3d
       -0.084135585 -0.4457757 0.472194 0.096479595
000240 3d 49 19 3f 7b 45 d5 bd 47 00 ba 3c 34 05 1c bf
       0.5987738 -0.10413643 0.02270521 -0.6094544
000250 44 a7 03 bf ff a2 6f 3e ee ce 13 bd 4b 2d 13 3f
       -0.514271 0.23402022 -0.036086015 0.57490987
000260 fd c0 08 3f 8c be d0 3e 39 a0 5e be 9d 36 23 bf
       0.53419477 0.40770376 -0.21740808 -0.6375521
000270 82 3b 16 bf 5a ba c5 be 2e 27 ea 3e f2 87 f0 3d
       -0.5868455 -0.38618737 0.45733017 0.117446795
000280 4c 21 e8 3e cd 82 05 3f 45 f4 53 bd 26 e4 d0 3e
       0.45337903 0.5215271 -0.051746625 0.40799063
000290 31 32 25 bd 65 8f 5f be ae e9 d2 bd 41 b2 ae 3d
       -0.04033107 -0.21832044 -0.10298477 0.08530093
0002a0 56 38 6d be 75 d6 4d 3d 21 a2 81 3e e8 ce 8e bd
       -0.23166022 0.05025335 0.25319007 -0.06973058
0002b0 87 da 7a 3e 93 06 8a bd 43 ed 57 bf 2f 0f d1 3e
       0.24497424 -0.06739535 -0.8434641 0.40831897
0002c0 b7 7f b1 3e d1 9f 80 bc 38 b5 13 3e 30 89 20 bf
       0.3466775 -0.015701206 0.14424598 -0.6270933
0002d0 7a f3 0f bf ae 42 62 3e ea 21 e2 3e fd d2 27 3f
       -0.5623089 0.22095749 0.441665 0.6555632
0002e0 41 38 02 3f 2a 52 7a be 26 f9 40 bc 72 5d 08 bf
       0.50867087 -0.24445406 -0.011778152 -0.53267586
0002f0 34 d2 33 be 2a ab fd bd dd 45 58 3c 0b 84 25 3f
       -0.17560655 -0.123861626 0.01320025 0.64654607
000300 34 88 84 bd 32 e7 75 be 3a 09 70 be 1e 9e 05 3f
       -0.06471291 -0.24013975 -0.2344102 0.5219439
000310 2d 8f 65 be 20 26 37 3e c9 b5 8b 3d a0 4f 1f 3f
       -0.22417898 0.17885637 0.06821782 0.62230873
000320 e8 71 8a 3e 18 0d 21 3e 4e e8 92 3e b0 0b 05 bf
       0.2704003 0.15727651 0.2869286 -0.5197096
000330 bd 02 1e be 96 1b db 3e 1c 61 7d be fc 97 28 bd
       -0.15430732 0.42794484 -0.24744076 -0.04116057
000340 f1 e9 d8 be 02 14 4c 3e 37 31 e9 3b e5 20 00 3f
       -0.42365983 0.19929507 0.0071164626 0.50050193
000350 2a f5 3a 3f 50 cd 85 be 1a 16 8d 3d b7 85 fd be
       0.7303034 -0.26133204 0.06888981 -0.4951608
000360 ce 44 a3 be e7 09 84 bd bc 54 8a be 51 d9 2e 3f
       -0.3188843 -0.06447201 -0.27017772 0.6830035
000370 6e 92 0b bf 0a 4d a0 be b0 4f 35 be 4a d7 ff 3e
       -0.5452031 -0.31308776 -0.1770618 0.4996894
000380 44 1a 0d 3f 80 32 26 3e fc 7b b6 3e 6b 60 27 bf
       0.55118203 0.16230202 0.35641468 -0.653815
000390 06 74 38 bf 7f 43 f4 3e 1a 4e 73 3e c2 90 88 bb
       -0.7205204 0.47707745 0.23760262 -0.004167647
0003a0 dd f8 48 be b5 18 dc 3a be 1b 9a be 78 c0 39 3e
       -0.19626184 0.0016792031 -0.3009929 0.18139827
0003b0 7f 7a 9c 3e 98 67 00 3d 37 a5 70 3e 37 82 b2 be
       0.30562207 0.031348795 0.23500524 -0.3486497
0003c0 80 e7 28 bd f1 01 f4 3e a1 6d 23 3d 3e 72 28 3f
       -0.0412364 0.4765773 0.039899472 0.6579932
0003d0 d3 0f c0 3e ab 6a c8 bd 64 28 45 bf 00 70 c5 be
       0.37512073 -0.0978597 -0.77014756 -0.38562012
0003e0 a4 f2 12 bf 78 6f c5 be d4 6f a5 3e 06 93 dd be
       -0.5740149 -0.38561606 0.3231188 -0.43276232
0003f0 cf 88 9e be 83 dd ba 3e fc c9 c0 3e 46 c3 80 3e
       -0.30963752 0.36497125 0.37654102 0.25148982

bias f4 [1024]
000000 4e 06 f4 be 0e c0 e2 bc 39 03 79 3e ea 29 cf be
       -0.4766106 -0.02767947 0.24317636 -0.40461665
000010 4b 7f e8 3e 71 75 e6 3d ea d9 29 3d bc 7c 27 3f
       0.45409617 0.11252869 0.041467585 0.65424705
000020 8f c3 3f 3e 1f 5d d6 3d 50 2c b6 3e 3f c7 d2 3d
       0.18726943 0.1046698 0.35580683 0.102919094
000030 1a 67 07 bf 5a ab b0 be b0 36 b6 3e 39 a5 e2 be
       -0.52891695 -0.3450573 0.35588598 -0.4426668
000040 57 61 e4 3d 89 5a 58 be 4a 35 bc 3e 07 c1 a9 be
       0.111513786 -0.21128286 0.36759406 -0.3315508
000050 fe 28 de bc 97 61 ee be 80 da b5 3e 36 92 33 bd
       -0.027119156 -0.4655883 0.35518265 -0.04384061
000060 d7 62 94 3e 26 47 7c 3e 0e 40 47 3e 04 12 eb be
       0.2898166 0.24636516 0.19458029 -0.45912182
000070 8b 14 dc 3e 7c 91 ad 3d 5e a5 e7 3e b5 00 81 3e
       0.42984423 0.084750146 0.45243353 0.25195852
000080 61 48 92 3d 4e 6d c5 be db cd 0d 3e 04 21 04 3f
       0.071427114 -0.38559955 0.13848059 0.5161288
000090 a3 07 99 be 15 db 98 bc 7a 52 66 be 78 88 4a 3e
       -0.2988864 -0.018659154 -0.224924 0.19778621
0000a0 91 40 1c 3e e6 9b 05 bf 1d 1f b4 3e 52 4d 14 3f
       0.15259005 -0.5219101 0.35179988 0.5793048
0000b0 bd 36 4a be 15 c0 c0 3d 84 94 57 3e 1c 09 cb bd
       -0.19747443 0.09411637 0.21052748 -0.09913847
0000c0 e8 e2 4b be b1 d6 3c bd fe 76 d8 bc cf 5c 88 bd
       -0.19910777 -0.046103183 -0.026423927 -0.06658327
0000d0 c3 44 92 be 76 c9 8d be 4d d6 be 3e 26 a8 c5 3e
       -0.28568086 -0.27692765 0.37272874 0.3860485
0000e0 ea c3 27 3d cf c1 40 be ee 47 d6 3e 22 73 6a 3e
       0.040958323 -0.18823932 0.41851753 0.22895482
0000f0 e2 b8 6e bd 36 09 7f 3e ad 86 91 3e 48 23 43 3e
       -0.058281787 0.24905857 0.28423062 0.19056427
000100 fb 23 c0 3d 66 92 b8 bd bb 2e 02 bf 7f d4 b2 be
       0.09381863 -0.09012298 -0.50852555 -0.34927747
000110 7a f4 7d 3e 3d 2b 15 3f 7a dc cb 3e f7 72 09 3f
       0.24800292 0.582691 0.39816648 0.5369105
000120 c6 e0 cc 3c 1c c0 19 3f cd c7 86 bc 7e e0 4b 3e
       0.025009524 0.6005876 -0.016452694 0.19909856
000130 be 05 e6 be 8b c2 2d bc bc fe 99 3e 17 34 07 3e
       -0.44926256 -0.010605465 0.3007716 0.13203464
000140 5c c1 ad 3e c5 79 23 3e 43 97 6f be 1d a4 c0 be
       0.33936584 0.1596442 -0.23397546 -0.37625208
000150 72 00 1a be dd 6e f6 3e b8 0b 1f 3f 4c 4b 5f be
       -0.15039232 0.48131457 0.62127256 -0.21806067
000160 d3 e9 a2 3e 8c 9e 9d 3e 31 3a 9f be 90 98 bf 3e
       0.3181902 0.30785024 -0.31099084 0.37421083
000170 f6 07 69 3d f1 0c 59 be ad d3 03 3f 0e d6 63 bc
       0.056892358 -0.21196343 0.51494867 -0.013906015
000180 de 2b b6 bd d9 29 e4 3e e7 30 50 be 27 52 e9 be
       -0.08895086 0.44563177 -0.20331155 -0.4557049
000190 f2 f9 05 bf e0 48 24 3e be 04 7f 3e 66 cc 0e 3e
       -0.5233451 0.16043425 0.24904153 0.1394516
0001a0 59 2e 4a bc 41 b6 01 bf 36 05 8d be 05 4e 8b 3e
       -0.012340152 -0.5066872 -0.27543038 0.27207962
0001b0 0c aa 09 3f 3c 01 54 3e e5 2f e4 be 42 83 0b 3e
       0.53775096 0.20703596 -0.4456779 0.1362429
0001c0 44 19 d8 3d d4 d0 5a 3e c3 87 78 3e 69 de 02 3e
       0.10551694 0.21368724 0.24270539 0.12780155
0001d0 c0 b5 c6 3e 90 21 57 3e 7c 01 10 38 d0 1b 63 be
       0.3881054 0.21008897 3.4333658e-05 -0.22178578
0001e0 96 b4 79 3d db f2 92 3d f1 32 4c be 48 ef e4 3e
       0.060963236 0.07175227 -0.19941308 0.44713807
0001f0 80 f8 ab be 43 be a5 3d 2d b1 a1 be 88 a1 a8 be
       -0.33588028 0.0809293 -0.31580487 -0.3293574
000200 64 01 00 bd cd 27 82 be 38 91 21 be e3 84 15 bf
       -0.031251326 -0.2542099 -0.15778053 -0.58405894
000210 ee 02 79 3e 72 65 81 3e 48 54 fe be e7 e5 e7 3c
       0.24317524 0.2527271 -0.49673676 0.028307868
000220 d1 af e4 3e 6a 99 55 be 82 fa d4 3d 18 a2 bd 3a
       0.44665387 -0.20859304 0.10399343 0.0014467863
000230 53 38 2d 3f f2 96 eb 3e 96 08 e1 be 83 55 e0 bd
       0.6766407 0.460136 -0.43951863 -0.1095381
000240 d3 36 19 3e 60 a9 ed 3e 4c a4 36 3e 77 2a e5 3e
       0.1496232 0.46418285 0.17836112 0.4475896
000250 7d 48 87 be d8 1f 54 3e 61 70 50 be 71 ed 84 3d
       -0.26422492 0.20715272 -0.20355369 0.06490601
000260 22 87 87 be 0c 71 d3 be 1d c4 ca 3e 1f d8 c5 3e
       -0.26470286 -0.41297185 0.39602748 0.3864145
000270 20 eb 80 be 03 7c fb be b6 4a 90 3e c8 1d 55 be
       -0.25179386 -0.4911805 0.28182 -0.20812142
000280 aa 7c ad bd dc 8b 55 3d 26 a0 fd 3e c0 b7 c3 be
       -0.084710434 0.052135333 0.49536246 -0.38226128
000290 7a 1a 0d be 65 45 9c be e0 4d e5 3e 2a 60 93 3e
       -0.13779631 -0.30521694 0.44785976 0.28784305
0002a0 eb c0 f8 be df d5 6f be c5 b3 ea bd e1 d2 b4 3e
       -0.48584685 -0.23421429 -0.114600696 0.35317138
0002b0 b4 65 75 3e 34 66 87 bd fe 38 75 be 25 e8 e2 3e
       0.23964578 -0.066112906 -0.23947522 0.44317737
0002c0 35 99 05 3f da 45 ef be a1 93 cb be 69 0b b4 be
       0.521869 -0.4673298 -0.3976107 -0.35164955
0002d0 a9 89 0b 3f d2 63 17 bf fa 6d 98 bd 59 d2 08 bf
       0.5450693 -0.5913669 -0.07442851 -0.53445965
0002e0 e1 95 dd 3b 9c f6 f2 3e 60 31 df be 4e e4 bb 3e
       0.0067622517 0.47453773 -0.43592358 0.3669762
0002f0 b9 42 d3 be 15 90 14 3e b0 86 7d 3e 50 43 c5 3e
       -0.41261843 0.14508088 0.2475841 0.38527918
000300 32 f3 ca bd 33 ab 0e bf e7 91 a9 3e 29 68 46 be
       -0.09909667 -0.5572998 0.33119127 -0.19375671
000310 30 26 a2 3d 30 b1 0d 3d 14 fa 7c be 70 15 0a 3f
       0.0791744 0.034592807 -0.24704772 0.5393896
000320 77 ab e7 be 6c 05 ff be 9c a3 28 3f b1 e7 ed be
       -0.45248005 -0.49808824 0.6587465 -0.4646583
000330 21 16 3d 3e bb ef 4b be c5 44 5d be f5 91 49 3d
       0.18465473 -0.19915669 -0.21608265 0.04921146
000340 de 0b a0 be 69 ec 94 3e ed c9 4c be 2a 0d 8b 3d
       -0.31259054 0.29086617 -0.19998904 0.0678962
000350 1c ff 9d 3e 7f da 00 3f b6 2d fb be fc 20 01 3f
       0.30858696 0.503334 -0.49058312 0.50440955
000360 c2 1e 63 3e c5 19 a1 be a2 16 05 3e f6 68 89 3d
       0.22179702 -0.31464973 0.12996915 0.06709473
000370 eb fb 8c be 73 81 83 bd d4 20 ad be 60 cb e7 be
       -0.27535948 -0.06421175 -0.33814108 -0.4527235
000380 ca ad 7c 3d b2 64 a7 bd 79 21 35 be b1 da 70 be
       0.061689176 -0.08173503 -0.1768855 -0.23520924
000390 7b ff a2 be bb 6c 01 3e fb 0c b0 be 5f cc f9 3e
       -0.3183554 0.12639134 -0.34384903 0.48788735
0003a0 cf 47 31 3e 4f aa 50 be 79 c2 c2 3d eb d2 79 bd
       0.17312549 -0.20377468 0.09509749 -0.060992163
0003b0 1c 9d a4 be fb 4a cf 3c 65 ad a8 bd ee 58 13 3d
       -0.32151115 0.025304308 -0.082361974 0.03597348
0003c0 b0 1e a1 3c 24 4f 4a 3e c5 de 89 3e f9 6a d0 3c
       0.019667953 0.19756752 0.26927772 0.025441634
0003d0 fe ca 83 3e 82 70 c7 be f5 2d 88 be 5e 42 29 3f
       0.25740808 -0.38953024 -0.26597562 0.66116893
0003e0 fe 70 49 3e e9 24 57 bd f7 6c df be ee 7a 96 be
       0.1967201 -0.052525435 -0.4363782 -0.29390663
0003f0 80 5d 2b 3d a7 ed 43 3d b2 1e 00 be 01 4b 96 3e
       0.041837215 0.047834065 -0.1251171 0.29354098

weight f4 [128, 1024]
000000 48 4f 92 3c 07 5e 88 be 8b c6 e4 bd a4 f3 08 bd
       0.01786007 -0.26634237 -0.111706816 -0.03343548
000010 cc 3c 7e bb a2 25 ed 3c 54 c7 26 be c0 5c 40 3c
       -0.0038793562 0.028948609 -0.16286975 0.011740863
000020 bc 80 32 3d 05 12 da 3c dc 4d 3f bd 40 72 cd bd
       0.043579802 0.02661992 -0.04670511 -0.10031557
000030 a0 64 63 3d a7 b7 e2 3c 99 02 67 3c 57 fa 6c be
       0.055515885 0.027675463 0.01409974 -0.23142372
000040 f0 23 dd 3c f7 10 33 be 45 3b aa 3c 3f 3e 65 3c
       0.026994675 -0.1748694 0.020780215 0.013991891
000050 7d e8 46 ba 91 98 42 3e 3a aa e6 3c f3 58 a1 be
       -0.0007587744 0.19003512 0.028157342 -0.31513175
000060 bc ac 23 bd 18 66 b0 3c e1 ea 18 3d a9 ae 28 bc
       -0.039959654 0.021533057 0.037333373 -0.0102955485
000070 d3 da 10 3d c3 78 f1 3c ec 9d 5e 3d 15 1f 01 3e
       0.035364937 0.029476529 0.054349825 0.12609513
000080 3f d5 81 3c 1f 77 03 3c 71 ec 87 3c 65 ed 00 3d
       0.015848754 0.008024006 0.016592236 0.031476397
000090 9c a7 f8 bd e6 dd 79 be 5b 90 e2 bd e2 97 9e bc
       -0.12141344 -0.24401054 -0.1106269 -0.019359533
0000a0 29 0f 8e bd d3 7c 63 be 6a ab 15 3d 96 f9 d0 3b
       -0.06936485 -0.22215585 0.036540426 0.006377409
0000b0 14 60 84 bc bf 66 d0 3c e8 c0 8d be 37 ba 94 bc
       -0.016159095 0.025439618 -0.27686238 -0.0181552
0000c0 ad 75 85 bc 8c f3 a2 bc 15 51 28 bc 92 2b 5e bd
       -0.016291464 -0.019891523 -0.010273238 -0.05424077
0000d0 f5 18 92 be 26 48 9a be dc 0b 14 3b dc ba 8d 3c
       -0.28534666 -0.3013317 0.0022590077 0.017301016
0000e0 40 83 44 ba 79 25 8d 3d d6 af d5 bc 1d 12 e9 bb
       -0.00074963644 0.06891913 -0.026084822 -0.007112755
0000f0 13 93 02 be 9d 40 60 3e da ac 94 bb dc be ce 3b
       -0.12751417 0.21899648 -0.004537207 0.0063093733
000100 37 d1 9f bd 1b 58 d6 bc 0b a6 9f 3c ef 06 95 3d
       -0.078035764 -0.026165059 0.019488355 0.07276713
000110 9f 06 1d 3d d7 46 05 3e ab 67 ab 3d 98 2b e7 bc
       0.038336392 0.13015305 0.083693825 -0.02821903
000120 97 b9 29 3a 61 94 72 bb 80 19 29 be 80 7a 64 be
       0.00064744934 -0.003701471 -0.16513634 -0.22312355
000130 90 99 54 bb 42 a7 e2 bc 2f f0 9c 3d 86 d3 1c 3c
       -0.0032440163 -0.027667645 0.07662999 0.0095719155
000140 14 da 32 3e 7d d0 85 3d 2e 2f 97 be 8b f8 b8 bc
       0.17466003 0.065339066 -0.29528183 -0.022579452
000150 5a cb 31 be a1 2b 6d 3c 1a 57 4e 3d 28 3a 3f 3d
       -0.17362729 0.014475734 0.050376035 0.04668632
000160 68 6e 25 3d c9 4c 1d 3c c5 e9 0a 3e e4 3b c5 bc
       0.040388495 0.009600827 0.13565738 -0.02407641
000170 09 ff 0d bd 5f ed bd be 5a 79 65 3c 8e b1 4f bd
       -0.03466705 -0.37095162 0.014005983 -0.05070644
000180 c9 31 a2 be a8 b3 a1 bc f1 22 36 bd 7f c4 f3 bd
       -0.31678608 -0.019738987 -0.044466916 -0.11902713
000190 31 35 22 3d 05 dd 18 3e 83 c3 aa 3d 17 9f c7 bd
       0.03960151 0.14928062 0.08338072 -0.09747141
0001a0 be 5a 3a be 46 80 85 3c ba 74 1b bb 87 a5 7f bc
       -0.18198678 0.016296517 -0.0023720697 -0.01560343
0001b0 d8 ca 32 3c 2f 70 68 3d 8c 9d 27 be 04 24 b7 3c
       0.0109126195 0.05674761 -0.16368693 0.02235604
0001c0 62 25 14 3c e3 44 eb 3d 61 2d a0 3c e5 6d 34 be
       0.009042116 0.114877485 0.019552888 -0.17620046
0001d0 bb 41 92 3c d1 e9 b1 bb 26 6c fd bd 02 94 1d be
       0.017853608 -0.0054294844 -0.12374143 -0.15388492
0001e0 c2 ff 88 3c 82 7b 90 bb 86 f5 95 be 3d 91 f7 bc
       0.016723517 -0.0044092545 -0.29288882 -0.030220622
0001f0 9b fb c0 be 72 3d b1 3a 2a 8e 38 bb e0 b8 7f bd
       -0.3769196 0.001352234 -0.0028160908 -0.06243217
000200 67 76 e4 39 15 74 04 bd 48 4e 27 3d d6 07 18 3c
       0.00043575765 -0.032337267 0.04084614 0.009279212
000210 74 07 ba 3c 91 da 2e 3d 22 27 7a 3d 0d 07 63 3d
       0.022708632 0.04268891 0.061072476 0.055426646
000220 c6 f0 0c 3e d2 2f 85 bd 27 3c ec 3c 10 5c be bd
       0.13763723 -0.065032616 0.028837277 -0.09294903
000230 dd 58 00 bd 6a 4e d0 39 97 74 45 bc 3f aa df 3c
       -0.031334747 0.00039731275 -0.012051723 0.02730286
000240 5a 92 f3 3b 51 a7 82 3a c5 d6 e7 3c a9 bc 0a 3e
       0.007433218 0.0009968077 0.028300652 0.1354853
000250 28 0b e8 bd 3d 70 08 bd f7 e7 7f 3b cc 81 04 3d
       -0.11330253 -0.033310164 0.0039048174 0.032350346
000260 2e 93 b4 3d 63 1a 2a 3c 90 e7 ac bc df e7 7e 3d
       0.08817135 0.010382268 -0.021106511 0.06223285
000270 23 c4 d9 bd bc b4 72 3c c4 af bb 3e c1 f6 9a bd
       -0.10633113 0.014813598 0.36657536 -0.07566596
000280 c6 01 23 3d d1 b4 b0 bd 45 64 37 3d 2d 46 d0 bd
       0.039796613 -0.08628238 0.04477336 -0.10169635
000290 2b 7e fc 3b 8a 57 9c be f7 b2 fe 3d ea fb fd bd
       0.00770547 -0.30535537 0.124364786 -0.124015644
0002a0 67 78 0d 3d 46 de c4 bb 40 b4 60 bc 39 91 4d 3d
       0.034538653 -0.0060079424 -0.01371485 0.050187323
0002b0 9f c6 9a bb e6 af 57 3d 6a f8 14 3a 48 9c 04 bc
       -0.0047233845 0.052657984 0.00056827685 -0.008093901
0002c0 1a 49 0a 3b d3 77 7a b9 8b e2 53 3e fd 0f 42 bd
       0.00211007 -0.00023886496 0.20691888 -0.04737853
0002d0 20 ec a0 3d 4f f3 e4 bd 12 63 b7 be b9 9b 91 3d
       0.07857537 -0.1117922 -0.35817772 0.0710978
0002e0 81 a7 67 bd fc db dd 3d cb b4 2e 3d 61 ba c2 3c
       -0.05655623 0.10832974 0.042652886 0.023770513
0002f0 cd a9 d1 3b 60 ee c3 3d 93 25 85 bd 06 72 91 bb
       0.0063984157 0.09566951 -0.06501307 -0.0044386415
000300 e4 2f a2 bb c8 c3 12 3e e3 1f dc 3d bf 0b c5 3c
       -0.0049495567 0.14332497 0.107482694 0.024053453
000310 46 1f 53 bd 2d 0f fb bb d7 14 23 be 36 78 36 3e
       -0.051543497 -0.007661721 -0.15925919 0.17819294
000320 1d 38 f0 bc bf f8 55 be 80 53 e5 3d cc 43 3e 3d
       -0.029323632 -0.2089567 0.11197567 0.046451375
000330 1c 36 0b 3e b2 d3 04 bd 16 26 31 be 20 2d 90 be
       0.1359486 -0.03242845 -0.17299685 -0.28159428
000340 37 d9 29 bd 7b 77 04 3d a8 be eb bc 0e 91 94 3c
       -0.041466918 0.032340508 -0.028777435 0.018135574
000350 15 37 63 3b 11 9d cb 3c 92 38 25 be 93 7d 94 3b
       0.0034670283 0.024855169 -0.16134861 0.004531571
000360 80 06 00 3e f8 39 38 bd 17 ed 1e 3a d7 61 03 bc
       0.1250248 -0.04497716 0.0006062551 -0.008018932
000370 54 38 2b bd c5 e9 65 be 6b 88 f9 bd 9b 7a 2a be
       -0.041801766 -0.22452457 -0.12184223 -0.16648333
000380 a3 fb 8d bd 6c 66 16 bc 58 ef 01 3e 6f a4 b6 be
       -0.069327615 -0.009179693 0.12688959 -0.35672328
000390 ce 7a 24 be 8e c2 70 bb 31 37 50 bd bc 3c 42 3e
       -0.16062471 -0.0036737057 -0.050833885 0.18968481
0003a0 aa 38 f6 3c ca c8 86 bd 11 e3 3e 3b 2b da b6 bd
       0.030056316 -0.06581266 0.0029127041 -0.08928331
0003b0 ed 50 a6 bc 80 d9 8e 3d f6 60 6e bd a3 1f e4 bb
       -0.02030226 0.069750786 -0.058197938 -0.006961779
0003c0 81 c7 39 3d e4 16 07 3d 44 a6 8c 3e c5 64 b8 bb
       0.045356277 0.032980815 0.274706 -0.005627247
0003d0 f7 fd 89 bc 92 25 8d bd 4b 6b 70 3d 2a f5 46 3e
       -0.016844733 -0.068919316 0.058696073 0.1942946
0003e0 b4 6f 87 3a 26 02 96 be 63 e7 85 3d e1 dc 25 3d
       0.0010332973 -0.29298514 0.06538274 0.04049385
0003f0 27 9f 74 be 15 68 c1 3c 46 b1 5c 3d 96 fb a9 3b
       -0.23888837 0.0236092 0.05388 0.005187462

bias f4 [128]
000000 89 6e b3 b9 f8 9f 73 bc bf 48 45 3d 30 09 8c 3d
       -0.00034223896 -0.0148696825 0.04816508 0.0683769
000010 aa 19 b1 3c 0d 61 af 3d ac d5 13 3c cb ea c4 3c
       0.021618683 0.08563433 0.009023111 0.02403774
000020 29 42 3c bb 4e b1 0e 3b 35 9a 10 bd e0 c1 12 3e
       -0.0028725958 0.0021773162 -0.035303313 0.1433177
000030 d6 ea 8b 3b 3b a7 a1 bb 01 0c b8 bc 2c 0f 0f 3e
       0.004269938 -0.0049332655 -0.022466661 0.13970631
000040 bc 70 7a bc 50 16 3d bc 1b 81 fa bb ee e6 70 3d
       -0.015285667 -0.011540964 -0.007644785 0.05881398
000050 39 3d 88 bc fb 30 43 bc 21 1c e8 bb 60 af 57 3b
       -0.016630756 -0.011913533 -0.0070834314 0.0032910928
000060 14 d5 8f bb d2 b4 d0 3d 13 e5 16 bd 02 2f 6f 3d
       -0.0043894146 0.10190739 -0.036839556 0.05839444
000070 d5 96 e0 3b 47 16 92 bc 62 12 10 bb 0a 31 58 3d
       0.006853918 -0.017832888 -0.0021983613 0.052781142
000080 7c 9b b9 3c eb 40 bf 3c 8f 1f 60 3c 54 a1 43 3d
       0.022657149 0.023346385 0.013679399 0.047761276
000090 7d a1 5f bb c5 1b 87 ba 94 78 05 bd cb bd 01 bd
       -0.0034123354 -0.0010307959 -0.032585695 -0.03167514
0000a0 2f d2 92 3c 18 1e cd 3c 2b 94 fa bb f8 71 e6 bc
       0.017922489 0.025038764 -0.0076470575 -0.028130516
0000b0 fb e5 0b 3d 20 55 c0 3c 3d 5b 8a 3d 8c 36 14 bd
       0.034154873 0.02347809 0.067556836 -0.036184832
0000c0 e9 71 bc bb ae ba ea 3c 23 df 90 3c 4d 0c 9f 3d
       -0.005750884 0.028653469 0.017684525 0.07766018
0000d0 48 61 16 bc d3 ee f1 bc a3 1d 28 3d 23 e1 b4 3c
       -0.009178467 -0.029532826 0.04104389 0.02208001
0000e0 55 50 9b 3d 43 f3 9b 3c 42 59 e6 bc 48 74 3d 3d
       0.075836815 0.019036895 -0.028118733 0.046253473
0000f0 00 f5 69 3b f5 4d ad 3c 34 80 0a bd a7 86 b7 3b
       0.003569901 0.021155337 -0.03381367 0.0056007686
000100 e3 80 5b 3b 90 37 5a 3c e6 34 f0 bc 48 04 d7 bc
       0.003349357 0.013318911 -0.029322099 -0.026247159
000110 3d b7 dd 3c d8 cd 24 bc b5 02 b6 3d 1f b7 05 bd
       0.027064914 -0.010058843 0.08887235 -0.03264534
000120 40 da 9d 3c cc fd 76 3c f6 2b 0a bd 6e bd 9f bc
       0.019269109 0.015075158 -0.03373333 -0.019499507
000130 7d 8f e4 3a 79 f0 8c bb 7e 50 ae 3a eb 9b 6a 3d
       0.0017437782 -0.0043011275 0.0013299135 0.0572776
000140 47 5a 7c bc a0 b0 44 3d 75 26 f1 bc f1 1c 4e bc
       -0.015402383 0.048020005 -0.029437283 -0.012580142
000150 b5 f0 04 3e e1 1f d2 bc e9 88 e0 3b 88 84 12 bd
       0.12982447 -0.025649967 0.0068522585 -0.035770923
000160 b5 dc b2 bc b9 4f 6c 3c 6a 97 d0 bc 8d c0 bb bc
       -0.021833757 0.014423304 -0.025462825 -0.022918964
000170 4a dd 9a 3c e2 06 e2 bc 3f f0 13 bd e5 69 a7 bc
       0.018904347 -0.027591173 -0.03611779 -0.020436237
000180 fc 43 a1 bc ff a9 a9 3d 28 07 54 bc 01 30 55 3b
       -0.019685738 0.08284377 -0.012941159 0.0032529833
000190 3e 43 a2 3d a0 1c ec bc 9b aa 98 3d 08 fd 99 3c
       0.07922982 -0.028822243 0.074544154 0.018797413
0001a0 2d 4e 77 bb 2b c7 ae 3c 8b 72 b9 3d fc 35 bd 3c
       -0.0037735805 0.021335205 0.090550505 0.02309703
0001b0 7b 4a 72 3d 35 b2 fa 39 96 16 bb 3c e9 1c 13 bd
       0.05915306 0.0004781649 0.022837918 -0.035916243
0001c0 d5 9d ec bb 90 f7 80 bc 82 94 1b bd 03 0c 6f 3b
       -0.0072209635 -0.015743047 -0.037983425 0.0036475665
0001d0 e7 86 97 3c 2a d6 ac 3c ba aa dd bc 1f 0a e9 bb
       0.018496944 0.021098215 -0.027058948 -0.007111802
0001e0 b2 e4 c2 bc af 8b 38 bc 04 73 b3 3c 85 c9 c2 3c
       -0.023790691 -0.011263772 0.02190543 0.023777733
0001f0 81 c6 bd 3c 47 49 57 bc f6 13 96 3c af a5 c6 bc
       0.023165943 -0.013140029 0.018320065 -0.024248926

weight f4 [3, 128]
000000 a6 35 84 3e 0d 27 2e 3d 1c 97 e8 bd 7b 7e 16 3d
       0.2582218 0.04251771 -0.11356947 0.036741715
000010 49 1c 8d bc 31 5e 33 3e 2b c2 d9 bc fc 20 89 bd
       -0.017225401 0.175164 -0.026581844 -0.066957444
000020 62 51 7c 3c 3d 50 43 3e b7 ed 10 bd 46 fd 46 3e
       0.015400263 0.19073577 -0.035382953 0.19432554
000030 5c 4f 44 3e 1c 42 c3 3d 09 f3 a7 bd 95 8a 10 bd
       0.19170898 0.09534094 -0.08200652 -0.035288412
000040 fc 8c 25 3c 71 4e 64 bc 06 ce 7d bd a6 26 e5 bd
       0.010104414 -0.0139347175 -0.061964057 -0.11189012
000050 77 50 a5 3d 92 0d ec 3d 61 63 a1 bd b9 c9 20 3d
       0.08071988 0.11526026 -0.07880283 0.039254878
000060 c5 06 4c 3c 12 09 60 3e 11 77 c7 bd 9e e9 86 3d
       0.012452786 0.2187846 -0.09739507 0.06587528
000070 ba 46 9c 3d 29 d4 8b bd 2b 69 5a 3d d7 9f 86 3e
       0.076306775 -0.06827576 0.053322952 0.26293823
000080 f8 ca 14 bd 32 a7 3e bc 7a da 67 bd 10 c7 15 be
       -0.03632638 -0.011636542 -0.05660484 -0.14626718
000090 ce a0 9b 3d 1e 81 31 3a 24 88 ce ba 26 e3 c9 ba
       0.075990304 0.0006771254 -0.0015757126 -0.0015402779
0000a0 c0 44 a9 bd 72 68 3e 3d 13 04 89 bc 42 a8 62 bd
       -0.08265066 0.046486326 -0.016725576 -0.055336244
0000b0 c3 81 02 3d 30 7d b3 3d 36 6b b0 3d e9 fd 1f 3d
       0.03186203 0.08764112 0.08614199 0.039060507
0000c0 81 bd 27 bd f9 13 44 3d 6a 8e 76 bd b0 35 d6 3d
       -0.04095221 0.04787061 -0.06019441 0.10459459
0000d0 19 7f 55 3d fd 3d 28 bd 7e a4 7e 3e f0 a3 a2 bd
       0.052123163 -0.04107474 0.24867436 -0.07941425
0000e0 ab 22 8b 3e bd e9 a5 3e 48 b2 8e 3c b0 6c 7a 3c
       0.27174887 0.3240489 0.017418995 0.015284702
0000f0 38 4b 65 bd a7 71 a8 bd 73 77 b3 bb 5a 15 13 bd
       -0.055979937 -0.082248025 -0.005476886 -0.035909034
000100 00 a1 11 3e 54 f9 af 3c e5 bd 64 3e 1b c7 a3 bd
       0.14221573 0.021481194 0.22338064 -0.07996961
000110 36 c0 a6 3e 29 8f 0a bd 25 85 93 3d 02 86 c8 bc
       0.3256852 -0.033827934 0.0720313 -0.024477962
000120 8f 60 ad 3c 4e 74 92 bd a8 7f 80 3d 3e 94 3f 3e
       0.021164207 -0.071510896 0.062743485 0.18708894
000130 d4 65 a3 3d 90 af 99 3c d7 ff 8b bc ac 70 f7 3d
       0.079784065 0.018760473 -0.017089767 0.12082037
000140 ac b5 58 bd a2 b3 31 3e 85 dc 20 bd 25 8f f0 3d
       -0.05290763 0.1735368 -0.039272804 0.11746053
000150 2a 15 c2 3e d6 9a 7e 3e ff 5e 9c 3e 62 03 97 3d
       0.37906772 0.24863753 0.30541226 0.07373692
000160 4c 17 dd 3d 5c 3e ec bc ec 53 76 bd 88 a4 88 3d
       0.10795459 -0.028838329 -0.060138628 0.06672007
000170 8d 6f 37 3d dc 81 8a bd 3d c3 6e 3d 1a 1f 4d be
       0.044784117 -0.0676305 0.058291662 -0.20031396
000180 a7 3d 82 bd ad 02 5b 3e 5c 59 a7 3d 6a f5 3b bb
       -0.063594155 0.2138774 0.08171341 -0.0028680214
000190 c3 07 35 be 49 f7 31 3d c5 65 ef 3d e8 bf 02 bd
       -0.17678742 0.04344872 0.11689333 -0.031921297
0001a0 21 6f aa bd 3d 70 92 bd 75 e2 d4 3e f8 2b 8a bd
       -0.083219774 -0.07150314 0.41579023 -0.067466676
0001b0 6e 54 47 3e b9 31 80 bc 81 16 aa bd fa c6 53 bd
       0.19465801 -0.01564871 -0.083050735 -0.05170343
0001c0 56 87 f7 bc 4d 92 5e 3c 49 18 b6 3d 5f c6 12 3c
       -0.0302159 0.0135846855 0.08891351 0.008958428
0001d0 d6 0e a4 bc 18 d0 07 3e 8a b6 c4 3c bf 1d 04 3d
       -0.020026606 0.13262975 0.024012823 0.03225493
0001e0 2a 95 35 bd 45 69 b4 3d 21 30 b4 bd 77 57 63 3e
       -0.044331707 0.08809141 -0.08798242 0.22201334
0001f0 b5 7f 6f bd bb 00 ca 3b 5a 8e 01 bb 3a e8 58 3d
       -0.0584714 0.006164638 -0.0019768686 0.052955844
000200 7f 9e 3b 3b 4b b3 a2 bd 2a 28 12 3e dd 6f 56 3e
       0.0028628407 -0.07944354 0.14273134 0.2094111
000210 44 f4 8f bd 69 cd 1a 3e b9 64 9b bc 34 55 7f bc
       -0.07029012 0.1511742 -0.018968927 -0.015584279
000220 b7 6f a3 bd 3c 8c 8d 3e a8 f6 6e ba a4 4b bd 3e
       -0.07980292 0.27646053 -0.0009115734 0.36971772
000230 ef 58 4c be 9d f0 3b be ba 91 7e bd 5b 8d 8d 3e
       -0.199558 -0.18353505 -0.062150694 0.27646908
000240 ad 58 02 3c 5c 18 6e bd 68 bc a2 bc 59 4f 4a 3e
       0.007955712 -0.0581287 -0.01986523 0.19756831
000250 e9 03 3b bd e2 c4 6a bd 08 03 6e bd b0 90 25 3d
       -0.045658026 -0.05731667 -0.05810836 0.040421188
000260 f6 88 88 bd 15 fa 63 3e ef b4 d2 3d e7 b0 f1 3d
       -0.06666748 0.22263367 0.102884166 0.118013196
000270 ee 5e 50 bd 27 ac 8e 3d 46 33 3a bd e5 7c 4f bd
       -0.050871782 0.06966429 -0.045459054 -0.050656218
000280 18 22 ec bb 24 44 99 bd 72 d4 9e bd 89 15 b0 3d
       -0.0072062127 -0.074837 -0.077553645 0.085978575
000290 91 39 75 bd b4 b0 98 3d a1 eb 0f bd 90 e7 46 bd
       -0.059869353 0.074555784 -0.035136823 -0.04856068
0002a0 67 b6 90 bc bb 8d bd 3c 0b 9c c0 bc 23 e7 25 bc
       -0.017665101 0.023138871 -0.023511907 -0.010125908
0002b0 a9 b0 ac bc df 2d b1 bd ca 41 9f 3e 74 91 70 bd
       -0.021080332 -0.08651327 0.3110488 -0.058732465
0002c0 a5 a4 03 3d 72 b3 a4 bd 52 28 84 bd aa 58 6d 3e
       0.03213944 -0.08042039 -0.06453003 0.23178354
0002d0 79 36 1f bd 5f 27 8f bd 86 c3 91 be f4 c6 b7 3d
       -0.03887031 -0.06989931 -0.28469485 0.08973494
0002e0 93 46 fb 3d 1a 88 d7 bc 60 54 77 bd 8a 0e 15 3e
       0.1226932 -0.026310015 -0.0603832 0.14556327
0002f0 39 c0 a8 3d 4f d2 49 bc 21 b6 9c bd e4 88 76 bc
       0.082397886 -0.012318208 -0.07651926 -0.015047286
000300 5c 31 6b 3e f8 17 d3 bc a3 08 81 3d 95 38 84 bc
       0.22968048 -0.025768265 0.063004754 -0.016140262
000310 f6 23 29 bd 29 4e aa bd a5 65 93 3e 6b 52 95 3d
       -0.04129406 -0.08315689 0.28788486 0.072911106
000320 11 2f 47 bd dd 14 83 3d 3f ed 33 bc 62 d8 b4 bb
       -0.04862887 0.06400464 -0.010981857 -0.005518959
000330 cc 58 c3 bc 31 e5 65 bd 95 5f 9f bd 44 b8 77 3e
       -0.023846053 -0.056126777 -0.07781903 0.24191386
000340 9b f8 cd bc f1 e1 0e 3e ff 01 8e bc 01 34 da 3d
       -0.025142958 0.13953377 -0.017334936 0.1065445
000350 db de cb 3d 00 78 b0 3e ad 91 14 3e c7 ea 37 bd
       0.09954616 0.34466553 0.14508696 -0.044901635
000360 90 05 80 3c a1 65 05 bc 05 79 77 3d ad ff 98 bd
       0.015627652 -0.008141906 0.060418148 -0.07470641
000370 11 9b 17 3e 24 98 0d bd 03 98 d7 bc 25 d0 ef bd
       0.14805247 -0.03456892 -0.026317602 -0.11709622
000380 3b 57 07 3c 79 05 88 3e 5b 5a 32 bb 85 fc f0 bc
       0.008260543 0.26566675 -0.00272145 -0.029417286
000390 6f 40 aa 3e 67 ea 44 3d 0e 94 84 3e aa 7c 9e bc
       0.33252284 0.048075106 0.25894207 -0.019346554
0003a0 ef 48 a2 bd 13 4e 26 bc 8f e6 75 3a a7 65 98 bd
       -0.07924067 -0.01015045 0.0009380364 -0.07441264
0003b0 85 59 84 3e 1e 62 51 bc 19 1e db bc d4 0d 96 bd
       0.25849548 -0.012779741 -0.02674775 -0.07326856
0003c0 ab a4 51 bd 48 1d 86 bb cd 13 b4 bd fe d1 41 bc
       -0.05118243 -0.004092846 -0.08792839 -0.011829851
0003d0 0c f1 21 bd f3 88 59 bd 15 14 3c bd 50 00 cd 3c
       -0.03953652 -0.05310912 -0.04591759 0.025024563
0003e0 16 e0 3b bd 2a a2 75 3d a2 a2 9c 3d 96 1c 1d be
       -0.045868002 0.059969105 0.07648207 -0.15342936
0003f0 41 1c 0a 3d 6e e7 46 bd 1a 56 76 bc 41 6e 87 bd
       0.03371835 -0.048560552 -0.015035177 -0.06612826

bias f4 [3]
000000 61 a1 67 3c 92 aa a3 3d c6 f1 a2 bc
       0.014137597 0.07991518 -0.019890677
