saved_models/run14/model_3000.pth (torch, 141798 bytes, 6 tensors)

weight f4 [256, 4]
0	0xbe402a7d	-0.18766208
1	0x3ca32c32	0.019918535
2	0xbfa09349	-1.2544948
3	0xbd8ada7c	-0.06779954
4	0x3e6b8a5b	0.23001997
5	0xbf0328f6	-0.51234376
6	0x3e80ed81	0.251812
7	0x3d25f6fe	0.040518753
8	0xbfc3014d	-1.5234772
9	0xbe99ac59	-0.30014303
10	0xbf74c37f	-0.95610803
11	0xbd24c1f4	-0.04022403
12	0xbdc3e93f	-0.095659725
13	0x3ed7b52a	0.42130405
14	0xbfbe4cb9	-1.4867164
15	0xbf13e1d7	-0.5776648
16	0xbf982fda	-1.1889603
17	0xbe4b6395	-0.19862206
18	0x3dd6ce7b	0.10488602
19	0xbc706224	-0.014671836
20	0x3e57a847	0.21060286
21	0x3e14ae7a	0.14519683
22	0xbefc2da3	-0.49253568
23	0x3d93c5c4	0.07215455
24	0xbe24e98d	-0.16104718
25	0xbe2bb956	-0.16769919
26	0xbf18dd11	-0.5971232
27	0xbe1df862	-0.15426782
28	0x3e4e53df	0.20149182
29	0xbf2f281e	-0.6842059
30	0xc0860082	-4.187562
31	0xbe2f955d	-0.17146821
32	0x3df6eabf	0.12056493
33	0xbe529fea	-0.20568815
34	0xbf231e02	-0.63717663
35	0x3d85e00d	0.06536875
36	0xbe29dc86	-0.1658803
37	0x3d84d839	0.06486554
38	0x3f95bf0a	1.1698925
39	0xbd25b99d	-0.040460218
40	0xbdaa3ed9	-0.083127685
41	0xbe42e25c	-0.19031662
42	0x3f95f99c	1.17168
43	0xbb81eaa0	-0.003964737
44	0xbdca62fc	-0.09882161
45	0xbf062dc7	-0.524136
46	0xbef542aa	-0.47902423
47	0x3ccfe6de	0.02537864
48	0xbe79f3fc	-0.24409479
49	0xbdabaf71	-0.08383072
50	0x3f7a9989	0.97890526
51	0x3d341136	0.043961726
52	0x3fa062ab	1.2530111
53	0xbe32c56c	-0.17458123
54	0xbf4b11de	-0.7932414
55	0x3e7c99c1	0.24668027
56	0x3f40619b	0.75148934
57	0xbebeb92d	-0.37250653
58	0x3f0d0069	0.5507875
59	0xbe7891b2	-0.24274328
60	0xbe81fd3f	-0.25388524
61	0xbf3d46fe	-0.7393645
62	0xbc8166c3	-0.01579607
63	0xbde144de	-0.109994635
64	0xbc974a8c	-0.018468164
65	0x3d4e0455	0.0502971
66	0x3e9c5582	0.30533987
67	0x3e384706	0.17995843
68	0xbc9a3358	-0.01882331
69	0x3db07b7d	0.086173035
70	0xbfea293b	-1.8293833
71	0x3f054c24	0.52069306
72	0xbe0f5feb	-0.14001434
73	0x3b85d67d	0.004084407
74	0xc07aeef8	-3.9208355
75	0xbebcaa84	-0.36848843
76	0xbd609f22	-0.05483926
77	0xbde885ad	-0.11353622
78	0xbefa3d8a	-0.48875076
79	0xbeb54179	-0.35401514
80	0x3cfc6e63	0.030814355
81	0x3d677ee1	0.056517486
82	0xbf0f4763	-0.559683
83	0x3f107a85	0.5643695
84	0xbfa32038	-1.2744207
85	0x3e972fb8	0.29528594
86	0x3f83b60b	1.028993
87	0x3c8ba92b	0.017048439
88	0x3e7950a0	0.24347162
89	0x3e052f04	0.13006216
90	0x3d959874	0.07304469
91	0x3efc80d9	0.49317053
92	0xbfaba9ab	-1.3411154
93	0xbd016311	-0.031588618
94	0xbfdfac09	-1.7474376
95	0xbdbae24e	-0.091251954
96	0xbe658577	-0.22414194
97	0xbf644efc	-0.8918302
98	0xbec22e14	-0.3792578
99	0xbeb29e4c	-0.34886396
100	0x3ddeb497	0.108742885
101	0xbe52d008	-0.2058717
102	0xc052ac72	-3.2917752
103	0xbec90836	-0.39264077
104	0xbdfe3371	-0.124121554
105	0x3f85cd4a	1.0453274
106	0xbe5497b3	-0.20760994
107	0xbe131a68	-0.14365542
108	0x3e6d692a	0.23184648
109	0x3bcd3c6f	0.0062633078
110	0xbfb8b63d	-1.4430615
111	0xbeccb0b6	-0.3997857
112	0xc01ea624	-2.4788904
113	0xbf1b363f	-0.6062965
114	0xbfa203bd	-1.2657391
115	0x3e10ee5a	0.14153424
116	0xbd7e946c	-0.062153265
117	0xbc37822b	-0.011200468
118	0xbfeae2e9	-1.8350497
119	0xbeed7b6f	-0.46383235
120	0xbe0a973c	-0.13534254
121	0x3f3da307	0.74076885
122	0xbee2f133	-0.44324645
123	0x3d014ab3	0.03156538
124	0x3a69cee6	0.0008919075
125	0x3f2e854c	0.68172145
126	0xbee27991	-0.44233373
127	0xbe055999	-0.1302246
128	0xbf0deefe	-0.554428
129	0xbe1a4a21	-0.1506734
130	0x3e095583	0.13411526
131	0xbe464ee1	-0.19366027
132	0xbdcc1313	-0.099645756
133	0xbd80e8ab	-0.06294378
134	0xc06db1a6	-3.7139678
135	0xbeb651eb	-0.35609373
136	0x3efa4613	0.48881587
137	0x3e452d1f	0.19255494
138	0xbe89aa63	-0.26887807
139	0x3e98b6cd	0.29826966
140	0xbe8d3930	-0.27582693
141	0x3e499345	0.19685085
142	0xbf3f33c9	-0.7468839
143	0xbcdc99d6	-0.026928823
144	0x3dc999ff	0.098438255
145	0x3efcb446	0.49356288
146	0xbfbfbb86	-1.4979103
147	0xbe95ee20	-0.29283237
148	0xbe19304d	-0.14959832
149	0xbd657ad9	-0.05602536
150	0xc05a056e	-3.4065814
151	0xbdb00a96	-0.08595769
152	0xbdb53cd0	-0.0884949
153	0xbd58b0d3	-0.052903008
154	0xc00a370a	-2.1596093
155	0x3e5cedba	0.2157506
156	0xbfa11196	-1.2583492
157	0x3e74ab71	0.23893525
158	0xbf521098	-0.8205657
159	0xbea0091a	-0.31256944
160	0xbfbb33ea	-1.4625218
161	0xbe1f4eb5	-0.15557368
162	0x3b3c0008	0.0028686542
163	0xbc8730ca	-0.016502757
164	0xbefc6d13	-0.49301967
165	0xbe877c1b	-0.26461872
166	0xbf72521c	-0.9465654
167	0x3d939a5e	0.072071776
168	0xbf9b7be5	-1.2147185
169	0x3db170be	0.08664082
170	0x3e3cec4d	0.18449517
171	0xbea38b9a	-0.31942445
172	0xbda9f453	-0.08298554
173	0xbd72387f	-0.05913591
174	0xbf0e69f5	-0.5563043
175	0x3d0c4991	0.034249846
176	0xbe2e1625	-0.17000635
177	0xbe53210a	-0.20618072
178	0xc07f64c0	-3.9905243
179	0xbeba1b06	-0.36348742
180	0xbdb71c78	-0.08940977
181	0xbe7e3ede	-0.2482867
182	0xc0ed0c9e	-7.40779
183	0xbf537397	-0.8259825
184	0xbe82899c	-0.25495613
185	0x3e842a9b	0.25813755
186	0x3d5435cf	0.05180913
187	0x3d779a85	0.060450096
188	0xbd3113fd	-0.043231953
189	0xbdbaeebc	-0.09127566
190	0xc04b5e85	-3.177644
191	0xbedfcfbe	-0.43713182
192	0x3cc84b40	0.024449944
193	0x3e139077	0.14410578
194	0xbfc423ed	-1.5323464
195	0xbd627162	-0.05528391
196	0x3dde438b	0.108527265
197	0x3d641d1e	0.05569183
198	0x3f82ea6c	1.022779
199	0xbe8897c3	-0.26678285
200	0xba0e16f0	-0.0005420288
201	0x3e662728	0.22475874
202	0xbf999000	-1.199707
203	0xbd8cd1cc	-0.06875953
204	0xbf9dd361	-1.2330133
205	0x3ef70759	0.48247793
206	0xbf596d13	-0.8493206
207	0xbd9efd85	-0.07763199
208	0xbe4d954b	-0.20076482
209	0xbe55bb6d	-0.20872279
210	0xc0632ac7	-3.549486
211	0xbf14f4fd	-0.5818632
212	0x3bbab69d	0.0056980387
213	0xbde886b3	-0.11353817
214	0xc0846d47	-4.1383395
215	0xbeeb91a1	-0.46009544
216	0xbe258b03	-0.1616631
217	0xbe8c79f2	-0.27436787
218	0xbf02e1c0	-0.5112572
219	0xb9807fbe	-0.00024509238
220	0xbe86b55d	-0.26310244
221	0x3d0c9558	0.034322113
222	0xbfdd9c4b	-1.7313322
223	0xbe18a23e	-0.1490564
224	0x3ed241c7	0.4106581
225	0x3e8e2601	0.2776337
226	0x3d1701e3	0.036867034
227	0xbe1c997b	-0.15292923
228	0x3e0a3fa4	0.1350084
229	0xbe284cfe	-0.1643562
230	0xc059a7f9	-3.4008772
231	0xbeca1f7b	-0.39477143
232	0xbccba099	-0.024856852
233	0x3e83a507	0.25711843
234	0xbfaf41e1	-1.369198
235	0xbe03a4fd	-0.12855907
236	0xbd03f0de	-0.03221213
237	0xbd5d30df	-0.054001685
238	0x3f7a4154	0.9775593
239	0xbd2b3d48	-0.04180649
240	0x3dc17288	0.09445673
241	0x3f41049e	0.7539767
242	0xbfd91e92	-1.6962454
243	0x3eb7a3b8	0.35867095
244	0x3e82a89b	0.2551926
245	0x3f2f4217	0.6846022
246	0xbfb18151	-1.3867589
247	0xbe69318c	-0.22772807
248	0xbf79cfc4	-0.9758265
249	0xbe90a920	-0.28254032
250	0x3efaae83	0.48961267
251	0x3dda19ad	0.106494285
252	0xbdebf85f	-0.115219824
253	0xbebe6e74	-0.37193644
254	0xbf5744fc	-0.84089637
255	0x3bb06280	0.005382836

bias f4 [256]
0	0x4038d0db	2.8877475
1	0x4080edec	4.029043
2	0xc0168b2b	-2.3522441
3	0x3ea94192	0.3305784
4	0xc079d5a0	-3.9036636
5	0x3fd3174f	1.6491488
6	0x403616eb	2.8451488
7	0xc019858d	-2.3987763
8	0x404f6c43	3.2409828
9	0xc054a188	-3.322359
10	0xc06e5d27	-3.7244356
11	0x404dd13a	3.2158952
12	0xc09b902f	-4.8613505
13	0xbc276027	-0.010215796
14	0x407497fb	3.8217762
15	0xc01e57a2	-2.4740987
16	0xc0915644	-4.5417805
17	0xc031270f	-2.768009
18	0x4023a391	2.5568583
19	0xc094d839	-4.6513944
20	0xc0716b6a	-3.772181
21	0x402aecad	2.6706955
22	0xc04f433b	-3.2384784
23	0x3f52dd39	0.8236881
24	0xbfd6b91c	-1.6775241
25	0x3f14b1d5	0.5808385
26	0xc01668f9	-2.350157
27	0xc029d57b	-2.6536548
28	0xbfb6a5c3	-1.4269336
29	0xc0212b4f	-2.5182683
30	0x3fdc2c4b	1.7201017
31	0x3f14cfba	0.58129466
32	0xbe59d994	-0.21274406
33	0x3f6b08c2	0.9181024
34	0x4009b6d9	2.1517851
35	0x400a7a16	2.1637015
36	0x400266e9	2.0375311
37	0x3f800f88	1.000474
38	0x402ea579	2.7288496
39	0xc019629e	-2.396644
40	0xc08d6da5	-4.4196343
41	0xc03e5049	-2.9736502
42	0xbf88a634	-1.0675721
43	0x405c3e04	3.4412851
44	0x3f5d5ae5	0.8646682
45	0xbf89005f	-1.0703238
46	0x4069d3e8	3.6535587
47	0xbf46aead	-0.77610284
48	0x4044cc07	3.0749528
49	0xc017f0bc	-2.3740683
50	0x408180e6	4.0469847
51	0x3f0376bb	0.51353043
52	0xc05a7437	-3.4133432
53	0x3f08427b	0.5322644
54	0x403e87ff	2.9770505
55	0x40077dbd	2.1170495
56	0x3f9bd3f5	1.2174059
57	0x3f7377bc	0.95104575
58	0x4066d5cd	3.6067994
59	0xc05fa53c	-3.49446
60	0x3e987c2f	0.29782245
61	0x3f938562	1.152508
62	0xc01d062d	-2.453502
63	0x4017321c	2.3624334
64	0xc0651ed8	-3.5800076
65	0xc0c540b5	-6.164149
66	0x402e8ff3	2.727536
67	0xbf1aaed4	-0.60423017
68	0xc078b25c	-3.8858862
69	0xc04fb99c	-3.2457037
70	0xc07deec6	-3.9676986
71	0x3e6170d0	0.22015691
72	0x4009c0ca	2.152392
73	0xc02d0717	-2.7035577
74	0xbfbe0a3f	-1.4846877
75	0x406f60f4	3.7402925
76	0x40401d7f	3.0018003
77	0xc02e846e	-2.7268329
78	0xbfe7146a	-1.8053105
79	0xbe9a65f4	-0.3015591
80	0xc00632b6	-2.0968451
81	0xc0774437	-3.8635385
82	0xbe5bb84e	-0.21457025
83	0xc08307bd	-4.0946946
84	0xc0001831	-2.0014765
85	0x408c1e98	4.3787346
86	0x3f54b269	0.8308473
87	0x4028ab0f	2.6354406
88	0xc05309da	-3.2974763
89	0xc06fb09d	-3.7451546
90	0xc0763a41	-3.8473055
91	0xc03c4265	-2.9415524
92	0xc0053ae5	-2.0817196
93	0xc036fda6	-2.8592315
94	0xc0533162	-3.299889
95	0x4024309e	2.5654674
96	0x40616a70	3.5221214
97	0x3fca8ee0	1.5824852
98	0xc0164031	-2.347668
99	0xc0a9a5f6	-5.301509
100	0x401964cf	2.3967779
101	0xc0589d59	-3.3846037
102	0xc06bc80a	-3.6840844
103	0xc0358862	-2.8364491
104	0xbf00489d	-0.501108
105	0xbfac352b	-1.3453726
106	0x401da50c	2.4631987
107	0x40130618	2.297247
108	0x402e5129	2.7237036
109	0x3d4d67d6	0.050147854
110	0xc07f8f58	-3.993124
111	0xbfa0965a	-1.2545884
112	0x4019c984	2.4029245
113	0xc012230c	-2.283389
114	0xc0381e2b	-2.8768413
115	0xc0862105	-4.1915307
116	0x40578804	3.3676767
117	0xc07a92ad	-3.9152024
118	0xc039c1ad	-2.902446
119	0x4040c7df	3.0121992
120	0xc0115dc5	-2.2713482
121	0x3fd038bb	1.6267313
122	0xbfb0f91b	-1.3826021
123	0xbfbea191	-1.4893056
124	0xc0639a54	-3.5562944
125	0xbf91109a	-1.1333191
126	0x40345518	2.8176937
127	0xc00be56e	-2.1858783
128	0x3f10ecec	0.56611514
129	0x40189952	2.384358
130	0xc04927cc	-3.143054
131	0x3ec82672	0.3909183
132	0xc081a190	-4.050972
133	0xc069b708	-3.6517963
134	0x4000f5a6	2.0149932
135	0xc03437a5	-2.8158963
136	0xbffb1edc	-1.9618793
137	0xbe6e75f1	-0.23287179
138	0xc095155d	-4.658858
139	0xc08b51b0	-4.3537216
140	0xc059c128	-3.4024143
141	0xc0383cd1	-2.878712
142	0xc00437b7	-2.0659006
143	0x40367fe8	2.8515568
144	0x3f22c987	0.63588756
145	0xc0107c29	-2.2575781
146	0x40004333	2.0041015
147	0xc0229df4	-2.5408907
148	0xc0968245	-4.703402
149	0xc0404756	-3.004354
150	0xc011d88f	-2.2788427
151	0x408855c8	4.2604713
152	0x3f557cb2	0.83393395
153	0x40003f86	2.0038772
154	0xc0801d0e	-4.0035467
155	0xbff876db	-1.9411272
156	0xbfc2a3b4	-1.5206208
157	0x3ff4606c	1.9091926
158	0x3f8dd629	1.1080981
159	0x3fc1b5de	1.5133626
160	0x4055dce7	3.3416078
161	0xc098678b	-4.7626395
162	0xbfdc31cd	-1.7202698
163	0xc0262ef9	-2.596617
164	0xc088d4c6	-4.2759733
165	0x40532868	3.2993412
166	0xc039a92c	-2.9009504
167	0x4098136d	4.7523713
168	0xc0a209df	-5.063705
169	0x40495460	3.1457748
170	0x4003b652	2.058003
171	0x3f45f8d3	0.773328
172	0x3faa4d0d	1.3304764
173	0x40347449	2.8195975
174	0xbfb13651	-1.3844701
175	0x4052b77f	3.2924497
176	0xc0b0f2ca	-5.5296373
177	0xc07b37cb	-3.9252803
178	0xc070692b	-3.756419
179	0x4014463f	2.3167875
180	0xc031cf4a	-2.778277
181	0x400b5223	2.1768882
182	0xbfb341e9	-1.4004489
183	0xbffd90ad	-1.9809777
184	0x40549230	3.3214226
185	0xbf8016c5	-1.0006949
186	0xc0455791	-3.0834696
187	0x405c3bf6	3.4411597
188	0xc0722c95	-3.783971
189	0xc0275556	-2.6145835
190	0x3f9fed15	1.2494227
191	0x3f245bd6	0.6420263
192	0xbfbf2407	-1.493287
193	0xc0380496	-2.87528
194	0x3ff37943	1.9021381
195	0x3dfc28cd	0.1231247
196	0xbfa3cafc	-1.2796321
197	0xc05481db	-3.3204257
198	0xc07ec254	-3.9806108
199	0xc02efa08	-2.7340107
200	0x402a6bc3	2.6628273
201	0xc0482ac6	-3.1276107
202	0xc05b0081	-3.4219058
203	0xc053f749	-3.311968
204	0x4019dc3c	2.404067
205	0xbf839619	-1.0280181
206	0x3caf10b8	0.021370277
207	0x3f937db2	1.1522734
208	0xc09c7cd5	-4.8902383
209	0xc05fbe4f	-3.4959905
210	0xc0067925	-2.101144
211	0xc0a48b20	-5.141983
212	0xc0736291	-3.802891
213	0xc09af247	-4.842075
214	0x40216428	2.521738
215	0x40837471	4.107964
216	0xc05dda7b	-3.46646
217	0xbfcd9dfb	-1.6063837
218	0xc036cf2b	-2.8563945
219	0xc007f23c	-2.1241598
220	0xc05d8915	-3.4614918
221	0xbfdacbed	-1.7093483
222	0xc0752515	-3.8303883
223	0xc011626a	-2.2716317
224	0xbf5f22c1	-0.87162405
225	0xbfac3406	-1.3453376
226	0xc0152bda	-2.3308015
227	0x4015b088	2.3388996
228	0xc0251380	-2.5793152
229	0xc0560ffc	-3.3447256
230	0x40292dda	2.6434236
231	0xc035a0fa	-2.8379502
232	0x3f9e3c22	1.2362101
233	0x3edafc2e	0.42770523
234	0x401c780b	2.4448268
235	0xbea56aa1	-0.32307914
236	0xc05b0ddc	-3.422721
237	0x40839278	4.1116295
238	0xc01ea67d	-2.4789116
239	0x3fb96196	1.4482906
240	0xbfd6f82d	-1.6794487
241	0xbfab7c88	-1.3397379
242	0xc0601803	-3.5014656
243	0xc045f943	-3.0933387
244	0xc038990e	-2.8843417
245	0xc07aa4f5	-3.9163182
246	0x3fc9a8a0	1.5754585
247	0xbf186f1f	-0.5954456
248	0xc01a686b	-2.4126232
249	0x407af631	3.9212763
250	0xc0899abd	-4.300139
251	0xc04bf729	-3.1869605
252	0x404e6643	3.2249916
253	0xc0186738	-2.3813
254	0xc092dda4	-4.5895557
255	0xbfc1a1a9	-1.512746

weight f4 [128, 256]
0	0x3d112c81	0.035442833
1	0x3d37e354	0.04489453
2	0x3d2e29be	0.042520277
3	0xbd2a2ab7	-0.041544642
4	0xbadbd1f4	-0.0016770945
5	0xbbcc0e0a	-0.0062272595
6	0xbc82e293	-0.01597718
7	0xbd5b5d03	-0.0535555
8	0xbd1beb7b	-0.03806637
9	0xbd1556bc	-0.03645967
10	0xbbf03327	-0.0073303166
11	0x3c0090ad	0.007846993
12	0xbd1ebfb6	-0.03875705
13	0xbb98a259	-0.004658025
14	0xbc56549c	-0.013081696
15	0xbd213d2e	-0.039364986
16	0xbd41b814	-0.04729469
17	0xbd59c95b	-0.053170543
18	0x3c97f6b5	0.018550256
19	0xbd4c534a	-0.04988412
20	0x3d3fa002	0.046783455
21	0xbd49c944	-0.049264207
22	0xbd07069f	-0.0329653
23	0xbab16eea	-0.0013537083
24	0x3929e4e0	0.00016202359
25	0xbd424683	-0.047430526
26	0x3d10d4d1	0.035359208
27	0xbd542553	-0.051793408
28	0xbd7e2840	-0.062050104
29	0xbd47c89b	-0.048775297
30	0xbd157ff3	-0.036498975
31	0xbd3bec20	-0.045879483
32	0xbd278a86	-0.04090359
33	0x3d00a3e9	0.031406317
34	0x3d23efe5	0.040023703
35	0x3cfcd04a	0.030861039
36	0x3d6dc69c	0.058050737
37	0xbcaa8154	-0.020813622
38	0x3c0093ad	0.007847709
39	0x3cf2de1d	0.029646927
40	0x3c0e745f	0.008694737
41	0xbc878852	-0.016544495
42	0xbadb7bc8	-0.0016745264
43	0xbce1847d	-0.027528996
44	0xbcb3f0db	-0.021965435
45	0xbd1fdd5b	-0.03902946
46	0x3b0a4eaa	0.0021104016
47	0x3d4b31f0	0.04960817
48	0x3d4ceaa1	0.050028447
49	0x3b795a45	0.003804819
50	0x3d1e739b	0.03868447
51	0xbc38622b	-0.011253874
52	0x3cd179f7	0.025570853
53	0x3d25d556	0.040486656
54	0xbd8c5ea2	-0.06853987
55	0xbc7f6b55	-0.015589555
56	0xbd8afff6	-0.06787102
57	0xbcde0c7f	-0.027105568
58	0x3bf44421	0.0074544107
59	0xbc5f3db5	-0.013625552
60	0x3d58a648	0.052892953
61	0x3d098cef	0.03358167
62	0x3d17e835	0.037086684
63	0xbd2de4f5	-0.04245468
64	0xbce54482	-0.027986769
65	0xbcfa4bb8	-0.030553684
66	0xbac03cf4	-0.0014666603
67	0xbd85e385	-0.065375365
68	0x3c2fb7eb	0.010725002
69	0x3d0e538a	0.034747638
70	0x3a9a328c	0.0011764332
71	0xbcf89014	-0.03034214
72	0x3c178c48	0.009249754
73	0xbd2b05e6	-0.041753672
74	0xbcdacaee	-0.026708093
75	0xbd0df630	-0.03465861
76	0x3bedb1f1	0.0072538783
77	0x3ce0d25d	0.027444059
78	0xbd2dd106	-0.04243567
79	0xbd19d8b8	-0.037560195
80	0x3d696e4a	0.056989945
81	0x3c52ffe4	0.012878392
82	0xbbbcfa9b	-0.005767179
83	0xbd293141	-0.041306738
84	0xbcf02b50	-0.029317528
85	0xbc0b0412	-0.008484857
86	0xbd80aa97	-0.062825374
87	0xbb5bb56c	-0.0033524884
88	0x3d8bacc1	0.068200596
89	0xbd986db5	-0.074428
90	0xbd29646c	-0.041355535
91	0x3c806647	0.01567377
92	0x3d19bce2	0.03753365
93	0xbc935e03	-0.017989164
94	0xbd91eacb	-0.07124861
95	0xbb8d756f	-0.0043169777
96	0xbc705088	-0.014667638
97	0x3ce94e75	0.028479794
98	0xbd48a958	-0.048989624
99	0x3d84ef10	0.0649091
100	0xbd880954	-0.06642404
101	0xbca63220	-0.020287573
102	0xbd00bd02	-0.031430252
103	0x3d1bb38d	0.03801303
104	0x3cc115e7	0.023570014
105	0xba8a1019	-0.0010533362
106	0x3ccc0c84	0.024908312
107	0xbd114625	-0.035467286
108	0x3c078bfd	0.008273122
109	0xbda150ef	-0.07876765
110	0x3c71816a	0.014740327
111	0x3d1d63aa	0.038425125
112	0x3c96efcf	0.018424897
113	0xbbc1a7dd	-0.0059099034
114	0xbbf47c35	-0.0074610957
115	0xbd3559d8	-0.044275135
116	0xbd82abdd	-0.063804366
117	0xbd8172fd	-0.063207604
118	0xbc1974a6	-0.00936619
119	0xbd2ef175	-0.04271074
120	0xbd1695b9	-0.03676388
121	0xbd2a0d2a	-0.04151646
122	0xbd2d95c5	-0.04237916
123	0xbd1f47da	-0.038886882
124	0x3c806b81	0.015676262
125	0x3a1a36b7	0.0005882787
126	0xbcd9693b	-0.026539436
127	0xbcfe8b5b	-0.03107231
128	0x3cede9b7	0.029042108
129	0xbd399241	-0.045305494
130	0xbd69d78c	-0.057090327
131	0x3ceb6bda	0.028737951
132	0xbcd12e59	-0.025534796
133	0xbcb8c992	-0.022557054
134	0x3c83431c	0.016023211
135	0xbcd62a4c	-0.026143216
136	0xbb9c1c8e	-0.004764146
137	0x3b6cd510	0.0036137737
138	0xbc9185d4	-0.01776401
139	0xbdaa8a5e	-0.08327173
140	0x3d6679e7	0.0562686
141	0xbc85a592	-0.016314302
142	0xbcb550b6	-0.022133213
143	0x3ca66ecd	0.020316506
144	0xbd4ac29d	-0.049502004
145	0x3cd8207e	0.026382681
146	0x3cffe631	0.031237694
147	0x3aec32bc	0.0018020491
148	0xbce59f3b	-0.028030029
149	0xbc17248e	-0.009225024
150	0xbd50cb2a	-0.050975002
151	0xbb0aa897	-0.0021157616
152	0x3d11a38f	0.035556372
153	0xbcdb9d79	-0.026808487
154	0x3cf636c9	0.03005542
155	0xbd73a222	-0.059480794
156	0xbd52706c	-0.051376745
157	0x3c647a07	0.013945109
158	0xbd144cea	-0.036206163
159	0x3ca2ade6	0.019858312
160	0xbd2559d1	-0.04036886
161	0xbd093948	-0.033501893
162	0xbd76b46e	-0.060230665
163	0xbda7ce4e	-0.08193646
164	0x3cb23e84	0.021758325
165	0xbd2b29e2	-0.04178799
166	0x3c88a6f3	0.01668117
167	0xbcce2484	-0.025163896
168	0xbd78fb3d	-0.060786474
169	0x3caa1b65	0.020765016
170	0xbce9d039	-0.028541671
171	0xbd8ecd0d	-0.06972704
172	0x3cb7c63b	0.02243339
173	0xbd40456e	-0.046941213
174	0x3d1da440	0.03848672
175	0xbc82e954	-0.0159804
176	0x3d1e58bc	0.038658842
177	0xbb0750bb	-0.0020647484
178	0xbca2a589	-0.019854324
179	0xbd86e93c	-0.06587455
180	0x3d33e67a	0.04392097
181	0x3d06bcc2	0.032894857
182	0x3d1c6a53	0.038187336
183	0x3d4eb95e	0.05046975
184	0x3ce80b63	0.028325742
185	0xbb1bc3aa	-0.0023767748
186	0x3d6cdfdf	0.057830688
187	0xbd1bedf1	-0.038068715
188	0xbd3ab28f	-0.045580443
189	0xbd060d2c	-0.032727405
190	0xbdaaaa38	-0.08333248
191	0x3c6a885a	0.014314735
192	0xbd8c55f7	-0.06852334
193	0x3d321f06	0.043486618
194	0xba34f3ac	-0.0006902765
195	0x3d0ee6e2	0.034888156
196	0xbd74dd10	-0.059781134
197	0xbcf066c8	-0.029345885
198	0x3d126d0d	0.03574853
199	0x3d1bc0fc	0.03802584
200	0xbd94cde3	-0.07265832
201	0xbd0a438a	-0.033755817
202	0xbd8cd37a	-0.068762735
203	0x3d834e06	0.06411366
204	0x3d49ff3a	0.04931567
205	0x3bb74d18	0.005593907
206	0x3d0d5b6c	0.034511015
207	0x3d56b125	0.052415032
208	0xbd8a4f20	-0.06753373
209	0xbc839fe9	-0.016067462
210	0x3ce6417e	0.028107401
211	0x3d490017	0.04907235
212	0x3cd42dad	0.025900686
213	0xbcd9379a	-0.02651577
214	0x3cab2e78	0.020896181
215	0x3cab9e4a	0.020949502
216	0x3c8d3201	0.017235758
217	0xbd02a794	-0.031898096
218	0x3b594acc	0.0033156155
219	0x3d790418	0.06079492
220	0x3d3d0762	0.04614962
221	0xbd437abe	-0.047724478
222	0x3c07d023	0.00828937
223	0x3d18d3e0	0.037311435
224	0xbbbd5e0d	-0.005779034
225	0xbd57f652	-0.052725144
226	0xbc4a4975	-0.012346615
227	0xbb8a8bb3	-0.004228079
228	0xbbcdb163	-0.0062772497
229	0xbc219619	-0.009862446
230	0xbd7e1226	-0.062029026
231	0x3cd624c5	0.02614058
232	0x3d450819	0.048103426
233	0xbd5a5dcd	-0.05331211
234	0xbc521cfc	-0.012824293
235	0x3cdd46a7	0.027011229
236	0xbd41c7f4	-0.04730983
237	0x3b8a0ed4	0.0042131934
238	0x3d51dfb8	0.051238745
239	0x3cf87c6a	0.030332763
240	0xbd92b10c	-0.07162675
241	0xbca05842	-0.019573335
242	0xbd3c56ff	-0.045981403
243	0xbc4eca34	-0.012621451
244	0xbd20ef5b	-0.039290767
245	0xbca482ac	-0.02008184
246	0xbc0e0c8e	-0.008669985
247	0x3cac0c3c	0.021001928
248	0x3d20b4f4	0.03923507
249	0xbcd16288	-0.025559679
250	0xbd261b40	-0.04055333
251	0xbd4f9e2e	-0.05068796
252	0xbd7a5235	-0.061113555
253	0xbd47f3ef	-0.048816618
254	0x3cd79e4e	0.026320603
255	0xbd4876a9	-0.04894129

bias f4 [128]
0	0x3d158c52	0.036510773
1	0x3c271b2e	0.010199351
2	0xbf8df84f	-1.1091403
3	0xbf9205ac	-1.1407981
4	0xbf5d900f	-0.8654794
5	0x3cecc1a7	0.028900934
6	0xbf0f2f87	-0.55931896
7	0xbf06c5ef	-0.5264577
8	0xbcbafbb5	-0.022825101
9	0x3cd2140e	0.025644328
10	0x3b049304	0.002022923
11	0xbc856cd8	-0.016287252
12	0xbc1f3a59	-0.009718501
13	0xbd8144df	-0.06311964
14	0xbca8351d	-0.020533139
15	0xbcfb4c03	-0.030675894
16	0xbf0ae901	-0.54261786
17	0xbc8d0982	-0.017216448
18	0x3d1ca4be	0.038243048
19	0xbf4b42c3	-0.79398745
20	0x3f832e05	1.0248419
21	0xbd8d8b03	-0.0691128
22	0x3f418700	0.7559662
23	0xbf027da0	-0.5097294
24	0xbf0035ae	-0.5008191
25	0xbb832b9e	-0.0040030023
26	0x3cab6fb9	0.020927297
27	0x3bf2e257	0.0074122357
28	0x3fa990f3	1.324736
29	0xbcf06a2e	-0.029347505
30	0xbfc178b3	-1.511496
31	0xbd4febd3	-0.05076201
32	0xbefcc09a	-0.49365693
33	0xbcb89a82	-0.022534613
34	0xbd02151d	-0.031758416
35	0x3cec79eb	0.028866729
36	0xbee690d4	-0.4503237
37	0xbd9e2abc	-0.07722995
38	0xbfd20b5d	-1.6409718
39	0xbf272959	-0.65297467
40	0xbd88b199	-0.06674499
41	0xbfeb4513	-1.8380455
42	0x3b671528	0.0035260413
43	0xbf698fbb	-0.9123494
44	0x3acfb3aa	0.0015846391
45	0xbf65aa81	-0.89713293
46	0xbf02354e	-0.50862586
47	0xbedefa3e	-0.43550295
48	0xbf95d8e2	-1.1706812
49	0x3d2b4000	0.041809082
50	0xbd1f4378	-0.038882703
51	0xbecbc202	-0.39796454
52	0xbec37639	-0.38176134
53	0xbca62707	-0.020282282
54	0xbf23e893	-0.64026755
55	0x3fd920db	1.6963152
56	0xbf4bc034	-0.79590154
57	0x3bf1a4ce	0.0073743826
58	0xbf8570d0	-1.0425053
59	0x3f919f81	1.1376802
60	0x3b1c0ce7	0.0023811401
61	0xbf06b144	-0.52614236
62	0xc013a5c7	-2.3069932
63	0xbf040acd	-0.5157898
64	0xbf179613	-0.5921337
65	0x3d24c7e4	0.040229693
66	0xbedcc324	-0.4311763
67	0x3edfa57a	0.43680936
68	0xbf11073e	-0.56651676
69	0xbc9f6403	-0.019456869
70	0xbd52cc2b	-0.05146424
71	0xbdaf35b3	-0.08555164
72	0xbf7472fa	-0.9548794
73	0xbbcb7622	-0.006209151
74	0xbfc57c4d	-1.5428559
75	0xbf35e056	-0.71045434
76	0xbd214bb7	-0.039378848
77	0xbb8a8ae7	-0.004227984
78	0xbf5fff3d	-0.8749884
79	0xbe3e8a01	-0.18607332
80	0xbd73c070	-0.059509695
81	0xbf01e743	-0.507435
82	0xbc7a84da	-0.015290463
83	0xbee383ac	-0.44436395
84	0xbefa6ae8	-0.48909688
85	0xbf47d272	-0.7805549
86	0xbce115c6	-0.027476203
87	0xbf742cf4	-0.95381093
88	0xbf7e566a	-0.9935061
89	0xbd885483	-0.06656744
90	0xbee91731	-0.45525506
91	0xbd45b644	-0.048269525
92	0xbd8b6527	-0.06806403
93	0xbf839f68	-1.0283022
94	0xbd141d20	-0.03616059
95	0x3d0d3759	0.03447661
96	0xbe0c7d28	-0.13719618
97	0xbf10ee0d	-0.56613237
98	0xc0055bc6	-2.0837264
99	0xbd05d430	-0.03267306
100	0xc00fc980	-2.2466736
101	0xbb7456c4	-0.0037283162
102	0xbf585940	-0.84511185
103	0xbd6b9205	-0.057512302
104	0xbe91bd2d	-0.28464642
105	0x3c27563c	0.010213431
106	0xbdaba185	-0.08380417
107	0x3f551ae7	0.83244175
108	0xc010a6a6	-2.2601714
109	0x399d4923	0.00029999865
110	0xbf597ea8	-0.8495889
111	0x3bdedfb6	0.0068015708
112	0xc006aca4	-2.1042871
113	0xbda30c3b	-0.07961317
114	0xbf6002fa	-0.8750454
115	0x3f830cff	1.0238341
116	0x3f502ece	0.8132142
117	0x3b6e7e6c	0.0036391271
118	0xbd33e63a	-0.043920733
119	0xbfcb580e	-1.5886247
120	0xbf0d2016	-0.55127084
121	0x3ee860aa	0.4538625
122	0x3a1025cf	0.0005498798
123	0xbeff0246	-0.49806422
124	0x3efb8f6b	0.49132857
125	0xbb845efc	-0.0040396433
126	0xbf104910	-0.56361485
127	0xbefca347	-0.4934332

weight f4 [2, 128]
0	0xbd880783	-0.06642058
1	0x3d583fee	0.052795343
2	0xbfb8b03b	-1.4428781
3	0x40825553	4.0729156
4	0x3f478791	0.7794123
5	0xbb554a0e	-0.003254536
6	0xbfa43164	-1.2827573
7	0x3de37cb3	0.11107769
8	0xba0fa6db	-0.00054798805
9	0xba0d6f7f	-0.00053953374
10	0xbc73e7e1	-0.014886827
11	0x3d58c5ae	0.052922897
12	0xbc948938	-0.018131837
13	0x3d170688	0.036871463
14	0x3d251833	0.04030628
15	0x3d0390b1	0.03212041
16	0x3f814957	1.0100507
17	0x3d38b5ec	0.04509537
18	0x3ba7843f	0.0051122005
19	0xbf87f9db	-1.0623125
20	0xbfc453f1	-1.5338117
21	0x3ce03643	0.027369624
22	0xc01f4f2b	-2.489207
23	0xc0272945	-2.611894
24	0xc0865450	-4.197792
25	0x3bede569	0.007260014
26	0x3bb3fe70	0.005492978
27	0x3d7077c3	0.058707964
28	0x3facdc53	1.3504738
29	0x3d088ff0	0.033340394
30	0x3fd8494f	1.6897372
31	0x3c9448ce	0.018101122
32	0xbff08979	-1.8791953
33	0x3d1415a5	0.036153454
34	0x3d726e0c	0.05918698
35	0x3d954069	0.07287676
36	0xc0041f8d	-2.0644257
37	0xbc1fe9d2	-0.009760337
38	0x401aa1c3	2.4161232
39	0xbfc1b010	-1.5131855
40	0x3d2a072f	0.041510757
41	0x402f7f66	2.7421508
42	0xbd29fa40	-0.041498423
43	0x3eb1823d	0.34669676
44	0x3d3090dd	0.043106902
45	0xbfdb5974	-1.7136674
46	0xc027c606	-2.6214614
47	0xc02e11f2	-2.7198453
48	0xc08de05d	-4.433638
49	0x3d48cfa8	0.04902616
50	0x3d08afbc	0.03337072
51	0x40ccddca	6.402074
52	0x3f90ec28	1.1322069
53	0x3d52d59b	0.05147324
54	0x3fbc4360	1.4708061
55	0xbf8277e0	-1.0192833
56	0xc08b4c62	-4.353074
57	0xbcecac01	-0.028890612
58	0x3fe98bb2	1.8245757
59	0xbfc8d143	-1.5688862
60	0x3d987938	0.07444996
61	0x3f4efe7a	0.8085705
62	0xbf6ed4f9	-0.9329372
63	0xbfb0a23c	-1.379951
64	0x40f19771	7.5497365
65	0x3d0a342b	0.033741158
66	0xbe2cd622	-0.1687856
67	0xbfb38f9b	-1.40282
68	0xbef86b83	-0.48519525
69	0x3d8cc37f	0.068732254
70	0x3d88698f	0.06660759
71	0x3d7b7a32	0.06139583
72	0xc0705450	-3.755146
73	0x3bb0b758	0.00539295
74	0xc0d4c860	-6.64946
75	0xc0a806eb	-5.2508445
76	0x3d4005a1	0.04688037
77	0x3bac4705	0.0052574896
78	0xc035d1de	-2.8409343
79	0xbf36b548	-0.71370363
80	0x3d242bdf	0.0400809
81	0xc0776b5b	-3.8659275
82	0x3d8c6dba	0.06856866
83	0x3f9a3797	1.2048215
84	0xbff3d63d	-1.9049755
85	0xbf13e342	-0.5776864
86	0xbeb548cd	-0.35407105
87	0x3f4361a2	0.7632085
88	0x3f7d6558	0.98982763
89	0x3cd688de	0.02618831
90	0xbdab7868	-0.08372575
91	0x3fa726a8	1.3058672
92	0xbcb66f98	-0.022270009
93	0xc085d60e	-4.1823797
94	0x3d0dd2a7	0.03462472
95	0x3ccedddc	0.025252275
96	0x4021ade4	2.5262384
97	0xbffedf84	-1.9911962
98	0xc0b03c00	-5.507324
99	0x3d9fd9e8	0.07805234
100	0xbfb3d065	-1.4047972
101	0x3d0cd85f	0.034386035
102	0xbb476ca9	-0.0030429757
103	0x3d5351c1	0.05159164
104	0xbf8c15d5	-1.0944163
105	0x3d218dc5	0.039441843
106	0xbd6f5ea9	-0.058439884
107	0x3f9e2200	1.2354126
108	0xc126468b	-10.392222
109	0x3ce508a7	0.027958227
110	0xbfd86512	-1.6905844
111	0x3d6ef12c	0.05833547
112	0xbfa6785d	-1.3005482
113	0x3f87f3b0	1.0621243
114	0xc04466ef	-3.0687826
115	0x3fad288a	1.3527997
116	0xbf95c768	-1.1701479
117	0x3d8a22a4	0.067448884
118	0xbbd5d03f	-0.006525069
119	0xc06b55b3	-3.6771057
120	0xc02ba04a	-2.6816583
121	0x3f8d5fa8	1.1044817
122	0x3c936c00	0.017995834
123	0x3f93cfa5	1.1547743
124	0x3ffb105a	1.9614365
125	0x3d14e1af	0.03634804
126	0x3f07699f	0.5289554
127	0xc03c6ee9	-2.9442694
128	0x3d3a4a2e	0.0454809
129	0xbd447d46	-0.047971033
130	0xbda9ea05	-0.08296589
131	0xc0cb9f86	-6.363223
132	0x3ebdba76	0.3705632
133	0x3d863dac	0.06554732
134	0xc04c51bc	-3.1924887
135	0xc08ff49f	-4.498611
136	0x3d4a9038	0.049453944
137	0xbbd798c2	-0.0065794894
138	0x3d675826	0.05648055
139	0xbd8a352e	-0.067484245
140	0x3cef8ed7	0.029242916
141	0xbd2939f7	-0.041315045
142	0x3cdb9e84	0.026808985
143	0x3d4a9b93	0.049464773
144	0xbfddc710	-1.7326374
145	0x3d0b1b19	0.03396139
146	0xbd5f7ed0	-0.054564297
147	0xc012d76b	-2.294398
148	0x3fd5c8f9	1.6701957
149	0x3d945f86	0.07244782
150	0xbef6c656	-0.48198193
151	0x3f626909	0.8844152
152	0x3eb4dd17	0.35324928
153	0xbd00ba41	-0.031427626
154	0x3d1921a8	0.037385613
155	0x3c2da182	0.0105975885
156	0x3eee199b	0.4650391
157	0x3cfd75d5	0.030939976
158	0xc0e75aee	-7.22985
159	0xbb2275d2	-0.0024789465
160	0xbfad3e4d	-1.3534638
161	0x3cdf11b8	0.027230129
162	0x3c0ddc74	0.008658517
163	0xbbc006c9	-0.005860184
164	0xbfd0853d	-1.6290661
165	0x3d05ca08	0.032663375
166	0x40826d0f	4.075813
167	0x3f87b4bc	1.0602031
168	0xbd57454c	-0.05255632
169	0xc09f15a3	-4.971391
170	0x3d1beba9	0.03806654
171	0x3f3200d9	0.69532543
172	0xbb1a7838	-0.002357019
173	0xbfdda240	-1.731514
174	0xbe9d0581	-0.30668262
175	0x3e8ec1a6	0.27882117
176	0xc03209ac	-2.7818403
177	0xbcc49b06	-0.023999702
178	0x3cf8ff41	0.030395152
179	0x40f2e5a7	7.5905337
180	0xbf9e2da0	-1.2357674
181	0x3d0fe562	0.035130866
182	0xc05692a1	-3.3526995
183	0xc05887ac	-3.3832808
184	0x401cde53	2.4510696
185	0x3c70b209	0.014690884
186	0xc087efdc	-4.2480297
187	0xbfd68959	-1.6760665
188	0x3b950d29	0.004548688
189	0x3c1b702c	0.009487193
190	0xc0cc355a	-6.3815126
191	0x3f4ee5f7	0.8081965
192	0xc0e76c38	-7.2319603
193	0x3d19590d	0.03743844
194	0xc080f609	-4.0300336
195	0xc015a513	-2.3382003
196	0xc000ba0b	-2.0113552
197	0x3cef6a4c	0.029225491
198	0xbd655d00	-0.055996895
199	0xbda5d05b	-0.08096381
200	0x3f84722c	1.0347342
201	0xbac36f00	-0.00149104
202	0x4083d220	4.1194
203	0x3f784cb3	0.96992034
204	0xbd896b7e	-0.06709956
205	0x3d04b122	0.03239549
206	0x3d8a7e76	0.06762402
207	0x3edae9aa	0.42756397
208	0xbd34a8f6	-0.044106446
209	0xbe8b8c65	-0.2725555
210	0x3d5c9d33	0.053860854
211	0xc01f8114	-2.4922533
212	0x3eb08640	0.34477425
213	0xbf13e401	-0.5776978
214	0x3f0b047f	0.54303735
215	0xc06fb253	-3.745259
216	0xc07489b0	-3.8209038
217	0xbd206154	-0.03915532
218	0xbfe2ee22	-1.7728922
219	0x3fb4c360	1.4122124
220	0x3d0a9afd	0.033839215
221	0x40025b8c	2.0368376
222	0xbd588b9c	-0.052867517
223	0x3d890d2d	0.06691966
224	0x3fc2ac56	1.5208843
225	0xbf6fb147	-0.9362988
226	0xc0922117	-4.5665393
227	0x3cf16e8b	0.029471656
228	0xc0e8674d	-7.26261
229	0x3d80090b	0.06251725
230	0xbf89a091	-1.0752126
231	0xbd3ad561	-0.04561365
232	0xbe9e0ee0	-0.30870724
233	0xbd324bfe	-0.043529503
234	0x3d59a6ce	0.053137593
235	0x400a008a	2.156283
236	0xbfc2e583	-1.5226291
237	0xbd686d9f	-0.056745168
238	0xc068add0	-3.6356087
239	0xbd7b0fb4	-0.061294273
240	0xbfcbb79e	-1.591541
241	0xbfe4d9cb	-1.7878965
242	0x3fc03ad2	1.501795
243	0x40081cb0	2.126751
244	0xbfbedfeb	-1.4912084
245	0xbd9ceff9	-0.07662959
246	0xbb0bac34	-0.0021312358
247	0xc09f4bcf	-4.978004
248	0xbead2059	-0.33813742
249	0x3f14f86a	0.5819155
250	0x3d4708d1	0.048592392
251	0xbfef049c	-1.8673282
252	0x3f716878	0.9430003
253	0x3baf0470	0.005341105
254	0xc0025c37	-2.0368783
255	0x3fefe25c	1.8740954

bias f4 [2]
0	0x40402d92	3.0027814
1	0x402db2f2	2.714047
