saved_models/run7/model_1000.pth (torch, 550374 bytes, 6 tensors)

weight f4 [1024, 4]
0	0x3ea1ed81	0.31626514
1	0xbd3276c7	-0.043570306
2	0x3d400891	0.04688317
3	0xbee4a5b3	-0.44657668
4	0x3ef2dd6b	0.47434554
5	0x3cb2e643	0.021838313
6	0x3e80975d	0.2511548
7	0xbed3077d	-0.4121665
8	0x3ec6ff81	0.3886681
9	0x3e247f34	0.16064149
10	0xbe4520c3	-0.19250779
11	0xbd391072	-0.0451817
12	0x3ebd55bf	0.36979482
13	0x3d8ec78e	0.06971656
14	0x3e27032d	0.16309805
15	0x3ed1bc92	0.4096418
16	0x3e5cb09d	0.21551748
17	0xbd854f86	-0.065093085
18	0x3d3c9bec	0.046047136
19	0x3db44436	0.08802073
20	0xbebb1e73	-0.36546668
21	0xbece4fb5	-0.40295187
22	0x3e947b5a	0.2900036
23	0xbe73b9d1	-0.23801352
24	0xbe3fdaa2	-0.18735746
25	0xbd14185f	-0.036156055
26	0xbe9e86ce	-0.30962223
27	0xbcb55850	-0.022136837
28	0x3c24ce87	0.010059006
29	0x3e9d481f	0.30719087
30	0x3ef17806	0.47161883
31	0xbe337efb	-0.17528908
32	0xbea40222	-0.32032877
33	0xbeccc87b	-0.39996704
34	0x3ecfe634	0.4060532
35	0x3f025116	0.5090498
36	0x3eae7fb1	0.34081796
37	0x3e8d5070	0.2760043
38	0xbe823bf6	-0.25436372
39	0x3e1e49ac	0.15457791
40	0xbefdf764	-0.49602807
41	0xbedfee89	-0.43736675
42	0xbea8ed64	-0.32993615
43	0xbd477407	-0.048694637
44	0x3ee683d7	0.4502246
45	0xbe843e3d	-0.25828734
46	0x3eb0273a	0.34404927
47	0xbe9ffb52	-0.3124643
48	0x3ee34744	0.4439031
49	0x3e885627	0.2662823
50	0x3ed74faf	0.4205298
51	0xbecca171	-0.3996692
52	0xbe519432	-0.20466688
53	0xbcd8a6d9	-0.026446747
54	0xbe9a2b31	-0.30111077
55	0xbe665a77	-0.22495447
56	0x3de9b2b1	0.11411036
57	0xbd6ef03b	-0.05833457
58	0x3e8aed82	0.2713433
59	0xbe50308b	-0.20331018
60	0x3e786afb	0.2425956
61	0x3eb1d375	0.3473164
62	0xbe0379b7	-0.128394
63	0xbea5d91d	-0.32392207
64	0xbecbefcc	-0.39831388
65	0x3d949ae0	0.072561026
66	0xbe6121b8	-0.21985519
67	0x3ef436b0	0.47697973
68	0x3e26a283	0.16272931
69	0xbd809750	-0.062788606
70	0x3e7af958	0.2450918
71	0xbda4d816	-0.080490276
72	0xbee764f8	-0.4519422
73	0xbe9e7ce0	-0.30954647
74	0xbd81ba3b	-0.06334349
75	0x3ed7988a	0.42108566
76	0xbe76f582	-0.24117091
77	0x3e2649f5	0.1623915
78	0xbdc3d454	-0.09561983
79	0xbe1e3c6b	-0.15452735
80	0x3edfafa1	0.43688682
81	0xbe463ead	-0.19359846
82	0xbd37f8b3	-0.044914912
83	0xbe537a33	-0.20652084
84	0x3e523ad8	0.2053026
85	0xbe888571	-0.26664308
86	0x3e0fd61f	0.14046524
87	0x3e60af5b	0.21941893
88	0xbe49dbe8	-0.19712794
89	0x3e6aced3	0.2293046
90	0xbf03f101	-0.5153962
91	0xbddf89a0	-0.10914922
92	0x3e1ea163	0.15491252
93	0xbebbea5a	-0.36702234
94	0xbe440a2d	-0.19144507
95	0x3e048d29	0.12944473
96	0xbe811d41	-0.2521763
97	0xbe74cf29	-0.2390715
98	0xbdf8621a	-0.121280864
99	0xbdbbf2b2	-0.0917715
100	0xbe234e8f	-0.15947936
101	0xbdf0d05a	-0.1175849
102	0x3d8bde02	0.06829454
103	0x3d9ba833	0.07600441
104	0xbf196a14	-0.5992749
105	0x3dc7f619	0.09763736
106	0xbd2227bb	-0.03958867
107	0x3cc72ded	0.024313891
108	0xbcb88a43	-0.022526866
109	0x3eb0b8f1	0.345161
110	0x3ede3d4c	0.4340614
111	0xbe0e5421	-0.1389928
112	0x3efd1823	0.49432477
113	0xbd680342	-0.056643732
114	0x3ed4e64c	0.41581953
115	0xbd89b6a2	-0.067242876
116	0x3f079579	0.5296245
117	0x3e4dbb44	0.20090967
118	0xbe830a6c	-0.2559389
119	0x3e37181e	0.17880294
120	0xbef2ed06	-0.4744646
121	0xbe460f4e	-0.19341776
122	0xbea90d97	-0.3301818
123	0x3eac4806	0.336487
124	0xbdd8471f	-0.1056044
125	0x3e684cc0	0.22685528
126	0x3ed7fab1	0.4218345
127	0x3e275622	0.16341451
128	0x3e58e48c	0.21180934
129	0x3ebca356	0.36843365
130	0xbe0cd472	-0.13752916
131	0x3dcb2578	0.09919256
132	0x3ecf9ed6	0.4055087
133	0x3df3af56	0.11898677
134	0xbe4a7faa	-0.19775262
135	0xbf1be4f5	-0.60896236
136	0xbf04cb1f	-0.5187244
137	0xbea16e15	-0.31529298
138	0xbe538bd4	-0.20658809
139	0x3e8b467f	0.27202222
140	0x3e8d73fd	0.27627555
141	0xbe9e6620	-0.3093729
142	0x3d247c97	0.04015788
143	0xbf1b222e	-0.6059903
144	0xbe2382b9	-0.15967835
145	0x3eea405d	0.4575223
146	0x3e6965ea	0.22792783
147	0xbf141833	-0.57849425
148	0xbe846094	-0.25854933
149	0x3c957aea	0.018247087
150	0x3df921af	0.12164628
151	0xbe238501	-0.15968706
152	0xbe4ccbcb	-0.19999616
153	0x3ee6c6d5	0.45073572
154	0x3e9dbd12	0.30808312
155	0xbec71d2c	-0.38889444
156	0xbb2c4300	-0.0026285052
157	0xbd459270	-0.048235357
158	0xbe681e50	-0.22667813
159	0xbdd4ec20	-0.103966
160	0xbe528965	-0.20560224
161	0x3f02dbce	0.51116645
162	0x3eacc701	0.33745578
163	0xbd8d22bc	-0.06891391
164	0xbf0e441d	-0.5557268
165	0xbdbaaec1	-0.09115363
166	0xbe369e59	-0.17833842
167	0x3e0c344b	0.13691823
168	0xbeca3110	-0.39490557
169	0x3e7036e1	0.23458435
170	0x3e3cf56c	0.18452996
171	0x3e261063	0.16217189
172	0x3c23c19d	0.0099948915
173	0x3eb7f308	0.35927606
174	0x3ef76d09	0.48325375
175	0x3efcbffd	0.49365225
176	0x3e6adb90	0.22935319
177	0xbe1b413c	-0.15161604
178	0x3ed0afb6	0.40759057
179	0xbef9e787	-0.48809454
180	0x3eaaf1a6	0.33387488
181	0x3ee20730	0.4414611
182	0xbe63370e	-0.2218897
183	0x3d986fca	0.07443197
184	0x3ee34832	0.44391018
185	0x3977fb89	0.0002364946
186	0xbe9da875	-0.30792585
187	0xbe8930d4	-0.26795065
188	0x3ead99d6	0.3390643
189	0xbeb53c65	-0.3539764
190	0xbeaa079d	-0.33208933
191	0xbec2609e	-0.37964338
192	0xbe92155e	-0.28531927
193	0xbeb14da7	-0.34629557
194	0x3ee8d09b	0.45471653
195	0xbeed5ca7	-0.4635975
196	0x3eb1f680	0.34758377
197	0x3ec752d5	0.38930383
198	0xbcc99ca4	-0.024610825
199	0xbe0a58aa	-0.13510385
200	0x3d47044a	0.048588075
201	0xbe7707ee	-0.24124119
202	0x3eae8a03	0.3408967
203	0xbddc057a	-0.10743232
204	0x3d28d4ec	0.041218683
205	0xbcd9328c	-0.02651336
206	0x3cb89f2f	0.022536842
207	0x3c6b8f57	0.014377437
208	0x3ca78c95	0.020452777
209	0x3ee29d13	0.44260463
210	0xbf13a419	-0.5767227
211	0xbe99582d	-0.29950085
212	0x3eaf24c5	0.3420774
213	0x3c840d83	0.016119724
214	0xbce28a9b	-0.027653983
215	0xbedab8cf	-0.42719123
216	0x3dbbd25b	0.091709815
217	0x3e57db87	0.21079837
218	0xbe44a4bf	-0.1920347
219	0x3e0861fb	0.13318627
220	0x3f139f3e	0.5766486
221	0x3ec9bf2e	0.3940367
222	0xbe75ba48	-0.23996842
223	0xbe757efa	-0.23974219
224	0x3d8776de	0.06614469
225	0x3d1cbb86	0.038264774
226	0xbf100a82	-0.56266034
227	0x3e7de67b	0.24794953
228	0xbde94c14	-0.11391464
229	0xbcb8dc02	-0.022565845
230	0x3e328cfe	0.17436597
231	0x3f2647c9	0.64953285
232	0xbeb701a7	-0.35743448
233	0x3e25401f	0.16137742
234	0xbf153c13	-0.5829479
235	0xbe65af01	-0.2243004
236	0xbd193175	-0.03740068
237	0xbcd7af7f	-0.0263288
238	0xbdbfccac	-0.0936521
239	0xbe0a1fb5	-0.13488658
240	0xbf041fa8	-0.51610804
241	0x3cbf1708	0.023326412
242	0xbe7a3e4b	-0.24437825
243	0x3f0bf957	0.5467734
244	0xbe582e8b	-0.21111505
245	0x3b24ce8d	0.0025147528
246	0xbe83b6ea	-0.2572549
247	0x3e901e5b	0.2814816
248	0xbea81f81	-0.32836536
249	0xbeed32d6	-0.46327847
250	0xbea52511	-0.32254842
251	0x3e235aa1	0.15952541
252	0xbe0ea064	-0.13928372
253	0xbe2f84ee	-0.17140552
254	0x3ec7c495	0.39017168
255	0x3d6277e9	0.055290136

bias f4 [1024]
0	0xbedb371a	-0.42815477
1	0x3c7cdc55	0.015433391
2	0xbdea1aa8	-0.114308655
3	0x3f0672ea	0.52519095
4	0x3e02ae62	0.12761834
5	0x3e3c53d0	0.18391347
6	0xbe00ec4e	-0.12590143
7	0xbec9eac6	-0.3943693
8	0xbe304729	-0.17214645
9	0xbe83a564	-0.2571212
10	0xbdf542f3	-0.1197566
11	0x3cb21272	0.021737311
12	0x3dabe2b7	0.08392852
13	0xbe9fe5bc	-0.3122996
14	0x3f02552a	0.509112
15	0x3eea9302	0.45815283
16	0xbed664ed	-0.41873875
17	0x3e9f2c4d	0.31088486
18	0xbeb2971f	-0.3488092
19	0x3ec70d40	0.38877296
20	0x3f28705e	0.6579646
21	0x3d03b575	0.032155473
22	0x3ee034eb	0.43790373
23	0x3d36c70f	0.04462343
24	0x3d973243	0.073826335
25	0xbeea8f84	-0.4581262
26	0xbe3f6d3b	-0.18694012
27	0xbd3085f0	-0.043096483
28	0xbe174fd5	-0.14776547
29	0x3eed0a93	0.4629713
30	0xbf1050b2	-0.5637313
31	0x3e99fd6d	0.3007616
32	0xbe224d1d	-0.15849729
33	0xbd3f25ef	-0.046667036
34	0xbea6dfea	-0.32592708
35	0xbd8bbac4	-0.06822732
36	0xbe276d7b	-0.16350357
37	0x3d4abe4d	0.04949789
38	0xbedc89e9	-0.43073967
39	0xbe98d808	-0.2985232
40	0xbe099dc9	-0.13439097
41	0x3de66a83	0.11250784
42	0xbe910fc5	-0.28332344
43	0x3ebd81d6	0.3701312
44	0xbe07c405	-0.1325837
45	0xbf0a7e4c	-0.54098964
46	0xbe6c3de6	-0.23070487
47	0x3eb89281	0.36049274
48	0xbec11003	-0.37707528
49	0x3ec4028a	0.38283187
50	0x3e5f1dfa	0.21788779
51	0x3f1026f5	0.56309444
52	0x3d9fd226	0.078037545
53	0x3de6f5c1	0.112773426
54	0x3e6a6d37	0.22893225
55	0xbebad0d9	-0.36487463
56	0x3ee10a09	0.4395297
57	0xbe2836a1	-0.1642709
58	0x3f0f65f8	0.56014967
59	0x3ea39944	0.3195287
60	0x3d64a075	0.055817086
61	0x3f2366b7	0.63828605
62	0xbe9b7b7f	-0.30367658
63	0xbd978bb8	-0.07399696
64	0x3e70d985	0.23520477
65	0xbeee8ddb	-0.46592602
66	0x3f185800	0.5950928
67	0xbdd16021	-0.10223413
68	0xbe8da45c	-0.2766446
69	0x3e9de4d5	0.30838647
70	0xbe84a99b	-0.2591065
71	0xbefa38fa	-0.48871595
72	0x3ed8f3f3	0.42373618
73	0x3e0ac4aa	0.13551584
74	0xbd9c175e	-0.076216444
75	0x3e89a6a1	0.2688494
76	0x3cb41cd7	0.021986408
77	0x3ebeeba9	0.3728917
78	0xbe88219e	-0.26588148
79	0xbe952c15	-0.29135194
80	0x3e77805f	0.24170063
81	0x3da834e5	0.08213214
82	0xbebcfc95	-0.36911455
83	0xbe7b0346	-0.24512967
84	0xbe021c01	-0.12705995
85	0xbdd2e0e5	-0.102968015
86	0xbe8513e4	-0.25991738
87	0xbe560a47	-0.20902358
88	0xbe987f50	-0.29784632
89	0xbb73ef12	-0.0037221354
90	0x3e965d49	0.29368046
91	0x3ed05119	0.40686873
92	0x38e6e432	0.00011009759
93	0x3f060521	0.52351576
94	0x3ee5a61c	0.44853294
95	0xbdb3c318	-0.087774456
96	0x3e8f8fbd	0.2803935
97	0x3eccbaac	0.3998617
98	0x3efea893	0.49737987
99	0x3e9fbcd1	0.31198743
100	0xbd2f77b1	-0.042838756
101	0x3e9177e8	0.28411794
102	0xbe837a4f	-0.25679252
103	0x3ee3b39a	0.44472963
104	0xbe9d58f4	-0.30731928
105	0x3bebbdb8	0.007194247
106	0x3ea04ce8	0.31308675
107	0xbec24b35	-0.37948003
108	0xbe8f2149	-0.27955082
109	0x3eef860c	0.46781957
110	0xbd54de93	-0.051970076
111	0xbeaf73cc	-0.34268034
112	0x3e61410a	0.21997467
113	0xbe9a56e8	-0.3014443
114	0x3ecc55c9	0.399092
115	0x3eb05a7c	0.34444034
116	0x3e2d06cb	0.16897123
117	0xbeb168c5	-0.34650245
118	0x3f013d95	0.5048459
119	0xbefd1250	-0.49428034
120	0x3e8df349	0.27724674
121	0x3eb771f6	0.35829133
122	0x3b8454de	0.0040384373
123	0xbdacceca	-0.084378794
124	0x3db9a06c	0.09063801
125	0xbea58809	-0.3233035
126	0xbd6b2ee5	-0.05741777
127	0xbeaafd54	-0.333964
128	0x3ef3290f	0.47492263
129	0xbe80ce87	-0.25157568
130	0xbda345f2	-0.079723254
131	0xbd4df185	-0.05027916
132	0x3e7333b4	0.23750192
133	0x3ea610bf	0.3243465
134	0xbe9d6e79	-0.30748346
135	0xbec6282a	-0.38702518
136	0x3e125289	0.14289297
137	0x3e9c3ffc	0.30517566
138	0x3e6d3b6b	0.23167197
139	0x3a416b9c	0.0007378401
140	0x3f17250f	0.5904092
141	0x3ee0b80b	0.43890414
142	0x3e40c151	0.18823744
143	0xbd65eb1c	-0.05613242
144	0x3ec697c0	0.3878765
145	0xbea71d35	-0.3263947
146	0x3e111cdc	0.14171165
147	0xbf08a5f9	-0.53378254
148	0x3d1288d0	0.035775006
149	0xbe967d4a	-0.29392463
150	0x3e682317	0.22669636
151	0x3eae31d5	0.34022394
152	0xbeb252ce	-0.348288
153	0xbeecce4a	-0.46251136
154	0x3ee60aab	0.44930014
155	0x3ef8858b	0.48539385
156	0xbe6efdb9	-0.23338975
157	0xbedec539	-0.43509844
158	0xbecab206	-0.39588946
159	0x3eade12c	0.33960855
160	0xbd961775	-0.07328693
161	0xbee58350	-0.44826746
162	0xbca8d2be	-0.020608302
163	0xbed10029	-0.40820435
164	0xbd01e576	-0.03171297
165	0x3e46db17	0.19419514
166	0xbe1e984f	-0.15487789
167	0xbec65f6c	-0.38744676
168	0x3eda7331	0.4266601
169	0xbef302f0	-0.4746318
170	0xbe612894	-0.21988136
171	0xbf0916b5	-0.53550273
172	0xbe66a214	-0.22522765
173	0xbe4ceeb6	-0.20012936
174	0xbe4bea2d	-0.1991355
175	0xbd2bad30	-0.04191321
176	0x3ec2afbe	0.38024706
177	0x3d9c8dac	0.07644209
178	0xbdecb582	-0.11558057
179	0x3d6e21f6	0.058137856
180	0x3eac08e2	0.33600527
181	0x3ea0df47	0.31420347
182	0xbec25cac	-0.37961328
183	0x3f0efdcb	0.5585601
184	0x3d5800b6	0.052735053
185	0x3e8af359	0.27138785
186	0x3f075996	0.5287107
187	0xbeaad6a6	-0.3336689
188	0x3ed9c2d4	0.42531455
189	0xbea279a9	-0.31733444
190	0xbe20fabd	-0.15720649
191	0x3e60dfbe	0.21960351
192	0xbd9f1183	-0.07767012
193	0x3e2ed033	0.17071609
194	0xbeef8b3e	-0.4678592
195	0xbe1f1235	-0.15534289
196	0xbf007d17	-0.5019087
197	0x3e9eabd8	0.3099048
198	0xbe55a1a3	-0.20862441
199	0x3e99c136	0.3003022
200	0xbe956868	-0.29181218
201	0xbe31d30e	-0.17365667
202	0x3d26528b	0.040606063
203	0xbcd95142	-0.026528005
204	0x3e923ed6	0.28563565
205	0xbec3c4fd	-0.38236228
206	0x3eb68e9b	0.35655674
207	0xbe9ecda9	-0.3101628
208	0x3f2b5b0a	0.6693579
209	0xbd9815c0	-0.074260235
210	0x3ee50f95	0.4473845
211	0x3ec0de56	0.3766963
212	0x3ebf20df	0.37329766
213	0xbc33f1f0	-0.010982975
214	0xbe538ba7	-0.20658742
215	0x3f07464d	0.52841645
216	0xbe127809	-0.14303602
217	0x3e074543	0.13210015
218	0x3e93d79e	0.2887544
219	0x3dcd62ed	0.10028634
220	0x3ecb0b25	0.3965694
221	0xbeda614f	-0.42652366
222	0x3e9bb200	0.3040924
223	0x3f04ae44	0.5182841
224	0x3eebef19	0.46080855
225	0x3e7956a9	0.24349464
226	0x3f0fe134	0.5620301
227	0x3f0329a5	0.5123542
228	0xbdfc0d61	-0.12307239
229	0x3ef07f72	0.46972233
230	0x3eb010f9	0.3438795
231	0x3f166de1	0.5876141
232	0x3ea89153	0.32923374
233	0x3d8c01a7	0.06836253
234	0xbeba0fc4	-0.36340153
235	0x3e4ea1d0	0.20178914
236	0xbec7605f	-0.38940713
237	0xbe7a3f95	-0.24438317
238	0xbcdd3aac	-0.027005516
239	0x3e574969	0.21024098
240	0x3e0a8990	0.13529038
241	0x3ee0a190	0.43873262
242	0x3dc4bbbd	0.09606121
243	0x3e558a53	0.20853548
244	0x3ec2f3b8	0.38076568
245	0x3f1afbe6	0.60540617
246	0x3e2d5eec	0.16930741
247	0xbeb41ab2	-0.35176617
248	0x3ee8341c	0.45352256
249	0x3eed6f2e	0.46373886
250	0x3eb40d98	0.3516662
251	0xbe2fbc29	-0.17161621
252	0x3d143531	0.03618354
253	0x3ed4f327	0.4159176
254	0xbcaa1c23	-0.02076537
255	0xbed05330	-0.40688467

weight f4 [128, 1024]
0	0x3c6b2d51	0.014354066
1	0xbc639114	-0.01388957
2	0x3b880338	0.0041507743
3	0xbbaa467e	-0.0051963916
4	0xbb3ec298	-0.0029107686
5	0x3c414a84	0.011797551
6	0xbc96cac2	-0.01840723
7	0xbcca1313	-0.024667298
8	0x3c859011	0.016304048
9	0xbcd12ac8	-0.025533095
10	0x3ca8a50f	0.020586519
11	0x3c89255f	0.016741453
12	0x3af015f1	0.0018317086
13	0x3cb9f9da	0.022702146
14	0xbc09f1ba	-0.0084194485
15	0x3c6e0549	0.014527627
16	0x3b1385a0	0.0022510067
17	0xbc752cc6	-0.014964288
18	0x3ba3e8eb	0.005002131
19	0x3cc78555	0.02435557
20	0x3bbe4557	0.005806606
21	0x3ca268a2	0.019825283
22	0xbcf6df20	-0.030135691
23	0x3c213096	0.009838244
24	0x3c654731	0.013994024
25	0xbcee300a	-0.029075641
26	0xbcc45d62	-0.02397031
27	0xbce12f16	-0.027488273
28	0x3cb66239	0.022263633
29	0x3c3a3a6c	0.011366468
30	0xbc3d6770	-0.011560306
31	0xbaf24303	-0.0018483106
32	0x3cb94b74	0.022618987
33	0xbceda7ef	-0.029010741
34	0xbc862aae	-0.016377773
35	0xbce97fb6	-0.02850328
36	0xbc726ba5	-0.014796172
37	0xbc1785e1	-0.009248228
38	0x3cb1b720	0.021693766
39	0xbcaa684a	-0.020801682
40	0xbcb1fa4e	-0.0217258
41	0xbbedb95c	-0.0072547626
42	0x3caf29e3	0.021382278
43	0xbc50c061	-0.012741179
44	0x3be6e4c2	0.007046313
45	0xbcea7942	-0.028622273
46	0xbc2e4690	-0.010636941
47	0x3b63f35d	0.0034782507
48	0x3c6d602f	0.014488264
49	0xbcb08700	-0.021548748
50	0xbd11f229	-0.035631333
51	0xbbe26629	-0.006909151
52	0xbcbb51e4	-0.022866197
53	0xbcbaefef	-0.022819487
54	0xbc7009bc	-0.014650758
55	0x3bf24988	0.0073940195
56	0xbc8a708c	-0.01689937
57	0xbcba9df6	-0.0227804
58	0x3c8a1792	0.016856942
59	0x3c907b8e	0.01763704
60	0xbd063514	-0.032765463
61	0xbd138bea	-0.036022104
62	0xbcc544b6	-0.024080615
63	0x3cbc0b0c	0.022954486
64	0x3c9da2fb	0.019242754
65	0x3cf12bdc	0.02943986
66	0xbcdebf66	-0.027190875
67	0x3cab4732	0.020907972
68	0xbbd81b30	-0.006595038
69	0xbcf4784c	-0.029842518
70	0x3a4b3265	0.0007751345
71	0x3c502fe0	0.012706727
72	0x3c8e31f0	0.017357796
73	0xbc42e764	-0.011895988
74	0x3bd4e085	0.0064964914
75	0xba342027	-0.0006871246
76	0x3c96ab58	0.01839225
77	0x3c4cfae7	0.012510992
78	0xb7550000	-1.2695789e-05
79	0x3c4d7822	0.012540849
80	0x3cb66b53	0.022267973
81	0xbbab0968	-0.005219627
82	0xbbd0449f	-0.0063558365
83	0xbb661800	-0.003510952
84	0xbcda1201	-0.026619913
85	0x3c8fcecd	0.017554665
86	0xbcc2528b	-0.023721
87	0xbcaaada2	-0.020834748
88	0xb9dd9080	-0.00042260066
89	0x392f2efc	0.00016706804
90	0xbd0a8151	-0.033814732
91	0x3c47b046	0.012188023
92	0x3c9f9a00	0.019482613
93	0x3cc1119c	0.023567967
94	0xbcb20fd9	-0.021736072
95	0x3cc28574	0.023745276
96	0xbce58552	-0.028017674
97	0x3caf567e	0.021403547
98	0xbcd008f0	-0.025394887
99	0x3cd17f9d	0.025573546
100	0xbbc4834e	-0.005997098
101	0x3a751e47	0.000935052
102	0x3cbda50d	0.023149991
103	0xbd021b7f	-0.031764504
104	0xbcf65116	-0.030067962
105	0x3bac4d5f	0.005258247
106	0x3c063810	0.008192077
107	0xbc08f5e5	-0.008359407
108	0xbc3b0be0	-0.011416405
109	0x3c8c5146	0.017128598
110	0xba35477a	-0.0006915253
111	0x3cca3cc3	0.024687177
112	0xbbcd07bf	-0.006257027
113	0x3b9af01a	0.0047283294
114	0xbc83469c	-0.01602488
115	0xbb0463bd	-0.002020105
116	0xbc3ba720	-0.01145342
117	0x3c28b676	0.010297408
118	0x3c80738b	0.015680095
119	0x3cc11edc	0.023574285
120	0xbc6a0512	-0.014283435
121	0xbcc1b743	-0.023646956
122	0x3cc474b8	0.023981437
123	0xbce20af1	-0.027593108
124	0x3cae8885	0.021305332
125	0x3c25fdc5	0.010131304
126	0xbc469a68	-0.012121774
127	0xbce3e923	-0.02782113
128	0xbcfffc10	-0.031248122
129	0xbb947160	-0.004530117
130	0xbcbef4ce	-0.023310091
131	0x3bf07be2	0.0073389867
132	0x3cb372c9	0.02190532
133	0x3bd10212	0.0063784206
134	0x3c226dfe	0.0099139195
135	0x3cabeae0	0.02098602
136	0x3cb8ba9c	0.02254992
137	0x3c7d4a13	0.015459555
138	0xbc545ff4	-0.01296233
139	0x3beae364	0.0071682204
140	0xbc944c6c	-0.018102847
141	0xbcedce0f	-0.02902892
142	0xbc774afc	-0.015093561
143	0x3b44e690	0.0030044653
144	0x3b9bf883	0.0047598495
145	0x3c73b250	0.014874056
146	0xbcd7f08e	-0.026359823
147	0xbc5669c1	-0.013086737
148	0xbc99e0c9	-0.018783944
149	0xbc8d1c21	-0.017225327
150	0x3c41b388	0.011822589
151	0xbca5dc1b	-0.020246556
152	0xbc9361ea	-0.017991025
153	0xbbe0d258	-0.0068610124
154	0xbcefce1e	-0.029273089
155	0xbb248eee	-0.0025109607
156	0xbd00edae	-0.03147667
157	0xbbda5a50	-0.006663598
158	0x3cb235fa	0.021754254
159	0xbd0659b5	-0.032800395
160	0x3c7b794a	0.015348742
161	0xbc0f4765	-0.008745049
162	0xbcae7561	-0.021296205
163	0x3c702d92	0.014659302
164	0x3bc0b6a8	0.0058811493
165	0x3cbede5b	0.023299387
166	0xba4a6b80	-0.0007721707
167	0x3b8226a9	0.003971894
168	0x3cc6a310	0.024247676
169	0x3cb5b62d	0.022181595
170	0x3b8fe82c	0.0043916907
171	0xba922028	-0.0011148499
172	0x3a88b0d4	0.0010428675
173	0xbc342811	-0.010995881
174	0x3cc509e4	0.024052568
175	0xbc2c58cf	-0.0105192205
176	0x3ccd2bc2	0.02504528
177	0xbc1cac09	-0.009562501
178	0xbac1941e	-0.0014768874
179	0xbcaeed6f	-0.021353452
180	0xbc7a63c1	-0.015282572
181	0x3bbcee74	0.0057657305
182	0x3af7b5e0	0.0018898807
183	0xbd0230eb	-0.031784933
184	0x3c5bb9dd	0.0134110125
185	0x3cd3be3e	0.02584755
186	0xbcc35d45	-0.023848185
187	0xbd02a0cd	-0.031891633
188	0xbcd89b61	-0.026441278
189	0xbb4f9214	-0.0031672763
190	0xbb23278f	-0.0024895405
191	0xbce74b77	-0.028234227
192	0x3cd52f3c	0.0260235
193	0xb9aaf2e0	-0.00032605883
194	0x3bc3197d	0.005953966
195	0xbce4fc98	-0.027952477
196	0x3cffb4c0	0.031214118
197	0x3c934e23	0.017981594
198	0x3c15c391	0.009140865
199	0x3c6606f3	0.014039743
200	0xbbacad72	-0.0052696997
201	0x3c9e761f	0.019343434
202	0x3c3a5d07	0.0113747185
203	0xbcc3f624	-0.02392108
204	0xbd08303d	-0.03324913
205	0xbb8e57ca	-0.0043439614
206	0x3ccde141	0.025131823
207	0xbd0bcd10	-0.03413111
208	0xbc361190	-0.011112586
209	0x3c57b6d7	0.013166151
210	0xbc1a2d6c	-0.0094102435
211	0xbca447a6	-0.020053696
212	0x3b7b0038	0.003829969
213	0xbc19e9b5	-0.009394099
214	0x3cd42c1b	0.025899937
215	0x3be428a0	0.0069628507
216	0x3c957e44	0.018248685
217	0x3c17dd4a	0.009269068
218	0xbc5cbb74	-0.013472427
219	0xbca5e7f0	-0.020252198
220	0x3ca28cd5	0.019842545
221	0x3c10a6a0	0.008828789
222	0xbcdb4276	-0.02676509
223	0x3c86d287	0.01645781
224	0x3c3115f7	0.0108084595
225	0xbb6b98f2	-0.0035949317
226	0x3c0633f1	0.008191095
227	0x3c64baef	0.013960584
228	0xbce9ca92	-0.028538976
229	0xbc83ef10	-0.016105205
230	0xbc50c7d4	-0.012742955
231	0xbc30cc80	-0.010790944
232	0xbd144eb0	-0.036207855
233	0x3c2d3edb	0.010574068
234	0x3c653d06	0.0139916
235	0xbc69dc44	-0.014273707
236	0x3c93e5ba	0.018053878
237	0xbd0c3f84	-0.03424026
238	0x3cce9547	0.025217665
239	0x3c0c270e	0.008554233
240	0x3b8c0a9e	0.0042737266
241	0x3ccbc509	0.024874227
242	0xbca3332f	-0.019921867
243	0x3b62467a	0.003452687
244	0xbd12a78c	-0.035804316
245	0x3c2c760c	0.010526191
246	0xbca0ed6c	-0.019644462
247	0x3ca4bcf5	0.020109633
248	0xbc0ef6cc	-0.008725833
249	0xbb6fbd31	-0.0036581273
250	0x3c7b2d20	0.015330583
251	0x3c9632d7	0.01833479
252	0x3b83beb5	0.004020537
253	0xbc44f469	-0.012021163
254	0xbc623195	-0.013805767
255	0xbcd37456	-0.02581231

bias f4 [128]
0	0x3c87846c	0.016542636
1	0x3d9e6bde	0.07735418
2	0x3b9a291e	0.0047046086
3	0x3cb2ef94	0.021842755
4	0x3cb8f660	0.022578418
5	0x3d1e686c	0.038673803
6	0x3c3ac9a0	0.01140061
7	0xbcabb65e	-0.020960983
8	0xbcaff0f9	-0.02147721
9	0x3bd24d64	0.006417917
10	0xbc8c590d	-0.017132306
11	0xbc7ca6a2	-0.015420588
12	0xbbc79019	-0.006090176
13	0xbcc0b7ac	-0.023525082
14	0x3c21ba22	0.009871038
15	0xbd1473d3	-0.03624327
16	0xbcd65b05	-0.026166448
17	0x3e113e20	0.14183855
18	0x3cb7c978	0.022434935
19	0xbd10cbbd	-0.03535055
20	0x3da72327	0.08161002
21	0x3c6267d7	0.013818703
22	0x3cd68d4d	0.026190424
23	0x3c09f787	0.0084208315
24	0x3d82bf6c	0.06384167
25	0x3c8a4cdc	0.016882353
26	0xbcfcca15	-0.030858079
27	0xbc2e5937	-0.010641388
28	0x3d6b588a	0.057457484
29	0xbc651450	-0.013981894
30	0x3bad3f47	0.0052870843
31	0x3c9836a2	0.018580738
32	0xba2a88f3	-0.00065053924
33	0xbc9b3929	-0.018948155
34	0xbcef54b0	-0.029215187
35	0xbba852a4	-0.0051368047
36	0xbcfddb99	-0.030988501
37	0x3d18fcf0	0.037350595
38	0xbcfcf6aa	-0.030879337
39	0x3bf0b534	0.00734582
40	0xbc42d0cf	-0.011890604
41	0x3d870197	0.065921
42	0x3d491bd0	0.04909879
43	0xbc69a263	-0.014259907
44	0x3d31b9bb	0.043390017
45	0x3cda456b	0.02664443
46	0xbc6058b7	-0.013693026
47	0x3d702b33	0.058634948
48	0x3cda0daf	0.026617853
49	0x3c3958cf	0.0113126775
50	0x3c9095e9	0.017649608
51	0xbd97405c	-0.073853225
52	0xbcb936b6	-0.022609096
53	0xbcc20a42	-0.023686532
54	0xbc978e2a	-0.018500406
55	0x3caf047b	0.021364441
56	0xbb80e53d	-0.0039335773
57	0x3ccadaf7	0.024762614
58	0x3cb0fcd3	0.021604931
59	0x3ce4a1de	0.027909216
60	0x3cce02bc	0.025147788
61	0x3c655e97	0.013999603
62	0x3c390eaa	0.011295
63	0xbb2e860d	-0.0026630193
64	0x3c920ff7	0.017829878
65	0x3cc82d4d	0.024435664
66	0x3da35c62	0.07976605
67	0x3d947ba0	0.07250142
68	0xba8e88f1	-0.0010874552
69	0x3c7081e4	0.014679406
70	0xbc3d7776	-0.011564126
71	0x3c0e3d04	0.008681539
72	0x3bab8a24	0.0052349735
73	0x3c2128ef	0.0098364195
74	0x3d9edc8b	0.07756909
75	0xbc301414	-0.0107469745
76	0xbc460f98	-0.012088679
77	0x3cb3e0a7	0.021957709
78	0xbc2ea0bc	-0.010658439
79	0xbc90fbbb	-0.01769816
80	0x3c93cb15	0.018041173
81	0xbd07fd77	-0.033200707
82	0x3d8caf77	0.06869405
83	0x3d5201d0	0.05127126
84	0xbc17c2a6	-0.009262716
85	0x3ccc161b	0.024912884
86	0x3d6df077	0.058090653
87	0x39c8f800	0.00038331747
88	0xbb95e484	-0.0045743603
89	0x3c9833f4	0.01857946
90	0x3c24a7e3	0.010049793
91	0xbd065155	-0.032792408
92	0xbc5889f9	-0.013216489
93	0xbcad013d	-0.021118755
94	0xbcb4550d	-0.022013212
95	0xbbc46d03	-0.0059944405
96	0x391f9ae6	0.00015221126
97	0x3db4b70f	0.08823978
98	0x3d88afac	0.06674132
99	0xbc5ea003	-0.013587954
100	0x3d8db9e8	0.069202244
101	0x3d282b2e	0.041056804
102	0xbcc7d32a	-0.024392683
103	0x3d0bc7a1	0.034125928
104	0x3dabe705	0.08393673
105	0xbd003a06	-0.031305335
106	0x3db62123	0.08893039
107	0xbb0b8b54	-0.0021292763
108	0x3b971608	0.0046107806
109	0x3d76c534	0.06024666
110	0x3d57fd88	0.05273202
111	0x3b66a34a	0.0035192543
112	0x3d9a0441	0.075203426
113	0x3d0e74a8	0.03477922
114	0x3bb0f5f8	0.0054004155
115	0xbc112a0c	-0.008860122
116	0x3c9df224	0.0192805
117	0x3d276311	0.04086596
118	0x3d975eee	0.07391153
119	0x3d776a7b	0.060404282
120	0xbd12336a	-0.035693564
121	0x3bbd874d	0.0057839514
122	0xbc865067	-0.01639576
123	0x3dd71b8d	0.10503302
124	0x3b7ce4e4	0.0038588578
125	0x3a8c9303	0.0010724965
126	0xbd0cf6ef	-0.03441518
127	0xbbdfadea	-0.006826152

weight f4 [2, 128]
0	0xbd92a7b7	-0.07160895
1	0xba30d268	-0.000674522
2	0x3de485ab	0.11158308
3	0xbd9c837d	-0.07642267
4	0xbda4d193	-0.080477856
5	0x3ca87b20	0.020566523
6	0xbd1c0c90	-0.038097918
7	0xbc55ee9e	-0.013057379
8	0xbca248b3	-0.019810056
9	0xbcfc9596	-0.030833047
10	0x3d1d7fd4	0.038451985
11	0xbd045a20	-0.032312512
12	0xbd3e5a7e	-0.04647302
13	0xbc1de803	-0.009637835
14	0xbd1a688a	-0.037697352
15	0xbd6d0afd	-0.057871807
16	0xbd1c637d	-0.038180817
17	0x3eb00c4d	0.34384385
18	0xbbc75811	-0.0060834964
19	0xbd2ec6ab	-0.042669933
20	0x3e0dc2b8	0.1384381
21	0x3c898d42	0.01679099
22	0xbd9b10e6	-0.075715825
23	0xbd841415	-0.06449143
24	0x3c4b5a7d	0.012411711
25	0x3bcd81f8	0.006271597
26	0xbd258f35	-0.040419776
27	0x3cd35813	0.025798833
28	0x3dfa78c2	0.12230064
29	0xbce67f7a	-0.028136957
30	0xbc8a35d4	-0.01687137
31	0x3d87dfae	0.066344604
32	0x3e01236d	0.1261117
33	0x3d11ffca	0.03564433
34	0x3c0b5a0b	0.008505355
35	0xbd0e66b6	-0.03476592
36	0xbd6148ad	-0.05500095
37	0x3d5974f3	0.053090047
38	0xbcd07215	-0.025445024
39	0x3acd0cab	0.0015644034
40	0xbd8c585f	-0.06852793
41	0x3da68380	0.081305504
42	0x3dfcaf7e	0.1233816
43	0xbd45d4b9	-0.04829857
44	0xbc3ed14a	-0.011646578
45	0x3c868147	0.016419066
46	0xbd80d218	-0.06290072
47	0x3e081c0f	0.13291954
48	0x3dc9b69c	0.09849283
49	0x3c96a5d3	0.018389618
50	0xbd921228	-0.07132369
51	0x3e1fb652	0.15596893
52	0xbb6bd0ce	-0.0035982612
53	0xbda6bc45	-0.08141378
54	0xbd4dbb41	-0.050227407
55	0xbdaac54a	-0.08338411
56	0xbd312f7b	-0.04325817
57	0x3d5fac6a	0.054607786
58	0xbca56731	-0.020190807
59	0x3d28b565	0.041188616
60	0xbc137b84	-0.009001616
61	0x3daddf75	0.08489887
62	0xbd66ad9f	-0.05631792
63	0xbdffe2ed	-0.124944545
64	0x3d2a4c46	0.041576646
65	0xbd0f5014	-0.034988478
66	0x3df00664	0.11719969
67	0x3dee4580	0.1163435
68	0xbd284f7c	-0.041091427
69	0x3bfa9558	0.0076471977
70	0xbd6d8561	-0.05798853
71	0x3c39e48d	0.011345995
72	0x3cc1abc5	0.023641476
73	0x3d62a336	0.05533143
74	0x3db0853d	0.08619163
75	0xbdb2f36b	-0.087378345
76	0xbd1c8e16	-0.03822144
77	0xbda8bb90	-0.082389
78	0xbda187be	-0.07887219
79	0x3d0ae607	0.033910777
80	0x3dd06eb0	0.10177362
81	0xbd75e9f4	-0.06003757
82	0xbca75a55	-0.020428816
83	0x3d70d14e	0.05879336
84	0xbd996732	-0.07490386
85	0x3d7e63ac	0.062106773
86	0x3d8d2a22	0.06892802
87	0xbcdab2b4	-0.02669654
88	0xbd938ece	-0.07204972
89	0x3e4568e1	0.1927829
90	0xbd41415d	-0.047181476
91	0xbd8b82ea	-0.06812079
92	0xbd77665f	-0.060400363
93	0x3da45625	0.08024243
94	0xbd9ccd48	-0.07656342
95	0xbd0237e3	-0.03179158
96	0xbe2541ea	-0.16138425
97	0x3dde9835	0.10868875
98	0x3e0d0ad9	0.1377367
99	0xbd7191b6	-0.05897685
100	0x3da23350	0.07919943
101	0x3dca40e9	0.09875662
102	0x3da894db	0.08231517
103	0xbd176834	-0.03696461
104	0x3c948be3	0.01813311
105	0xbd923bdb	-0.07140323
106	0xbc113af8	-0.008864157
107	0xbc315784	-0.010824088
108	0xbd590bd1	-0.052989785
109	0x3d99e0c6	0.07513575
110	0x3e3f2a22	0.18668416
111	0x3cb57d51	0.022154482
112	0x3e1386c6	0.1440688
113	0x3d2d5c53	0.042324375
114	0xbd96a3c5	-0.07355455
115	0xbb5a53cc	-0.0033314107
116	0xbd9f6fbc	-0.077849835
117	0x3e10786d	0.14108439
118	0x3e08aa5f	0.13346241
119	0x3dd58ed4	0.10427633
120	0xbd377e8f	-0.04479843
121	0xbd822065	-0.06353835
122	0xbd8faf9e	-0.07015918
123	0x3d68d7d1	0.056846444
124	0x3ca09a9b	0.019604972
125	0xbd5bb407	-0.053638484
126	0xbd6e741a	-0.05821619
127	0xbd97911a	-0.07400723
128	0xbd27cbab	-0.040965717
129	0x3df43e66	0.11925964
130	0xbd1e479d	-0.038642514
131	0xbd2b80e7	-0.041870978
132	0xbd8e1aea	-0.06938727
133	0x3dfc31f0	0.12314212
134	0x3cb44e60	0.022010028
135	0xbcb2dddb	-0.021834305
136	0xbb81e525	-0.0039640837
137	0x3d2f12af	0.042742427
138	0xbd90e205	-0.0707436
139	0xbcf6ccf5	-0.030127028
140	0x3d32b93b	0.04363368
141	0xbb6e3f03	-0.0036353476
142	0xbd351731	-0.04421157
143	0x3d972b51	0.07381309
144	0x3b9d32e2	0.0047973255
145	0xbc3d921e	-0.011570482
146	0x3c929901	0.017895224
147	0xbc30ff46	-0.010803049
148	0x3df91170	0.12161529
149	0xbd3e03ea	-0.04639045
150	0xbc87c0ab	-0.016571363
151	0xba2b925f	-0.00065449433
152	0x3e0a45a4	0.13503128
153	0xbd895c81	-0.06707097
154	0x3dac372a	0.08408959
155	0xbcef8035	-0.029235939
156	0x3d299bed	0.041408468
157	0xbd4db8e9	-0.050225172
158	0xbc2fe47c	-0.010735627
159	0x3dc627ee	0.09675585
160	0xbd8b6017	-0.06805437
161	0x3cb2096f	0.021733014
162	0xbc6a342b	-0.014294664
163	0xbcabc247	-0.020966662
164	0x3d13ef5f	0.036116954
165	0xbdfa9250	-0.12234938
166	0xbd07b2a8	-0.033129364
167	0xbccefa1a	-0.025265742
168	0xbd43ca74	-0.047800496
169	0x3daf3369	0.085547276
170	0x3e003cd4	0.12523204
171	0x3d71340a	0.05888752
172	0x3e0209d8	0.12699068
173	0x3cb95bac	0.02262672
174	0x3cd26ca9	0.025686579
175	0x3e1967e6	0.1498104
176	0x3e1cabc4	0.15299898
177	0xbd47868f	-0.04871231
178	0x3cb58758	0.022159263
179	0xbde381a3	-0.111087106
180	0x3cac1c61	0.021009626
181	0xbd4c8a32	-0.04993648
182	0x3d4645fe	0.048406594
183	0xbda559a2	-0.08073737
184	0xbd12775f	-0.035758372
185	0xbd4e11dd	-0.050310005
186	0xbca7c2fc	-0.020478718
187	0x3de9aa40	0.11409426
188	0xbd9531e0	-0.072849035
189	0xbdaffc74	-0.085930735
190	0x3d64ff96	0.05590781
191	0xbc5f61f9	-0.013634198
192	0xbd3d6384	-0.046237484
193	0xbd859e04	-0.0652428
194	0x3e11d1cf	0.14240192
195	0x3ddf1f5e	0.10894655
196	0x3d875d03	0.066095375
197	0x3d226485	0.039646644
198	0xbd7c419b	-0.061586004
199	0xbe008bfa	-0.12553397
200	0xbd6cc08e	-0.057800822
201	0x3d3892a9	0.04506174
202	0x3de683a6	0.11255579
203	0xbd9d5f86	-0.07684235
204	0xbcd511c9	-0.026009457
205	0x3dadaa95	0.084798016
206	0x3d8d2e06	0.06893544
207	0xbd9e97ae	-0.07743774
208	0x3d987310	0.074438214
209	0x3dab348d	0.08359633
210	0x3de3f650	0.11130965
211	0x3dacedf2	0.08443822
212	0xbd3ae8b5	-0.045632083
213	0xbd887c74	-0.066643625
214	0x3dbbfe82	0.09179403
215	0xbd00aefc	-0.031416878
216	0xbd194721	-0.03742135
217	0xbd398b3d	-0.045298804
218	0xbd139538	-0.036030978
219	0xbd28cc04	-0.04121019
220	0x3d27afd0	0.040939152
221	0xbd985c27	-0.07439452
222	0xbd97c709	-0.0741101
223	0x3d1cb296	0.03825625
224	0xbd9ce89b	-0.076615535
225	0x3e192ea0	0.14959192
226	0x3dab752d	0.08371959
227	0xbbec9f30	-0.007221125
228	0x3dfd47ad	0.12367187
229	0x3e010639	0.1260003
230	0xbd4f1d42	-0.05056501
231	0x3e08403b	0.13305752
232	0x3e1f7cec	0.15574998
233	0x3d23bc69	0.039974604
234	0x3e0af0c5	0.13568409
235	0xbd7892ff	-0.06068706
236	0xbd9a5234	-0.0753521
237	0x3dbb0a6f	0.091328494
238	0xbc008c8e	-0.007846011
239	0xbd86406c	-0.06555256
240	0x3d5c9f0d	0.05386262
241	0x3ddf3140	0.108980656
242	0x3d1be1a0	0.03805697
243	0xbd1650e5	-0.03669824
244	0x3c3fa22e	0.0116963815
245	0x3da6ef8f	0.08151161
246	0x3d2753d4	0.04085143
247	0x3dda1913	0.10649314
248	0xbd8d8c9f	-0.06911587
249	0x3da4f699	0.08054847
250	0xbd589690	-0.052877963
251	0x3e5481e7	0.20752679
252	0xbd100e92	-0.035170145
253	0x3cb629db	0.022236755
254	0x3d30bda9	0.043149624
255	0xbe211cf6	-0.15733704

bias f4 [2]
0	0xbd277470	-0.040882528
1	0x3dce2670	0.10065925
