saved_models/run7/model_4000.pth (torch, 550374 bytes, 6 tensors)

weight f4 [1024, 4]
00000000: bb9f 213f c85b ecbd 2a1a 913d eab1 ebbe
00000010: 7be6 fd3e 830f 44bd b7b6 7e3e 85c2 ddbe
00000020: c511 f83e 93dd 123e e15e 5bbe 6cad 22bd
00000030: 491f b33e 34ea 753d 12b5 e53d 3544 0e3f
00000040: 3fd0 c93e ff5f 70bd 5030 143d b976 123e
00000050: 6422 adbe 5621 9cbe 3279 083e fca4 8cbe
00000060: fdf0 82be b19c b3bd 7917 a1be 3d4e 46bd
00000070: 6b82 70bc ff22 9b3e e29d ee3e 41a9 24be
00000080: 5356 c2be 6705 d5be beb8 ab3e a2d8 1f3f
00000090: 55ea cc3e f73f 9d3e 3a87 65be 9c02 f43d
000000a0: 4112 0bbf b30b d1be 45f4 aebe c905 c0bc
000000b0: 860a f43e d0a3 6cbe 5cc7 a23e 9b68 b9be
000000c0: f729 e53e 55e0 6d3e fcf8 d03e cf8a c6be
000000d0: 1e0d b0be 5fca c4bd 145b 84be cf10 42be
000000e0: ad04 3e3d e474 a3bd 7643 673e 73f1 91be
000000f0: da14 5b3e e135 9d3e 73fb 04be ee77 e4be
00000100: c804 bdbe 96f1 4b3e 702d bbbd c105 ea3e
00000110: 2ce3 113e e677 75bd 3101 403e 65f6 2cbd
00000120: 0a14 e8be a81b 9abe 37e6 9fbd 0cb6 f93e
00000130: 5524 5bbe 92a8 3f3e 980a 88bd 9a07 09be
00000140: a73a 253f c3b1 57be c850 4fbd 4aa9 95be
00000150: 949b 083e 7cf5 69be f6bc d53d b137 683e
00000160: 7331 3dbe 96b0 083e 8f52 a6bf 342b 633d
00000170: 18e2 e23d 03c7 bfbe 6612 4bbe ca13 403e
00000180: dd20 87be a2e9 6fbe 0c3a fabd c1b6 0cbe
00000190: 03fa 2fbe f54b c5bd 7985 853c c23e fa3d
000001a0: 2293 2bbf c3f0 283e 1b8e 47bd 036e 1a3d
000001b0: fad7 aabc e198 b03e a36a d03e 0fec 93bd
000001c0: e969 073f 0427 4bbd d8a0 c23e 88ae 9dbd
000001d0: 37d2 ec3e e143 2f3e a8f1 dfbd a875 ac3e
000001e0: ddfa fdbe de23 29be 6d85 93be 6fa3 a73e
000001f0: f137 f4bd 1b66 823e ded4 d23e 097d 5a3e
00000200: a6cd 9d3e bdb3 c53e 468a 50be c77d 283e
00000210: a30f d23e 2465 663d c957 d3bd 37cb 46bf
00000220: 0e8a 13bf 7526 8cbe 26cc 68be a1e7 963e
00000230: f065 c93e d9e6 8cbe a63c 653c 0679 44bf
00000240: 8c7d 32be 5591 ee3e 8e96 363e f960 23bf
00000250: bed3 9cbe d318 1b3d 4b80 ca3d e84e 5ebe
00000260: 5e87 46be 6660 ee3e 04e8 983e 0507 bebe
00000270: 0043 2cbb 7092 45bd 501e 68be 20ec d4bd
00000280: b022 88be 0a0e 073f aae2 a63e 2f6e 5fbd
00000290: 3377 1cbf 48ca 0cbd 6d33 3dbe 424f 733e
000002a0: d7ad 10bf a89a 453e c2b5 203e 07ea b03e
000002b0: 77a2 45bc 465d cf3e 4309 f03e 867e 0f3f
000002c0: d965 963e ac43 07be 8c5e b03e e4fb febe
000002d0: 2a8f c63e 6b69 d73e 1f49 7abe 8df6 a23d
000002e0: 5e2a 163f 23f8 5c3d 862b 23be aec9 abbe
000002f0: 5b10 b13e 365a 80be 0971 83bf 0a1a f3be
00000300: 8755 2fbe ffbf 9cbe 89d3 cb3e 3288 07bf
00000310: e0e8 c53e 229b bd3e 4e29 37bd 51c2 12be
00000320: 5cbe a23d e2ee 46be 6e07 883e 0609 b6bd
00000330: 24c3 e73c 4d36 73bc ec5b 54bb 9916 4dbb
00000340: f7e3 943d e7ff cb3e da0b 84bf 024e 87be
00000350: 7645 023f 7815 65bd ccd6 59ba f308 e6be
00000360: 78e2 cf3d 833a 443e 3f43 c2bd eb5c 6a3e
00000370: ff12 273f 8f44 c43e 812f 58be 44af 9dbe
00000380: 9d53 883d f116 0d3c 18ba a3bf 4273 713e
00000390: 600e 14be 57ca 903c 0740 3c3e c605 5a3f
000003a0: f180 aebe f8de 113e 8a1c adbf 7e69 e3bd
000003b0: e771 043c 6477 0cbd b91f b2bd a345 f9bd
000003c0: e801 27bf 7734 49bc 75f8 11be cfc3 043f
000003d0: b028 3abe 7a12 7b3c dc1c 51bf 486b 8a3e
000003e0: 3b08 c1be d7b0 e0be c647 a9be d4cf 113e
000003f0: 8b9f 70be 258d f6bd e667 be3e d267 913d
0.63134354 -0.115409434 0.070850685 -0.46034175 0.49589905 -0.047866356 0.24874388 -0.4331247
0.48451057 0.14342336 -0.21422912 -0.03971617 0.34984806 0.060037807 0.11216177 0.55572826
0.39416692 -0.0586853 0.036178887 0.14303102 -0.338153 -0.30494183 0.13327482 -0.27469623
-0.25574484 -0.08770121 -0.3146322 -0.048414458 -0.014679532 0.30300137 0.4660483 -0.1608019
-0.37956485 -0.41605684 0.33539385 0.6243993 0.4002253 0.30712864 -0.22414866 0.1191456
-0.5432473 -0.40829238 -0.34170738 -0.023440259 0.4766428 -0.23109365 0.31792724 -0.3621262
0.4475858 0.23230107 0.4081496 -0.38777778 -0.34385008 -0.09608912 -0.25850737 -0.18951724
0.046391178 -0.079812795 0.22584328 -0.28504524 0.21394673 0.3070517 -0.12986545 -0.4462275
-0.3691771 0.19916376 -0.09139526 0.45707515 0.14246815 -0.059928797 0.18750454 -0.042227168
-0.4532779 -0.30099225 -0.07807582 0.48771703 -0.21400578 0.18716648 -0.066426456 -0.13381806
0.6454262 -0.21063904 -0.05061415 -0.2923072 0.13340598 -0.22847551 0.10436432 0.22677495
-0.18475895 0.13348612 -1.2993945 0.055461124 0.1107828 -0.3745652 -0.19831237 0.18757549
-0.2639226 -0.23428968 -0.12218103 -0.1374159 -0.17185216 -0.09633628 0.016298996 0.12219001
-0.6702138 0.16498093 -0.048719507 0.03770257 -0.020854939 0.34491637 0.40706357 -0.07222759
0.5289598 -0.049597755 0.3801334 -0.07699305 0.4625413 0.17115737 -0.10934764 0.33683515
-0.49605456 -0.16517588 -0.28812733 0.32741877 -0.119247325 0.25468525 0.4117803 0.2133676
0.3082096 0.38613692 -0.20365247 0.1645423 0.41027555 0.0562488 -0.10319478 -0.7765383
-0.5763253 -0.2737309 -0.22734126 0.29473594 0.39335585 -0.27519873 0.0139915105 -0.7674717
-0.17430705 0.46595255 0.1783087 -0.63819844 -0.30630296 0.03786547 0.09887751 -0.21709788
-0.19387576 0.4655792 0.29864514 -0.3711473 -0.0026285052 -0.048235357 -0.22667813 -0.103966
-0.26588964 0.52755797 0.32594806 -0.05454844 -0.61119384 -0.034372598 -0.18476649 0.23760703
-0.5651526 0.19297278 0.15694335 0.3455355 -0.01206266 0.4050085 0.46882066 0.56052434
0.2937458 -0.13209409 0.34447134 -0.49801552 0.387811 0.42072615 -0.24441956 0.07957182
0.586584 0.05394758 -0.15934572 -0.33552307 0.3458279 -0.25068825 -1.026887 -0.47480804
-0.1712247 -0.3061523 0.39809826 -0.5294219 0.38654232 0.3703242 -0.044717126 -0.14331938
0.079464644 -0.19427064 0.26568168 -0.0888844 0.028291292 -0.014844489 -0.0032403423 -0.0031293987
0.07270043 0.39843675 -1.0316117 -0.26426703 0.5088724 -0.055928677 -0.00083099003 -0.44928703
0.10150617 0.19162945 -0.094854824 0.22887008 0.6526336 0.38333556 -0.21111871 -0.3079778
0.06656573 0.008611427 -1.2791166 0.23579124 -0.14458609 0.017674608 0.183838 0.8516506
-0.3408275 0.14245212 -1.3524334 -0.111041054 0.008083797 -0.034293547 -0.08697457 -0.12171485
-0.65237284 -0.012280575 -0.14254935 0.5186128 -0.18179584 0.015324229 -0.8168466 0.27034974
-0.37701592 -0.43884918 -0.3306257 0.14239436 -0.23498361 -0.1203864 0.37188643 0.0709988

bias f4 [1024]
00000000: 8763 c0be b8d8 f4bd 55d4 0ebe 1101 fe3e
00000010: 477c 233e f27d 56bb 422b 92bd 5c95 e3be
00000020: 1022 a3be 2551 31be d04f d2bd 07a1 99bd
00000030: 125b cbbc b26a c3bd 6624 d53e 8600 063f
00000040: 8fe6 fcbe 653a 4c3e 47dc afbe 2f9c c43e
00000050: d60d 2d3f 2755 c1bd 13f2 d63e 7f22 233d
00000060: 6b1d e83d 41ea 07bf e5c4 0abe 8a39 d3bd
00000070: 7c16 6dbe c509 2a3f b7c8 18bf 5ddc 7d3e
00000080: 666d cdbd 44ae a63d c429 a9be 53be adbd
00000090: 749e 66be 3d7b 52bd 0c8e f6be 08d8 98be
000000a0: b93d 3fbe c9c8 723e 30ff a0be 567f a03e
000000b0: 1150 48be 4211 27bf 1953 32be e83a 9d3e
000000c0: 6222 e4be 1057 d83e d2f1 ba3d d659 ff3e
000000d0: de78 193e a8f1 1b3e 2a74 d23e c455 cdbe
000000e0: abde a43e a064 51be 3747 fa3e 3f05 a23e
000000f0: 0230 4a3e 8401 143f 48c8 a8be 7f78 2bbe
00000100: 0e23 3f3e fc26 0fbf 2b28 053f b1ee f7bd
00000110: 7064 4dbe bcaa 773e f5e8 87be 576e 13bf
00000120: d327 c23e 1671 123e 20ac e0bd af8a 263e
00000130: 878f f5bd 5b01 9b3e c232 7fbe edcb adbe
00000140: 348e 443e 28e9 973b f5d9 e7be 4193 a6be
00000150: 2292 c9bd cef0 2abe e21e 9cbe dee3 cdbd
00000160: e8b8 2cbe 066a 3c3d 0089 4e3e e293 ba3e
00000170: 5a94 aebd 26cb eb3e 8f3d 033f 0b2a cbbd
00000180: 2776 7d3e 283a b33e 285e c03e c30f 043e
00000190: 9086 b4bd dde3 733e a0e9 a4be f29a d63e
000001a0: 43a0 83be 343a e2bd 4895 ae3e 1f75 a6be
000001b0: 6991 90be c2d7 ed3e b792 b93d e42b ccbe
000001c0: 5899 dc3d b30d afbe ce33 de3e 3c72 e93e
000001d0: ba13 363e 152a cfbe afa2 f33e 5012 fdbe
000001e0: 6174 a53e 78dd a53e 3582 003e b102 ffbd
000001f0: 2566 fbba 6008 c4be f351 e23d 6e20 b2be
00000200: b1a5 d53e 6d5d 49be 0f75 2bbd 7413 78bd
00000210: c2f3 503e 6bd4 913e 5f42 b6be b8da babe
00000220: 798f 053e 8d3e 123e 20b7 a83d 410f d9bc
00000230: 375e ff3e da5c c43e de3c d83d 5dbd 033d
00000240: 9bd0 923e 38d7 a6be 8904 263e b06a 1abf
00000250: 36ba a0bc 9f7f afbe 94bd 233e a73f d93e
00000260: 1d1e c1be d95f 03bf cff0 023f 868b d73e
00000270: e5bd 83be daa7 f4be 555e e6be fc53 ae3e
00000280: 96b4 d0bc 93e0 f5be f81f d4bc 6acf febe
00000290: cb4f bdbd e221 173e 45eb 8cbd ea21 e5be
000002a0: f91a be3e 8ef3 ccbe 0d71 8cbe c769 15bf
000002b0: 0dd8 afbe d642 55be a723 efbd bfbd abbd
000002c0: 543c af3e cb65 0b3d 0b1c 4cbc 9337 afbc
000002d0: b5e1 4e3e 2af8 713e 0367 b6be 6f33 e83e
000002e0: 7d95 0f3e ccc6 9e3e 6de0 023f ef13 90be
000002f0: 8daf dc3e 13d9 b5be 2587 5abe 116c 3f3e
00000300: d4b4 8e3c 9a5b 1e3e c69b eabe eb30 5abe
00000310: 0439 dfbe a015 703e 442e 04be 5770 6a3e
00000320: 0120 9fbe 42e7 4abe 380f c33c 5ec5 9abd
00000330: ac5b a43e fd75 dabe bb5c 7e3e cfb5 b1be
00000340: 87f6 f93e bb6e b5bd 2920 c83e 3f95 dd3e
00000350: b7b0 a83e 1502 0bbc a509 87be fb6f 323f
00000360: 037c 63be 5213 bb3d d02d e73e 9a51 263e
00000370: 52a5 cc3e cf58 06bf dd26 513e 1e16 fa3e
00000380: b427 dc3e 050d 3f3e aa3c 003f 6870 c23e
00000390: 11e1 27be d3bb de3e 1da0 8a3e 5a05 f83e
000003a0: 80e4 953e d662 403e ffe4 cdbe 80d4 4f3e
000003b0: 3213 aebe 18b9 88be c30b 36be fd84 5f3e
000003c0: fb04 283e c424 eb3e feb2 87bd 765c 293e
000003d0: 3fdd 953e 8c03 fb3e afc2 ed3d c858 c7be
000003e0: 4e95 c53e 7c72 ff3e 69f0 033f e805 47be
000003f0: edfd 4c3d 4646 023f 7966 bcbd 0b64 eebe
-0.37575933 -0.11955398 -0.13948186 0.4961019 0.15965377 -0.0032728878 -0.07137157 -0.4444989
-0.31861925 -0.1731611 -0.10269129 -0.07501417 -0.0248237 -0.09541835 0.41629332 0.5234455
-0.49394652 0.19944151 -0.34347746 0.3840041 0.67599237 -0.0944007 0.41981563 0.03982782
0.11333736 -0.5309182 -0.13551672 -0.10313709 -0.23153108 0.6642116 -0.59681267 0.24791093
-0.10030632 0.08138707 -0.33039677 -0.08483567 -0.22521383 -0.05138706 -0.48155248 -0.2985232
-0.18675889 0.23709406 -0.31444693 0.3134715 -0.19561793 -0.6526071 -0.17414512 0.30709004
-0.44557482 0.42253923 0.09128155 0.49873227 0.14987513 0.15228903 0.4110425 -0.40104496
0.32201132 -0.20448542 0.48882458 0.31644627 0.19744876 0.5781481 -0.32965302 -0.16745184
0.18665716 -0.5591886 0.52014416 -0.12106074 -0.20057845 0.24186224 -0.2654492 -0.5759024
0.37921008 0.14300951 -0.1097033 0.16263841 -0.11990266 0.30274472 -0.24921706 -0.33944646
0.19194871 0.0046359487 -0.45283476 -0.3253422 -0.09842326 -0.16693422 -0.30492312 -0.10053228
-0.16867411 0.04599955 0.20169449 0.3644095 -0.085243896 0.46053427 0.51265806 -0.099201284
0.24752103 0.35005307 0.37571836 0.12896638 -0.08814728 0.23817392 -0.32209492 0.4191509
-0.25708207 -0.110462576 0.34098268 -0.3251123 -0.2823594 0.46453673 0.09061187 -0.39877236
0.107714355 -0.3419014 0.433989 0.45594966 0.17780963 -0.40461794 0.47585055 -0.49428034
0.32315353 0.3239553 0.1254967 -0.12451685 -0.0019180222 -0.3828764 0.11050787 -0.34790367
0.41727975 -0.19664545 -0.041859683 -0.060565427 0.20405486 0.28482375 -0.35597512 -0.36494994
0.13043012 0.14281674 0.08238053 -0.026496531 0.49876568 0.3835209 0.105584845 0.032163013
0.28674778 -0.32586074 0.16212668 -0.6031904 -0.019620042 -0.34277055 0.15990287 0.42431375
-0.37718287 -0.51318127 0.51148695 0.42098635 -0.25730816 -0.4778431 -0.44993845 0.3404845
-0.025476735 -0.480229 -0.02589415 -0.4976762 -0.09243735 0.14759019 -0.068808116 -0.44752437
0.37129954 -0.40029567 -0.2743 -0.5836453 -0.3434452 -0.20826277 -0.11676722 -0.083858006
0.34225714 0.034032624 -0.012457858 -0.021388805 0.20203288 0.23629823 -0.35625467 0.4535174
0.14021869 0.31011045 0.51123697 -0.28140208 0.43102685 -0.35517177 -0.21340616 0.18693568
0.01742021 0.1546463 -0.4582197 -0.21307723 -0.43598187 0.2344575 -0.12908274 0.22894417
-0.31079105 -0.1981478 0.023810968 -0.07557176 0.3210119 -0.42668143 0.24840061 -0.3470902
0.48820898 -0.08859011 0.39087036 0.43277928 0.32947323 -0.008484383 -0.26374546 0.6970212
-0.22215275 0.091345444 0.4515214 0.16242066 0.3996988 -0.5247926 0.20424981 0.48845
0.4299904 0.1865731 0.50092566 0.37976384 -0.1639445 0.43502674 0.27075282 0.48441583
0.29275894 0.18787703 -0.40213773 0.20295906 -0.3399902 -0.26703715 -0.17777924 0.21828075
0.1640815 0.45926487 -0.06625937 0.16539177 0.2927036 0.49026144 0.116093986 -0.38934922
0.38590473 0.49892032 0.5153871 -0.19435847 0.05004685 0.5088848 -0.091992326 -0.46560702

weight f4 [128, 1024]
00000000: 512d 6b3c 1491 63bc 3803 883b 7e46 aabb
00000010: 98c2 3ebb 844a 413c c2ca 96bc 1313 cabc
00000020: 1190 853c c82a d1bc 0fa5 a83c 5f25 893c
00000030: f115 f03a daf9 b93c baf1 09bc 4905 6e3c
00000040: a085 133b c62c 75bc ebe8 a33b 5585 c73c
00000050: 5745 be3b a268 a23c 20df f6bc 9630 213c
00000060: 3147 653c 0a30 eebc 625d c4bc 162f e1bc
00000070: 3962 b63c 6c3a 3a3c 7067 3dbc 0343 f2ba
00000080: 744b b93c efa7 edbc ae2a 86bc b67f e9bc
00000090: a56b 72bc e185 17bc 20b7 b13c 4a68 aabc
000000a0: 4efa b1bc 5cb9 edbb e329 af3c 61c0 50bc
000000b0: c2e4 e63b 4279 eabc 9046 2ebc 5df3 633b
000000c0: 2f60 6d3c 0087 b0bc 29f2 11bd 2966 e2bb
000000d0: e451 bbbc efef babc bc09 70bc 8849 f23b
000000e0: 8c70 8abc f69d babc 9217 8a3c 8e7b 903c
000000f0: 1435 06bd ea8b 13bd b644 c5bc 0c0b bc3c
00000100: fba2 9d3c dc2b f13c 66bf debc 3247 ab3c
00000110: 301b d8bb 4c78 f4bc 6532 4b3a e02f 503c
00000120: f031 8e3c 64e7 42bc 85e0 d43b 2720 34ba
00000130: 58ab 963c e7fa 4c3c 0000 55b7 2278 4d3c
00000140: 536b b63c 6809 abbb 9f44 d0bb 0018 66bb
00000150: 0112 dabc cdce 8f3c 8b52 c2bc a2ad aabc
00000160: 8090 ddb9 fc2e 2f39 5181 0abd 46b0 473c
00000170: 009a 9f3c 9c11 c13c d90f b2bc 7485 c23c
00000180: 5285 e5bc 7e56 af3c f008 d0bc 9d7f d13c
00000190: 4e83 c4bb 471e 753a 0da5 bd3c 7f1b 02bd
000001a0: 1651 f6bc 5f4d ac3b 1038 063c e5f5 08bc
000001b0: e00b 3bbc 4651 8c3c 7a47 35ba c33c ca3c
000001c0: bf07 cdbb 1af0 9a3b 9c46 83bc bd63 04bb
000001d0: 20a7 3bbc 76b6 283c 8b73 803c dc1e c13c
000001e0: 1205 6abc 43b7 c1bc b874 c43c f10a e2bc
000001f0: 8588 ae3c c5fd 253c 689a 46bc 23e9 e3bc
00000200: 10fc ffbc 6071 94bb cef4 bebc e27b f03b
00000210: c972 b33c 1202 d13b fe6d 223c e0ea ab3c
00000220: 9cba b83c 134a 7d3c f45f 54bc 64e3 ea3b
00000230: 6c4c 94bc 0fce edbc fc4a 77bc 90e6 443b
00000240: 83f8 9b3b 50b2 733c 8ef0 d7bc c169 56bc
00000250: c9e0 99bc 211c 8dbc 88b3 413c 1bdc a5bc
00000260: ea61 93bc 58d2 e0bb 1ece efbc ee8e 24bb
00000270: aeed 00bd 505a dabb fa35 b23c b559 06bd
00000280: 4a79 7b3c 6547 0fbc 6175 aebc 922d 703c
00000290: a8b6 c03b 5bde be3c 806b 4aba a926 823b
000002a0: 10a3 c63c 2db6 b53c 2ce8 8f3b 2820 92ba
000002b0: d4b0 883a 1128 34bc e409 c53c cf58 2cbc
000002c0: c22b cd3c 09ac 1cbc 1e94 c1ba 6fed aebc
000002d0: c163 7abc 74ee bc3b e0b5 f73a eb30 02bd
000002e0: ddb9 5b3c 3ebe d33c 455d c3bc cda0 02bd
000002f0: 619b d8bc 1492 4fbb 8f27 23bb 774b e7bc
00000300: 3c2f d53c e0f2 aab9 7d19 c33b 98fc e4bc
00000310: c0b4 ff3c 234e 933c 91c3 153c f306 663c
00000320: 72ad acbb 1f76 9e3c 075d 3a3c 24f6 c3bc
00000330: 3d30 08bd ca57 8ebb 41e1 cd3c 10cd 0bbd
00000340: 9011 36bc d7b6 573c 6c2d 1abc a647 a4bc
00000350: 3800 7b3b b5e9 19bc 1b2c d43c a028 e43b
00000360: 447e 953c 4add 173c 74bb 5cbc f0e7 a5bc
00000370: d58c a23c a0a6 103c 7642 dbbc 87d2 863c
00000380: f715 313c f298 6bbb f133 063c efba 643c
00000390: 92ca e9bc 10ef 83bc d4c7 50bc 80cc 30bc
000003a0: b04e 14bd db3e 2d3c 063d 653c 44dc 69bc
000003b0: bae5 933c 843f 0cbd 4795 ce3c 0e27 0c3c
000003c0: 9e0a 8c3b 09c5 cb3c 2f33 a3bc 7a46 623b
000003d0: 8ca7 12bd 0c76 2c3c 6ced a0bc f5bc a43c
000003e0: ccf6 0ebc 31bd 6fbb 202d 7b3c d732 963c
000003f0: b5be 833b 69f4 44bc 9531 62bc 5674 d3bc
0.014354066 -0.01388957 0.0041507743 -0.0051963916 -0.0029107686 0.011797551 -0.01840723 -0.024667298
0.016304048 -0.025533095 0.020586519 0.016741453 0.0018317086 0.022702146 -0.0084194485 0.014527627
0.0022510067 -0.014964288 0.005002131 0.02435557 0.005806606 0.019825283 -0.030135691 0.009838244
0.013994024 -0.029075641 -0.02397031 -0.027488273 0.022263633 0.011366468 -0.011560306 -0.0018483106
0.022618987 -0.029010741 -0.016377773 -0.02850328 -0.014796172 -0.009248228 0.021693766 -0.020801682
-0.0217258 -0.0072547626 0.021382278 -0.012741179 0.007046313 -0.028622273 -0.010636941 0.0034782507
0.014488264 -0.021548748 -0.035631333 -0.006909151 -0.022866197 -0.022819487 -0.014650758 0.0073940195
-0.01689937 -0.0227804 0.016856942 0.01763704 -0.032765463 -0.036022104 -0.024080615 0.022954486
0.019242754 0.02943986 -0.027190875 0.020907972 -0.006595038 -0.029842518 0.0007751345 0.012706727
0.017357796 -0.011895988 0.0064964914 -0.0006871246 0.01839225 0.012510992 -1.2695789e-05 0.012540849
0.022267973 -0.005219627 -0.0063558365 -0.003510952 -0.026619913 0.017554665 -0.023721 -0.020834748
-0.00042260066 0.00016706804 -0.033814732 0.012188023 0.019482613 0.023567967 -0.021736072 0.023745276
-0.028017674 0.021403547 -0.025394887 0.025573546 -0.005997098 0.000935052 0.023149991 -0.031764504
-0.030067962 0.005258247 0.008192077 -0.008359407 -0.011416405 0.017128598 -0.0006915253 0.024687177
-0.006257027 0.0047283294 -0.01602488 -0.002020105 -0.01145342 0.010297408 0.015680095 0.023574285
-0.014283435 -0.023646956 0.023981437 -0.027593108 0.021305332 0.010131304 -0.012121774 -0.02782113
-0.031248122 -0.004530117 -0.023310091 0.0073389867 0.02190532 0.0063784206 0.0099139195 0.02098602
0.02254992 0.015459555 -0.01296233 0.0071682204 -0.018102847 -0.02902892 -0.015093561 0.0030044653
0.0047598495 0.014874056 -0.026359823 -0.013086737 -0.018783944 -0.017225327 0.011822589 -0.020246556
-0.017991025 -0.0068610124 -0.029273089 -0.0025109607 -0.03147667 -0.006663598 0.021754254 -0.032800395
0.015348742 -0.008745049 -0.021296205 0.014659302 0.0058811493 0.023299387 -0.0007721707 0.003971894
0.024247676 0.022181595 0.0043916907 -0.0011148499 0.0010428675 -0.010995881 0.024052568 -0.0105192205
0.02504528 -0.009562501 -0.0014768874 -0.021353452 -0.015282572 0.0057657305 0.0018898807 -0.031784933
0.0134110125 0.02584755 -0.023848185 -0.031891633 -0.026441278 -0.0031672763 -0.0024895405 -0.028234227
0.0260235 -0.00032605883 0.005953966 -0.027952477 0.031214118 0.017981594 0.009140865 0.014039743
-0.0052696997 0.019343434 0.0113747185 -0.02392108 -0.03324913 -0.0043439614 0.025131823 -0.03413111
-0.011112586 0.013166151 -0.0094102435 -0.020053696 0.003829969 -0.009394099 0.025899937 0.0069628507
0.018248685 0.009269068 -0.013472427 -0.020252198 0.019842545 0.008828789 -0.02676509 0.01645781
0.0108084595 -0.0035949317 0.008191095 0.013960584 -0.028538976 -0.016105205 -0.012742955 -0.010790944
-0.036207855 0.010574068 0.0139916 -0.014273707 0.018053878 -0.03424026 0.025217665 0.008554233
0.0042737266 0.024874227 -0.019921867 0.003452687 -0.035804316 0.010526191 -0.019644462 0.020109633
-0.008725833 -0.0036581273 0.015330583 0.01833479 0.004020537 -0.012021163 -0.013805767 -0.02581231

bias f4 [128]
00000000: 6c84 873c 2e2a 903d c02a 68bc 94ef b23c
00000010: 60f6 b83c 7db8 cebc a0c9 3a3c 5eb6 abbc
00000020: f9f0 afbc 644d d23b 0d59 8cbc a2a6 7cbc
00000030: 1990 c7bb acb7 c0bc 22ba 213c d373 14bd
00000040: 055b d6bc 9fe1 893d 78c9 b73c bdcb 10bd
00000050: cd5b 6f3c d767 623c 4d8d d63c 87f7 093c
00000060: de3e f03b dc4c 8a3c 3db9 00bd 3759 2ebc
00000070: 72e7 963c 5014 65bc 473f ad3b 364a 9abc
00000080: 8e97 1d3c 2939 9bbc b054 efbc a452 a8bb
00000090: 99db fdbc 515e ac3d aaf6 fcbc 34b5 f03b
000000a0: cfd0 42bc f0a4 0c3d 7f1d c73c 63a2 69bc
000000b0: a6e6 723c 6b45 da3c b758 60bc 903f 0abd
000000c0: 6073 4cbc cf58 393c e995 903c 459f d3bd
000000d0: b636 b9bc 420a c2bc 2a8e 97bc 7b04 af3c
000000e0: 3de5 80bb f7da ca3c d3fc b03c df3d 843b
000000f0: bc02 ce3c 38ca 203d aa0e 393c 7a47 023d
00000100: f70f 923c 4d2d c83c 0b55 413d b683 f53c
00000110: f188 8eba b5a1 1e3c 7677 3dbc 23eb 803d
00000120: 248a ab3b ef28 213c 9680 483d 9a92 913c
00000130: 980f 46bc a7e0 b33c bca0 2ebc bbfb 90bc
00000140: 692d aebc 77fd 07bd 35fa 453d b180 6b3c
00000150: a6c2 17bc 5b29 a33c 531d c53c 00f8 c839
00000160: 84e4 95bb 68e3 3d3c e3a7 243c 5551 06bd
00000170: f989 58bc 3d01 adbc 0d55 b4bc 036d c4bb
00000180: d5b7 1a3d b7d6 953d bbcf ea3c 03a0 5ebc
00000190: 48f5 073d 9cb9 81bc fef1 fdbc 20ba ee3a
000001a0: 77c6 8a3d 063a 00bd 3c73 9d3d 548b 0bbb
000001b0: 0816 973b 0db6 dd3c a974 623c 4aa3 663b
000001c0: 03a0 27bc dc8a 4f3a f8f5 b03b 0c2a 11bc
000001d0: 24f2 9d3c 7dc3 c1bb af99 d13c f8e8 f03c
000001e0: 6a33 12bd 4d87 bd3b 6750 86bc acaf b43d
000001f0: e4e4 7c3b 0393 8c3a eff6 0cbd 9fd6 323b
0.016542636 0.07039295 -0.014170349 0.021842755 0.022578418 -0.025234455 0.01140061 -0.020960983
-0.02147721 0.006417917 -0.017132306 -0.015420588 -0.006090176 -0.023525082 0.009871038 -0.03624327
-0.026166448 0.06732487 0.022434935 -0.03535055 0.014609289 0.013818703 0.026190424 0.0084208315
0.007331713 0.016882353 -0.031426657 -0.010641388 0.018420909 -0.013981894 0.0052870843 -0.018834215
0.009618653 -0.018948155 -0.029215187 -0.0051368047 -0.030988501 0.08416427 -0.030879337 0.00734582
-0.011890604 0.034336984 0.024306057 -0.014259907 0.014825499 0.02664443 -0.013693026 -0.033752024
-0.012478679 0.0113126775 0.017649608 -0.103331126 -0.022609096 -0.023686532 -0.018500406 0.021364441
-0.0039335773 0.024762614 0.021604931 0.004035696 0.025147788 0.03925535 0.011295 0.031806447
0.017829878 0.024435664 0.047200244 0.029970031 -0.0010874552 0.009682109 -0.011564126 0.06294849
0.0052349735 0.0098364195 0.048950754 0.0177701 -0.012088679 0.021957709 -0.010658439 -0.01769816
-0.021261888 -0.033200707 0.04833432 0.014373944 -0.009262716 0.01991718 0.024061834 0.00038331747
-0.0045743603 0.011589862 0.010049793 -0.032792408 -0.013216489 -0.021118755 -0.022013212 -0.0059944405
0.037772972 0.07316344 0.028663507 -0.013587954 0.033192903 -0.015835576 -0.03099918 0.0018213429
0.067761354 -0.031305335 0.07687995 -0.0021292763 0.0046107806 0.027064348 0.013821759 0.0035192543
-0.010231021 0.0007917115 0.0054004155 -0.008860122 0.0192805 -0.0059131966 0.025585977 0.029407963
-0.035693564 0.0057839514 -0.01639576 0.08822569 0.0038588578 0.0010724965 -0.03441518 0.0027288569

weight f4 [2, 128]
00000000: b7a7 92bd 222b 013d 75c3 2c3e 7d83 9cbd
00000010: 93d1 a4bd 37a9 38bd 900c 1cbd 9eee 55bc
00000020: b348 a2bc 9695 fcbc d47f 1d3d 205a 04bd
00000030: 7e5a 3ebd 03e8 1dbc 8a68 1abd fd0a 6dbd
00000040: 7d63 1cbd 22ed 073f 1158 c7bb abc6 2ebd
00000050: 3ea2 243e 428d 893c e610 9bbd 1514 84bd
00000060: 171c 77bd f881 cd3b ea2a 25bd 1358 d33c
00000070: 677e 383e 7a7f e6bc d435 8abc f1a2 e23d
00000080: 3031 a23e caff 113d 0b5a 0b3c b666 0ebd
00000090: ad48 61bd ad73 e23c 1572 d0bc ab0c cd3a
000000a0: 5f58 8cbd e6e8 193e be1f 1c3e b9d4 45bd
000000b0: 7675 49bc 4781 863c 18d2 80bd 7074 773e
000000c0: e14f 063e d3a5 963c 2812 92bd 7ff8 653e
000000d0: ced0 6bbb 45bc a6bd 41bb 4dbd 4ac5 aabd
000000e0: 7b2f 31bd 6aac 5f3d 3167 a5bc 8152 a93d
000000f0: 847b 13bc 8520 c33d 9fad 66bd c85a 22be
00000100: 464c 2a3d 1450 0fbd 71f7 2f3e fe71 473e
00000110: 7c4f 28bd 5895 fa3b 6185 6dbd 725f 4abd
00000120: c5ab c13c 36a3 623d 42ca 003e a44e e4bd
00000130: 168e 1cbd 90bb a8bd be87 a1bd 07e6 0a3d
00000140: eb70 383e f4e9 75bd 8219 b83c b75a f53d
00000150: 3267 99bd ac63 7e3d 239f ec3d b4b2 dabc
00000160: ce8e 93bd bb8b b03e 5d41 41bd ea82 8bbd
00000170: 5f66 77bd 2556 a43d 48cd 9cbd e337 02bd
00000180: 7e9b 49be c748 233e e9ed 373e b691 71bd
00000190: 27e9 093e b80c 1e3e 31d0 3b3e d579 e4bd
000001a0: 0a96 4b3d db3b 92bd 6896 45bc 8457 31bc
000001b0: d10b 59bd c976 fd3d b3f4 923e 517d b53c
000001c0: 6573 7e3e 6260 2b3d c5a3 96bd cc53 5abb
000001d0: bc6f 9fbd 926b 963e 75af 743e e94c 283e
000001e0: 8f7e 37bd 6520 82bd 9eaf 8fbd b413 75bc
000001f0: 9b9a a03c 07b4 5bbd 1a74 6ebd ead4 2bbe
00000200: abcb 27bd b0e1 3c3e ef53 eebc e780 2bbd
00000210: ea1a 8ebd bb25 6b3e 604e b43c dbdd b2bc
00000220: 25e5 81bb af12 2f3d 05e2 90bd f5cc f6bc
00000230: 3bb9 323d 033f 6ebb 3117 35bd 512b 973d
00000240: e232 9d3b b3f5 8e3d 0199 923c 46ff 30bc
00000250: 0b8f 6b3e ea03 3ebd abc0 87bc 5f92 2bba
00000260: a60c 703e 815c 89bd 2a37 ac3d 3580 efbc
00000270: 285b 943d e9b8 4dbd 7ce4 2fbc 2959 103e
00000280: cf19 aebc 6f09 b23c 2b34 6abc 47c2 abbc
00000290: 5fef 133d ed74 1abe a8b2 07bd 1afa cebc
000002a0: 74ca 43bd 2213 c83d 6126 0a3e 0a34 713d
000002b0: f854 fe3d ac5b b93c a96c d23c 0bdc ac3e
000002c0: db42 493e 8f86 47bd 5887 b53c 813a 05be
000002d0: 611c ac3c 328a 4cbd fe45 463d a259 a5bd
000002e0: 5f77 12bd dd11 4ebd fcc2 a7bc 2235 853e
000002f0: e031 95bd 30bd d8bd 96ff 643d b6f0 d4bc
00000300: 8463 3dbd 049e 85bd 7466 2e3e e202 f83d
00000310: 035d 873d 88c9 133d 9b41 7cbd 97ae 25be
00000320: 8ec0 6cbd a992 383d 7c16 163e ba4a c3bd
00000330: c911 d5bc 95aa ad3d 062e 8d3d ae97 9ebd
00000340: 6888 ae3d 8d34 ab3d 7139 3d3e 36c7 fe3d
00000350: b5e8 3abd 939c 87bd 24f0 0a3e fcae 00bd
00000360: 2147 19bd 38a1 8abd 3895 13bd 04cc 28bd
00000370: d0af 273d 275c 98bd 09c7 97bd 96b2 1c3d
00000380: 185e bdbd 0a60 543e 7e47 f53d 309f ecbb
00000390: c643 283e ba48 403e 021d 87bd b655 643e
000003a0: c374 563e 69bc 233d 7439 283e ff92 78bd
000003b0: 3452 9abd 08a5 f93d fee4 46bb 6c40 86bd
000003c0: 3109 033e 76fe 343e a0e1 1b3d e550 16bd
000003d0: 2ea2 3f3c 41b6 103e 59b0 853d ce17 fc3d
000003e0: 9f8c 8dbd 99f6 a43d 9096 58bd 7079 a23e
000003f0: 920e 10bd db29 b63c a9bd 303d 0b64 42be
-0.07160895 0.031535275 0.16871436 -0.07642267 -0.080477856 -0.04508325 -0.038097918 -0.013057379
-0.019810056 -0.030833047 0.038451985 -0.032312512 -0.04647302 -0.009637835 -0.037697352 -0.057871807
-0.038180817 0.5309621 -0.0060834964 -0.042669933 0.16077515 0.01679099 -0.075715825 -0.06449143
-0.060329523 0.006271597 -0.04032413 0.025798833 0.18016969 -0.028136957 -0.01687137 0.11066235
0.31678152 0.03564433 0.008505355 -0.03476592 -0.05500095 0.02764305 -0.025445024 0.0015644034
-0.06852793 0.1503025 0.15246484 -0.04829857 -0.012296071 0.016419066 -0.06290072 0.24165511
0.13116409 0.018389618 -0.07132369 0.22458075 -0.0035982612 -0.08141378 -0.050227407 -0.08338411
-0.04325817 0.054607786 -0.020190807 0.082676895 -0.009001616 0.09527687 -0.05631792 -0.15854943
0.041576646 -0.034988478 0.17184235 0.19477078 -0.041091427 0.0076471977 -0.05798853 -0.04940743
0.023641476 0.05533143 0.12577155 -0.11147812 -0.03822144 -0.082389 -0.07887219 0.033910777
0.18011825 -0.06003757 0.0224731 0.11980193 -0.07490386 0.062106773 0.115537904 -0.02669654
-0.07204972 0.34481606 -0.047181476 -0.06812079 -0.060400363 0.08024243 -0.07656342 -0.03179158
-0.19688222 0.15945731 0.1796185 -0.05897685 0.13467847 0.1543454 0.18341137 -0.1115605
0.049703635 -0.07140323 -0.012059785 -0.010824088 -0.052989785 0.12376172 0.28702316 0.022154482
0.24848707 0.041839965 -0.07355455 -0.0033314107 -0.077849835 0.29378945 0.23895057 0.16435589
-0.04479843 -0.06353835 -0.07015918 -0.014958311 0.019604972 -0.053638484 -0.05821619 -0.16780439
-0.040965717 0.18445468 -0.029092757 -0.041870978 -0.06938727 0.22963612 0.022010028 -0.021834305
-0.0039640837 0.042742427 -0.0707436 -0.030127028 0.04363368 -0.0036353476 -0.04421157 0.07381309
0.0047973255 0.06980457 0.017895224 -0.010803049 0.23003785 -0.04639045 -0.016571363 -0.00065449433
0.23442325 -0.06707097 0.08408959 -0.029235939 0.07243949 -0.050225172 -0.010735627 0.14096512
-0.02125254 0.021733014 -0.014294664 -0.020966662 0.036116954 -0.15083666 -0.033129364 -0.025265742
-0.047800496 0.09769274 0.13491203 0.05888752 0.1241855 0.02262672 0.025686579 0.3376163
0.1965441 -0.04871231 0.022159263 -0.13010599 0.021009626 -0.04993648 0.048406594 -0.08073737
-0.035758372 -0.050310005 -0.020478718 0.260171 -0.072849035 -0.1058296 0.05590781 -0.025993686
-0.046237484 -0.0652428 0.1703127 0.12109925 0.066095375 0.036080867 -0.061586004 -0.16179882
-0.057800822 0.04506174 0.14657015 -0.09535737 -0.026009457 0.084798016 0.06893544 -0.07743774
0.08522111 0.08359633 0.18478943 0.1244034 -0.045632083 -0.06621661 0.13568169 -0.031416878
-0.03742135 -0.06769031 -0.036030978 -0.04121019 0.040939152 -0.07439452 -0.0741101 0.03825625
-0.092464626 0.20739761 0.11976527 -0.007221125 0.16432104 0.18777743 -0.0659733 0.22298321
0.20942979 0.039974604 0.16428167 -0.06068706 -0.0753521 0.1218968 -0.0030348892 -0.06555256
0.12796475 0.17675194 0.03805697 -0.03669824 0.0116963815 0.14132024 0.06527776 0.12309228
-0.06911587 0.08054847 -0.052877963 0.31733274 -0.035170145 0.022236755 0.043149624 -0.18983476

bias f4 [2]
00000000: 417b a0bd d1fd 823d
-0.07836009 0.06396068
