saved_models/run20/model_2000.pth (torch, 141798 bytes, 6 tensors)

weight f4 [256, 4]
0.032575533 0.14462426 1.1251115 -0.17758638 1.5689152 -0.2451066 -1.3317515 -0.1345613
-0.02123793 -0.35509405 0.8451402 -0.0083761625 0.3674706 0.5508324 -0.81796175 -0.39370155
-0.22578488 -0.42980954 0.43804124 -0.56045204 -0.02776304 0.5281449 -0.41945785 -0.22249503
1.46455 0.060803346 -0.13539113 0.0007137488 -0.08017116 -0.10432575 -3.125365 -0.3486141
-1.3123125 0.116892055 0.3494271 -0.34424144 -0.06723998 0.14209267 0.4916986 -0.17317843
1.1624925 -0.430081 0.35572922 0.19483043 -0.09304842 -0.41176578 -2.3412795 -0.38472
0.06155548 0.4428542 -1.5953023 -0.47545055 0.014886204 0.47196946 1.3000749 -0.20077163
-1.477636 -0.13620926 -1.5384547 -0.2132196 -0.56061107 0.011462899 -0.07388949 0.0059225326
-0.2663597 0.39790258 -0.29136825 -0.23675117 0.027834509 -0.22116886 -4.3224654 -0.39262274
0.16570356 0.2691669 0.5143337 -0.50340986 1.4147695 -0.090264454 0.58942384 0.10569615
0.45868868 0.3653423 -0.6565045 0.11088357 -0.015885295 0.3443336 -1.8285685 -0.027811667
-0.25666276 -0.043667365 0.5277625 0.31443733 -1.5497112 -0.042053036 -0.3250273 -0.084693074
1.0628483 -0.9453305 -0.82886493 0.28554997 0.05584908 -0.7553475 0.090903565 0.124619246
-1.5118834 -0.066655666 -0.14039236 -0.011152091 1.72495 -0.13881631 -2.0907197 -0.15449728
-1.3920866 -0.36359215 -0.94158626 0.6816234 0.015814867 -0.021394331 -0.9569709 -0.06741393
0.0894057 -0.13182896 -3.6319234 -0.45714873 -0.0547848 -0.9547869 0.14675097 0.37000382
0.22570157 -0.8072389 -1.7470136 0.22743146 0.016219594 -0.8797174 -1.5754673 -0.44181955
-1.5882517 -0.049254812 0.58556193 0.037841216 0.40661475 0.21259132 -1.9616207 -0.2562436
0.13764697 -0.13697022 -3.227266 0.5400193 -0.5395479 0.017824851 0.24634355 -0.4049616
0.06739228 1.2649021 -0.8353903 -0.11153939 -0.099824786 -0.22271812 -2.1301858 0.08522257
0.056320097 0.071420126 -1.5836681 -0.20496602 -0.59550446 0.00093312707 -2.2531776 0.06077092
-1.5964699 0.21179238 -0.3241326 -0.05318419 -0.012580533 0.34273875 0.8037935 0.076280065
0.1254861 -0.15625936 -2.2586884 0.26915014 -0.28225058 0.7674899 -0.8642559 -0.13039206
1.128326 0.19585107 -0.85301566 -0.14952107 -0.21492611 -0.07883529 -0.5842204 0.41745514
0.7029408 -0.8382868 -1.0559129 -0.29246166 0.16647382 -0.19142503 -1.6283573 0.34077582
0.0013382165 0.52195716 0.84856737 -0.2372671 -0.024656864 -0.5501517 0.7841152 0.054772694
0.2583323 0.45513797 -0.6725079 -0.64770013 0.0003590691 -0.8106436 -1.4055778 -0.17739637
-1.1827654 -0.42994657 -0.89076 0.10322184 0.2942963 0.31758252 0.7376125 0.053544924
0.24070483 0.25804368 -0.57948864 -0.5099595 -0.12861288 0.7847701 -1.6522238 0.0430424
0.11073768 0.19560967 -0.51018214 -0.14852759 -0.05419087 -0.8496934 -2.5433009 -0.006715497
1.5754087 -0.5946566 0.19754733 -0.14378537 0.28727326 -0.26876414 0.22979772 -0.7874705
-0.49470302 1.1790072 -0.091267444 0.1281612 -0.083513275 -0.10838524 -3.6984248 -0.44401452
00000000: ec6d 053d 6218 143e a703 903f 34d9 35be
00000010: 37d2 c83f 39fd 7abe d576 aabf 70ca 09be
00000020: 2bfb adbc e3ce b5be 1c5b 583f 2c3c 09bc
00000030: 1b25 bc3e 5a03 0d3f f165 51bf 4093 c9be
00000040: 2734 67be ff0f dcbe f146 e03e c979 0fbf
00000050: 516f e3bc 8134 073f 2ec3 d6be bdd5 63be
00000060: 6076 bb3f ee0c 793d f9a3 0abe df1a 3b3a
00000070: c730 a4bd bda8 d5bd fb05 48c0 8c7d b2be
00000080: dbf9 a7bf 1a65 ef3d 1ce8 b23e 6a40 b0be
00000090: 1db5 89bd be80 113e ebbf fb3e b055 31be
000000a0: 8ecc 943f 9433 dcbe 2422 b63e a181 473e
000000b0: 2c90 bebd f7d2 d2be 86d7 15c0 05fa c4be
000000c0: 9921 7c3d c9bd e23e de32 ccbf 416e f3be
000000d0: 44e5 733c fba5 f13e db68 a63f 1497 4dbe
000000e0: 2d23 bdbf 717a 0bbe 15ec c4bf 3d56 5abe
000000f0: 3584 0fbf e2ce 3b3c 5f53 97bd ce11 c23b
00000100: 4c60 88be e3b9 cb3e 382e 95be e66e 72be
00000110: 3205 e43c 177a 62be a351 8ac0 d905 c9be
00000120: 32ae 293e 3ed0 893e 60ab 033f 78df 00bf
00000130: 2b17 b53f 92dc b8bd 7be4 163f 3977 d83d
00000140: 3ed9 ea3e 250e bb3e ae10 28bf ed16 e33d
00000150: e121 82bc 7e4c b03e 880e eabf 4bd5 e3bc
00000160: 4d69 83be 8ddc 32bd 711b 073f eefd a03e
00000170: f05c c6bf ce3f 2cbd fa69 a6be 9073 adbd
00000180: 6a0b 883f 2e01 72bf 7e30 54bf 9b33 923e
00000190: 01c2 643d 745e 41bf a62b ba3d 6038 ff3d
000001a0: 6585 c1bf c482 88bd 04c3 0fbe 43b7 36bc
000001b0: 29cb dc3f dd25 0ebe 5ace 05c0 8934 1ebe
000001c0: e52f b2bf c028 babe cc0b 71bf df7e 2e3f
000001d0: 2e8e 813c 2a43 afbc 0bfc 74bf 5110 8abd
000001e0: 561a b73d 2cfe 06be 6f71 68c0 660f eabe
000001f0: 0766 60bd ea6c 74bf e345 163e 2471 bd3e
00000200: 501e 673e 35a7 4ebf 249e dfbf cbe3 683e
00000210: f4de 843c 2935 61bf eaa8 c9bf 2c36 e2be
00000220: d54b cbbf 6abf 49bd 63e7 153f 64ff 1a3d
00000230: cf2f d03e 8ab1 593e 6316 fbbf 5c32 83be
00000240: 54f3 0c3e ec41 0cbe 878b 4ec0 b43e 0a3f
00000250: d01f 0abf 6c05 923c 7c41 7c3e 2057 cfbe
00000260: f704 8a3d 50e8 a13f 24dc 55bf c46e e4bd
00000270: f070 ccbd 3810 64be f754 08c0 2c89 ae3d
00000280: e7af 663d b744 923d a3b5 cabf 9de2 51be
00000290: fb72 18bf 199d 743a 1034 10c0 eeea 783d
000002a0: 2059 ccbf 1ae0 583e b5f4 a5be aad7 59bd
000002b0: 941e 4ebc 747b af3e 69c5 4d3f b938 9c3d
000002c0: 6e7f 003e 7402 20be 5a8e 10c0 0cce 893e
000002d0: 2683 90be 387a 443f e03f 5dbf 7f85 05be
000002e0: fd6c 903f 2f8d 483e 3c5f 5abf 0d1c 19be
000002f0: 9715 5cbe 6674 a1bd 788f 15bf aebc d53e
00000300: eef3 333f f799 56bf 2728 87bf 89bd 95be
00000310: 1d78 2a3e ec04 44be 036e d0bf 2b7a ae3e
00000320: 1867 af3a fc9e 053f b63b 593f 26f6 72be
00000330: 31fd c9bc bed6 0cbf c6bb 483f 5559 603d
00000340: 2244 843e d807 e93e 7a29 2cbf adcf 25bf
00000350: 7041 bc39 5786 4fbf f9e9 b3bf 65a7 35be
00000360: db64 97bf f521 dcbe d908 64bf f965 d33d
00000370: 01ae 963e 2d9a a23e 2cd4 3c3f ec51 5b3d
00000380: 547b 763e 4d1e 843e 5e59 14bf b58c 02bf
00000390: 18b3 03be b1e6 483f 127c d3bf 3a4d 303d
000003a0: 70ca e23d e74d 483e 4c9b 02bf 9e17 18be
000003b0: 3ff7 5dbd 8285 59bf 71c5 22c0 ac0d dcbb
000003c0: fea6 c93f 6a3b 18bf d949 4a3e 793c 13be
000003d0: 7b15 933e 749b 89be 1850 6b3e ab97 49bf
000003e0: b749 fdbe b5e9 963f 6dea babd b13c 033e
000003f0: 0209 abbd 15f9 ddbd feb2 6cc0 df55 e3be

bias f4 [256]
-6.2144513 0.38648605 -3.9437912 -2.294593 -3.3145614 4.713384 -3.489333 -0.072825484
-2.1288168 -4.286251 1.9229512 -0.10667804 -3.9992554 -4.1289864 -2.0331814 -1.9096764
-3.6017275 0.5496973 -4.418136 1.8125068 -1.8530627 3.5232596 3.2509673 -3.315716
-0.49526522 2.3630457 -3.4928744 -3.0812528 -0.55223024 5.434224 -0.47057247 0.21612006
2.026981 -0.099594034 -2.754579 -1.6728725 -0.4202509 -2.3156972 -1.4465199 1.995634
2.6720839 -2.7494838 -1.731109 -3.7411203 3.421269 0.12228055 -0.124935426 -3.1611457
0.44165874 2.8843055 -3.734934 -3.7121277 0.19968244 1.749822 -3.242523 1.194598
-2.6559324 0.8261537 3.7042837 0.74685556 -2.6735299 -2.9007218 2.999048 -2.4942992
-1.8668815 3.0119455 -2.9085972 2.5845058 1.8692979 -1.8846494 3.3688622 -5.7821984
-1.3712627 -2.6226 -0.602836 0.8841289 -4.083766 -1.2761446 -2.8265648 -3.7162945
-6.6718564 -2.5422745 -2.5690286 -1.7913907 1.0551423 -1.237672 3.0566468 -3.2747064
1.9216932 -2.157673 3.1297195 0.060961254 2.1231408 1.7415792 -1.278201 0.7112656
2.2205036 1.7195554 -4.1065297 -0.06928225 -2.324197 -2.5255666 -2.6436312 -2.3129408
-2.8210366 -3.163477 1.7737179 3.1887507 -2.4720416 -0.28349987 -0.4914357 -4.1380215
1.0804737 -0.36342037 -2.0057468 3.007149 -1.7119589 -0.0063291043 -1.843441 -0.39063898
3.9843397 -4.394803 -2.7199898 -6.51391 -4.4083743 -2.8943334 -0.98200905 -2.0751138
-0.9792285 -3.1206653 -1.1259547 -0.6641294 -0.050487928 -2.0010393 -4.7120743 -3.9491963
-0.92177325 -1.0795594 -0.80781955 0.5031302 -1.2316637 2.6885514 4.086537 -3.418909
2.8702872 0.24969287 -3.6149669 -3.728971 -4.4568954 1.471879 -1.677357 -2.3748937
0.45709318 -2.4026697 2.0836835 0.5159625 -1.3713048 1.601499 -1.5507017 0.60909116
2.6614618 1.1184667 2.7991564 2.4880588 0.5666153 2.347863 3.5828245 -1.175431
1.147005 1.6512699 -2.8089914 0.6823415 -3.2543604 -3.144962 3.5038095 0.6389198
-2.2918754 3.0685856 3.8209505 1.0454723 3.306809 -3.4702082 -2.7029355 -1.3934467
2.4918733 -2.7560623 -1.1130308 -2.6954243 1.6364291 -3.8491824 -4.953128 2.016841
3.983524 0.9450291 -1.3396894 1.9913995 0.2845691 3.259128 -2.235854 0.24970229
-1.3251959 3.2387555 -2.0592992 0.6374429 1.0028924 -0.15288544 -3.8483 -1.9670193
2.6335936 -0.9429265 -0.99082035 -2.1584516 1.4172016 -2.9610984 -1.9318887 -4.147939
-3.2979937 -2.7010844 -2.0004709 1.1059507 -7.2459393 2.2023816 1.8972563 -0.5341273
-3.5962968 -2.0602856 -3.3481398 3.0320604 3.0597198 0.17006677 3.319188 -2.6170828
0.9271443 -1.6903778 -1.6817797 -3.1675324 -5.1633277 -1.3338337 -3.658249 -1.9690489
-3.0990214 1.9452214 -4.970825 -1.2893286 -1.3093722 0.8880669 0.33709782 1.8551753
-1.9261165 -3.1306312 1.9680718 -4.200773 -2.4805484 2.1386025 2.3717916 -2.82503
00000000: c9dc c6c0 80e1 c53e 1367 7cc0 9dda 12c0
00000010: c621 54c0 0bd4 9640 3b51 5fc0 8725 95bd
00000020: 893e 08c0 f828 89c0 4423 f63f 047a dabd
00000030: cdf3 7fc0 a820 84c0 a51f 02c0 4770 f4bf
00000040: b482 66c0 f6b8 0c3f 5f61 8dc0 3900 e83f
00000050: 2931 edbf 167d 6140 d90f 5040 b134 54c0
00000060: 6793 fdbe 243c 1740 418b 5fc0 3f33 45c0
00000070: f65e 0dbf 2ae5 ad40 e0ee f0be 944e 5d3e
00000080: 0fba 0140 f5f7 cbbd 064b 30c0 b020 d6bf
00000090: 202b d7be 6234 14c0 9027 b9bf ef70 ff3f
000000a0: 6c03 2b40 8bf7 2fc0 fb94 ddbf 846e 6fc0
000000b0: 12f6 5a40 3a6e fa3d 25de ffbd 3650 4ac0
000000c0: 1821 e23e 7698 3840 2909 6fc0 8093 6dc0
000000d0: 8e79 4c3e 2bfa df3f 7f85 4fc0 96e8 983f
000000e0: ccfa 29c0 cf7e 533f fc12 6d40 ed31 3f3f
000000f0: 1d1b 2bc0 6da5 39c0 67f0 3f40 99a2 1fc0
00000100: f9f5 eebf b7c3 4040 7526 3ac0 8b68 2540
00000110: 2745 ef3f 313c f1bf 709b 5740 c507 b9c0
00000120: 8985 afbf aed8 27c0 7653 1abf 4656 623f
00000130: 36ae 82c0 b558 a3bf 70e6 34c0 c5d7 6dc0
00000140: d97f d5c0 a0b4 22c0 f76a 24c0 4a4c e5bf
00000150: e70e 873f 096c 9ebf 1aa0 4340 ca94 51c0
00000160: 0bfa f53f 5017 0ac0 534d 4840 82b2 793d
00000170: 8ae1 0740 11ec de3f 179c a3bf 8115 363f
00000180: bb1c 0e40 641a dc3f b168 83c0 dae3 8dbd
00000190: a5bf 14c0 e2a2 21c0 4131 29c0 3907 14c0
000001a0: dd8b 34c0 6876 4ac0 3009 e33f 7e14 4c40
000001b0: ee35 1ec0 e526 91be 769d fbbe ac6a 84c0
000001c0: f64c 8a3f 3c12 babe 285e 00c0 2175 4040
000001d0: 7821 dbbf 6064 cfbb e0f5 ebbf d501 c8be
000001e0: 6cff 7e40 3aa2 8cc0 5014 2ec0 f371 d0c0
000001f0: 6711 8dc0 c23c 39c0 f264 7bbf aace 04c0
00000200: b8ae 7abf fbb8 47c0 491f 90bf 6204 2abf
00000210: 6ecc 4ebd 0711 00c0 50c9 96c0 a2bf 7cc0
00000220: 55f9 6bbf 012f 8abf 43cd 4ebf 24cd 003f
00000230: 28a7 9dbf 3a11 2c40 e9c4 8240 68cf 5ac0
00000240: c9b2 3740 7daf 7f3e 9e5b 67c0 76a7 6ec0
00000250: e39e 8ec0 8866 bc3f a2b3 d6bf 42fe 17c0
00000260: 1e08 ea3e 57c5 19c0 125b 0540 1e16 043f
00000270: ea86 afbf ebfd cc3f 657d c6bf 66ed 1b3f
00000280: 6455 2a40 eb29 8f3f 6125 3340 5b3c 1f40
00000290: b30d 113f 6343 1640 ff4c 6540 8674 96bf
000002a0: 0fd1 923f d05c d33f 84c6 33c0 efad 2e3f
000002b0: 7147 50c0 0f47 49c0 6a3e 6040 3f90 233f
000002c0: 16ae 12c0 b563 4440 748a 7440 09d2 853f
000002d0: c2a2 5340 e417 5ec0 e5fc 2cc0 765c b2bf
000002e0: da7a 1f40 5363 30c0 cb77 8ebf d581 2cc0
000002f0: 8276 d13f 0159 76c0 0680 9ec0 ec13 0140
00000300: 0ff2 7e40 6ded 713f f17a abbf 2ee6 fe3f
00000310: 0bb3 913e 8e95 5040 3b18 0fc0 f5b1 7f3e
00000320: 05a0 a9bf c547 4f40 8fcb 03c0 752f 233f
00000330: c75e 803f 008e 1cbe 8c4a 76c0 4ac7 fbbf
00000340: cc8c 2840 a263 71bf 67a6 7dbf 1224 0ac0
00000350: dd66 b53f a382 3dc0 2148 f7bf ebbb 84c0
00000360: 5412 53c0 91de 2cc0 b707 00c0 cb8f 8d3f
00000370: bcde e7c0 d2f3 0c40 4bd9 f23f 91bc 08bf
00000380: ba29 66c0 b8db 03c0 ec47 56c0 470d 4240
00000390: 73d2 4340 fc25 2e3e 946d 5440 497e 27c0
000003a0: 5459 6d3f 4d5e d8bf 8f44 d7bf dab8 4ac0
000003b0: fb39 a5c0 10bb aabf c020 6ac0 cb09 fcbf
000003c0: 5e56 46c0 04fd f83f 0011 9fc0 b808 a5bf
000003d0: 8299 a7bf 5a58 633f 1698 ac3e 6276 ed3f
000003e0: fc8a f6bf 435c 48c0 c7e9 fb3f bb6c 86c0
000003f0: 4ec1 1ec0 ddde 0840 6fcb 1740 4bcd 34c0

weight f4 [128, 256]
0.25233 0.07634241 0.8483578 -0.4003632 -0.5576008 0.047043502 0.5654001 0.024956837
-1.5154454 -0.16507123 0.1063553 0.24517395 0.3012982 -0.14252512 0.23360646 0.2713147
-0.38037115 0.7988011 0.027303522 -0.011708654 0.8382734 0.05617171 -0.24209 0.362481
-0.025603047 -1.0530257 0.47657266 0.038728263 -1.5372183 -0.04374034 -1.0631722 0.28789335
-0.07572262 -3.23392 0.95407516 0.76987505 -0.52121043 0.25186047 -1.6974018 -1.9987504
0.38407078 -0.8921395 -2.3260033 0.43503752 -0.50343204 -0.070002764 0.056707207 3.5323176
-0.3534997 -1.1672534 0.25778148 -1.6649792 -0.21427563 -0.0026201308 0.34088928 -0.05795203
0.5661081 -3.2936115 -2.9255443 -0.5693608 0.24275263 -0.4121976 -0.1456543 0.57881963
-0.9846107 -1.8253331 0.5967847 0.29495546 -0.075442076 0.19887742 -0.23968029 -0.30821458
-1.4827265 0.35972512 0.23071836 0.07903377 -1.0256745 0.08849739 -1.0833315 -0.6767603
0.4233947 0.17326492 -0.7475642 0.82818747 -0.624579 0.13382886 -1.2765722 0.008843388
0.19523408 -0.011106175 0.13323037 -3.9871385 0.080788836 -2.135193 0.05473098 -2.7372122
-3.1701412 0.081925675 0.5973014 0.43751627 0.24447834 0.14553457 0.31663233 0.6836468
0.09681375 -1.4514772 -1.346188 -0.1947013 0.68351334 -0.055836294 -0.105994925 0.12605087
-1.9267509 0.055679042 0.20739347 -0.049902502 -0.37453282 -0.65949684 -1.3013947 0.2856911
-2.9164672 -0.369539 0.21962057 0.40962654 -0.7496442 0.3733577 -0.06201624 0.4017243
0.5170196 -1.0356292 -1.128227 -0.0028323936 0.029165655 -0.6622955 -0.08131941 -1.3341751
-3.6726723 0.1518701 -0.9797623 -0.68548214 0.07233511 -0.16381437 -0.06648211 0.15498373
-2.1775076 -1.0638574 -1.5236009 0.02733909 0.05191799 -0.18889703 -0.27986923 -0.0831901
-1.1236507 0.679517 -3.3121452 -0.0064109764 0.60199994 -1.7755506 -0.23219334 -0.019706756
-2.365936 -1.0996006 -2.2879682 -0.15399466 -1.299796 -3.2373698 -2.1623206 -1.0378779
-3.7418535 -0.23863499 0.13516551 -0.052546866 0.50825626 -1.4042546 -1.6034002 0.062488705
0.77709264 -0.060503174 -2.4486144 0.522547 -0.59093547 -1.5915382 -1.551154 0.057092115
-0.7606181 1.295542 -1.0453582 0.42447138 -1.4332842 0.030489191 2.488847 -0.32020438
0.09606747 -2.562839 0.80680543 -1.6012295 0.12064817 0.26690152 0.37222064 -0.20463505
0.4823325 -2.3640406 0.06303498 0.1966556 -5.5373178 -1.4235184 0.40195715 -0.07485763
-1.1065875 -1.9607784 0.11615168 -0.2216855 -0.1582884 0.42557308 0.053024866 0.08695073
-0.8490452 0.1741015 -0.59662277 -3.7585998 -0.24684487 -0.08422394 0.36117774 -1.2125794
1.6117524 -0.74775034 0.4520225 -0.22331889 -0.9955888 0.10389504 -0.01685366 -0.22339375
0.07221584 -0.23470145 0.7362864 0.12602104 0.030538067 0.27935505 0.04221526 -0.017437808
0.94194597 0.11088511 -0.32023922 -0.6577198 -0.64385265 0.009893201 -0.05522907 -0.20057972
0.530162 -0.02044773 -3.521088 -0.36805275 -4.85801 -0.07090407 0.11542641 -0.46923044
00000000: 6631 813e 6959 9c3d fa2d 593f 68fc ccbe
00000010: edbe 0ebf b0b0 403d 10be 103f 4872 cc3c
00000020: 1dfa c1bf 6f08 29be cfd0 d93d e10e 7b3e
00000030: c243 9a3e 1bf2 11be 8836 6f3e c3e9 8a3e
00000040: 02c0 c2be 3b7e 4c3f a3ab df3c a8d5 3fbc
00000050: 1699 563f 4f14 663d 71e6 77be 1c97 b93e
00000060: 7bbd d1bc 8cc9 86bf 5501 f43e 87a1 1e3d
00000070: 92c3 c4bf 1229 33bd 0716 88bf c266 933e
00000080: 7614 9bbd 8cf8 4ec0 453e 743f 8816 453f
00000090: 0c6e 05bf dbf3 803e 7644 d9bf 0ed7 ffbf
000000a0: eda4 c43e 4163 64bf 3ddd 14c0 3dbd de3e
000000b0: ece0 00bf 9c5d 8fbd d145 683d 7e11 6240
000000c0: eafd b4be 8f68 95bf effb 833e 0a1e d5bf
000000d0: 126b 5bbe 80b6 2bbb 0a89 ae3e 1c5f 6dbd
000000e0: 76ec 103f 88ca 52c0 1e3c 3bc0 a1c1 11bf
000000f0: 2594 783e 900b d3be 6726 15be 862d 143f
00000100: 720f 7cbf 84a4 e9bf e2c6 183f 6704 973e
00000110: 6081 9abd 86a6 4b3e c06e 75be 4dce 9dbe
00000120: fbc9 bdbf e42d b83e 6f41 6c3e 75dc a13d
00000130: 4d49 83bf 1f3e b53d 9baa 8abf 2a40 2dbf
00000140: 31c7 d83e 5c6c 313e 5e60 3fbf 1804 543f
00000150: 69e4 1fbf 6f0a 093e b866 a3bf dce3 103c
00000160: 71eb 473e adf6 35bc 8b6d 083e 472d 7fc0
00000170: 9e74 a53d 01a7 08c0 982d 603d 7c2e 2fc0
00000180: 98e3 4ac0 a6c8 a73d bfe8 183f 2202 e03e
00000190: 8858 7a3e 0407 153e a21d a23e 7a03 2f3f
000001a0: 4a46 c63d 01ca b9bf e34f acbf c75f 47be
000001b0: bbfa 2e3f 99b4 64bd de13 d9bd 7b13 013e
000001c0: c69f f6bf b50f 643d f45e 543e 9166 4cbd
000001d0: c4c2 bfbe c9d4 28bf 1a94 a6bf 1b46 923e
000001e0: 66a7 3ac0 3734 bdbe 37e4 603e 92ba d13e
000001f0: afe8 3fbf be28 bf3e be04 7ebd cfae cd3e
00000200: 665b 043f 7f8f 84bf be69 90bf ae9f 39bb
00000210: d0ec ee3c 338c 29bf ca8a a6bd 40c6 aabf
00000220: 100d 6bc0 d683 1b3e b4d1 7abf c27b 2fbf
00000230: 6e24 943d f4be 27be c627 88bd 0eb4 1e3e
00000240: 495c 0bc0 7b2c 88bf 5b05 c3bf 3af6 df3c
00000250: f5a7 543d 396e 41be 054b 8fbe 925f aabd
00000260: c9d3 8fbf d3f4 2d3f 30fa 53c0 2b13 d2bb
00000270: ab1c 1a3f 3e45 e3bf 17c4 6dbe 1070 a1bc
00000280: 7f6b 17c0 b6bf 8cbf 126e 12c0 c7b0 1dbe
00000290: b75f a6bf 1131 4fc0 7663 0ac0 2fd9 84bf
000002a0: 877a 6fc0 bb5c 74be d468 0a3e 623b 57bd
000002b0: 151d 023f 9dbe b3bf 383c cdbf 28f4 7f3d
000002c0: 8bef 463f 2dd2 77bd 19b6 1cc0 a4c5 053f
000002d0: 8c47 17bf 86b7 cbbf 378c c6bf 6cd9 693d
000002e0: deb7 42bf 52d4 a53f 4cce 85bf 5054 d93e
000002f0: db75 b7bf 78c4 f93c 4549 1f40 d4f1 a3be
00000300: 06bf c43d 8e05 24c0 cd8a 4e3f 17f5 ccbf
00000310: 6316 f73d 51a7 883e b493 be3e da8b 51be
00000320: 49f4 f63e 714c 17c0 7c18 813d 1660 493e
00000330: b531 b1c0 da35 b6bf 54cd cd3e f54e 99bd
00000340: a9a4 8dbf c9fa fabf efe0 ed3d 8601 63be
00000350: 5b16 22be b7e4 d93e 9a30 593d 3913 b23d
00000360: 075b 59bf aa47 323e 45bc 18bf e68c 70c0
00000370: e7c4 7cbe 9a7d acbd 4aec b83e cd35 9bbf
00000380: e74d ce3f 916c 3fbf 7e6f e73e b5ad 64be
00000390: e8de 7ebf ecc6 d43d b010 8abc 55c1 64be
000003a0: e6e5 933d 9455 70be 447d 3c3f a90b 013e
000003b0: f82a fa3c a007 8f3e e9e9 2c3d bcd9 8ebc
000003c0: 5f23 713f bc17 e33d 65f6 a3be 5360 28bf
000003d0: 87d3 24bf 1817 223c e137 62bd c564 4dbe
000003e0: b2b8 073f ff81 a7bc 8159 61c0 6971 bcbe
000003f0: d174 9bc0 2736 91bd af64 ec3d f93e f0be

bias f4 [128]
-0.2076484 0.009704975 -0.035560813 -0.035903446 -0.06426509 1.0984663 -0.04057059 -0.69763076
-0.06311555 2.8866727 0.015962075 -0.8841518 -0.06647151 -0.0026813166 -1.0651637 -2.5771563
-0.05128932 -0.045664515 -0.009621286 -0.64778495 -0.22931793 0.025182683 0.0018184773 0.005749778
-0.00037261713 -0.38628882 -0.58983296 0.9251862 -0.06261736 0.09352612 0.029297216 0.033292834
-0.2325849 1.2768588 -0.28087136 -0.04405495 0.017511996 -0.06614632 0.90262973 -0.8876021
-0.033469476 0.0034993927 0.006504808 -0.19757305 -1.0555758 0.0026157137 -0.8551311 -0.07655153
1.7960726 -0.08794563 0.037033442 -0.06010165 -0.06886455 -0.7756432 -0.56706744 -0.06535012
-0.028565807 -0.055230293 0.042139463 -0.039904967 -0.7552055 -0.03617704 -0.05977666 -0.07377738
0.0030756777 -0.09952125 -0.43133676 0.0019654122 -0.02336808 0.004367654 0.032568146 -0.35367846
-0.062375043 0.029845145 -0.031116268 0.43851057 -0.078021035 -0.6535569 0.027455304 -0.91894567
3.4937482 -0.06927568 0.7136053 -0.0050622676 -0.15461975 -0.1864931 -0.8745344 -1.2333653
-0.20019133 -0.022210853 -0.048316743 -0.70066535 -0.33181834 -0.055348605 -3.0449374 -1.1307366
0.042727176 2.2910635 0.31221634 -0.71843404 -0.93125504 -1.1426082 -0.48012453 -0.07789148
-0.04639017 -0.023166269 -0.0120306965 -0.23185621 -0.048270646 -0.15009767 -0.011409771 0.022532191
-0.0021658568 -1.0887481 0.011058853 -1.0950233 -0.0036206665 -0.04214102 0.4460254 0.005259945
0.46541554 -0.021467675 -0.9721741 -0.2793336 -0.76580596 -0.045371592 -0.055055104 8.914483e-05
00000000: c8a1 54be 9e01 1f3c 37a8 11bd 7e0f 13bd
00000010: 6a9d 83bd 8b9a 8c3f 592d 26bd ee97 32bf
00000020: ba42 81bd 3fbf 3840 e6c2 823c c657 62bf
00000030: 3722 88bd 07b9 2fbb 4957 88bf 21f0 24c0
00000040: c014 52bd b70a 3bbd 99a2 1dbc 3cd5 25bf
00000050: 52d2 6abe ea4b ce3c f959 ee3a a268 bc3b
00000060: d35b c3b9 a6c7 c5be 4bff 16bf 01d9 6c3f
00000070: 883d 80bd 9f8a bf3d b700 f03c 115e 083d
00000080: bc2a 6ebe 1c70 a33f 5fce 8fbe f772 34bd
00000090: 5175 8f3c b977 87bd be12 673f e439 63bf
000000a0: 4a17 09bd 1156 653b 4926 d53b 9750 4abe
000000b0: 1c1d 87bf 656c 2b3b dfe9 5abf 0cc7 9cbd
000000c0: b5e5 e53f d71c b4bd 61b0 173d 262d 76bd
000000d0: db08 8dbd 8e90 46bf 552b 11bf 49d6 85bd
000000e0: d702 eabc 2939 62bd 6e9a 2c3d 6473 23bd
000000f0: 2655 41bf 602e 14bd 5fd8 74bd 9818 97bd
00000100: 4f91 493b ccd1 cbbd 2cd8 dcbe 25ce 003b
00000110: 6a6e bfbc 8a1e 8f3b 2d66 053d 5815 b5be
00000120: f97c 7fbd ce7d f43c 8be7 febc 7584 e03e
00000130: 7ec9 9fbd 814f 27bf f2e9 e03c 0640 6bbf
00000140: 9299 5f40 68e0 8dbd d6ae 363f 61e1 a5bb
00000150: a454 1ebe 0cf8 3ebe 7de1 5fbf eade 9dbf
00000160: f5fe 4cbe 89f3 b5bc c7e7 45bd ce5e 33bf
00000170: 18e4 a9be 38b5 62bd 41e0 42c0 fabb 90bf
00000180: b102 2f3d c9a0 1240 d2da 9f3e 4beb 37bf
00000190: bb66 6ebf fc40 92bf e2d2 f5be 9185 9fbd
000001a0: 9e03 3ebd 30c7 bdbc 661c 45bc b76b 6dbe
000001b0: 71b7 45bd 34b3 19be 0cf0 3abc 6e95 b83c
000001c0: 0cf1 0dbb 195c 8bbf 3130 353c b929 8cbf
000001d0: b448 6dbb 109c 2cbd 715d e43e 9e5b ac3b
000001e0: f24a ee3e fadc afbc 67e0 78bf d004 8fbe
000001f0: dc0b 44bf 90d7 39bd 7681 61bd 44f3 ba38

weight f4 [2, 128]
0.12612316 -0.023087887 -0.020066028 0.034490857 -0.042918075 0.98824424 -0.028962191 -0.4634361
-0.02813363 -3.350471 -0.059519358 0.17980745 0.041009802 0.04524242 -2.7026455 7.2593985
0.040701017 -0.021481406 0.054882273 0.052179918 0.18457958 0.049811557 0.036488984 -0.042554572
0.014784223 -0.7013736 -0.07124627 5.0672913 0.03187277 -0.19963299 -0.008127338 0.06333625
0.12903489 -1.7594439 0.0703989 0.005483218 -0.042920064 -0.07774228 2.114888 -1.4928918
0.056619357 -0.0015173169 0.007874011 -0.69668853 -5.111284 1.7821348 -5.418688 0.04400008
1.330985 2.0765018 -0.060739752 0.07224586 0.044467095 -6.5374775 -3.0604544 -0.0006347371
-0.0851974 -0.076372445 0.0014208585 0.049210727 -1.0238361 0.020795576 -0.02620723 0.055044204
-0.040511273 -0.6992622 1.3877053 -0.0012992762 -0.036603026 0.055217784 -0.05909587 0.05316936
0.024554085 0.063818224 0.04381768 0.39047134 -0.060822345 -1.2863741 -0.051775232 -1.503761
-0.35971922 0.04447576 1.4066807 0.06628921 0.036120597 -0.70037913 -0.6982046 -2.3174844
-0.1844104 -0.060551956 0.055718396 -1.7463149 3.47611 -0.04935528 1.1098326 -1.1215508
-0.072703324 -2.7577894 0.032735083 -0.0054804184 -1.6659907 1.0404544 1.2093604 0.040253807
0.06434099 -0.0091977 -0.009747595 0.13457921 -0.026834812 -0.8824407 -0.054447185 0.040443413
-0.029141875 -1.2478076 -0.018562887 -1.8268793 0.011648822 -0.08087001 -0.022192415 0.007837097
1.3684232 -0.061780628 -4.483392 0.021968914 -1.3076535 0.060462527 0.042721603 -0.0082626995
-1.5882123 0.021567676 0.047887616 0.034318965 0.05364397 -1.0427166 0.05695895 -1.3542001
0.012178943 -0.5653863 0.021865992 -1.0221727 -0.056475844 -0.035490245 0.61652464 2.8664541
0.050380714 0.03311728 -0.015137398 -0.03739482 -1.6094195 -0.044857603 0.006941117 0.045338456
-0.018457485 -0.8632568 -2.7671003 0.19891353 0.0145560345 -2.8519018 -0.010207218 0.066376306
-1.5233297 0.12876226 -1.6511015 0.03400361 -0.000571486 0.027992418 0.26728594 0.29309243
-0.018216413 0.042924043 0.015070632 -0.22294588 -3.3235416 3.1855125 0.13114965 0.01089796
0.78825575 1.6556805 0.012023583 0.009624033 0.0022515433 -0.74642247 -0.010504649 0.003142163
0.044550896 0.046841152 0.004035961 0.068521254 1.7791122 0.012839114 0.025598485 -0.006984224
0.027183289 -0.20458207 0.13126287 0.03160791 0.066432096 -0.030309213 0.011722688 -1.6178643
0.0533846 -0.040516105 0.048202083 2.1173291 0.02385463 0.20127735 0.07269692 0.055570006
-3.5067587 -0.02478898 -0.7559787 0.009206401 -1.5409346 -0.14341772 0.20572135 -0.78125036
-1.6191865 0.043765552 -0.063929535 0.09241388 0.053061374 0.047399733 4.504132 -4.4344025
0.06588756 -1.2912886 3.677472 -1.4484851 0.45702976 -7.6142855 1.2419653 0.064600654
-0.004996827 0.039317284 0.06526972 -1.6548039 0.068499 -0.14050144 -0.007894803 0.07179286
0.035208654 -0.12770382 0.07570138 0.12860529 0.016513648 0.06064462 2.0438986 0.03995095
1.539393 0.05181646 0.5100925 -1.5861607 0.18126322 0.030380942 -0.012412891 0.006701857
00000000: 6e26 013e cf22 bdbc 8361 a4bc 4946 0d3d
00000010: ddca 2fbd 93fd 7c3f 1e42 edbc 7f47 edbe
00000020: 8078 e6bc 1e6e 56c0 92ca 73bd 721f 383e
00000030: e5f9 273d 1e50 393d 25f8 2cc0 fe4c e840
00000040: 1cb6 263d c6f9 afbc 3ccc 603d 9cba 553d
00000050: 6e02 3d3e 3407 4c3d 7975 153d b44d 2ebd
00000060: 8739 723c 388d 33bf 90e9 91bd 4027 a240
00000070: 068d 023d 976c 4cbe 8728 05bc 70b6 813d
00000080: b921 043e 7535 e1bf 4c2d 903d 91ac b33b
00000090: f3cc 2fbd 5837 9fbd 535a 0740 1417 bfbf
000000a0: b3e9 673d b5e0 c6ba ff01 013c 2e5a 32bf
000000b0: a38f a3c0 fe1c e43f e465 adc0 6e39 343d
000000c0: b75d aa3f 68e5 0440 3fca 78bd a3f5 933d
000000d0: 2123 363d 0433 d1c0 7cde 43c0 7c64 26ba
000000e0: f97b aebd 2869 9cbd 1a3c ba3a 3091 493d
000000f0: 100d 83bf 7c5b aa3c 8bb0 d6bc 0876 613d
00000100: 26ef 25bd d902 33bf 54a0 b13f 7a4c aaba
00000110: 0eed 15bd 0b2c 623d 830e 72bd 1dc8 593d
00000120: a625 c93c 21b3 823d 2b7a 333d dceb c73e
00000130: da20 79bd e8a7 a4bf 4412 54bd 3e7b c0bf
00000140: 1e2d b8be 372c 363d 1d0e b43f a3c2 873d
00000150: 31f3 133d 0c4c 33bf 89bd 32bf aa51 14c0
00000160: 14d6 3cbe 5405 78bd f938 643d 3f87 dfbf
00000170: 9678 5e40 c328 4abd ff0e 8e3f fa8e 8fbf
00000180: 7be5 94bd 9f7f 30c0 3915 063d 1595 b3bb
00000190: 2f3f d5bf 9c2d 853f 52cc 9a3f 2de1 243d
000001a0: 35c5 833d f3b1 16bc 60b4 1fbc 22cf 093e
000001b0: aed4 dbbc a2e7 61bf 0304 5fbd fea7 253d
000001c0: f1ba eebc 29b8 9fbf 3211 98bc 2ed7 e9bf
000001d0: b3da 3e3c 2d9f a5bd decc b5bc 2b67 003c
000001e0: 7e28 af3f af0d 7dbd f277 8fc0 27f8 b33c
000001f0: 3161 a7bf 8ea7 773d d9fc 2e3d 4660 07bc
00000200: 8a4a cbbf b2ae b03c ce25 443d 0b92 0c3d
00000210: c8b9 5b3d bd77 85bf ca4d 693d 6e56 adbf
00000220: 308a 473c 28bd 10bf 4f20 b33c 8ed6 82bf
00000230: 3753 67bd 385e 11bd 8fd4 1d3f fc73 3740
00000240: 025c 4e3d fca5 073d d902 78bc 502b 19bd
00000250: 7501 cebf 9bbc 37bd 4f72 e33b d1b4 393d
00000260: 2734 97bc 66fe 5cbf 2c18 31c0 fdaf 4b3e
00000270: 6f7c 6e3c 8f85 36c0 2d3c 27bc 4df0 873d
00000280: 78fc c2bf 41da 033e 4b57 d3bf 5f47 0b3d
00000290: c7cf 15ba 5b50 e53c b4d9 883e 3610 963e
000002a0: 963a 95bc 1fd1 2f3d d0ea 763c ed4b 64be
000002b0: e8b4 54c0 70df 4b40 184c 063e 5b8d 323c
000002c0: 21cb 493f 57ed d33f 90fe 443c 1fae 1d3c
000002d0: a18e 133b 8b15 3fbf b11b 2cbc bfec 4d3b
000002e0: 007b 363d 82dc 3f3d 1840 843b df54 8c3d
000002f0: f3b9 e33f 265b 523c eab3 d13c ebdb e4bb
00000300: 7daf de3c f67d 51be c669 063e 4c77 013d
00000310: 8d0d 883d 074b f8bc 8410 403c 2d16 cfbf
00000320: cfa9 5a3d 37f4 25bd 8c6f 453d 5282 0740
00000330: c96a c33c a61b 4e3e 1fe2 943d 609d 633d
00000340: bc6e 60c0 4212 cbbc d287 41bf 72d6 163c
00000350: 583d c5bf 18dc 12be 9ea8 523e 0600 48bf
00000360: 8141 cfbf 8243 333d 7ded 82bd 7d43 bd3d
00000370: e256 593d 3926 423d d921 9040 a0e6 8dc0
00000380: 0ff0 863d f248 a5bf b45b 6b40 f667 b9bf
00000390: ceff e93e 3aa8 f3c0 b8f8 9e3f 594d 843d
000003a0: 6cbc a3bb 290b 213d 22ac 853d 9dd0 d3bf
000003b0: 3449 8c3d 9cdf 0fbe 3459 01bc 2308 933d
000003c0: f336 103d cac4 02be 5309 9b3d 1bb1 033e
000003d0: a147 873c 7e66 783d 3ccf 0240 9ba3 233d
000003e0: d40a c53f 7f3d 543d 6c95 023f 5007 cbbf
000003f0: 119d 393e 74e1 f83c 705f 4bbc 409b db3b

bias f4 [2]
-0.687298 1.4449551
00000000: c3f2 2fbf 4af4 b83f
