saved_models/run20/model_3000.pth (torch, 141798 bytes, 6 tensors)

weight f4 [256, 4]
-0.016891493 0.05902639 1.7171098 0.15823886 2.0168395 0.7863007 -1.4460083 -0.19180201
-0.08431067 -0.64351 1.046974 0.049903203 0.291292 1.0274299 -0.7505644 -0.0481866
0.02315739 -0.28303084 1.1065041 -0.17863362 -0.21200027 1.265255 -0.1840704 -0.5762413
2.65575 0.09808301 -0.71526617 0.04218427 -0.03130415 -0.12929212 -4.0773406 -0.44456977
-1.4359859 0.35477751 0.58557236 -0.1700154 -0.030983185 0.13460496 1.4267383 -0.17176038
-0.035960536 -1.2581354 0.07015357 1.4605101 -0.39300206 -0.5928424 -2.3161607 -0.32899243
-0.12584627 0.32578132 -1.4348 -0.59440315 0.1285758 0.369338 1.940434 -0.35018435
-1.8194616 -0.16564551 -1.1451108 -0.12605955 -0.56061107 0.011462899 -0.07388949 0.0059225326
-0.06317649 0.76681316 0.082452 -0.15084197 0.040170684 0.013151956 -5.1291676 -0.47267324
0.14193845 0.33583507 1.4397086 -0.36128175 2.1497004 -0.512769 0.7341607 0.16064014
0.090573035 0.7497398 -1.1161541 -0.11257044 0.030178806 0.044062722 -1.8847649 -0.04388904
-0.08892633 -0.46012586 0.1026431 0.37165505 -2.4251404 -0.14045684 -1.5866336 -0.0646672
0.06706253 -1.3266052 -1.1803255 0.26757896 0.14026318 -1.1922258 -0.11715726 0.2375184
-2.2522097 -0.08524764 -0.97165865 0.12607205 1.9102478 0.2352895 -1.0471966 0.11568593
0.026133083 -1.3996553 -1.5796528 0.97681296 -0.061785676 -0.046034798 -1.0388889 -0.12169259
-0.023729388 -0.15332541 -4.390711 -0.51429546 0.3725745 -0.98615146 0.052374773 0.3154037
-0.09530628 -0.6470231 -2.0848835 0.050351597 -0.0069253985 -0.5573298 -0.5923361 -0.29942784
-2.4853415 -0.15570496 -1.4142644 0.08410216 -0.02436379 -0.027755331 -4.578935 -0.58273315
0.043993685 -0.5722702 -5.2750425 0.8090679 -0.2015542 -0.3815496 0.80472964 -0.62698466
-0.0052796854 1.6696414 -1.974791 -0.07713793 -0.0467549 -0.010269427 -2.597809 -0.06922963
-0.029982608 0.23676527 -1.6132636 -0.31090632 -0.59550446 0.00093312707 -2.2531776 0.06077092
-2.7573478 0.46655485 -0.80818623 -0.19381739 0.09275528 0.29282546 0.8781578 0.1873145
-0.28590125 0.18176654 -2.6197114 -0.21301012 0.019769022 0.3325184 -0.39652944 -0.1608578
1.4725188 0.409017 -0.15176801 -0.29562953 0.11984154 -0.20481355 -0.70926297 0.6996862
0.072513916 -0.4907085 -1.1464475 -0.5455186 0.0011996414 -0.16334432 -1.5086713 0.17050482
0.34617642 0.5087238 1.5252851 -0.4468106 -0.04609557 -0.45400992 1.2970364 0.09178636
0.009474284 0.5188398 0.109689295 -0.565638 0.13760932 -0.46205255 -1.5155818 -0.18297455
-2.0305552 -0.7347846 -1.412079 0.16716428 -0.17045282 0.5569621 0.08904152 0.68168813
-0.39382574 0.4214885 0.14816667 -0.5712049 -0.14306097 1.12097 -2.518542 0.09406277
0.067108564 0.018197156 -0.77216536 -0.2848355 0.09017361 -0.07647248 -1.9558619 -0.20769544
2.5428758 -0.6501422 0.5005701 -0.008326352 0.39744845 0.0107349465 1.0410568 -0.8848453
-0.30193675 1.2235137 0.5120308 -0.069597535 0.13333218 -0.07620166 -4.2022243 -0.69274896
00000000: 0760 8abc a8c5 713d 41ca db3f 5e09 223e
00000010: e613 0140 014b 493f cd16 b9bf bf67 44be
00000020: 13ab acbd 12bd 24bf 3e03 863f 4d67 4c3d
00000030: 3a24 953e d382 833f fd24 40bf 505f 45bd
00000040: 91b4 bd3c 6be9 90be eda1 8d3f bbeb 36be
00000050: 9916 59be e0f3 a13f f37c 3cbe 8d84 13bf
00000060: cff7 2940 bfdf c83d af1b 37bf 6ac9 2c3d
00000070: c838 00bd 2765 04be 9379 82c0 a69e e3be
00000080: 63ce b7bf 66a5 b53e 12e8 153f 8418 2ebe
00000090: 73d0 fdbc e2d5 093e 5c9f b63f f4e1 2fbe
000000a0: 5b4b 13bd 950a a1bf adac 8f3d fff1 ba3f
000000b0: 9137 c9be 85c4 17bf fa3b 14c0 b271 a8be
000000c0: d8dd 00be cfcc a63e 87a7 b7bf ce2a 18bf
000000d0: 60a9 033e df19 bd3e 2460 f83f 5d4b b3be
000000e0: 1ee4 e8bf fa9e 29be fe92 92bf c115 01be
000000f0: 3584 0fbf e2ce 3b3c 5f53 97bd ce11 c23b
00000100: ad62 81bd de4d 443f 98dc a83d 5176 1abe
00000110: 048a 243d 4d7b 573c 2422 a4c0 3a02 f2be
00000120: 5058 113e 93f2 ab3e 5f48 b83f ecf9 b8be
00000130: b194 0940 d444 03bf f5f1 3b3f d97e 243e
00000140: 5b7e b93d f3ee 3f3f 23de 8ebf 558b e6bd
00000150: 8b39 f73c 1d7b 343d fa3f f1bf fec4 33bd
00000160: 021f b6bd 9e95 ebbe 8c36 d23d 9249 be3e
00000170: 8035 1bc0 ebd3 0fbe cf16 cbbf 3d70 84bd
00000180: 1458 893d 33ce a9bf e814 97bf 1c00 893e
00000190: 27a1 0f3e db9a 98bf 25f0 efbd 0638 733e
000001a0: 3424 10c0 5196 aebd 9fbe 78bf 0819 013e
000001b0: 0083 f43f bbef 703e 8a0a 86bf bfec ec3d
000001c0: 0c15 d63c e827 b3bf 1032 cabf 6a10 7a3f
000001d0: fa12 7dbd fc8e 3cbd 50fa 84bf f739 f9bd
000001e0: 2264 c2bc 5601 1dbe b480 8cc0 dea8 03bf
000001f0: 16c2 be3e 6c74 7cbf ee86 563d 987c a13e
00000200: f02f c3bd 4ea3 25bf bb6e 05c0 7a3d 4e3d
00000210: 74ee e2bb 2aad 0ebf 57a3 17bf 9b4e 99be
00000220: d60f 1fc0 1f71 1fbe 9e06 b5bf c13d ac3d
00000230: 9296 c7bc 265f e3bc a386 92c0 002e 15bf
00000240: b932 343d 4d80 12bf 26cd a8c0 131f 4f3f
00000250: 3964 4ebe 785a c3be c302 4e3f 1182 20bf
00000260: 3601 adbb cfb6 d53f f4c5 fcbf 7efa 9dbd
00000270: 1182 3fbd 1941 28bc 8142 26c0 44c8 8dbd
00000280: 169e f5bc 9872 723e 6c7f cebf 1d2f 9fbe
00000290: fb72 18bf 199d 743a 1034 10c0 eeea 783d
000002a0: 6378 30c0 47e0 ee3e 4be5 4ebf 1178 46be
000002b0: 7bf6 bd3d 38ed 953e f3ce 603f 5fcf 3f3e
000002c0: a661 92be 0221 3a3e 5aa9 27c0 531f 5abe
000002d0: a5f2 a13c da3f aa3e e805 cbbe e8b7 24be
000002e0: 7f7b bc3f ad6a d13e 1369 1bbe c15c 97be
000002f0: 7b6f f53d a5ba 51be 4292 35bf a31e 333f
00000300: 2d82 943d 253e fbbe cbbe 92bf 1ba7 0bbf
00000310: 493d 9d3a bc43 27be 241c c1bf d198 2e3e
00000320: 093e b13e b93b 023f 8b3c c33f 5cc4 e4be
00000330: b5ce 3cbd fd73 e8be 4a05 a63f 7dfa bb3d
00000340: 073a 1b3c afd2 043f c8a4 e03d a7cd 10bf
00000350: 75e9 0c3e 2792 ecbe 96fe c1bf ae5d 3bbe
00000360: 9ef4 01c0 d81a 3cbf 01bf b4bf 1d2d 2b3e
00000370: 2f8b 2ebe 1195 0e3f 675b b63d 1d83 2e3f
00000380: 87a3 c9be 57cd d73e 01b9 173e 7c3a 12bf
00000390: 937e 12be f27b 8f3f cb2f 21c0 fba3 c03d
000003a0: 3770 893d 3412 953c a1ac 45bf f5d5 91be
000003b0: f1ac b83d 9b9d 9cbd af59 fabf 1dae 54be
000003c0: 7abe 2240 b86f 26bf 5d25 003f 406b 08bc
000003d0: 5d7e cb3e a1e1 2f3c 5941 853f 3985 62bf
000003e0: 7497 9abe 199c 9c3f 7314 033f 2789 8ebd
000003f0: 3b88 083e 9e0f 9cbd 9f78 86c0 ff57 31bf

bias f4 [256]
-8.098137 -0.2427525 -4.8887434 -2.8165827 -3.7880502 6.8675547 -5.5990467 -0.17029166
-1.7595904 -7.0278583 2.598564 -1.7986643 -5.7475014 -5.5942383 -4.262344 -1.9096764
-5.0171123 0.34432337 -5.5324807 1.6548737 -1.7842758 5.5547185 4.889935 -6.1530175
0.7576611 3.8827288 -5.766716 -3.7908247 -0.8408854 6.472504 -0.5244134 -1.0730163
3.507274 -1.4057047 -3.8454063 -2.5535638 2.6015446 -1.6556549 -0.548264 4.2808332
3.3194685 -2.7494838 -2.2644281 -5.2593126 4.9151945 -0.3720741 -1.0436704 -2.8601506
1.0147606 4.9093003 -4.5768323 -5.090477 0.49585664 2.757458 -3.1167152 4.5044365
-2.9645066 1.3110962 5.42141 0.41291168 -3.2526934 -2.3527782 4.245125 -2.970381
-1.1889763 4.7990456 -3.4938562 3.5480917 2.0732577 -1.8846494 4.7024508 -7.509644
-1.73164 -2.6226 -0.93571925 2.6735358 -6.812695 -2.4858203 -2.9817598 -4.9158854
-6.9758244 -2.9246564 -3.0570264 -0.9102279 3.2285185 -0.421283 5.0645432 -5.058707
2.639307 -1.4106541 3.0418587 -0.5732036 3.5004578 1.8374625 -1.4007893 2.011717
2.86823 1.6176153 -4.7034364 2.7722027 -1.9520873 -2.5255666 -3.4765477 -2.8543472
-3.3342342 -3.489618 1.4875873 3.8194911 -3.972846 -2.0295823 -0.52017474 -5.776326
1.1678405 -1.358037 -0.7056603 4.150299 -1.4332137 2.6576385 -2.39699 1.4247487
4.149687 -5.6920195 -3.5323768 -8.465173 -5.746679 -3.8413718 -0.18002385 -1.9939046
1.313739 -5.101989 0.44374537 -0.2526618 -0.12760495 -2.7012792 -6.456788 -3.3493056
-1.5161244 -0.99595666 -0.0020474053 2.224063 -1.2316637 3.7127929 6.3934717 -5.4156427
3.9051783 2.1661625 -4.0143995 -5.465745 -6.02346 1.8626281 -2.994441 -2.5432637
1.3939772 -3.5685542 3.8483796 1.1642033 -3.4113965 2.593967 -2.7512598 0.22554429
3.7253082 2.8531044 3.0346844 2.5296535 -0.08788019 2.8617558 5.2652545 0.012103576
0.586008 2.3474422 -4.6984076 0.027435409 -5.7277417 -3.7758949 4.241048 1.5965602
-3.0488334 4.427334 4.4122243 0.92240804 4.669765 -4.777293 -4.424682 -4.2995944
4.1997766 -4.9200635 -1.780781 -2.6746545 3.0795314 -4.5717063 -5.7816377 2.9462886
6.471715 1.8632112 -1.0658842 2.3819165 -0.5750029 3.1861813 -2.385832 0.018404821
2.5605881 3.0415716 -2.7005615 -0.107746445 0.7476717 1.0670712 -5.810564 -1.5915866
3.915049 -1.0495025 -1.5484595 -0.74852365 1.7906642 -5.1265945 -3.282333 -6.1582947
-5.8392987 -2.5225904 -3.6231632 1.2492615 -7.528344 3.3619478 5.025245 0.6556832
-4.6006618 1.0386636 -4.575576 4.2580214 4.8214383 1.0596675 3.0958588 -3.158064
0.8459953 -2.7166984 -1.4199617 -3.261533 -6.895198 -2.3341634 -5.5237784 -0.8891951
-3.1613853 2.0921996 -6.3395953 -1.5337044 -1.573969 0.910014 0.25272033 1.2995179
-2.125027 -4.058528 2.095365 -4.141529 -1.8850644 4.239184 3.8532283 -2.82503
00000000: f891 01c1 1d94 78be 9670 9cc0 e442 34c0
00000010: 6a6f 72c0 02c3 db40 642b b3c0 f060 2ebe
00000020: 423a e1bf 37e4 e0c0 df4e 2640 a23a e6bf
00000030: 88eb b7c0 0004 b3c0 1f65 88c0 4770 f4bf
00000040: 2f8c a0c0 274b b03e 150a b1c0 e7d2 d33f
00000050: 2663 e4bf 41c0 b140 597a 9c40 85e5 c4c0
00000060: 14f6 413f a17e 7840 f088 b8c0 df9c 72c0
00000070: 4444 57bf c11e cf40 f53f 06bf 9958 89bf
00000080: 2d77 6040 22ee b3bf 231b 76c0 976d 23c0
00000090: b57f 2640 80ec d3bf 085b 0cbf 96fc 8840
000000a0: 2c72 5440 8bf7 2fc0 64ec 10c0 4a4c a8c0
000000b0: 4649 9d40 7f80 bebe fe96 85bf b50c 37c0
000000c0: ade3 813f fd18 9d40 6975 92c0 30e5 a2c0
000000d0: ece0 fd3e 317a 3040 4378 47c0 5824 9040
000000e0: 7aba 3dc0 00d2 a73f 317c ad40 2969 d33e
000000f0: 212c 50c0 eb93 16c0 10d8 8740 b91a 3ec0
00000100: 6030 98bf c891 9940 579b 5fc0 ef13 6340
00000110: 41b0 0440 313c f1bf 7a7a 9640 014f f0c0
00000120: 61a6 ddbf aed8 27c0 4c8b 6fbf 361b 2b40
00000130: 9901 dac0 ae17 1fc0 27d5 3ec0 ef4e 9dc0
00000140: f439 dfc0 922d 3bc0 52a6 43c0 b204 69bf
00000150: 0ca0 4e40 68b2 d7be bd10 a240 eee0 a1c0
00000160: 68ea 2840 5090 b4bf d0ad 4240 79bd 12bf
00000170: 8007 6040 f931 eb3f 104d b3bf f9bf 0040
00000180: 1591 3740 050e cf3f 8d82 96c0 c56b 3140
00000190: ffdd f9bf e2a2 21c0 c27f 5ec0 a0ad 36c0
000001a0: 1864 55c0 e755 5fc0 4369 be3f 8b72 7440
000001b0: 1c43 7ec0 ade4 01c0 2c2a 05bf aad7 b8c0
000001c0: cc7b 953f 28d4 adbf 27a6 34bf 40cf 8440
000001d0: 8c73 b7bf c016 2a40 4968 19c0 2a5e b63f
000001e0: 3cca 8440 0625 b6c0 7612 62c0 5971 07c1
000001f0: cbe4 b7c0 09d9 75c0 2c58 38be 4438 ffbf
00000200: 9928 a83f 7e43 a3c0 9832 e33e e35c 81be
00000210: dfaa 02be c2e1 2cc0 029e cec0 065b 56c0
00000220: 5d10 c2bf 04f7 7ebf c32d 06bb 0c57 0e40
00000230: 28a7 9dbf 669e 6d40 5297 cc40 f24c adc0
00000240: 71ee 7940 68a2 0a40 f675 80c0 62e7 aec0
00000250: 2fc0 c0c0 996a ee3f eca4 3fc0 d5c4 22c0
00000260: d86d b23f 3163 64c0 da4b 7640 9d04 953f
00000270: 5254 5ac0 8e03 2640 a414 30c0 15f5 663e
00000280: 736b 6e40 4399 3640 4538 4240 d8e5 2140
00000290: 87fa b3bd 0227 3740 f77c a840 144e 463c
000002a0: 9f04 163f 7e3c 1640 5b59 96c0 39c0 e03c
000002b0: a949 b7c0 43a8 71c0 aab6 8740 165c cc3f
000002c0: 1620 43c0 b8ac 8d40 f130 8d40 ef22 6c3f
000002d0: b76e 9540 96df 98c0 ff96 8dc0 4796 89c0
000002e0: 9264 8640 2971 9dc0 a2f0 e3bf 8a2d 2bc0
000002f0: 0b17 4540 6b4b 92c0 2d03 b9c0 fe8f 3c40
00000300: 4a18 cf40 b47d ee3f e56e 88bf 5271 1840
00000310: 6433 13bf 65ea 4b40 79b1 18c0 b5c5 963c
00000320: ade0 2340 1ca9 4240 00d6 2cc0 2baa dcbd
00000330: 6a67 3f3f ca95 883f 24f0 b9c0 1cb9 cbbf
00000340: 2a90 7a40 1956 86bf ec33 c6bf 3f9f 3fbf
00000350: 7c34 e53f 100d a4c0 be11 52c0 c010 c5c0
00000360: 89db bac0 1f72 21c0 e8e1 67c0 cde7 9f3f
00000370: 32e8 f0c0 272a 5740 cfce a040 dbda 273f
00000380: 9f38 93c0 eef2 843f 1e6b 92c0 b641 8840
00000390: 3949 9a40 2fa3 873f 8d22 4640 b81d 4ac0
000003a0: 2693 583f 63de 2dc0 4ec1 b5bf f5bc 50c0
000003b0: 76a5 dcc0 ef62 15c0 cbc2 b0c0 4aa2 63bf
000003c0: 2354 4ac0 99e6 0540 f7dd cac0 6d50 c4bf
000003d0: d177 c9bf adf6 683f 8f64 813e 9a56 a63f
000003e0: 7100 08c0 76df 81c0 761a 0640 6887 84c0
000003f0: ca49 f1bf 65a7 8740 4b9b 7640 4bcd 34c0

weight f4 [128, 256]
0.25233 0.07634241 0.8483578 -0.4003632 -0.5576008 0.047043502 0.5654001 0.024956837
-1.5154454 -0.16507123 0.1063553 0.24517395 0.3012982 -0.14252512 0.23360646 0.2713147
-0.38037115 0.7988011 0.027303522 -0.011708654 0.8382734 0.05617171 -0.24209 0.362481
-0.025603047 -1.0530257 0.47657266 0.038728263 -1.5372183 -0.04374034 -1.0631722 0.28789335
-0.07572262 -3.23392 0.95407516 0.76987505 -0.52121043 0.25186047 -1.6974018 -1.9987504
0.38407078 -0.8921395 -2.3260033 0.43503752 -0.50343204 -0.070002764 0.056707207 3.5323176
-0.3534997 -1.1672534 0.25778148 -1.6649792 -0.21427563 -0.0026201308 0.34088928 -0.05795203
0.5661081 -3.2936115 -2.9255443 -0.5693608 0.24275263 -0.4121976 -0.1456543 0.57881963
-0.9846107 -1.8253331 0.5967847 0.29495546 -0.075442076 0.19887742 -0.23968029 -0.30821458
-1.4827265 0.35972512 0.23071836 0.07903377 -1.0256745 0.08849739 -1.0833315 -0.6767603
0.4233947 0.17326492 -0.7475642 0.82818747 -0.624579 0.13382886 -1.2765722 0.008843388
0.19523408 -0.011106175 0.13323037 -3.9871385 0.080788836 -2.135193 0.05473098 -2.7372122
-3.1701412 0.081925675 0.5973014 0.43751627 0.24447834 0.14553457 0.31663233 0.6836468
0.09681375 -1.4514772 -1.346188 -0.1947013 0.68351334 -0.055836294 -0.105994925 0.12605087
-1.9267509 0.055679042 0.20739347 -0.049902502 -0.37453282 -0.65949684 -1.3013947 0.2856911
-2.9164672 -0.369539 0.21962057 0.40962654 -0.7496442 0.3733577 -0.06201624 0.4017243
0.5170196 -1.0356292 -1.128227 -0.0028323936 0.029165655 -0.6622955 -0.08131941 -1.3341751
-3.6726723 0.1518701 -0.9797623 -0.68548214 0.07233511 -0.16381437 -0.06648211 0.15498373
-2.1775076 -1.0638574 -1.5236009 0.02733909 0.05191799 -0.18889703 -0.27986923 -0.0831901
-1.1236507 0.679517 -3.3121452 -0.0064109764 0.60199994 -1.7755506 -0.23219334 -0.019706756
-2.365936 -1.0996006 -2.2879682 -0.15399466 -1.299796 -3.2373698 -2.1623206 -1.0378779
-3.7418535 -0.23863499 0.13516551 -0.052546866 0.50825626 -1.4042546 -1.6034002 0.062488705
0.77709264 -0.060503174 -2.4486144 0.522547 -0.59093547 -1.5915382 -1.551154 0.057092115
-0.7606181 1.295542 -1.0453582 0.42447138 -1.4332842 0.030489191 2.488847 -0.32020438
0.09606747 -2.562839 0.80680543 -1.6012295 0.12064817 0.26690152 0.37222064 -0.20463505
0.4823325 -2.3640406 0.06303498 0.1966556 -5.5373178 -1.4235184 0.40195715 -0.07485763
-1.1065875 -1.9607784 0.11615168 -0.2216855 -0.1582884 0.42557308 0.053024866 0.08695073
-0.8490452 0.1741015 -0.59662277 -3.7585998 -0.24684487 -0.08422394 0.36117774 -1.2125794
1.6117524 -0.74775034 0.4520225 -0.22331889 -0.9955888 0.10389504 -0.01685366 -0.22339375
0.07221584 -0.23470145 0.7362864 0.12602104 0.030538067 0.27935505 0.04221526 -0.017437808
0.94194597 0.11088511 -0.32023922 -0.6577198 -0.64385265 0.009893201 -0.05522907 -0.20057972
0.530162 -0.02044773 -3.521088 -0.36805275 -4.85801 -0.07090407 0.11542641 -0.46923044
00000000: 6631 813e 6959 9c3d fa2d 593f 68fc ccbe
00000010: edbe 0ebf b0b0 403d 10be 103f 4872 cc3c
00000020: 1dfa c1bf 6f08 29be cfd0 d93d e10e 7b3e
00000030: c243 9a3e 1bf2 11be 8836 6f3e c3e9 8a3e
00000040: 02c0 c2be 3b7e 4c3f a3ab df3c a8d5 3fbc
00000050: 1699 563f 4f14 663d 71e6 77be 1c97 b93e
00000060: 7bbd d1bc 8cc9 86bf 5501 f43e 87a1 1e3d
00000070: 92c3 c4bf 1229 33bd 0716 88bf c266 933e
00000080: 7614 9bbd 8cf8 4ec0 453e 743f 8816 453f
00000090: 0c6e 05bf dbf3 803e 7644 d9bf 0ed7 ffbf
000000a0: eda4 c43e 4163 64bf 3ddd 14c0 3dbd de3e
000000b0: ece0 00bf 9c5d 8fbd d145 683d 7e11 6240
000000c0: eafd b4be 8f68 95bf effb 833e 0a1e d5bf
000000d0: 126b 5bbe 80b6 2bbb 0a89 ae3e 1c5f 6dbd
000000e0: 76ec 103f 88ca 52c0 1e3c 3bc0 a1c1 11bf
000000f0: 2594 783e 900b d3be 6726 15be 862d 143f
00000100: 720f 7cbf 84a4 e9bf e2c6 183f 6704 973e
00000110: 6081 9abd 86a6 4b3e c06e 75be 4dce 9dbe
00000120: fbc9 bdbf e42d b83e 6f41 6c3e 75dc a13d
00000130: 4d49 83bf 1f3e b53d 9baa 8abf 2a40 2dbf
00000140: 31c7 d83e 5c6c 313e 5e60 3fbf 1804 543f
00000150: 69e4 1fbf 6f0a 093e b866 a3bf dce3 103c
00000160: 71eb 473e adf6 35bc 8b6d 083e 472d 7fc0
00000170: 9e74 a53d 01a7 08c0 982d 603d 7c2e 2fc0
00000180: 98e3 4ac0 a6c8 a73d bfe8 183f 2202 e03e
00000190: 8858 7a3e 0407 153e a21d a23e 7a03 2f3f
000001a0: 4a46 c63d 01ca b9bf e34f acbf c75f 47be
000001b0: bbfa 2e3f 99b4 64bd de13 d9bd 7b13 013e
000001c0: c69f f6bf b50f 643d f45e 543e 9166 4cbd
000001d0: c4c2 bfbe c9d4 28bf 1a94 a6bf 1b46 923e
000001e0: 66a7 3ac0 3734 bdbe 37e4 603e 92ba d13e
000001f0: afe8 3fbf be28 bf3e be04 7ebd cfae cd3e
00000200: 665b 043f 7f8f 84bf be69 90bf ae9f 39bb
00000210: d0ec ee3c 338c 29bf ca8a a6bd 40c6 aabf
00000220: 100d 6bc0 d683 1b3e b4d1 7abf c27b 2fbf
00000230: 6e24 943d f4be 27be c627 88bd 0eb4 1e3e
00000240: 495c 0bc0 7b2c 88bf 5b05 c3bf 3af6 df3c
00000250: f5a7 543d 396e 41be 054b 8fbe 925f aabd
00000260: c9d3 8fbf d3f4 2d3f 30fa 53c0 2b13 d2bb
00000270: ab1c 1a3f 3e45 e3bf 17c4 6dbe 1070 a1bc
00000280: 7f6b 17c0 b6bf 8cbf 126e 12c0 c7b0 1dbe
00000290: b75f a6bf 1131 4fc0 7663 0ac0 2fd9 84bf
000002a0: 877a 6fc0 bb5c 74be d468 0a3e 623b 57bd
000002b0: 151d 023f 9dbe b3bf 383c cdbf 28f4 7f3d
000002c0: 8bef 463f 2dd2 77bd 19b6 1cc0 a4c5 053f
000002d0: 8c47 17bf 86b7 cbbf 378c c6bf 6cd9 693d
000002e0: deb7 42bf 52d4 a53f 4cce 85bf 5054 d93e
000002f0: db75 b7bf 78c4 f93c 4549 1f40 d4f1 a3be
00000300: 06bf c43d 8e05 24c0 cd8a 4e3f 17f5 ccbf
00000310: 6316 f73d 51a7 883e b493 be3e da8b 51be
00000320: 49f4 f63e 714c 17c0 7c18 813d 1660 493e
00000330: b531 b1c0 da35 b6bf 54cd cd3e f54e 99bd
00000340: a9a4 8dbf c9fa fabf efe0 ed3d 8601 63be
00000350: 5b16 22be b7e4 d93e 9a30 593d 3913 b23d
00000360: 075b 59bf aa47 323e 45bc 18bf e68c 70c0
00000370: e7c4 7cbe 9a7d acbd 4aec b83e cd35 9bbf
00000380: e74d ce3f 916c 3fbf 7e6f e73e b5ad 64be
00000390: e8de 7ebf ecc6 d43d b010 8abc 55c1 64be
000003a0: e6e5 933d 9455 70be 447d 3c3f a90b 013e
000003b0: f82a fa3c a007 8f3e e9e9 2c3d bcd9 8ebc
000003c0: 5f23 713f bc17 e33d 65f6 a3be 5360 28bf
000003d0: 87d3 24bf 1817 223c e137 62bd c564 4dbe
000003e0: b2b8 073f ff81 a7bc 8159 61c0 6971 bcbe
000003f0: d174 9bc0 2736 91bd af64 ec3d f93e f0be

bias f4 [128]
-0.2076484 0.009704975 -0.035560813 -0.035903446 -0.06426509 1.0727615 -0.04057059 -0.69763076
-0.06311555 2.0221589 0.015962075 -0.8841518 -0.06647151 -0.0026813166 -1.2745545 -1.9271903
-0.05128932 -0.045664515 -0.009621286 -0.64778495 -0.22931793 0.025182683 0.0018184773 0.005749778
-0.00037261713 -0.38628882 -0.58983296 0.7140083 -0.06261736 0.09352612 0.029297216 0.033292834
-0.2325849 0.57267046 -0.28087136 -0.04405495 0.017511996 -0.06614632 1.7455925 -0.8876021
-0.033469476 0.0034993927 0.006504808 -0.19757305 -1.552131 0.8757047 -1.1161808 -0.07655153
2.8309774 1.2131208 0.037033442 -0.06010165 -0.06886455 -1.1647356 -0.56706744 -0.06535012
-0.028565807 -0.055230293 0.03214232 -0.039904967 -1.0421869 -0.03617704 -0.05977666 -0.07377738
0.0030756777 -0.09952125 -0.6586365 0.0019654122 -0.02336808 0.004367654 0.032568146 -0.35367846
-0.062375043 0.029845145 -0.031116268 0.8808193 -0.078021035 -0.6535569 0.027455304 -0.91894567
3.3440886 -0.06927568 0.63360536 -0.0050622676 -0.15461975 -0.1864931 -0.8745344 -1.662693
-0.20019133 -0.022210853 -0.048316743 -0.70066535 -0.33181834 -0.055348605 -2.2602696 -1.4319345
0.042727176 2.4734254 0.31221634 -0.71843404 -0.93125504 -1.3804046 1.5025071 -0.07789148
-0.04639017 -0.023166269 -0.0120306965 -0.23185621 -0.048270646 -0.15009767 -0.011409771 0.022532191
-0.0021658568 -1.0887481 0.011058853 -0.9693411 -0.0036206665 -0.04214102 0.59903574 0.005259945
2.4798043 -0.021467675 -1.1292942 -0.2793336 -0.76580596 -0.045371592 -0.055055104 8.914483e-05
00000000: c8a1 54be 9e01 1f3c 37a8 11bd 7e0f 13bd
00000010: 6a9d 83bd 4050 893f 592d 26bd ee97 32bf
00000020: ba42 81bd 0d6b 0140 e6c2 823c c657 62bf
00000030: 3722 88bd 07b9 2fbb 9a24 a3bf 2cae f6bf
00000040: c014 52bd b70a 3bbd 99a2 1dbc 3cd5 25bf
00000050: 52d2 6abe ea4b ce3c f959 ee3a a268 bc3b
00000060: d35b c3b9 a6c7 c5be 4bff 16bf 3fc9 363f
00000070: 883d 80bd 9f8a bf3d b700 f03c 115e 083d
00000080: bc2a 6ebe 889a 123f 5fce 8fbe f772 34bd
00000090: 5175 8f3c b977 87bd 936f df3f e439 63bf
000000a0: 4a17 09bd 1156 653b 4926 d53b 9750 4abe
000000b0: 3bac c6bf 2f2e 603f 03df 8ebf 0cc7 9cbd
000000c0: bc2e 3540 8b47 9b3f 61b0 173d 262d 76bd
000000d0: db08 8dbd 0e16 95bf 552b 11bf 49d6 85bd
000000e0: d702 eabc 2939 62bd aaa7 033d 6473 23bd
000000f0: 6166 85bf 602e 14bd 5fd8 74bd 9818 97bd
00000100: 4f91 493b ccd1 cbbd 679c 28bf 25ce 003b
00000110: 6a6e bfbc 8a1e 8f3b 2d66 053d 5815 b5be
00000120: f97c 7fbd ce7d f43c 8be7 febc 607d 613f
00000130: 7ec9 9fbd 814f 27bf f2e9 e03c 0640 6bbf
00000140: 8c05 5640 68e0 8dbd f633 223f 61e1 a5bb
00000150: a454 1ebe 0cf8 3ebe 7de1 5fbf 20d3 d4bf
00000160: f5fe 4cbe 89f3 b5bc c7e7 45bd ce5e 33bf
00000170: 18e4 a9be 38b5 62bd 42a8 10c0 a149 b7bf
00000180: b102 2f3d 9a4c 1e40 d2da 9f3e 4beb 37bf
00000190: bb66 6ebf 19b1 b0bf 2752 c03f 9185 9fbd
000001a0: 9e03 3ebd 30c7 bdbc 661c 45bc b76b 6dbe
000001b0: 71b7 45bd 34b3 19be 0cf0 3abc 6e95 b83c
000001c0: 0cf1 0dbb 195c 8bbf 3130 353c bd26 78bf
000001d0: b448 6dbb 109c 2cbd 685a 193f 9e5b ac3b
000001e0: 1db5 1e40 fadc afbc b68c 90bf d004 8fbe
000001f0: dc0b 44bf 90d7 39bd 7681 61bd 44f3 ba38

weight f4 [2, 128]
0.12612316 -0.023087887 -0.020066028 0.034490857 -0.042918075 0.7777897 -0.028962191 -0.4634361
-0.02813363 -5.999063 -0.059519358 0.17980745 0.041009802 0.04524242 -3.6575742 3.6695225
0.040701017 -0.021481406 0.054882273 0.052179918 0.18457958 0.049811557 0.036488984 -0.042554572
0.014784223 -0.7013736 -0.07124627 3.8809187 0.03187277 -0.19963299 -0.008127338 0.06333625
0.12903489 -0.7364761 0.0703989 0.005483218 -0.042920064 -0.07774228 2.55136 -1.4928918
0.056619357 -0.0015173169 0.007874011 -0.69668853 -1.9761393 1.9940614 -12.765904 0.04400008
1.072545 3.0401826 -0.060739752 0.07224586 0.044467095 -13.558158 -3.0604544 -0.0006347371
-0.0851974 -0.076372445 0.0014208585 0.049210727 -2.5926561 0.020795576 -0.02620723 0.055044204
-0.040511273 -0.6992622 8.256073 -0.0012992762 -0.036603026 0.055217784 -0.05909587 0.05316936
0.024554085 0.063818224 0.04381768 0.5664474 -0.060822345 -1.2863741 -0.051775232 -1.503761
0.75731504 0.04447576 1.3366808 0.06628921 0.036120597 -0.70037913 -0.6982046 -5.00056
-0.1844104 -0.060551956 0.055718396 -1.7463149 3.47611 -0.04935528 -1.2614895 0.08241996
-0.072703324 -7.270446 0.032735083 -0.0054804184 -1.6659907 -0.580236 1.9526013 0.040253807
0.06434099 -0.0091977 -0.009747595 0.13457921 -0.026834812 -0.8824407 -0.054447185 0.040443413
-0.029141875 -1.2478076 -0.018562887 -3.0924275 0.011648822 -0.08087001 -0.48903647 0.007837097
2.9288664 -0.061780628 -10.92871 0.021968914 -1.3076535 0.060462527 0.042721603 -0.0082626995
-1.5882123 0.021567676 0.047887616 0.034318965 0.05364397 -1.054523 0.05695895 -1.3542001
0.012178943 0.708841 0.021865992 -1.0221727 -0.056475844 -0.035490245 1.4966996 -0.90187186
0.050380714 0.03311728 -0.015137398 -0.03739482 -1.6094195 -0.044857603 0.006941117 0.045338456
-0.018457485 -0.8632568 -2.7671003 2.4962206 0.0145560345 -2.8519018 -0.010207218 0.066376306
-1.5233297 -0.5173724 -1.6511015 0.03400361 -0.000571486 0.027992418 0.005839955 0.29309243
-0.018216413 0.042924043 0.015070632 -0.22294588 -1.1350187 3.9675121 1.6908365 0.01089796
0.7630624 2.8953404 0.012023583 0.009624033 0.0022515433 -0.50960606 -0.010504649 0.003142163
0.044550896 0.046841152 -0.005962392 0.068521254 3.5652704 0.012839114 0.025598485 -0.006984224
0.027183289 -0.20458207 6.1398 0.03160791 0.066432096 -0.030309213 0.011722688 -1.6178643
0.0533846 -0.040516105 0.048202083 5.7207913 0.02385463 0.20127735 0.07269692 0.055570006
-4.852132 -0.02478898 -0.7459787 0.009206401 -1.5409346 -0.14341772 0.20572135 -0.8989657
-1.6191865 0.043765552 -0.063929535 0.09241388 0.053061374 0.047399733 2.6029656 -6.731685
0.06588756 -6.30566 3.677472 -1.4484851 0.45702976 -18.238514 2.070888 0.064600654
-0.004996827 0.039317284 0.06526972 -1.6548039 0.068499 -0.14050144 -0.007894803 0.07179286
0.035208654 -0.12770382 0.07570138 0.6783563 0.016513648 0.06064462 3.2757664 0.03995095
2.859673 0.05181646 2.1351185 -1.5861607 0.18126322 0.030380942 -0.012412891 0.006701857
00000000: 6e26 013e cf22 bdbc 8361 a4bc 4946 0d3d
00000010: ddca 2fbd 3a1d 473f 1e42 edbc 7f47 edbe
00000020: 8078 e6bc 53f8 bfc0 92ca 73bd 721f 383e
00000030: e5f9 273d 1e50 393d b215 6ac0 75d9 6a40
00000040: 1cb6 263d c6f9 afbc 3ccc 603d 9cba 553d
00000050: 6e02 3d3e 3407 4c3d 7975 153d b44d 2ebd
00000060: 8739 723c 388d 33bf 90e9 91bd f960 7840
00000070: 068d 023d 976c 4cbe 8728 05bc 70b6 813d
00000080: b921 043e b389 3cbf 4c2d 903d 91ac b33b
00000090: f3cc 2fbd 5837 9fbd 7b49 2340 1417 bfbf
000000a0: b3e9 673d b5e0 c6ba ff01 013c 2e5a 32bf
000000b0: 22f2 fcbf 673d ff3f 2541 4cc1 6e39 343d
000000c0: 2849 893f 5a92 4240 3fca 78bd a3f5 933d
000000d0: 2123 363d 37ee 58c1 7cde 43c0 7c64 26ba
000000e0: f97b aebd 2869 9cbd 1a3c ba3a 3091 493d
000000f0: 14ee 25c0 7c5b aa3c 8bb0 d6bc 0876 613d
00000100: 26ef 25bd d902 33bf e018 0441 7a4c aaba
00000110: 0eed 15bd 0b2c 623d 830e 72bd 1dc8 593d
00000120: a625 c93c 21b3 823d 2b7a 333d b202 113f
00000130: da20 79bd e8a7 a4bf 4412 54bd 3e7b c0bf
00000140: 66df 413f 372c 363d 5b18 ab3f a3c2 873d
00000150: 31f3 133d 0c4c 33bf 89bd 32bf 9604 a0c0
00000160: 14d6 3cbe 5405 78bd f938 643d 3f87 dfbf
00000170: 9678 5e40 c328 4abd 7d78 a1bf cccb a83d
00000180: 7be5 94bd 7ea7 e8c0 3915 063d 1595 b3bb
00000190: 2f3f d5bf 598a 14bf d7ee f93f 2de1 243d
000001a0: 35c5 833d f3b1 16bc 60b4 1fbc 22cf 093e
000001b0: aed4 dbbc a2e7 61bf 0304 5fbd fea7 253d
000001c0: f1ba eebc 29b8 9fbf 3211 98bc 55ea 45c0
000001d0: b3da 3e3c 2d9f a5bd fd62 fabe 2b67 003c
000001e0: 8c72 3b40 af0d 7dbd ffdb 2ec1 27f8 b33c
000001f0: 3161 a7bf 8ea7 773d d9fc 2e3d 4660 07bc
00000200: 8a4a cbbf b2ae b03c ce25 443d 0b92 0c3d
00000210: c8b9 5b3d 9cfa 86bf ca4d 693d 6e56 adbf
00000220: 308a 473c 9b76 353f 4f20 b33c 8ed6 82bf
00000230: 3753 67bd 385e 11bd da93 bf3f 13e1 66bf
00000240: 025c 4e3d fca5 073d d902 78bc 502b 19bd
00000250: 7501 cebf 9bbc 37bd 4f72 e33b d1b4 393d
00000260: 2734 97bc 66fe 5cbf 2c18 31c0 14c2 1f40
00000270: 6f7c 6e3c 8f85 36c0 2d3c 27bc 4df0 873d
00000280: 78fc c2bf 8572 04bf 4b57 d3bf 5f47 0b3d
00000290: c7cf 15ba 5b50 e53c 185d bf3b 3610 963e
000002a0: 963a 95bc 1fd1 2f3d d0ea 763c ed4b 64be
000002b0: 4b48 91bf b8eb 7d40 556d d83f 5b8d 323c
000002c0: 0f58 433f 424d 3940 90fe 443c 1fae 1d3c
000002d0: a18e 133b 8b75 02bf b11b 2cbc bfec 4d3b
000002e0: 007b 363d 82dc 3f3d 2b60 c3bb df54 8c3d
000002f0: 642d 6440 265b 523c eab3 d13c ebdb e4bb
00000300: 7daf de3c f67d 51be 3e79 c440 4c77 013d
00000310: 8d0d 883d 074b f8bc 8410 403c 2d16 cfbf
00000320: cfa9 5a3d 37f4 25bd 8c6f 453d b910 b740
00000330: c96a c33c a61b 4e3e 1fe2 943d 609d 633d
00000340: aa44 9bc0 4212 cbbc 76f8 3ebf 72d6 163c
00000350: 583d c5bf 18dc 12be 9ea8 523e 9e22 66bf
00000360: 8141 cfbf 8243 333d 7ded 82bd 7d43 bd3d
00000370: e256 593d 3926 423d fd96 2640 f769 d7c0
00000380: 0ff0 863d f7c7 c9c0 b45b 6b40 f667 b9bf
00000390: ceff e93e 7ae8 91c1 6e89 0440 594d 843d
000003a0: 6cbc a3bb 290b 213d 22ac 853d 9dd0 d3bf
000003b0: 3449 8c3d 9cdf 0fbe 3459 01bc 2308 933d
000003c0: f336 103d cac4 02be 5309 9b3d c2a8 2d3f
000003d0: a147 873c 7e66 783d 28a6 5140 9ba3 233d
000003e0: e204 3740 7f3d 543d c8a5 0840 5007 cbbf
000003f0: 119d 393e 74e1 f83c 705f 4bbc 409b db3b

bias f4 [2]
1.9963613 4.1099367
00000000: c488 ff3f 9a84 8340
