saved_models/run24/model_4000.pth (torch, 141798 bytes, 6 tensors)

weight f4 [256, 4]
00000000: 5cc1 14bf ecfe 8f3e 38aa c2be daa1 34be
00000010: d24f 53be c55c 4abe c2f7 90be d45f e5bc
00000020: fcb4 60bf 5e35 c43e c631 193f 5b2c 88bd
00000030: 4b0b 1a3d 58ba 06be 05d3 3bbf f139 293d
00000040: ef74 58bd 6442 c73e 4ebd 4b3f 6e5f 2fbe
00000050: ff4d 09be d675 823e e702 0f3f 6908 8abd
00000060: d2a4 f33d 8028 6c3e dad5 0bbf 06db cabe
00000070: e1ae dd3e fb9c 8a3e 45df f0bd cceb d5bc
00000080: 5e9d 653f 17f9 abbe a1ca 223e ea16 f93d
00000090: ce59 17bd 8893 d9bd 2ec4 a5bf f4a5 b9bd
000000a0: c2b3 b6bd 5fb7 343f 5a03 13bf 5a50 22be
000000b0: ec8b 5cbc 9b60 1ebf 6a61 6dbd 215e 243d
000000c0: beaf 01be 5dad 34bf c13b 01bf ebe5 b3bd
000000d0: da6c 1bbf 248a 0f3f 8f94 d9be a82a 19be
000000e0: 54e1 b6bc 5fdd 8fbe 5a77 893e 7fa8 7dbe
000000f0: 97a9 ef3c afe5 d1be 7ad5 d3bf 176f c43e
00000100: 142a f43d 5ba1 863d e322 e53e 955a b8be
00000110: 2662 123f 158b 26bf 93e5 27bf 4df5 b0be
00000120: 7532 05bd 5787 6e3f 3659 36bf 5ad2 9abe
00000130: fe2f 833f 9fdd 94be 7206 a53e f110 b23e
00000140: ef51 943c adc7 013f d8b9 20c0 24a2 01bf
00000150: 6228 47be 1838 37be a45b 92bd 0279 82bd
00000160: cf07 8d3c 3dbe 113f e500 a93e fb3c e1bd
00000170: 344c ff3e 2ea0 e6bd 8a3c 073f 225d 033d
00000180: 3f99 143d 1638 bf3b 0431 05bf e5e0 72bd
00000190: 9a72 b63f aca9 7b3e 38b2 c5be 5e1a 353d
000001a0: 5c84 243e 50aa e23e f6dc 843d daba 99be
000001b0: 41d6 0c3f 0a96 fabd b805 8f3b c840 e4b9
000001c0: 8a28 9c3e 4ff1 abbb 5bcb 333e f97e 85be
000001d0: 5565 f83d df68 90be e905 17c0 b59a f83e
000001e0: ba83 dbbf 205c e43c f47e 3abe 791e 193d
000001f0: 4c82 f6bd 98a3 a03e 660b cbbe 5557 8dbe
00000200: 064f 053f 4f3c 7dbd e604 2e3e c3f7 c03c
00000210: 4bd5 23bf 44ec 05bf b8bc 9bbe d354 033d
00000220: 4b5d 9b3f 61da 37bf 5bc4 093b 91de 65ba
00000230: aa9f 0cbc ac35 c23d 93a0 26bf 2596 f4bc
00000240: aea1 5e3f 781e 3ebd 9d8d 5c3e b597 9c3d
00000250: 79d0 2a3e e0cd 753e 216e e7be 7bd3 3cbd
00000260: 5e1e 60bf 1bd0 223f d365 243e 7559 8cbd
00000270: ecf9 963f 19ce b43e c698 02be d29c 9bbd
00000280: 3f10 af3c 5a69 023f e561 7dbf 975a 6fbe
00000290: 573f 053e 32da 36bf 74cc 1abf 9ffd 26be
000002a0: 6f90 193f c427 b23b 386a 073d 6f96 9c3c
000002b0: 0368 543f b53b cdbe f612 9dbd 9e53 d73c
000002c0: 5609 6f3d 4b11 953e 3fe7 9dbf dda4 a23b
000002d0: 8704 763c 00d2 bb3d 8d40 703f 8ae3 85bd
000002e0: e89f b83d d37f 413e cd2c 01bf bea9 31be
000002f0: 0d27 00be d5e7 173e ba62 c2bf 7998 643f
00000300: 0626 163f bd9b 193f af02 92bf a9b4 163c
00000310: 3fcf a1bf ef8f f2be 36b5 c43e c9ab ea3c
00000320: 27e6 23bf 60e9 71be dc33 e83e 038f 37bc
00000330: aa44 85bf 9dca a93e 4351 debd e74b 6c3e
00000340: 81ae ca3d 034f 013f badf 97bd 766e d3be
00000350: 263e 6e3f 2853 c03e ee42 903e a60c 623c
00000360: 55e6 87bf 0948 1c3f 25d8 09be 11f3 29bd
00000370: 767b 4abc e475 903c faa3 663f b73e 203d
00000380: fc45 8b3f d616 65bf e5be 40be cda9 fb3b
00000390: 309c 763b 1a3c a3be 3539 1d3f 0ad8 c63d
000003a0: 3912 14bf 23d7 153e 068d 6c3e ec9e 0abe
000003b0: 9374 9abc d000 9bbf 114e 2dbf d67d c53d
000003c0: 4fc3 aabb e75f d4bc 9e12 b9bf 44d0 68bc
000003d0: 9f65 4fbe 0812 243f 1816 503e 8547 333e
000003e0: f637 023e e85b b33e 6469 09bf ef60 873d
000003f0: 6283 2bbd 26ef 50be 6607 1cc0 108d 36be
-0.58107543 0.28124177 -0.38020492 -0.17639866 -0.20635918 -0.19761951 -0.28314024 -0.027999796
-0.8777616 0.38321966 0.59841573 -0.06649085 0.037608426 -0.13157022 -0.73368865 0.041315023
-0.05284589 0.3891784 0.7958573 -0.17126247 -0.1340866 0.25480527 0.55863804 -0.06739885
0.11896671 0.23062325 -0.54623187 -0.39620227 0.43297485 0.27072892 -0.11761335 -0.026113413
0.8969325 -0.33588478 0.1589761 0.12162574 -0.03695088 -0.106238425 -1.2950494 -0.09064856
-0.08921005 0.705923 -0.5742699 -0.15850964 -0.013461094 -0.6186616 -0.05795423 0.04012883
-0.12664697 -0.7057703 -0.504818 -0.08784088 -0.6071297 0.5607016 -0.42496154 -0.14957678
-0.022324242 -0.2809858 0.2684887 -0.24771307 0.029255671 -0.40995547 -1.6549523 0.38366005
0.11922088 0.06573745 0.4475318 -0.3600661 0.5718101 -0.6505597 -0.6558468 -0.3456215
-0.032518823 0.9317526 -0.71229875 -0.3023861 1.0249021 -0.29075333 0.3223148 0.3477855
0.018105475 0.50695306 -2.511343 -0.5063803 -0.19448999 -0.17892492 -0.07146385 -0.06370737
0.017215637 0.56930906 0.33008495 -0.10997959 0.49862826 -0.112610206 0.5282675 0.03207124
0.03627896 0.0058355434 -0.52027917 -0.059296507 1.4253724 0.24576443 -0.38612533 0.0442146
0.16066116 0.44270563 0.064874575 -0.3002537 0.55014426 -0.12235649 0.0043646954 -0.00043535815
0.3049968 -0.005247272 0.17558043 -0.26073435 0.121287026 -0.2820501 -2.3597357 0.48555532
-1.7149575 0.02787596 -0.18212491 0.037382577 -0.12036571 0.31374812 -0.39657134 -0.27605692
0.52073705 -0.061825093 0.16994056 0.023555642 -0.63997334 -0.5231364 -0.30417418 0.032063317
1.2137846 -0.71817595 0.0021021578 -0.0008768822 -0.008582989 0.09482893 -0.65088767 -0.02985675
0.86965454 -0.046415776 0.21538396 0.07646123 0.16681089 0.24004316 -0.4520121 -0.04610012
-0.87546337 0.63598794 0.16054468 -0.06853 1.179502 0.3531349 -0.12753591 -0.075982705
0.021370051 0.50942004 -0.989775 -0.23374401 0.13012443 -0.7142669 -0.6046822 -0.16307686
0.59986013 0.0054368693 0.033060282 0.019114701 0.8297121 -0.40084615 -0.07669632 0.026284989
0.058358513 0.29114756 -1.2336196 0.004963501 0.015015728 0.09170914 0.93848497 -0.0653754
0.09014875 0.18896417 -0.50458986 -0.17349908 -0.12514897 0.1483453 -1.5186379 0.89295155
0.5865177 0.6000326 -1.1407069 0.009198346 -1.2641371 -0.47375438 0.38419503 0.028646367
-0.6402306 -0.23624182 0.45352066 -0.01120353 -1.041158 0.33162394 -0.10855343 0.2307583
0.09896565 0.5051119 -0.07415719 -0.41295213 0.9306358 0.37563443 0.28176063 0.013796961
-1.0617167 0.61047417 -0.13461359 -0.04149157 -0.012358537 0.01763434 0.9009396 0.03912231
1.0880733 -0.8948797 -0.1882282 0.007680154 0.0037629716 -0.3188179 0.61415416 0.09709175
-0.57840306 0.1463285 0.23100671 -0.13537186 -0.018854415 -1.2109623 -0.67697245 0.09643142
-0.005211271 -0.025924636 -1.4458807 -0.014209811 -0.20253609 0.64090014 0.20320928 0.17507751
0.1271666 0.35031056 -0.5367644 0.066102855 -0.041873343 -0.20403728 -2.4379516 -0.17827249

bias f4 [256]
00000000: 76d2 c03f eb7d 003e b292 c8be 6d70 0940
00000010: f143 0ac0 6975 2fc0 b5d7 6cbf c736 8bbc
00000020: 585c bd3e c54c 1440 4671 0a40 0838 93bf
00000030: 718e 013f d65d ef3f c20e a8bf 93cb 96bf
00000040: d999 a1bf 32a9 6d3f a8ad dbbf 3110 493e
00000050: de6c f2bf 440a e43f 6f3a b7bf 887b 13be
00000060: 9a0c 3b40 11e7 9ebf 2105 fdbe ced8 ae3f
00000070: 12ac b2bf 3cf6 f5bf e651 d5bf 2ab2 11c0
00000080: 3c4a 503f 08f9 dabf 8b4b 1d3e ce20 e43f
00000090: f0b7 b13f 3389 da3f bcac a6bf 36dd 01c0
000000a0: 848a 6f3f a575 ed3b 5c19 933f a667 ad3f
000000b0: 2af7 1d40 3dd4 66c0 ce7c 0d40 5e1f 67be
000000c0: 4511 8cbf bb68 87bf a879 f03f e181 a1bf
000000d0: 58bf 0fc0 c2f7 8ebe ec27 8c3e 7092 f0bf
000000e0: e917 0d3d 728c d5bf 6053 0540 4ac3 fbbe
000000f0: d27a 4240 943e b8bf d8dd 0740 e90e 5e3e
00000100: 8f73 0540 3a3c d1bf a091 1640 c980 f53f
00000110: 2f6f 9ebf 61d9 0d40 86f6 1c40 20b8 fc3f
00000120: b08b 553d fd68 c73f 0984 533f c7ed 13c0
00000130: 675f 43bf 9c82 7fbf 2d22 b63e fce0 9e3d
00000140: 749e 193f fc6f 6abf af71 26c0 61a9 ba3f
00000150: 1adc ac3f b2ee 34c0 1996 86bf 0680 0f40
00000160: 31d5 c3bf 7746 86bf 39da e7be 554f 41bf
00000170: 8889 33c0 c4c2 0dc0 ddac 293f 25c9 923e
00000180: ddd0 13c0 afa2 1040 f1b2 c7bf c08e b0bf
00000190: 2fda e93f 8d20 41c0 0011 3dc0 1fa4 453f
000001a0: 7f88 1140 7d92 393f 6036 76bf 0048 1ebf
000001b0: 506a 8dbf d831 ce3e c433 67bf 5d55 e93f
000001c0: 61e8 cebf e8bc 44be a1c2 d83f 8d6b 0c40
000001d0: 8cf9 02c0 edd8 8c3f 093e 0bc0 dab0 0cc0
000001e0: 901c 9f3e 338e 1740 f52d 0b40 73f0 c0bf
000001f0: 8c61 2e40 7732 c33e bafa abbe 2090 f43f
00000200: f7b5 10c0 52ba fa3e 96df 193f 0eb6 5bbf
00000210: 6a4c b2bf bc99 04c0 fb2c 04c0 8b0d 2840
00000220: c685 05bf 2910 d83f 6a54 1740 5750 11c0
00000230: 1299 43bf 9698 993f f652 723e a5ce 09c0
00000240: dbeb f1bf 5f28 adbf a03c 2dc0 4d9f 2140
00000250: 0db1 90bf 1cfa 0fbf 221f 033e b5ad 853f
00000260: a1bf cabf 7dd0 90bf 1954 023f 442b 51c0
00000270: 9bd5 5b3f 97d7 d8bf 78b9 eabf ca76 ac3f
00000280: f2b5 bb3f 9daf 1cc0 9218 8c3f a479 15c0
00000290: 2f2e f13f 9a4c 0d40 d192 ecbf 2ced b9bf
000002a0: 00a4 9bbe af79 afbf 8d27 09c0 0e0d aebf
000002b0: 4ff5 d63f 1d5a 8f3f f17e fe3f dba9 0fbe
000002c0: 3ff0 9dbe 3197 1bbf f323 1cc0 eded 4240
000002d0: 753a c6bf df01 f0bf 6447 c33f d592 edbf
000002e0: 7f88 d03f 16da 03c0 40d1 f33e 76fb 473f
000002f0: 575e 0ac0 ccb9 0640 1b19 733f 0551 2940
00000300: ea9d ac3f 192d 86bf 3116 0d40 dc53 f2be
00000310: ff4f d8be 2aa4 813f 535e ed3f 0368 f1be
00000320: ea20 24c0 1853 aa3f fea9 edbf bacb a23d
00000330: 7482 31c0 8797 07c0 edbb ed3f 2d92 a23e
00000340: b638 d53f ef14 d93f 0710 af3e 5595 843f
00000350: 06cf fbbe 5432 463f 14fb f3bf d4c3 0940
00000360: 0ec4 0b40 caa8 59bf ffd8 54bf 31a7 323f
00000370: a6f9 4a3f eba8 0140 da10 033f c0db 1ac0
00000380: afb1 87bf b891 28c0 9bb3 15c0 785f 0dc0
00000390: de47 963e 0805 b43f 6df5 8ebf 7b7b 0cc0
000003a0: dc59 0840 7239 2840 01f5 81be 98b4 203e
000003b0: 33d4 6f3f 3872 cabf 812b 063f 7f94 973f
000003c0: 6467 a53e fd8f 803e c6a8 b43f 876b 1ec0
000003d0: f6d6 24bf 099f 2740 1929 f3bf 6a68 4d3f
000003e0: f515 14c0 d2c7 b9bf 7649 c5be 46e0 e9bf
000003f0: ae27 883f b556 a43e dce3 8b3f 1ba9 82bf
1.5064228 0.12548034 -0.3917442 2.147487 -2.1603968 -2.7415411 -0.9251664 -0.016993893
0.36984515 2.3171856 2.1631637 -1.1501474 0.50607973 1.8700511 -1.3129504 -1.1780876
-1.2625076 0.92836297 -1.7162371 0.19635083 -1.8939474 1.7815633 -1.4314708 -0.14402592
2.9226441 -1.2414266 -0.49417976 1.3659914 -1.3958762 -1.921577 -1.6665618 -2.2764993
0.8136327 -1.7107248 0.15360849 1.7822511 1.3884258 1.707312 -1.3021464 -2.0291266
0.93570733 0.0072466903 1.1492114 1.3547256 2.4682107 -3.606704 2.2107425 -0.2257056
-1.094277 -1.0578836 1.8787127 -1.2617761 -2.2460537 -0.279234 0.27374208 -1.8794689
0.03444663 -1.6683486 2.0832138 -0.4917243 3.0387464 -1.4394097 2.1229153 0.21685375
2.0851781 -1.6346505 2.3526382 1.9179927 -1.237768 2.2163928 2.4525466 1.974369
0.05213517 1.5578915 0.82623345 -2.3113878 -0.7631745 -0.9980867 0.3557295 0.07757756
0.60007405 -0.91577125 -2.6006887 1.458294 1.350467 -2.8270688 -1.0514556 2.242189
-1.5299436 -1.0490254 -0.45283678 -0.75511676 -2.8052692 -2.2150126 0.66279393 0.28669086
-2.309623 2.2599294 -1.5601484 -1.3793564 1.8269709 -3.0176117 -2.9541626 0.77203554
2.273956 0.7248915 -0.9617672 -0.61828613 -1.1048069 0.40272403 -0.90313363 1.8229176
-1.6164666 -0.19212687 1.6934396 2.1940644 -2.0464811 1.10037 -2.1756613 -2.1982942
0.3107648 2.3680542 2.17468 -1.5073379 2.7247038 0.3812444 -0.33589727 1.9106483
-2.2611063 0.48970276 0.6010679 -0.8582467 -1.392957 -2.0718832 -2.0652454 2.6258266
-0.5215725 1.6879932 2.3645272 -2.2705286 -0.7640544 1.199969 0.2366446 -2.1532376
-1.8900102 -1.3527945 -2.7068253 2.525348 -1.1304032 -0.5624101 0.12804845 1.0443636
-1.583973 -1.1313626 0.5090957 -3.2682657 0.8587281 -1.6940793 -1.833785 1.3473752
1.46649 -2.4482186 1.0944998 -2.3355494 1.8842219 2.2078004 -1.8482305 -1.4525504
-0.3039856 -1.370901 -2.143039 -1.3597734 1.6793612 1.1199375 1.988249 -0.14029638
-0.30847356 -0.60777575 -2.4396942 3.0457718 -1.548659 -1.8750571 1.5256162 -1.8560435
1.6291655 -2.060186 0.47620583 0.78118074 -2.162008 2.1050901 0.9496018 2.64557
1.3485692 -1.0482513 2.2044795 -0.47329605 -0.42248532 1.0128224 1.854441 -0.47149667
-2.564509 1.3306608 -1.8567502 0.07949014 -2.7735872 -2.1186235 1.8572975 0.31752148
1.6657932 1.6959513 0.34191915 1.0358073 -0.49181384 0.77420545 -1.9060998 2.1525774
2.1838412 -0.85023177 -0.8314361 0.69786364 0.79287183 2.025935 0.5119759 -2.4196625
-1.06011 -2.633894 -2.3390872 -2.208952 0.29351705 1.4064035 -1.1168648 -2.1950366
2.1304846 2.6285062 -0.25382236 0.15693891 0.93683165 -1.5816107 0.5241013 1.1842192
0.32305443 0.25109854 1.4114006 -2.475313 -0.64390504 2.6190817 -1.8996917 0.8023745
-2.3138402 -1.4514105 -0.3853261 -1.8271568 1.0637109 0.32097402 1.0928912 -1.0207857

weight f4 [128, 256]
00000000: 92bb 0f3a ae34 0abd 5317 123c dd40 73bd
00000010: 516c 073d 7a17 c9bc c7fb f3bc ab4c 91bd
00000020: 10e6 033d f8f8 01bc 1629 59bc ec61 d43b
00000030: e983 7fbd 28d1 813c 22ec 58bd 27c2 5dbd
00000040: 764c ccbc 3759 7ebc 37d7 8ebd fdf6 113d
00000050: f61a ee3c 627e 46bc e05e 8cbd c2f8 77bb
00000060: b418 e138 c981 0abd b36f b73c 4488 563a
00000070: 5ef5 4fbc 0a94 77bd 693c 36bd 8004 2abc
00000080: 0ecb 04bd 8487 ad3c 2f41 5a3c 07a4 44bd
00000090: 0624 18bd 1386 03bd 53ab 96bd 5939 b0bc
000000a0: 7c29 16bc 71ea 3c3d fae4 093d 489d 91bc
000000b0: c499 2b3d 30ff 9f3c 03ae 8f3c 35bc 8a3c
000000c0: e0c3 2f3c c427 353d 113b 6b3c 9899 e93c
000000d0: 6f5b 01bd 951e 903c ada0 423d 4e98 30bc
000000e0: 5454 f03b ea3e 843c dc40 af3c 5de2 003d
000000f0: 14b4 bdbc 905e 8bbd 7697 1bbd 2d8a 4e3a
00000100: ff88 17bd 3ed2 04bd 4f7a 57bd e25f 883b
00000110: 77d0 fd3c 4d95 ccba d8ea 06bd ee46 253c
00000120: 0d73 69bb 54d5 2b3c 6489 fd3c 35e3 1e3d
00000130: bc26 aa3c 6788 3c3d a59e ecbc ec67 2e3c
00000140: a2a9 a33c 3090 5fbd fcb8 49bb b7bd 8337
00000150: 1f3f 26bb 91d5 cfbc 5f34 503d 19ec 50b9
00000160: 6258 90bb 7306 9c39 20d3 263d 8b80 97bd
00000170: 5dff 0ebd d904 18bd d06c d83c de34 c3bc
00000180: fc1e 88bc d3fb b53c a081 2a3d c7d6 97bd
00000190: 469b 1bbd 8d27 15bd be3a 48bd 9986 58bd
000001a0: 0550 6dbd 04b8 bf3c c6e2 88bd 1711 d8bc
000001b0: 648e 36bd 1ee5 80bd 1c99 c53c 8d3a 253d
000001c0: f03c 35bd 8abf 67bc 73a8 7bbd 62cf 17bd
000001d0: 4644 c4bc ebb6 6dbd e31a 0d3d cc66 b3bc
000001e0: 1817 a03c 7dc9 60bd 1660 403d 1787 7ebc
000001f0: fc0f 6dbd 8979 e13c 6306 94bd 524f 6fbd
00000200: 19a6 fd3c ab58 413d 56bc 483d 878f 503d
00000210: 463a 1fbd 5278 c4bc 3a73 01bd ab0e 03bd
00000220: f957 0cbd 777c 6dbd 5bc6 5abd fc71 c63c
00000230: aa38 233d 53bb 1dbd be49 0ebd a993 36bc
00000240: e037 463d 6fd9 a3bc 2601 70bd 6c3d 5bbb
00000250: fa76 96bc bd8d 98bb 7c41 72bd 8365 1eb8
00000260: 2ea6 9abc 1a4d c33c 64d9 9d3c 4fe6 41bd
00000270: 4405 41bd f8f6 cbbb 13e8 c53c 0513 5dbd
00000280: ab2d 5c3d 9af6 26bd d0a8 20bd 06c6 b33a
00000290: d6c8 393c 02a5 12bd add0 51bd 56c4 873a
000002a0: ef2d 8cbc a880 25bd 75c6 8ebd a347 073c
000002b0: 27e0 06bc 7397 9ebc c05f 76bd 7423 bd3c
000002c0: c79a 253d 7293 0ebd 7b9e e23c bd5c 8fbd
000002d0: 4dcd 3c3a 94ee 153d 1bf1 85bd f757 3dbd
000002e0: 84ca cc3c bd31 1fbd a7d5 17bd b847 a63c
000002f0: 5f4e 0d3d c887 c1bc c35f 98b8 de85 37bb
00000300: 74d7 d53c 4885 ddbc b73c 063c e2cd 59bd
00000310: 8a75 6ebd de97 5c3d bbad 07bc f339 adbc
00000320: 82c7 9c3c 04af 473d c705 a33a e241 293d
00000330: d823 a7bc a44c bcba dda8 22bd 6593 a6bc
00000340: 1227 36ba 8f25 403d ee0c 603d 150c b2bc
00000350: aa19 4cbd b1ff 4d3b a79b d1bc 6e3a 8e3c
00000360: b273 173d 22d7 84bd 8d27 143c d303 003d
00000370: 34f5 de3c ff21 803c add8 58bd 1acc da3c
00000380: cd1d 47bc 222f 4b3d 47f0 ebbc 8c95 1a3d
00000390: 8e69 353c 448f cdbc 2fd2 aa3c 8312 b6bc
000003a0: 6986 bc3c 3889 06bd 816e 0ebd 121f 3bbd
000003b0: 7e11 263c 90c5 a9bb a1e4 88bd f5ef 1c3d
000003c0: 92b7 233d 9fb6 59bb 861c 11bc 85f9 b13c
000003d0: e117 05bd a0b7 a13c 48be 41bd 15e2 54bd
000003e0: 1a97 5cbd 5e5f d9bc 3299 8fbb d4b8 afbc
000003f0: 8939 15bd 6e01 bf3c 8b4c 89bb 98e8 02bd
0.0005482967 -0.033741646 0.008916694 -0.05938803 0.033062283 -0.024547327 -0.029783143 -0.070947014
0.032201827 -0.007932894 -0.013254425 0.0064813998 -0.06238166 0.015846804 -0.05295957 -0.054140236
-0.024938803 -0.0155242 -0.06974643 0.035635937 0.02906559 -0.012115093 -0.068540335 -0.003783748
0.000107334374 -0.03381518 0.02239213 0.00081837573 -0.012692777 -0.060443915 -0.044491205 -0.010377049
-0.03242021 0.021182783 0.013321205 -0.04800799 -0.03714373 -0.032110285 -0.07356896 -0.02151172
-0.009165164 0.04612202 0.033665635 -0.017775193 0.04189469 0.019530863 0.01753903 0.016935447
0.010727853 0.044227377 0.014357344 0.028515622 -0.03158134 0.017592708 0.047516514 -0.0107785
0.0073342714 0.016143281 0.021393232 0.031465877 -0.023157157 -0.06805146 -0.03798624 0.0007878866
-0.036995884 -0.032427065 -0.052606877 0.0041618207 0.030983193 -0.001560846 -0.03293881 0.010087712
-0.0035621554 0.010487873 0.030949302 0.0387909 0.020770423 0.04602852 -0.028884241 0.010644894
0.019978348 -0.054580867 -0.0030780425 1.570476e-05 -0.0025367213 -0.025370391 0.050831195 -0.00019924379
-0.0044050673 0.00029759444 0.04072869 -0.073975645 -0.034911502 -0.037113998 0.026419073 -0.02382892
-0.016616337 0.022214806 0.041627526 -0.074140124 -0.037989877 -0.03641467 -0.048884146 -0.052862737
-0.05793764 0.023403175 -0.066838786 -0.026375337 -0.044569388 -0.06293701 0.02412086 0.04033904
-0.044247568 -0.014144788 -0.061439943 -0.03706301 -0.023958337 -0.058035772 0.03444947 -0.021899603
0.019542262 -0.054879654 0.046966635 -0.015535138 -0.057876572 0.027523773 -0.07227781 -0.058425255
0.03096299 0.0472037 0.049007736 0.05091813 -0.038873933 -0.023983154 -0.03160403 -0.03199641
-0.034263585 -0.057980027 -0.053411823 0.024224274 0.03984896 -0.038508724 -0.034738295 -0.011143603
0.04839313 -0.020001141 -0.058594845 -0.0033453358 -0.01836728 -0.0046555684 -0.059144482 -3.7764676e-05
-0.018878069 0.023840476 0.019268699 -0.04733878 -0.047124162 -0.0062245093 0.024158513 -0.053973217
0.05375449 -0.04076252 -0.039223492 0.0013715632 0.011339387 -0.035801895 -0.0512244 0.0010358195
-0.017111747 -0.0404059 -0.069714464 0.008256826 -0.008232153 -0.019359326 -0.060149908 0.023088194
0.04043081 -0.034808584 0.02766346 -0.0700011 0.0007202223 0.03660448 -0.06540128 -0.046226468
0.02499891 -0.038865793 -0.03706899 0.02029787 0.03449857 -0.023624316 -7.265762e-05 -0.0028003375
0.026103713 -0.027041093 0.0081931865 -0.05317486 -0.058217563 0.05385577 -0.008281167 -0.021145796
0.019138101 0.048750892 0.0012437635 0.041322596 -0.020402834 -0.0014366102 -0.03971182 -0.020333955
-0.0006948571 0.04691082 0.05469983 -0.021734277 -0.049829163 0.0031432922 -0.025586916 0.017361846
0.03697557 -0.06486346 0.009042633 0.031253647 0.027216531 0.01564121 -0.052941013 0.026708651
-0.012153101 0.049605496 -0.028801097 0.037740275 0.0110725295 -0.025092728 0.020852176 -0.022225624
0.02301331 -0.032845706 -0.034773353 -0.045683928 0.010136006 -0.005181022 -0.066842325 0.03831478
0.03996999 -0.0033220423 -0.008856898 0.021725425 -0.032493476 0.01974088 -0.047300607 -0.05197342
-0.05385504 -0.026534732 -0.004382276 -0.021450438 -0.036431823 0.023316111 -0.004190033 -0.0319601

bias f4 [128]
00000000: ecc4 86bd cd85 893c 597b c43d a505 c43f
00000010: 6435 15bb af30 a03e ce56 44bf 115e 1dbd
00000020: 7528 2abd ea7a 76bf 837c 973d 0201 3b3f
00000030: 38ff f93c 031c 93bd b99d 9e3e dd68 00bf
00000040: 09de d8be b6c4 27bf 280f 223c acde 36bd
00000050: 0e2e 603d 57b5 42bd e67a a0bd 0b2f 77bf
00000060: 12ef 2d3f 9d32 2dbf e12f 16be 9f36 88bf
00000070: f94f 78bf 36ca 543e a1e3 66be 7f26 7b3e
00000080: aa3f 8abe 8ebe 793f 9d3b f63c cb31 fd3e
00000090: 29e5 84bf 13ae 4bbd e8ed 2abd fc1b c13c
000000a0: b97a d5be fbb9 74bd f2d5 3a3d a1d9 2abf
000000b0: c5e8 e4be 11fb e1be 0eff 77bf ec10 10bf
000000c0: 5b49 283d 9d38 8bbf 178c a0bf 7f1e dfbe
000000d0: 486f 5ebd a612 94bd 6407 873c 039d 71bf
000000e0: 4314 ab3f 2e7b 7ebf 8631 0fbf daa1 283f
000000f0: 549b 6dbf 32dd 6f3e d782 293f e887 873f
00000100: 6e12 b43c 9b56 2dbf 9cbe 1bbe f642 8cbd
00000110: 435e c7be b90a 2d3f 3e3c a53d 22a9 573e
00000120: b243 5f3f f5c2 103f 4952 15bd 4a99 7fbf
00000130: 8d47 9ebb f307 ba3e 3caa 08bd 976d 44bd
00000140: e8c6 733f 6000 873e 3b41 fd3e eaec 86bf
00000150: 8b74 28bf 0210 04bd fc30 6fbf ed08 f7bc
00000160: f034 afba b48f aa3d a40e 71bf 7946 103f
00000170: d786 0ebf 4191 973f 9cee a33c 8d0f 143e
00000180: d312 2ebf 4393 2f3d ce96 19bd 2ab1 453c
00000190: 2362 1abe 106c dc3b 3c1e 12bb a484 7cbf
000001a0: b810 81bf 6782 9fbe df09 553d 48f0 30bf
000001b0: 9aba 693e 3b88 1dbd 798c 82bf 1e12 f6be
000001c0: 69bf 88bf b27d fb3c e456 9cbe 1d4a 15bd
000001d0: 0876 463f e15a 3f3f acf3 82bf 7543 003d
000001e0: 6fb8 84be b416 36bd 6caa 8abe c287 843e
000001f0: 680c da3c b77a 01bf b6e6 b8bf 8c39 8fbe
-0.065805286 0.016787434 0.09593839 1.5314223 -0.002276742 0.31287143 -0.76694953 -0.038419787
-0.04154249 -0.962813 0.073967956 0.7304841 0.030517206 -0.07183077 0.30979708 -0.5016001
-0.423569 -0.6553453 0.009891309 -0.04464595 0.05473142 -0.04753622 -0.07835941 -0.96556157
0.6794292 -0.67655355 -0.14666702 -1.0641669 -0.9699703 0.20780262 -0.22547771 0.24526404
-0.27001697 0.9755639 0.030057723 0.49452052 -1.0382434 -0.049726557 -0.04173079 0.023572914
-0.41695192 -0.059747677 0.04561419 -0.66738325 -0.4470884 -0.4413686 -0.9687356 -0.5627582
0.041085582 -1.0876652 -1.2542752 -0.43577954 -0.054305345 -0.072301194 0.016483016 -0.94380206
1.3365558 -0.9940671 -0.5593494 0.65871966 -0.92815137 0.23424223 0.6621527 1.058835
0.021981444 -0.67710274 -0.1520943 -0.06848709 -0.38939103 0.67594486 0.08068131 0.21060613
0.8721267 0.5654748 -0.036455426 -0.99843276 -0.004830307 0.3633419 -0.033365473 -0.047956076
0.9522538 0.26367474 0.4946383 -1.054105 -0.6580283 -0.03224183 -0.9343412 -0.030155623
-0.0013367217 0.083281904 -0.94162965 0.5635753 -0.556745 1.1841203 0.020011239 0.14459057
-0.67997473 0.04286505 -0.037497334 0.012066165 -0.15076499 0.0067267492 -0.0022295853 -0.98639894
-1.0083227 -0.31154177 0.052011367 -0.6911664 0.22825089 -0.038459998 -1.0199119 -0.48060697
-1.0683414 0.030699585 -0.30535042 -0.036447633 0.7752385 0.74748045 -1.0230613 0.031314332
-0.25921962 -0.044455245 -0.27083147 0.25884825 0.026617244 -0.50577873 -1.4445407 -0.27973592

weight f4 [2, 128]
00000000: e514 333b f061 8a3b 81e4 d0bf 1b22 6a3d
00000010: 0347 1dbd 23cf 6040 5299 e2be 5393 ec3e
00000020: 6803 e6bc 0c5f d8be 6c53 073f c029 7f3e
00000030: 0bc6 2fbc ca36 e9bc 7fad 293f fd12 013e
00000040: 0908 abbf b2a2 2dbd 783b 073f 5634 213b
00000050: a9fd 16bd 1b06 58bd f2af ebc0 78c2 e5bf
00000060: 75d0 443e 232d 273f 6bae a43e 55b4 d9bf
00000070: a31e 6fbf 1f0b ee3e 8326 27bf 23be 74bf
00000080: ae65 fc3d 4032 35bf 0b33 5f3d 63fc 3bbe
00000090: 79d1 12c0 f1b7 bebc 09d1 99bb 5cc4 3f3c
000000a0: 37bb acbf 0c2a 0ebd f33e 4e3d c3b6 2fbf
000000b0: b57e b6bf 23ef af3f 92cc d53f 2b7f 163f
000000c0: 3b49 843d 8770 c43e 6524 debe 5761 823e
000000d0: a6ae 68bc 490d 503d ea74 de3c 88b6 b9bf
000000e0: 7d63 e1be ca9a 20c0 91d4 153f 727d 8abf
000000f0: 0413 d7bc 3964 8c3f c1c2 bb3e 7784 b8bf
00000100: dc93 833e 4b34 cebf 2e8f a23e 427a 36bd
00000110: b1b2 a5bf 8f22 533e d0c8 28bf 2f68 043f
00000120: 9269 803e 20d5 7e3f 4500 8a3d 6ad3 93be
00000130: 87a1 293d e97a a13e f844 8dbd c44d ad3c
00000140: c6da b3be 22cd 2e3f 8e79 a13e c4c4 183e
00000150: 7534 0fbf c2a9 7cbd af67 fabf 0239 b8bc
00000160: c1bd 963d 74c4 eebd 0093 f1bf f49e 4bbf
00000170: 59c1 04bf 193a 57bf 5875 093b df43 1ac0
00000180: d1a5 c1bd 9254 443d 8ea2 0d3b c83a a83c
00000190: d1e8 debf a9fa 17bf b10d 0cba a619 eebf
000001a0: 9ef4 1cc0 3cd3 d53e e7c2 923f 9cb0 87be
000001b0: ed5a 06c0 0cea 9abc 18b2 d4bf 9380 5a3e
000001c0: d517 a9be 69bd 0d3c 034e 2fc0 ad33 d73c
000001d0: f921 ef3e 20c0 be3e 141b 18c0 3fcf 63bd
000001e0: 8f28 df3e 9bbe 063f 70f8 f73d e8bd 4c3f
000001f0: 4982 a43c 4143 f93e c55f 88c0 9ad2 873f
00000200: b3e6 8c3d 42aa 073d 2212 35c0 0e04 3cbf
00000210: 0cdc a23d 9444 75bd b6e1 e5c0 3579 203f
00000220: 7da1 1b3d d03e 543f e16f 093f ef41 903e
00000230: eff6 563d 98cf 36bd ef1e 3f3e f0d4 1bbf
00000240: 906a 28bd ad14 c7bf 3847 01be 0b9d 943d
00000250: ec07 673d 4ad1 aeb9 fafd 683e 19ab c13e
00000260: 483a 02bf f0f4 9b3f 0709 0a3f be33 29bf
00000270: 6ab8 ed3e 9f5f a73e cca3 9bbf 2a30 b2be
00000280: 6d81 01c0 b14b 3c3f 70ce 273d 61b0 0240
00000290: 2d3d 1f3e 0db4 14bd 1925 223b fc72 0ebd
000002a0: f1a7 f1bf 6de3 93bd abad 953d d040 b5be
000002b0: f0aa 6abd 8457 0b3f 6a20 d53e 7d78 f5bf
000002c0: 8210 15bd 8419 fb3d 2631 fdbe 6ad7 473e
000002d0: b256 e83c 6d90 4d3d eb69 023d e791 87bf
000002e0: 9a3c a7be 0699 173f 7469 9fbf e46b c8be
000002f0: a0c2 05c0 0fc0 b13e e980 1541 bdad 20bd
00000300: 1eea fa3e dd18 1dbe f512 b93e 5b99 143d
00000310: e858 5d3d ae8b 4dbf 96f4 403f 0b81 3fbf
00000320: ac82 8abf d991 c53e 6d1e 86bd a65a 33c0
00000330: 77bc ab3a 0987 c53f dd71 ac3c f5c0 0dbc
00000340: b72a 7e3e fa9f 593f 7689 ad3e aa74 a93e
00000350: 4405 09bf 90b5 8e3d eb71 cc3e f2c3 8d3d
00000360: 79f1 eabc c5e4 a040 eb3b 4dbe 16cb 903d
00000370: f1ff f8bf 6cf3 82bf e712 1e3d 0a33 67be
00000380: dfe6 a1bf 73d0 14bd c5e9 123a 3d8d 55bc
00000390: 6a0f b0be d15f 0cbf dfd6 87bc b2a0 e23d
000003a0: e71e 803e 7f85 393f a45a e13f ad13 3abf
000003b0: 034f 28c0 6419 0b3d ef46 49bd c76f a9bf
000003c0: b402 8ec0 c033 9c3d 3638 1ebe 27d4 c83c
000003d0: 0a99 253f a236 83be 037d c03d 8569 a7bd
000003e0: ee53 043f bb12 f3be 42dd 1ebf e735 10bf
000003f0: bdcb c0bc 5715 ab3e 03fc 80c0 9728 95be
0.0027325687 0.004223101 -1.6319734 0.05716143 -0.0383978 3.5126426 -0.442576 0.4620615
-0.028077796 -0.42260015 0.52861667 0.2491827 -0.0107283695 -0.028468508 0.6628036 0.126049
-1.3361827 -0.042391486 0.5282512 0.0024597845 -0.036863003 -0.052740198 -7.3652277 -1.7949972
0.19220145 0.6530325 0.3216432 -1.7008158 -0.9340612 0.4649286 -0.6529314 -0.95602626
0.12324081 -0.707798 0.054492038 -0.18357997 -2.2940352 -0.02328107 -0.0046941084 0.011704531
-1.3494633 -0.034708068 0.050353 -0.6863825 -1.4257418 1.3744854 1.6703055 0.5878779
0.0645928 0.38367102 -0.43387142 0.2546489 -0.014201796 0.05079392 0.027155358 -1.4508829
-0.44021216 -2.5094476 0.58527476 -1.0819533 -0.026254185 1.0968086 0.36672023 -1.4415425
0.25698745 -1.6109709 0.31749862 -0.044550188 -1.2945157 0.20618652 -0.65931416 0.5172147
0.25080544 0.9954395 0.06738333 -0.28872234 0.04141381 0.31539086 -0.0689792 0.021155246
-0.35127848 0.6828176 0.3153805 0.1491881 -0.5593942 -0.06168533 -1.9562892 -0.022488121
0.073604114 -0.11658564 -1.8872986 -0.7953942 -0.51857525 -0.84073025 0.0020974483 -2.4103925
-0.09455455 0.047932215 0.0021611783 0.020535842 -1.74148 -0.5936685 -0.00053426164 -1.8601577
-2.4524302 0.41762722 1.146573 -0.2650193 -2.0992997 -0.01891043 -1.661685 0.2133811
-0.33025995 0.008651116 -2.7391365 0.026269758 0.46705607 0.37255955 -2.3766527 -0.055617567
0.4358563 0.5263459 0.121079326 0.79977274 0.020081656 0.48684123 -4.2616906 1.0611145
0.0687994 0.033121355 -2.8292317 -0.73443687 0.07952127 -0.059879854 -7.1838026 0.6268495
0.037995804 0.82908344 0.5368634 0.28175303 0.052481588 -0.04463157 0.18664144 -0.6087179
-0.04111725 -1.5553185 -0.12624824 0.07256516 0.05640404 -0.000333438 0.22753134 0.3782585
-0.5087018 1.2184124 0.53920025 -0.6609458 0.4642976 0.3269014 -1.2159362 -0.3480237
-2.0235245 0.73552996 0.04096836 2.0420153 0.1555068 -0.036304522 0.002474135 -0.034777626
-1.8879377 -0.072211124 0.07308515 -0.3540101 -0.057291925 0.54430413 0.41626292 -1.9177395
-0.036392696 0.12260726 -0.4945156 0.19515768 0.028361652 0.050186563 0.031839292 -1.0591401
-0.32663423 0.5921787 -1.2454057 -0.39144814 -2.090004 0.34716842 9.343972 -0.03922819
0.49006742 -0.15341516 0.36147276 0.036279064 0.054039866 -0.8029126 0.7537321 -0.7480628
-1.0821128 0.38587835 -0.06548772 -2.8024077 0.0013102432 1.5431834 0.021050388 -0.008651962
0.24820982 0.8500973 0.33893937 0.3309682 -0.5352366 0.06968224 0.39930663 0.06922139
-0.028679596 5.027926 -0.20042388 0.070699856 -1.9453107 -1.0230536 0.038592245 -0.22578064
-1.2648581 -0.036331605 0.00056042924 -0.013034162 -0.3438676 -0.54833704 -0.01658195 0.110658064
0.25023577 0.72469324 1.7605786 -0.7268627 -2.6298225 0.03395976 -0.049139913 -1.3237237
-4.43783 0.07627058 -0.1545113 0.024515225 0.64686644 -0.2562762 0.09398844 -0.08174423
0.51690567 -0.47475228 -0.6205636 -0.5633225 -0.02353465 0.33414719 -4.030763 -0.2913253

bias f4 [2]
00000000: d311 d1be 2931 dfbd
-0.4083391 -0.108980484
