saved_models/run15/model_1000.pth (torch, 141798 bytes, 6 tensors)

weight f4 [256, 4]
000000 84 c5 07 bf a5 17 12 3f bf d4 dc be 38 c3 ad 3e
       -0.5303576 0.5706733 -0.43131062 0.33938003
000010 d9 c0 88 be bd 63 0e 3f 2f 7b 23 bf db 15 1d bf
       -0.2670963 0.5562094 -0.6385984 -0.61361474
000020 29 3a 2e 3f 35 14 22 bc 62 59 5f 3c 0b bb 98 3d
       0.68057495 -0.009892513 0.01363215 0.074575506
000030 37 75 3d bf a8 9d b6 3c 66 0a 0d be 67 1f a8 bc
       -0.7400698 0.022291973 -0.13773498 -0.020522786
000040 38 a9 93 3e 66 82 0f bf 74 af 14 bf 67 08 e4 bd
       0.2884004 -0.5605835 -0.5808022 -0.11134415
000050 8c 50 47 3e d1 fc c7 3e cf a0 49 3d 38 b1 9b be
       0.1946432 0.3906007 0.049225625 -0.30408645
000060 26 6b 27 be fa 71 f8 3e 07 8c 05 bf 44 80 ae 3d
       -0.16349468 0.48524457 -0.5216679 0.085205585
000070 7a cf c2 3e 41 13 df 3e 65 f0 b3 be 49 5d 0d 3e
       0.38048917 0.43569377 -0.35144344 0.13805117
000080 98 01 a4 bd bb dc a6 3e 41 86 8d 3d 54 b6 28 bd
       -0.080081165 0.3259028 0.069103725 -0.041189507
000090 77 66 04 bf 58 21 0a bd a1 94 44 3e a0 c6 09 bc
       -0.5171885 -0.033723205 0.19197322 -0.008409172
0000a0 e1 5b c0 3e a6 71 a7 be f7 b9 7a be 34 66 7b 3e
       0.37570098 -0.32703894 -0.24485002 0.24550706
0000b0 ff eb 91 3e 12 7f fa 3e 07 bc cd be e0 3c b3 3e
       0.28500363 0.48925072 -0.40182516 0.3500738
0000c0 1a f7 66 bd 0e ea 8e be 6c 9f 26 bc 8c d6 73 3e
       -0.056388 -0.27912945 -0.010169845 0.23812312
0000d0 10 b3 5b 3f 08 07 91 3e c3 51 bb be f5 42 62 be
       0.858201 0.28325677 -0.36585817 -0.22095855
0000e0 b2 9b 43 3e 75 65 9d bd cf a4 be bd 50 e9 4d 3d
       0.19102362 -0.07685367 -0.093087785 0.050271332
0000f0 2f 3c 6a be ad 77 83 3e de d3 e4 bd 0a 15 cf 3c
       -0.2287452 0.25677243 -0.11173223 0.025278587
000100 b0 33 57 3f 5c 25 f5 3d ea 88 91 be 66 70 8b bc
       0.84063244 0.11970016 -0.2842477 -0.01702137
000110 b6 c8 e1 be 23 7d 69 3e 84 ec 0f bd bd bc 86 be
       -0.44098443 0.22801642 -0.03513767 -0.2631587
000120 90 50 84 3e 7c 02 40 bd 99 b9 5d be be 70 ba be
       0.25842714 -0.04687737 -0.21652831 -0.3641414
000130 1d 7d 7b 3d 3d ba 0d be db ec 05 3f 5c 4a 69 bd
       0.061398614 -0.13840576 0.5231454 -0.05695568
000140 fb 3f 15 be c0 f0 1c 3e 9a 83 31 be 63 59 33 bd
       -0.14575188 0.15326214 -0.17335358 -0.043786418
000150 ab 0b f1 3e fc 8f 2d 3d cc ad 82 be ce 7e 7f bd
       0.47079214 0.042373642 -0.25523221 -0.06237679
000160 48 f5 16 3f 09 a4 8c 3d 1e 56 3e be c0 70 e4 3b
       0.5896802 0.06867225 -0.18587539 0.0069714487
000170 20 4f 2b 3d c8 80 d9 3d 4a 7a 8e be d0 3d 27 3d
       0.041823506 0.10620266 -0.27827674 0.040830433
000180 9a 0f f2 be e6 61 0d 3f 9d f6 fb be e3 bc ac be
       -0.47277528 0.55227506 -0.49211589 -0.3373786
000190 5f e0 12 3f e4 63 d5 be 7f be dd be 7a a0 0b 3e
       0.57373613 -0.41677773 -0.433094 0.13635436
0001a0 3d 5d 23 bf 9c ea e8 bd e2 e3 bc bb c9 68 34 3d
       -0.63814145 -0.11372873 -0.0057644704 0.044045243
0001b0 39 b0 30 3e 07 12 da be eb ff 1d be 43 4e 9c 3e
       0.17254724 -0.4259188 -0.15429656 0.3052846
0001c0 a5 ef 45 3e b6 9e 67 3d 46 86 06 bf 77 3f 02 be
       0.19329698 0.056547843 -0.52548635 -0.12719522
0001d0 cf b6 24 be 9f 54 7b 3e 48 9d 5f be 9a 95 ca ba
       -0.16085361 0.24543999 -0.21837342 -0.0015455962
0001e0 db 37 1a 3f d7 05 1b 3e 18 06 8f be 8b 0d e4 bc
       0.6024148 0.15138946 -0.27934337 -0.027838489
0001f0 53 b5 2d be 36 62 97 3d b6 49 f3 be 26 ca 92 be
       -0.16963701 0.07391779 -0.47517174 -0.28669852
000200 bc 39 f0 bd c1 c7 47 3c f2 c9 ae be f8 a4 17 bf
       -0.11729762 0.012193621 -0.34138447 -0.592361
000210 28 39 1c 3f a8 d7 b4 3d d3 e9 f4 3d b0 88 7e b9
       0.61024714 0.08830196 0.11958661 -0.00024274248
000220 cf 62 28 3f 1e 43 7e 3d 7c 1f 1e be f8 4b b4 bd
       0.6577577 0.062075727 -0.15441698 -0.088035524
000230 f9 0c a6 3e f6 04 25 be 97 61 c7 be 88 ec 4a 3e
       0.32431772 -0.16115174 -0.38941643 0.19816792
000240 6f 45 0a bf fe a0 32 be 94 45 af bd 71 03 bd 3d
       -0.540122 -0.17444226 -0.08558193 0.09229172
000250 e5 cd 3d 3e 2b 9c 13 be cd 7a 4b be 63 dd b8 bd
       0.18535574 -0.14415042 -0.19871064 -0.09026601
000260 b6 97 66 3f 24 a4 cf 3d a7 ce 75 be 2b 08 36 be
       0.9007524 0.10138729 -0.24004613 -0.17776553
000270 07 df 48 bf dc 7a 6c 3d aa 12 85 be 9a 36 3a bd
       -0.7846531 0.057734355 -0.25990802 -0.04546223
000280 77 8d 61 bf b0 7c b8 bb b8 be 49 be fb 89 be bc
       -0.88106483 -0.0056300983 -0.1970166 -0.023259154
000290 32 3e e2 be 6d 00 fd be 6e a7 d7 be e4 8f 5b 3e
       -0.44188076 -0.49414387 -0.42119926 0.21441609
0002a0 bb a8 32 bf 63 9a 1c 3d 25 2e 93 bd f1 5b 88 bd
       -0.6978871 0.038233172 -0.07186536 -0.066581614
0002b0 21 ca f7 3e b0 61 e8 be 2e 34 f8 be ac 55 0c be
       0.483964 -0.4538703 -0.4847731 -0.13704556
0002c0 94 36 1e bf 2b 1b 5f 3d fb 10 d9 3d 96 bb 3b 3c
       -0.6180203 0.05446927 0.10598942 0.011458298
0002d0 97 2a 31 be 06 73 65 3e 7f 9a 94 bd be 53 35 be
       -0.17301403 0.22407159 -0.0725603 -0.17707726
0002e0 fd 3b e0 3d 37 95 46 bd 2f 14 30 3e 62 83 bc 3c
       0.10948942 -0.048482146 0.171952 0.023011867
0002f0 db bf ab 3e 0e d2 f2 bd 6f ef 11 3d 44 cd e6 3c
       0.33544812 -0.11856471 0.035628732 0.02817405
000300 9a a9 fe be f2 7d f9 bd f3 fc b2 3e 02 84 8a 3d
       -0.4973877 -0.12182225 0.3495861 0.0676346
000310 9b 51 7c be 3a 7f e4 3e de 33 9e bd 22 79 4b bc
       -0.24640505 0.44628316 -0.07724737 -0.012419017
000320 b1 e2 09 bf 50 8a 0f 3f 71 52 9b 3e e5 fe 11 bf
       -0.5386153 0.56070423 0.30336335 -0.57029563
000330 13 98 d8 3e 12 19 ed 3d a9 ad 77 bd 54 9d 0b bd
       0.42303523 0.115770474 -0.06046835 -0.034085587
000340 79 32 39 3f 27 f7 60 be 01 49 ef bd 48 e6 d8 3d
       0.7234264 -0.21969281 -0.11683846 0.10590798
000350 74 9d df be 7e 71 12 3f dd 02 e7 3d 20 6a 10 3c
       -0.43674815 0.57204425 0.11279843 0.008814365
000360 d3 74 c2 be ee b9 3e 3e 31 50 98 3e 60 7d 9a bd
       -0.37979755 0.18625614 0.2974868 -0.07543445
000370 dc 32 00 3f 00 fb b5 3d 52 26 b9 be e8 c0 13 bd
       0.50077605 0.08885765 -0.3616205 -0.03607264
000380 fd 43 b8 3d f6 da 01 be 10 38 40 3d 05 3f b5 3e
       0.08997343 -0.12681183 0.046928465 0.35399643
000390 0c 3b 65 3e 06 0a 62 be 15 73 bf 3d 62 97 52 3e
       0.22385806 -0.22074136 0.09348122 0.2056556
0003a0 af e3 9c 3e 2d 31 e3 3d 63 38 fd be dc 3e c3 bd
       0.3064246 0.11093364 -0.49457082 -0.09533474
0003b0 bf a6 14 bf 23 ca a0 3d f8 bc 8b be 29 fe f4 bd
       -0.58066934 0.078510545 -0.2729261 -0.1196254
0003c0 6e 4f 47 bf 15 48 ae bd cd 55 51 be 3f 62 8f bc
       -0.77855575 -0.08509842 -0.20442887 -0.017502902
0003d0 2d 98 0f bf 29 9e 37 bd 9e 2c e3 bd ed 8a 0f bc
       -0.56091577 -0.044828568 -0.110924944 -0.00876115
0003e0 85 4f 49 be 08 e8 1d 3e 2d 21 03 bf bd e1 cc 3e
       -0.1965924 0.15420544 -0.512225 0.40015975
0003f0 8b cb e4 be b0 44 14 3d 5a ed 82 be 08 69 92 ba
       -0.4468654 0.036198318 -0.2557171 -0.0011170218

bias f4 [256]
000000 bb b2 79 3f f2 4a 66 3d 14 0b ba bf d3 d2 be bf
       0.97538346 0.056223817 -1.4534631 -1.4908088
000010 ae b3 9b 3f 14 20 a0 bf 10 34 74 3f 57 dd 8b bf
       1.2164209 -1.250979 0.9539194 -1.0926923
000020 66 fe c8 3f 05 47 b5 bf 8c 81 67 3f 4b 07 95 bf
       1.5702636 -1.4162298 0.9043205 -1.1642851
000030 9c 7a cd 3f 05 2e 87 bf 85 aa 9e 3f 85 99 78 bf
       1.6053042 -1.0560919 1.2395788 -0.9710925
000040 a8 8c b6 bf b1 79 2a bf f8 19 fe be 8f 2e c3 bf
       -1.4261675 -0.66591936 -0.49629188 -1.5248584
000050 d7 19 8a 3f 88 e4 76 bf 4b 07 ac bf 92 a1 f3 be
       1.0789136 -0.9644246 -1.3439726 -0.47584206
000060 db 26 8a 3f 25 6f d8 be 0b 86 c3 bf 40 b6 28 bf
       1.0793108 -0.42272297 -1.5275282 -0.6590309
000070 74 d6 be 3d 1b a2 87 3f 0c dd 9d bf 59 d9 c7 3d
       0.093182474 1.0596346 -1.2333083 0.09758253
000080 0e 8f b7 3e 65 c6 a7 bf 54 77 7b bf cf e6 0d 3f
       0.3585133 -1.310742 -0.98228955 0.5543031
000090 6b 7c b4 bf 86 d2 98 3f ff 47 95 bf 4a 76 9a bf
       -1.4100469 1.1939247 -1.1662596 -1.2067349
0000a0 39 38 d8 bf f5 15 8d bf 89 65 b3 bf 58 3a 31 bd
       -1.6892158 -1.1022326 -1.4015361 -0.04326853
0000b0 68 f0 cc bf cb ba e5 3f 30 75 89 bf 69 24 c1 3f
       -1.6010866 1.794763 -1.0738888 1.5089236
0000c0 7f da c6 bf be c2 a8 3f e5 be a5 bf f1 42 bc bf
       -1.553543 1.3184431 -1.2948881 -1.4707929
0000d0 a6 c9 5f bf c9 bd 3c bf 97 56 a1 3c 38 69 65 bf
       -0.87417066 -0.7372709 0.01969461 -0.89613676
0000e0 66 3e f8 be c1 f8 aa bf 47 44 8d be 1c ed 70 bf
       -0.48485106 -1.3357164 -0.27591154 -0.941118
0000f0 e4 61 c3 bf 5e 14 a0 bf d0 d7 69 3e 1b 0d 47 bf
       -1.5264249 -1.2506216 0.22836232 -0.7775437
000100 f8 d5 8c 3f 79 bd 85 bf 18 c8 49 bf 32 b5 83 bf
       1.1002798 -1.0448447 -0.78820944 -1.0289671
000110 5f d0 39 bf 04 48 8c bf ed c4 af 3f a0 62 0f bf
       -0.72583574 -1.0959477 1.3731972 -0.56009865
000120 37 b7 76 bf 7d 8a 8b 3f 49 56 51 bf c6 b9 7c bf
       -0.96373314 1.0901638 -0.81772286 -0.9872097
000130 f8 f7 34 bf 7f be ed bc 5d 81 34 3f db c2 d5 3f
       -0.7069087 -0.0290215 0.7050989 1.670009
000140 2f fe 8b be 96 39 ae bf 10 ab 8f 3e e8 fe 93 bf
       -0.27342364 -1.3611324 0.28060198 -1.1562166
000150 5d ed 7d bf 03 bb 2d bf 81 3b a7 bf 8b 7c 9c 3e
       -0.9919031 -0.6786348 -1.3065034 0.3056377
000160 f2 10 4a 3f 7d c1 94 bf 07 8d be 3f 0b 0f 98 bf
       0.78932106 -1.1621548 1.4886788 -1.1879591
000170 ab 77 ab 3f 3b d2 af bd 4a 33 a2 bf 15 8c 2a bf
       1.3395895 -0.0858502 -1.2671902 -0.6662
000180 c4 eb 95 bf 9a c3 98 3f fd 45 73 bf b0 36 b4 3f
       -1.1712575 1.1934693 -0.9502867 1.4079189
000190 9e 4b 69 bf ea 87 76 bf 75 bd 78 3f b3 0c d2 3f
       -0.9113101 -0.9630114 0.9716409 1.6410125
0001a0 f9 6b 00 3f a6 04 aa 3f 3f 7f a9 bf b4 64 df be
       0.50164753 1.3282669 -1.3241957 -0.43631518
0001b0 1e 07 bd bf b0 5a b1 bf 82 69 c7 bf aa eb 85 bf
       -1.4767797 -1.3855801 -1.5579073 -1.0462544
0001c0 70 e5 97 3f 68 d1 68 bf 22 9b 55 bf 72 13 2e 3f
       1.1866894 -0.9094453 -0.8343984 0.6799842
0001d0 f7 bc bb 3f cb 61 f8 bd f2 6b a6 bf c9 d0 c2 bf
       1.4667042 -0.121280275 -1.3001692 -1.5219966
0001e0 73 47 aa 3f be 83 eb bd 25 ec a2 bf 5b 8e af 3f
       1.3303055 -0.11499737 -1.2728316 1.3715318
0001f0 96 74 c8 be e9 09 80 bf 18 ae 92 3f 58 a6 83 bf
       -0.39151448 -1.0003024 1.1459379 -1.0285139
000200 58 86 62 bf 30 5e d5 3f 8c 81 80 bf d7 47 83 3f
       -0.8848624 1.6669369 -1.0039535 1.0256299
000210 ff c8 61 bf e4 e4 87 bf 89 16 b5 3f 8e 43 0c 3f
       -0.8819732 -1.0616727 1.4147502 0.5479058
000220 61 6a c3 bf d2 72 84 bf f4 79 06 3f 94 b4 a2 3f
       -1.5266839 -1.034754 0.52529836 1.2711358
000230 25 db a7 bf 53 3c 02 bf 6c cf 30 bf 0b e9 a3 3f
       -1.3113753 -0.508733 -0.690665 1.2805494
000240 27 81 a7 bf 97 27 74 bf 72 36 86 bf b0 d8 48 bf
       -1.3086289 -0.9537291 -1.0485365 -0.7845564
000250 24 ac 9b bf 34 8b 70 be 21 77 c6 bf 9c 12 d2 3f
       -1.2161908 -0.23490602 -1.5505105 1.6411929
000260 3a a3 84 3f ef b2 b9 3e b3 80 8c bf 67 5c b4 3e
       1.0362313 0.36269328 -1.0976776 0.35226747
000270 a0 b4 90 bf 28 8a 92 bf b0 ed e0 bf 1b 0c a9 3f
       -1.1305122 -1.1448412 -1.7572536 1.3206819
000280 e3 e6 09 3e dd db ef 3f 01 69 8c bf 43 88 a2 bf
       0.13466983 1.8738972 -1.0969545 -1.2697834
000290 ba 82 8e bf 47 94 d1 bf ca 74 c7 3c 5c 58 b4 3e
       -1.1133645 -1.6373376 0.024347682 0.35223663
0002a0 1b f9 c1 3e 6c 44 ab bf 56 fc 81 3f c2 73 84 3f
       0.37885365 -1.3380256 1.0155132 1.0347826
0002b0 1f 0e 69 bf e0 62 a5 bf 87 07 30 3e 4a 2f a4 bf
       -0.9103717 -1.2920799 0.17190371 -1.2826931
0002c0 f0 7f 06 bf 43 95 5a 3e de 67 86 bf 67 f1 b0 bf
       -0.5253897 0.21346001 -1.0500448 -1.382367
0002d0 ed b5 96 bf 46 a8 85 3f 07 d0 94 bf 70 7f 4f 3f
       -1.1774269 1.0441978 -1.1625985 0.8105383
0002e0 7e 7d ba 3f 60 e0 87 bf 39 f5 c0 bf 50 a6 74 bf
       1.4569547 -1.0615349 -1.5074836 -0.9556627
0002f0 d5 6d ae bf 5f 08 99 bf 27 c6 c8 bf 0c cf bc 3f
       -1.3627268 -1.195568 -1.5685471 1.4750686
000300 10 1c b6 bf 24 8b 91 3f 1b 60 2c bf 50 b3 b6 bf
       -1.4227314 1.1370587 -0.67334145 -1.4273472
000310 b2 07 b7 bf ee a4 b9 bf 4a 5b c1 bf bf 13 cb bf
       -1.4299223 -1.4503458 -1.5105984 -1.5865401
000320 e9 ac a6 3f 6a 80 7c 3f c1 df 56 bf 87 c4 29 3f
       1.3021518 0.98633444 -0.8393517 0.663155
000330 d5 67 84 3f 04 14 20 3f 17 4d 40 bf b5 ab cc be
       1.0344187 0.6253054 -0.7511763 -0.39974752
000340 cd a8 db 3f 91 52 c2 bf 97 8b 49 bf 18 56 a6 bf
       1.7160889 -1.5181447 -0.7872862 -1.2995024
000350 56 5c 86 bf 97 fb a4 bf f7 57 5a bf 4e ae 89 bf
       -1.0496929 -1.2889279 -0.85290474 -1.0756319
000360 2d d6 a8 bf 31 88 b9 bf 1e 1e 52 be c6 06 78 bf
       -1.3190361 -1.4494687 -0.20519301 -0.96885335
000370 00 8c 8e 3f 4d b4 8a 3f fd a8 82 bf 58 84 c3 3f
       1.1136475 1.0836273 -1.0207821 1.5274763
000380 d6 c3 56 3f c4 e5 2d bf 8d c4 b4 3f c8 45 1b bf
       0.8389257 -0.6792872 1.4122483 -0.6065335
000390 b7 e6 93 bf a0 0b 88 bf b8 3f dc 3f 46 b1 cc bf
       -1.1554784 -1.0628548 1.7206945 -1.59916
0003a0 e9 e3 bc bf c8 3a 48 be 2f 74 87 3f 1e 18 fa be
       -1.4757053 -0.19553673 1.0582331 -0.48846525
0003b0 35 e6 97 bf 82 66 55 3f 8c 01 cb bf cb 9f cd 3f
       -1.1867129 0.8335954 -1.5859847 1.606439
0003c0 5a 98 86 3f 70 55 0e bf 85 39 c2 3e 80 35 90 3f
       1.0515244 -0.5559912 0.3793451 1.1266327
0003d0 bb f4 d0 be 00 81 a2 3f a0 e4 46 bf f6 8d 99 3f
       -0.40811715 1.2695618 -0.77692604 1.1996448
0003e0 18 b0 74 3c ff f0 4b bf 38 6d 8c bf b6 57 d5 3f
       0.014934562 -0.79664606 -1.0970831 1.6667392
0003f0 30 05 ca 3f 9d 26 c3 bf ac 5d 91 3f e1 17 01 3f
       1.5782833 -1.5246159 1.1356711 0.5042706

weight f4 [128, 256]
000000 11 c7 28 3c f4 91 b6 bc 7b e9 de bb a2 ca 4f bc
       0.010301367 -0.022286393 -0.0068027354 -0.012682589
000010 89 bd c5 3c 19 ee 8a bc 5f 08 6e 3a 75 de 23 bc
       0.024138229 -0.016959237 0.0009080227 -0.010001768
000020 99 1d 88 bd c2 55 86 bd 28 5c 73 bc 90 96 a0 bc
       -0.0664627 -0.06559326 -0.014853515 -0.019603044
000030 a9 f2 58 bb 3a a4 0c bd af 09 de bc bd 0c 32 3d
       -0.003310362 -0.034336306 -0.027104227 0.04346918
000040 c1 c6 31 3c 0f fe c4 3b f8 3f 4a bd 46 07 df bc
       0.010850609 0.0060117315 -0.04937741 -0.027225148
000050 b7 80 8c 3b bc 83 3d bc 9d 16 cf bc 30 02 0f bc
       0.004287805 -0.011567052 -0.025279338 -0.008728549
000060 01 e4 bb bc 3a 7a 2e bc 89 17 26 3c e7 d4 3b 3d
       -0.02293587 -0.010649258 0.010137447 0.045857336
000070 02 fa 3d bd 6e c2 56 3d 9d 81 6d bc c3 27 19 3d
       -0.046381004 0.052431516 -0.014496234 0.037391435
000080 e8 c5 3a 3d 79 c3 68 bd 94 19 5a bc 4f ab 06 3d
       0.045598894 -0.056827042 -0.013311762 0.032878216
000090 87 fb 98 bc ec 1a f6 3b 15 4f 0c bd 91 56 06 3d
       -0.018674625 0.0075105336 -0.034255106 0.0327974
0000a0 76 6f a1 3c 34 5c cd 3c e7 6d e8 bc 3a 74 62 bd
       0.019706469 0.02506838 -0.028372718 -0.055286624
0000b0 c2 5f b3 bb d5 b2 2c 3c 34 1c 0b 3d 10 5d fc 3c
       -0.0054740617 0.010540684 0.033962443 0.030806094
0000c0 0f 34 08 3d 27 d7 57 bd 3d ab 9b 3c 26 6a 3e 3d
       0.033252772 -0.05269542 0.019002551 0.04648795
0000d0 1d 88 3c 3d c8 08 9e bb 75 79 14 bd 13 fe 89 bd
       0.046028245 -0.004822824 -0.036248643 -0.06737914
0000e0 28 a6 1b 3c 61 8b 50 3d 36 9c 25 bb 01 2a 67 3b
       0.009500064 0.050914172 -0.002527011 0.003527284
0000f0 9b 38 d7 3b f9 85 87 bc bd c2 62 bd d1 f2 d8 3c
       0.006568027 -0.016543375 -0.0553615 0.026482971
000100 ea 5e b1 bc 52 12 d2 3c 1f 46 22 bd 7d 40 01 bd
       -0.021651704 0.025643501 -0.039617654 -0.03155564
000110 99 56 0a 3d 70 91 68 bd 16 5c e0 bc 17 cc e5 3c
       0.033773992 -0.056779325 -0.02738766 0.02805142
000120 ad fc 79 bd 3d f7 9e bc fe b0 af 3c c4 2f 12 ba
       -0.061031986 -0.019405002 0.021446701 -0.00055765756
000130 04 03 51 bd 84 0e af 3c 36 f6 4f bd a3 a0 19 3d
       -0.051028267 0.021369226 -0.050771914 0.03750671
000140 60 ca 1f 3d 81 2b d9 3c ee 14 78 bd 9b d0 f0 bc
       0.03901136 0.026510002 -0.060566835 -0.029396346
000150 82 df 40 3d 97 f9 87 bd 7b 85 4a 3d 88 79 11 3c
       0.047088154 -0.06639402 0.049443703 0.008879073
000160 54 46 51 bd 79 6e bf 3c f3 ca 16 bd d9 27 2f 3d
       -0.05109246 0.023368107 -0.03681464 0.04276261
000170 2a 40 8e bd 1b 98 71 bd 23 19 fb 3c 37 8f 8d bd
       -0.06945832 -0.05898295 0.030651635 -0.06912082
000180 ec 7e 29 bd 42 38 1f 3d b9 e9 72 bc a6 d2 31 3d
       -0.041380808 0.03887201 -0.014826232 0.04341378
000190 23 5a d8 bc fa 2a 74 3c d7 f2 b1 3c 04 30 3e bd
       -0.026410168 0.014902825 0.02172224 -0.04643251
0001a0 26 5c b5 bc 7e 98 94 ba e4 6a e4 3c 5d 68 f4 bc
       -0.022138666 -0.001133695 0.027883 -0.02983492
0001b0 02 27 a3 3c 5c 36 79 bd 1d 58 87 bc 9b 6a 6d bd
       0.019916061 -0.060842857 -0.016521508 -0.057962995
0001c0 a3 45 c2 ba ef 9b da 3c da b5 55 3d a3 ac 40 3c
       -0.0014821779 0.026685683 0.05217538 0.01175991
0001d0 bc fc 09 3a 5f d7 2a 3d 30 1b 51 bd cf b0 f1 3b
       0.00052637956 0.0417093 -0.05105132 0.0073758136
0001e0 bf 85 51 bd 3e fa 20 3d 5a e6 e8 bc 83 ed 43 bd
       -0.05115294 0.03930115 -0.028430153 -0.04783393
0001f0 5b 01 86 bd 43 29 22 3d 54 9a 5e bd 9d 83 29 bd
       -0.06543227 0.03959013 -0.054346398 -0.04138528
000200 a9 90 e2 bc ac 2b 62 bd 14 3d 24 bd 9a 1f 0d bd
       -0.02765687 -0.05521743 -0.04009731 -0.034453966
000210 0f 42 7b bd 91 f9 93 bd 84 20 cf 3c 69 62 49 3d
       -0.061342295 -0.072253354 0.02528406 0.049166117
000220 5a 74 fe bc 7e 24 2e bb db dd 36 bd ab f8 0a 3d
       -0.03106134 -0.0026572044 -0.04464517 0.033928555
000230 e6 4d 91 3c 14 5f 26 bd 2b 04 67 bd 84 d5 15 3b
       0.01773734 -0.040618017 -0.05640046 0.002286286
000240 cd 64 e2 bb 1c 54 2e bd 35 b4 bb 3c b4 2c 74 bd
       -0.006908989 -0.04256068 0.022913078 -0.059612945
000250 01 5a e3 bc 25 d8 e7 bc 34 71 be 3c 93 b8 c2 bc
       -0.027752878 -0.028301308 0.023247339 -0.023769652
000260 e1 ab 6a bd 16 2d 93 bd e3 c5 40 bd 87 3f 13 bd
       -0.057292823 -0.07186334 -0.04706372 -0.035949256
000270 c2 05 80 3c 90 62 c0 bc 73 8f 6f bd 05 5a 7e bb
       0.015627746 -0.023484498 -0.058486413 -0.003881098
000280 bc c5 57 bd 5f 90 85 bd 4f cd d1 3c 13 34 43 3d
       -0.05267881 -0.06521677 0.025610594 0.047657084
000290 11 f7 9a bc 80 f4 ed 3b 5f 0c 4f bd 6e ed 93 3b
       -0.018916639 0.0072618127 -0.050548907 0.004514388
0002a0 96 3c 7a bd b8 d5 87 bd ac 10 bc 3c 4c 3b f4 3b
       -0.061092936 -0.066325605 0.022957169 0.007453358
0002b0 df 22 7d bd ea e6 47 3d dd f0 d2 bb 3f 91 12 bc
       -0.061800834 0.0488042 -0.0064374045 -0.008945762
0002c0 50 10 9b 3c 5e f9 dc bb 44 c2 4b bc 4b ef 7e bd
       0.018928677 -0.006743594 -0.012436453 -0.062239926
0002d0 80 f3 da bc d1 b8 f2 3c e3 cc 6e bd eb d4 1a 3c
       -0.026727438 0.029629143 -0.058300864 0.009450178
0002e0 20 2a 42 3d 97 1a b4 3a b6 de d8 bc 91 e1 e9 3b
       0.047403455 0.0013740835 -0.026473384 0.0071374853
0002f0 8d 1f 8d bd 98 1f 14 3d 04 d2 28 3d 85 c6 15 3d
       -0.068907835 0.036162943 0.04121591 0.036566276
000300 8e b3 17 3d c2 17 90 3b eb eb a3 bb 1d e3 80 bb
       0.03703647 0.0043973634 -0.005002489 -0.003933324
000310 d1 5d 06 3b f7 a0 0f bd 58 b0 89 bd 4a 81 a9 3b
       0.0020502696 -0.035065617 -0.06723088 0.005172883
000320 68 e6 3a bd bb 31 35 bd 1b 35 0a bd b6 af 10 3d
       -0.04562989 -0.04423688 -0.03374205 0.03532382
000330 67 8b b3 3b 17 2c 46 3b 7a 1a d9 bc 02 6d 53 3d
       0.0054792645 0.0030238682 -0.026501883 0.05161763
000340 2d 34 6b bd be eb 6a bc 4a 9b 38 bd 9d d2 42 bd
       -0.057422806 -0.014338432 -0.04506997 -0.047564138
000350 78 4b fa 3b d7 09 27 bd 1e 75 1c bd ec 65 0b 3d
       0.007638391 -0.04078087 -0.03819763 0.034032747
000360 6e d5 14 3d 26 68 41 3d e4 19 10 bb e2 e0 a9 3c
       0.036336355 0.047218464 -0.0021988088 0.020737115
000370 93 77 d6 3c 57 ae a0 3c 42 fc 1f 3d f5 0f 06 3c
       0.026180064 0.019614382 0.03905893 0.008182515
000380 3a 86 36 3c a6 74 12 3d 00 2b 5b 3c 12 92 e7 3b
       0.011140401 0.035755776 0.013376951 0.0070669735
000390 23 43 e8 bc 77 39 92 ba 3a 4a a1 ba 0b 1a 45 3d
       -0.028352326 -0.0011156042 -0.0012305446 0.04812054
0003a0 0e c4 40 bd 7f f7 f9 3c 49 df 79 bd ac c7 c3 3c
       -0.047061972 0.030513523 -0.061003957 0.023898922
0003b0 d6 88 2b 3d 1b b7 26 3d a5 57 88 3c 86 54 19 3d
       0.041878544 0.040701967 0.016643355 0.037434123
0003c0 9e d2 99 3c 5c 6a 50 3c 83 ec 07 bd a1 30 4a bd
       0.018777188 0.012720671 -0.03318454 -0.049362782
0003d0 e0 45 ab 3b cd f2 87 bd 15 86 d9 bc 89 32 72 bc
       0.0052268356 -0.066381074 -0.026553193 -0.014782556
0003e0 28 94 68 3c 39 1f 77 bd ad e4 2a bd 94 c5 9b ba
       0.014195479 -0.06033251 -0.04172199 -0.0011884444
0003f0 5f 0f c2 bc e4 d1 1f bd c1 f7 93 bd b2 30 2d bd
       -0.02368897 -0.039018527 -0.0722499 -0.042282768

bias f4 [128]
000000 2d bc 90 bd 03 ec dc 3e ea 8d 35 3d 5b 4a 6e bf
       -0.07067142 0.43148813 0.044324793 -0.9308221
000010 57 8f 91 bd 8a aa 22 bf 2c 64 43 be 2c 81 ae bc
       -0.07107418 -0.6354147 -0.19081181 -0.021301828
000020 ac 41 88 bf b6 c2 10 3f 9d 79 8a be 30 ec 79 be
       -1.0645041 0.56547105 -0.2704591 -0.24406505
000030 62 b2 31 3d ad 13 28 3d b0 1b 86 bf 7a d4 7c be
       0.04338301 0.04103439 -1.04772 -0.24690428
000040 b4 d2 58 bd e7 58 31 be d2 70 19 bd 40 02 5d bd
       -0.052935317 -0.1731907 -0.03746111 -0.053957224
000050 da 39 85 bd d2 e0 ab bc 41 4d 39 bf 8e af a7 3e
       -0.06505175 -0.020981226 -0.72383505 0.32751125
000060 05 2d 20 be 8d dc 96 bc b3 3a 8f bd 08 ae 8d bf
       -0.15642174 -0.018415714 -0.06993618 -1.1068735
000070 4c 74 04 be a7 fc db bb 26 40 38 bd 3a d5 d5 3e
       -0.12934989 -0.006713468 -0.04498305 0.4176424
000080 48 fa e8 3c 54 f2 3b bf 0b 51 73 bf 96 f6 c4 be
       0.028439656 -0.7341664 -0.95045537 -0.3846938
000090 c6 6a 00 be 22 ca a2 bc f7 8c 07 3d 4b d6 08 bc
       -0.12540731 -0.019871775 0.03309342 -0.008351873
0000a0 b3 b6 cc bb 8c 08 26 bc e7 7c 1a bd ae c8 38 bd
       -0.0062473654 -0.010133874 -0.037716772 -0.045113258
0000b0 1b 47 3a bd 4c 75 8b bf eb 12 2b bd 1d 70 6b bf
       -0.045477968 -1.0895171 -0.04176609 -0.91967946
0000c0 1d 9f c3 be 67 59 d6 3c b8 c1 70 bd e9 51 95 be
       -0.3820733 0.026165677 -0.058778495 -0.29164055
0000d0 53 91 ba bc f1 77 a5 bc 76 2f 92 bd d7 ed 3a be
       -0.022774374 -0.020198794 -0.07137959 -0.18254791
0000e0 ae b5 ce 3b 62 fe 85 bf 23 f3 3c bf d5 91 37 bf
       0.006308279 -1.0468256 -0.738085 -0.717069
0000f0 17 1c 66 bf 02 df 69 bd 17 9d 80 bf 83 41 25 bf
       -0.8988661 -0.057097442 -1.004794 -0.6455309
000100 8b ad de bd 60 ae 3d 3f c8 5b 27 bb fa 83 d6 be
       -0.108729444 0.740942 -0.0025536884 -0.41897565
000110 9d 84 c2 bc c5 9e 89 bd 0f 76 f8 bc 6b 59 be 3b
       -0.023744876 -0.06719736 -0.030329732 0.0058089993
000120 d6 fe 75 bc c9 8d df bc d4 98 bb bc 00 2f 14 be
       -0.015014371 -0.027289288 -0.022900023 -0.14471054
000130 0a af f2 3c b4 d5 c0 be 14 7a e9 3c e1 90 80 bf
       0.02962448 -0.37663043 0.028500594 -1.0044214
000140 62 76 62 bd 77 79 d3 3c 7a ee b1 3c b6 f0 f0 3e
       -0.05528868 0.025814755 0.02172016 0.47058648
000150 82 0d 87 bf 28 1d 5e bb f8 86 4b bf d1 40 7b 3c
       -1.0550997 -0.003389189 -0.7950282 0.015335278
000160 61 31 44 3d 8f f2 95 bf 28 6d c5 bc c4 10 12 bf
       0.047898654 -1.1714648 -0.024099901 -0.5705683
000170 2b 5a 13 bf bd 5e 82 bf 83 0a 17 bf 9e 19 6f bf
       -0.5755946 -1.0185162 -0.59000415 -0.93398464
000180 65 8a a0 bd e9 8b 3b bf 69 ee c0 bd ef f7 08 bf
       -0.07838897 -0.7326036 -0.09420473 -0.53503317
000190 4c 2e 50 3c ca e7 82 bf a9 d7 84 bf 21 21 b9 3e
       0.012706351 -1.0226986 -1.0378314 0.36158088
0001a0 98 56 81 bf d3 98 77 3c 34 44 65 bf 02 94 e0 be
       -1.0104551 0.01511212 -0.89557195 -0.4386292
0001b0 6e 96 37 3c e5 4a 0c bf e2 f4 13 be d4 a8 40 3d
       0.011205299 -0.5480178 -0.14448884 0.047036007
0001c0 05 e2 73 bc ca 6a 3d 3a 88 ca 70 3b fa eb 6a bf
       -0.01488543 0.00072256906 0.0036741812 -0.9176632
0001d0 e2 32 0b bb 3e fb ac 3c c1 38 9b bc 82 00 8d bf
       -0.0021240045 0.021115895 -0.01894796 -1.101578
0001e0 ae 15 2f be 07 78 8c bf 22 1c 95 be 90 f6 c2 be
       -0.17098114 -1.097413 -0.29123026 -0.38078737
0001f0 39 06 c6 be 10 f0 bd bc a9 6e e7 be b6 f6 3c 3d
       -0.38676623 -0.02318576 -0.45201614 0.04613372

weight f4 [2, 128]
000000 c6 63 34 3d fe a9 86 ba 69 d9 93 3d 22 38 c2 3f
       0.044040464 -0.001027405 0.07219202 1.517338
000010 b2 e8 0d 3d 28 56 d2 bf b6 9a 35 bf 20 43 b1 3c
       0.034645744 -1.6432543 -0.70939195 0.021638453
000020 f8 23 24 3f 6d 15 45 bf f9 73 fe bf 73 88 d1 bf
       0.64117384 -0.7698582 -1.9879142 -1.6369766
000030 15 dc 5a 3d db c8 5a 3d 6e 91 09 c0 a8 3e b3 bf
       0.053432543 0.053414207 -2.1495013 -1.4003496
000040 46 84 71 bc 17 27 73 3f 1e 7e 92 3d f5 23 57 3d
       -0.014741009 0.9498152 0.07152961 0.052524526
000050 36 53 66 3b 5c 29 11 3d ad 30 a8 be 8c 0b af be
       0.0035144812 0.035439834 -0.32849637 -0.34188497
000060 db 72 19 bf 5b 6c 61 bd 43 9f db 3c 8d bb aa bf
       -0.5994088 -0.055034976 0.02680934 -1.3338486
000070 82 31 d4 3d ca b4 a1 3c 2f 90 43 3d 7e 5f c0 be
       0.10361005 0.019739527 0.047744926 -0.37572855
000080 6e 1c a5 be 2e 60 0f bf 43 f2 ac 40 51 b6 b5 bf
       -0.32248253 -0.56006134 5.404573 -1.4196264
000090 1f de 9a 3d 4d d6 42 3d 39 5c 8e bc bf b9 63 3d
       0.075618975 0.047567654 -0.01737796 0.055597063
0000a0 e8 c7 9e 3d 93 69 ea 3c ba e1 4a 3b 0f 1d 5c 3d
       0.07752973 0.028614795 0.0030957297 0.05373865
0000b0 80 9a 68 3d 18 df a3 be 17 3b 8c bd 1a d0 fc 3e
       0.056787968 -0.32006145 -0.06847208 0.4937752
0000c0 8a 3a 2a 3e b8 05 1d 3d 61 81 52 3d 05 a1 52 3f
       0.16623893 0.038335532 0.051392917 0.82276946
0000d0 10 97 82 3d 97 94 96 bc c6 ca 79 3d ba e0 ed 3d
       0.06376469 -0.0183814 0.060984395 0.11615129
0000e0 55 d7 85 bc 1e 04 d9 40 5a a0 bb bf 9e db 08 c0
       -0.01633803 6.7817526 -1.465831 -2.1384044
0000f0 0c 5c 18 be 81 f3 0f 3d e6 7c 04 c0 67 19 54 bf
       -0.14878863 0.035144333 -2.0701232 -0.8285126
000100 29 15 30 3e d3 d0 e1 be 77 e3 44 bd 68 00 1f bf
       0.17195572 -0.44104633 -0.04806849 -0.62109995
000110 e3 86 d4 3b 4f 5b a4 bc 30 aa 5a 3d 23 e5 52 3d
       0.0064858063 -0.02006307 0.05338496 0.051488053
000120 d4 87 30 3c 39 bd 5a 3d c4 da ba bb ef 93 b0 be
       0.010774571 0.053403113 -0.0057023484 -0.34487864
000130 8e 9c df bc 45 3e 1e 3e 31 6a 01 3d 7d 7d 45 bd
       -0.02729633 0.15453441 0.031595413 -0.048215378
000140 7c 6e ae bd 5f 30 9e 3d ff 22 38 bb 1e 3b e7 be
       -0.08517167 0.0772407 -0.0028097031 -0.4516229
000150 95 75 bb bf 3f 7a d8 bc 89 2d 41 bf 03 22 a7 3c
       -1.4645258 -0.026425479 -0.75460106 0.02040196
000160 6b 07 2b 3c 64 4c 91 bf 3d 5f 40 bc d1 48 9f 40
       0.01043878 -1.1351438 -0.011741457 4.9776387
000170 46 16 5e 3f d0 17 21 c0 31 a8 3f 3d 50 b4 c8 bf
       0.86752737 -2.5170784 0.04679126 -1.5680027
000180 04 02 51 3c 48 7c a5 be 95 e3 01 bf 60 ca 7b bf
       0.012756828 -0.32321382 -0.5073789 -0.98355675
000190 d7 8e a6 bb 6b 57 ae bf 97 34 7d bf ef eb e6 3f
       -0.005082946 -1.3620428 -0.9890837 1.8040751
0001a0 e5 e0 ec be 3f bb 20 3d 15 51 e0 bf d2 b0 22 3e
       -0.4626533 0.03924107 -1.7524744 0.15887764
0001b0 df d0 9a 3d 9f 40 3f c0 1a b3 75 3f cc 24 20 bd
       0.0755937 -2.9883192 0.9597641 -0.039097592
0001c0 05 88 11 bd 08 6e 85 bc 85 d1 e5 3b 83 b7 99 be
       -0.03553011 -0.016287819 0.007013502 -0.3002282
0001d0 b9 01 16 3c 52 09 ba bc 25 ed 8d 3c d3 f1 e6 bf
       0.009155684 -0.022709522 0.017324993 -1.8042549
0001e0 96 b6 bf bf 3f 63 05 c0 f4 c8 e8 bf 7a f3 0d c0
       -1.4977596 -2.0841825 -1.8186326 -2.2179856
0001f0 5d 5c 1f c0 43 81 61 3d 36 84 62 c0 2d 4a 83 3d
       -2.4900124 0.055054914 -3.5393195 0.06410632
000200 db 95 97 3c 26 23 12 bf be 25 6b bd 5c 09 7b c0
       0.018504074 -0.5708488 -0.05740904 -3.9224463
000210 07 6d 8a 3c 68 01 32 40 f5 04 21 3f 3f 2b 1a 3d
       0.016897691 2.7813358 0.6289819 0.0376389
000220 9a 8c 9f c0 4b bb 0f be 27 e7 aa 3f 9f 3b 3c 3d
       -4.9859133 -0.1403629 1.3351792 0.045955297
000230 74 0e fc 3b cc 13 1c 3c b8 b6 c0 be 05 04 5b 3f
       0.0076921526 0.009526204 -0.37639403 0.8555301
000240 53 fa 83 3d 81 01 d7 be e7 49 68 bd e6 cb 16 3d
       0.0644423 -0.41993335 -0.056711104 0.036815546
000250 c7 cc 32 bc 96 68 a2 bd e6 54 97 bf ee 99 bd be
       -0.010913081 -0.079301044 -1.1822784 -0.37031502
000260 ed c7 51 3f 02 70 82 3d f3 77 45 3d 37 2c 2e 3d
       0.8194569 0.0636902 0.048210096 0.042522635
000270 ce b0 49 bd 4a 6a 88 3d b2 f6 18 bc 02 10 ad be
       -0.04924088 0.06660898 -0.0093361605 -0.33801275
000280 f6 20 a8 3e 83 c8 0d bf ed ec 32 c0 4b 0d fb 3e
       0.32837647 -0.5538408 -2.7957108 0.4903358
000290 0e 5d fa 3d 74 8e 4c 3a 19 1e 68 3a 0e 83 4a bd
       0.1222478 0.00078032096 0.00088545826 -0.04944139
0002a0 a5 43 43 bd b4 a0 8a 3d 97 f5 33 3d 16 e1 a8 ba
       -0.047671933 0.06768933 0.043935385 -0.0012884464
0002b0 cf 0f 9d 3c 19 5d ab bf fb 6c 57 3c 6e 68 a5 bf
       0.019172577 -1.3387786 0.013148542 -1.2922494
0002c0 19 4d ed 3d 15 83 59 3d cb 3c 86 ba 10 d2 74 bf
       0.11586971 0.053103525 -0.0010241506 -0.9563303
0002d0 ba 3a f7 bc 36 a4 4a 3d 52 6a c2 bc 39 ea df 3b
       -0.03017937 0.04947301 -0.023732338 0.0068333414
0002e0 07 e0 6d bd d9 aa a5 bf 72 3c b2 bf a5 64 76 40
       -0.058074977 -1.2942764 -1.3924696 3.8498929
0002f0 11 ce 08 c0 8b ee c0 3b 38 0a 8b bf f8 4f 15 c0
       -2.1375773 0.0058878115 -1.0862494 -2.333006
000300 6b af 9e be f5 4c 49 bf 07 dc e0 3c 95 6f 11 bf
       -0.30993208 -0.7863305 0.027448667 -0.56810886
000310 f9 a6 77 bc c8 ce 8e 3c 24 f1 45 bd 62 e2 7a 3d
       -0.015115493 0.017432585 -0.048325673 0.06125105
000320 8a ea 01 3d f4 a3 5b 3d df a0 ec bb 2d 0d a7 3f
       0.031717815 0.053623155 -0.0072213258 1.3050896
000330 5b 09 ff 3c 06 92 e0 be c6 c4 a5 bc 8f b9 af bf
       0.03113239 -0.43861407 -0.02023543 -1.3728503
000340 b2 d1 d5 bb d9 8c ca bb 9c 1a 44 3d da b0 00 bf
       -0.006525242 -0.006181341 0.04787694 -0.50269854
000350 71 9d 7d 3c 5a 6e bf 3b ed 73 47 be 99 b2 79 bc
       0.0154794315 0.0058420124 -0.19477816 -0.015240335
000360 aa 46 97 3c 53 2e 21 bf 18 f2 1d 3d 17 0f 11 c0
       0.018466312 -0.6296131 0.038560957 -2.266546
000370 f0 06 55 c0 04 83 93 bf 5f f4 f9 be bc f7 2a 3e
       -3.3285484 -1.1524358 -0.48819253 0.16696066
000380 d2 80 dc 3c e1 21 52 bf 17 2f 87 3f ba 36 a3 40
       0.026916895 -0.82082945 1.0561246 5.1004305
000390 04 24 63 3d 6a 0f bd 3e 2f 86 34 bf 69 e0 74 3f
       0.05545427 0.36925822 -0.7051725 0.9565492
0003a0 89 f8 1b c0 df 6d ab bc 28 8a a2 3d b6 83 e9 3d
       -2.4370444 -0.020926414 0.079365075 0.11402075
0003b0 f2 69 54 bd b7 44 97 bf 8b 45 4a bf 3c cb 9e 3d
       -0.05185885 -1.1817845 -0.79012364 0.07753608
0003c0 1e 7a 80 3d ba 7a 95 bd 95 9a b7 3c 56 f5 c2 bf
       0.06273292 -0.07298799 0.022412578 -1.523112
0003d0 02 75 61 bc 23 b5 06 3d cb ab 3b bc 8a 62 77 bc
       -0.013760807 0.03288759 -0.011454533 -0.015099177
0003e0 0c a9 ad 3c f6 ed bb be 69 d7 f3 3f e8 16 94 bd
       0.021198772 -0.36704987 1.9050113 -0.072309315
0003f0 b6 5c 03 bf b7 ba 09 3c d7 80 71 3f 9e 5e e1 3c
       -0.5131334 0.008406333 0.9433722 0.027510937

bias f4 [2]
000000 54 67 2b bf 6a fd 13 bf
       -0.6695454 -0.57808554
