saved_models/run10/model_5000.pth (torch, 141798 bytes, 6 tensors)

weight f4 [256, 4]
0	0xbe60a213	-0.21936826
1	0x3df42b01	0.11922265
2	0x3e4877a4	0.1957689
3	0x3f2c570a	0.6732031
4	0x3e0a077b	0.13479416
5	0x3e4fa07a	0.2027606
6	0x3eb01fa7	0.3439915
7	0x3eb26940	0.34845924
8	0xbec5ebd1	-0.38656476
9	0x3df5dd3b	0.12005087
10	0x3c7a81f5	0.015289773
11	0x3e82d039	0.25549486
12	0xba805b7e	-0.0009792892
13	0x3e998585	0.2998468
14	0x3c21c28e	0.009873046
15	0x3f2dbbb5	0.67864543
16	0x3f8039ba	1.0017617
17	0xbda576f4	-0.08079329
18	0x3ca14766	0.019687366
19	0xbee18a2a	-0.44050723
20	0xbf45281b	-0.7701432
21	0x3d9ea05c	0.0774543
22	0xbd1a9ff5	-0.037750203
23	0x3ec9f6ac	0.39446008
24	0x3f5fcb4a	0.8741957
25	0x3e07218e	0.13196394
26	0x3d1baa0e	0.038003974
27	0xbd9f68f9	-0.07783694
28	0x3e446857	0.19180427
29	0xbeccb00f	-0.39978072
30	0xbe852a4a	-0.26008826
31	0x3f18aa04	0.59634423
32	0x3daec9e1	0.08534599
33	0xbd6e05c0	-0.058110952
34	0xbffaa89a	-1.9582703
35	0xbe5930a5	-0.21209963
36	0xbf37670d	-0.7164162
37	0xbe67f47b	-0.22651856
38	0xbf1ceaad	-0.61295587
39	0xbeb36e9c	-0.35045326
40	0x3dbb8235	0.091556944
41	0xbe0610f7	-0.13092409
42	0xbfd92fbc	-1.6967692
43	0xbe92e620	-0.28691196
44	0x3ee0f5ec	0.43937624
45	0x3ea040ac	0.3129934
46	0x3d66988f	0.056297835
47	0x3f322544	0.6958811
48	0x3e5c0a27	0.21488248
49	0xbdbadcae	-0.091241226
50	0x3e4964b7	0.19667326
51	0x3d676055	0.056488354
52	0x3eb9a28d	0.3625683
53	0xbebddfe0	-0.37084866
54	0xbfccdb40	-1.600441
55	0xbf0ce9da	-0.5504433
56	0xbd7e4dc0	-0.062085867
57	0x3eaa5239	0.33265856
58	0xbfece29a	-1.8506653
59	0xbdde33e0	-0.10849738
60	0xbe4b648a	-0.19862571
61	0xbe7a3aec	-0.2443654
62	0x3d2ca5c4	0.042150274
63	0xbf1877b1	-0.59557635
64	0xbe73f726	-0.23824748
65	0xbdb69116	-0.08914392
66	0x3d5808ba	0.052742697
67	0xbeffdaae	-0.49971527
68	0xbe8a6674	-0.2703129
69	0x3e279ae1	0.16367675
70	0x3d074961	0.033028964
71	0xbf415667	-0.75522465
72	0x3d064961	0.032784823
73	0x3e557fb3	0.20849495
74	0x3d58a22f	0.052889045
75	0x3e9ecb6f	0.31014583
76	0xbdd32dad	-0.10311446
77	0xbd1c11d8	-0.038102955
78	0xbff9859c	-1.9493899
79	0xbdef4e16	-0.116848156
80	0xbf23ea59	-0.6402946
81	0xbc92551b	-0.017862847
82	0x3e3fd2a0	0.18732691
83	0xbf0f5c75	-0.56000453
84	0x3ee9ed90	0.45689058
85	0xbeef59d4	-0.4674822
86	0x3d9cf4c2	0.07663871
87	0xbda90fa3	-0.082549356
88	0xbf1ea452	-0.6196948
89	0x3edd14e0	0.4317999
90	0xbec81189	-0.39075878
91	0xbf00cb9a	-0.5031067
92	0x3ec32cb3	0.3812004
93	0x3ebb5ca5	0.3659412
94	0xbf53f5f8	-0.82797194
95	0x3e50d0d2	0.20392159
96	0xbf2623aa	-0.6489817
97	0x3d15ae88	0.0365434
98	0xbe024ebb	-0.12725346
99	0x3e4f12f3	0.20222072
100	0xbe4ab329	-0.19794907
101	0x3db126aa	0.08649953
102	0xbfc8ecf6	-1.5697315
103	0x3b9a3d6b	0.0047070286
104	0xbe8bca80	-0.27302933
105	0x3eaf0523	0.34183607
106	0xbc12e382	-0.008965375
107	0x3ebd8c5c	0.37021148
108	0xbecc8de0	-0.39951992
109	0xbe94000a	-0.2890628
110	0x3eb4fa13	0.3534704
111	0x3d1b33fe	0.03789138
112	0x3f0b80b6	0.5449327
113	0x3eb36458	0.35037494
114	0x3db81fd9	0.089904495
115	0x3eda4d83	0.42637262
116	0x3e4d2408	0.20033276
117	0x3e79106b	0.24322669
118	0x3ec4a57a	0.384075
119	0x3f3cc72f	0.7374143
120	0xbe680435	-0.22657855
121	0xbe720100	-0.23633194
122	0xba06d8a7	-0.0005143978
123	0x3dcafcc6	0.09911494
124	0x3d950aea	0.07277472
125	0xbc6adc7a	-0.014334792
126	0xbfd527f3	-1.6652817
127	0x3c4c773b	0.012479599
128	0xbf0eb8fc	-0.55751014
129	0x3da8e6f5	0.082471766
130	0xbe140213	-0.14453916
131	0xbe9bc322	-0.30422312
132	0xbed4973b	-0.4152163
133	0x3eb869e6	0.36018294
134	0x3d30821c	0.043092832
135	0xbe06e076	-0.13171563
136	0xbe7d40e7	-0.2473179
137	0x3ec43c98	0.3832748
138	0x3e08ed29	0.1337172
139	0x3e910753	0.283259
140	0x3e7cc91f	0.24686097
141	0xbe6a2c98	-0.22868574
142	0x3e159463	0.14607386
143	0x3ef3a9fa	0.4759062
144	0xbeecf667	-0.4628174
145	0x3e66ec85	0.22551163
146	0xbf9f3db4	-1.2440705
147	0xbf699466	-0.91242063
148	0x3e45ec1f	0.19328354
149	0x3e265240	0.16242313
150	0x3eb95a70	0.3620181
151	0xbdc3c67f	-0.095593445
152	0x3e598f33	0.21246032
153	0x3e92b5c1	0.28654292
154	0x3d947917	0.072496586
155	0x3f07239f	0.5278873
156	0xbf1b97a0	-0.60778236
157	0xbebcf84a	-0.3690818
158	0x3db29777	0.08720296
159	0x3e355c4c	0.1771099
160	0xbef6713b	-0.48133263
161	0x3e88dac7	0.26729414
162	0xbfb4735b	-1.4097704
163	0x3deb7a51	0.114979394
164	0xbed7d49d	-0.421544
165	0x3eb0c43f	0.34524724
166	0x3dca5ff6	0.09881584
167	0x3d65face	0.05614739
168	0x3e006dfc	0.12541956
169	0x3ec4aecb	0.38414606
170	0xbe9c5d8a	-0.30540115
171	0xbd3150f7	-0.043290105
172	0x3e3231dc	0.17401832
173	0x3dfb438e	0.122687444
174	0x3e3eb06d	0.18621989
175	0x3f1ce5a0	0.6128788
176	0x3ee18bc2	0.4405194
177	0xbde636e5	-0.11240939
178	0x3e66bd94	0.22533256
179	0x3b4f3392	0.0031616432
180	0x3db9f75d	0.09080384
181	0x3eb6099c	0.35554206
182	0xbe74fe58	-0.2392515
183	0x3e19e10c	0.15027255
184	0x3f03a501	0.5142365
185	0x3d80cb1e	0.062887415
186	0x3e9d5e6c	0.307361
187	0x3d7fd59f	0.062459584
188	0x3f3e46f9	0.74327046
189	0xbec93e6a	-0.3930543
190	0x3e2e3fe2	0.17016557
191	0xbe34af0b	-0.17644899
192	0x38205d39	3.8233793e-05
193	0x3d2ba9b7	0.0419099
194	0x3e6c61ef	0.23084234
195	0x3f047cd5	0.5175298
196	0x3ea8febc	0.33006847
197	0x3ec1226d	0.37721577
198	0xbe9bd68a	-0.30437118
199	0xbdd2a313	-0.1028501
200	0x3ee3b00a	0.44470245
201	0xbe699cdc	-0.22813743
202	0x3c4e161e	0.012578515
203	0xbe0b1e97	-0.13585888
204	0xbecafc8f	-0.39645812
205	0x3e47e229	0.19519867
206	0x3e8cf1c1	0.27528194
207	0x3f3df9ac	0.74209094
208	0xbe7baf53	-0.245786
209	0x3c99e9d1	0.01878825
210	0xbd899132	-0.06717147
211	0x3ea4d3c2	0.32192808
212	0xbe4b75bf	-0.19869135
213	0x3f064c68	0.52460337
214	0x3ea78c88	0.32724404
215	0x3ee40dcb	0.44541773
216	0x3e719fb2	0.23596075
217	0x3e67eece	0.2264969
218	0x3e9efa3b	0.31050286
219	0x3f33f486	0.7029499
220	0xbeb3ef85	-0.35143676
221	0x3dcedec7	0.10101085
222	0x392e08af	0.00016597168
223	0xbf582700	-0.8443451
224	0xbf224b2a	-0.6339594
225	0x3eba0aed	0.3633646
226	0x3cfe760c	0.031062149
227	0xbd78219a	-0.06057892
228	0xbe61de95	-0.22057565
229	0xbe84271e	-0.25811094
230	0xbe0a76ec	-0.13521928
231	0x3effd8ba	0.49970037
232	0xbe2222b6	-0.15833554
233	0xbd9233f8	-0.071388185
234	0x3e46b53d	0.19405074
235	0xbf682887	-0.9068684
236	0xbe752836	-0.2394112
237	0xbeaa6fb6	-0.33288354
238	0x3ddb807b	0.10717865
239	0x3f02753c	0.50960135
240	0x3da3101a	0.079620555
241	0x3e89d483	0.26919946
242	0x3eca9af6	0.3957135
243	0x3f2d788d	0.6776207
244	0xbe8a1a93	-0.269734
245	0xbe84c081	-0.2592812
246	0xbe2ac3e1	-0.16676284
247	0xbe100026	-0.14062557
248	0xbe42fcfd	-0.1904182
249	0xbdd40f2f	-0.103544585
250	0x3e8394c9	0.25699452
251	0x3f39d984	0.7259753
252	0x3e829a68	0.25508428
253	0xbeb98f32	-0.36242062
254	0xbf8a5899	-1.0808288
255	0xbf0d1a38	-0.5511813

bias f4 [256]
0	0x3edfc5f8	0.43705726
1	0x3e97a27f	0.29616162
2	0x3e802cb2	0.250341
3	0x3ea5bf62	0.32372576
4	0xbddf5335	-0.10904542
5	0x3e0a3c77	0.13499628
6	0x3d90363d	0.07041595
7	0xbef8b59c	-0.48576057
8	0x3ec97144	0.39344227
9	0xbdf6ea6e	-0.12056433
10	0x3e8c626a	0.27418834
11	0x3dfa0268	0.1220749
12	0x3e895235	0.2682053
13	0x3d8d210e	0.0689107
14	0x3e838de1	0.25694183
15	0xbee4692c	-0.4461149
16	0xbf05b087	-0.52222484
17	0xbe367b97	-0.17820583
18	0x3f0acd89	0.5421987
19	0x3eb5eb69	0.35531166
20	0xbdb1af97	-0.08676069
21	0xbf04c6b5	-0.518657
22	0xbd8392cd	-0.064244844
23	0x3d98c8a4	0.07460144
24	0x3f45a6c9	0.7720762
25	0x3eae4498	0.34036708
26	0x3f09219e	0.5356692
27	0x3ebfd381	0.37466052
28	0xbec2cf06	-0.3804857
29	0xbed5008e	-0.41601986
30	0x3e819477	0.25308582
31	0x3f37c5eb	0.71786374
32	0x3e5b8b90	0.21439958
33	0x3eadae7b	0.3392218
34	0x3e2884d9	0.16456927
35	0x3e0aa0d4	0.13537914
36	0x3d6bab3e	0.057536356
37	0x3f13105c	0.5744684
38	0xbde45cbb	-0.111504994
39	0xbe5506d8	-0.20803392
40	0x3f1a60db	0.6030404
41	0x3e3b532f	0.18293451
42	0x3f10e411	0.56598
43	0x3eb6a557	0.3567302
44	0xbe83587d	-0.2565345
45	0x3e8a7a61	0.27046493
46	0x3c5377d1	0.012906984
47	0x3e5a2fb1	0.21307255
48	0xbdca730a	-0.09885223
49	0xbe6a4f3b	-0.22881787
50	0x3e8f33bc	0.27969158
51	0x3ea753c9	0.3268111
52	0xbf12c4af	-0.57331365
53	0xbe9fa71c	-0.31182182
54	0x3e847de2	0.2587729
55	0xbd52f270	-0.051500738
56	0x3e95745f	0.29190347
57	0xbf007507	-0.5017857
58	0xbeefb39b	-0.46816716
59	0xbf1b5415	-0.60675174
60	0xbee422f8	-0.4455793
61	0xbed6071c	-0.418023
62	0x3e6ace30	0.22930217
63	0xbdd1c6aa	-0.1024297
64	0x3ef7b501	0.48380283
65	0xbef364f5	-0.47537962
66	0x3e8bf6df	0.27336785
67	0x3ea831d7	0.32850525
68	0xbe1a2648	-0.15053666
69	0xbe607af8	-0.21921909
70	0xbe13d806	-0.14437875
71	0x3f2bf24a	0.6716658
72	0xbf08051a	-0.53132784
73	0x3e15893a	0.14603129
74	0x3e21be44	0.15795237
75	0xbe23d2cd	-0.15998383
76	0xbeed43ec	-0.46340883
77	0xbe5c9eda	-0.21544972
78	0x3f0427de	0.5162333
79	0x3e898c43	0.26864824
80	0xbec7b2fa	-0.39003736
81	0xbe94c647	-0.29057524
82	0x3ed51434	0.41616976
83	0xbef77f13	-0.48339137
84	0xbe71cbbd	-0.23612876
85	0xbeb33e84	-0.35008633
86	0xbdb01505	-0.08597759
87	0xbe5b653e	-0.2142534
88	0x3f192bdd	0.59832555
89	0x3d157244	0.036485925
90	0xbddec36c	-0.108771175
91	0xbea99b9c	-0.33126533
92	0x3ede95a7	0.4347355
93	0x3dea2ab2	0.11433925
94	0xbd7841b8	-0.06060955
95	0x3ee394d8	0.44449496
96	0x3e93ddc5	0.28880134
97	0x3e880edb	0.26573834
98	0x3e8dfc04	0.27731335
99	0x3e983b85	0.2973291
100	0xbeca6f84	-0.39538205
101	0x3b1c57b0	0.0023855977
102	0xbeea67f5	-0.45782438
103	0x3f127195	0.5720456
104	0x3d5e73c0	0.054309607
105	0xbea46cf4	-0.32114375
106	0xbf16aa2e	-0.58853424
107	0xbdaba6e5	-0.08381442
108	0x3d8820f5	0.06646911
109	0x3e8a4ee9	0.2701333
110	0xbf1999f3	-0.6000053
111	0xbe9c3ed7	-0.30516693
112	0xbef8ce2b	-0.48594794
113	0xbdcab5da	-0.09897967
114	0xbe38300d	-0.1798708
115	0x3efd25c8	0.49442887
116	0x3e5859b7	0.21127973
117	0x3ee84380	0.45363998
118	0xbe9d59d4	-0.30732596
119	0xbed56ce7	-0.41684648
120	0xbf2f0551	-0.6836749
121	0xbdc4eacb	-0.09615096
122	0xbda49e5a	-0.08038016
123	0xbe8851ee	-0.26625007
124	0xbea529ab	-0.32258353
125	0xbec2e0ab	-0.38062033
126	0x3e1b3bbb	0.15159504
127	0x3dbe87f2	0.09303273
128	0xbda7d6e7	-0.08195286
129	0xbf1cb6d8	-0.612165
130	0xbef6790d	-0.4813923
131	0xbeba29e7	-0.36360094
132	0x3e19d954	0.1502431
133	0x3ea7726c	0.32704484
134	0x3e9d8d11	0.30771688
135	0x3f056e24	0.52121186
136	0x3ef75853	0.48309574
137	0xbeb12571	-0.34598878
138	0x3d0c005b	0.034180027
139	0xbf27b6fd	-0.6551359
140	0xbeda46d1	-0.42632154
141	0x3f1eaeab	0.6198527
142	0xbe684f5f	-0.22686528
143	0x3f191caf	0.5980939
144	0x3e1b605d	0.15173478
145	0x3de7029c	0.112797946
146	0xbe7f3188	-0.24921238
147	0xbf4de855	-0.80432636
148	0xbd590bf3	-0.05298991
149	0x3eabc92d	0.33551922
150	0x3e1a6f8b	0.15081613
151	0xbf2f4820	-0.6846943
152	0xbe793227	-0.24335538
153	0x3ce947d1	0.028476628
154	0x3e3e5cf8	0.18590152
155	0xbddc7f22	-0.10766436
156	0x3f14419c	0.5791261
157	0xbebc93d6	-0.3683154
158	0xbf076516	-0.5288862
159	0xbebe0c07	-0.3711855
160	0x3ea72ce1	0.32651427
161	0xbebc6b0c	-0.3680042
162	0xbed1dd4e	-0.40989155
163	0x3e80ea38	0.25178695
164	0x39a17268	0.00030793552
165	0x3ebffb4d	0.37496415
166	0xbd7de4b1	-0.061985675
167	0xbd16ff57	-0.036864605
168	0xbebbaf50	-0.3665719
169	0x3ee4035d	0.44533816
170	0x3eab520e	0.3346104
171	0xbe8ba593	-0.2727476
172	0x3de2c475	0.110726275
173	0xbdff4bfe	-0.12465666
174	0xbef59aa6	-0.4796955
175	0xbe993885	-0.29925933
176	0xbebcad3a	-0.3685091
177	0xbccac497	-0.024751944
178	0x3e892db7	0.2679269
179	0x3f16b564	0.5887053
180	0x3f061bdd	0.52386266
181	0x3e051b00	0.12998581
182	0xbed0c828	-0.40777707
183	0x3e469834	0.19393998
184	0xbf074564	-0.52840257
185	0x3ecbfe22	0.39842325
186	0x3dc7a6ab	0.09748586
187	0x3dce2cc3	0.10067131
188	0xbeb8e7ea	-0.36114436
189	0x3f402d1d	0.7506884
190	0x3f02d623	0.51107997
191	0xbe7f64bf	-0.24940775
192	0xbf2c4c77	-0.67304176
193	0xbe4786e9	-0.19485058
194	0x3eccba22	0.39985758
195	0xbd8db4dc	-0.06919262
196	0x3e3cdada	0.1844286
197	0xbe804c02	-0.2505799
198	0x3f228e48	0.63498354
199	0xbec421b0	-0.38306952
200	0xbc403f71	-0.011733876
201	0xbebcd2be	-0.36879534
202	0xbeda8cf6	-0.4268567
203	0x3f1d262c	0.6138637
204	0x3e0644d7	0.13112198
205	0x3f007c69	0.50189835
206	0xbf0fa882	-0.561165
207	0xbc95880b	-0.018253347
208	0x3e6096cc	0.21932524
209	0xbedaf6ed	-0.42766514
210	0xbe89679a	-0.26836854
211	0xbeb0bb7f	-0.34518048
212	0xbf003847	-0.5008587
213	0x3db79972	0.08964814
214	0xbe43a242	-0.19104865
215	0x3ee74822	0.4517222
216	0x3ec94be9	0.39315727
217	0xbea0f0a0	-0.31433582
218	0x3ef1eb37	0.47249767
219	0xbef51abc	-0.4787196
220	0xbe487bab	-0.19578426
221	0xbf12e008	-0.57373095
222	0x3ef6e81b	0.48223957
223	0x3eed6a2d	0.46370068
224	0x3ea0001c	0.31250083
225	0x3f0b67a4	0.5445502
226	0x3de722b6	0.112859175
227	0xbc352180	-0.01105535
228	0x3e3e0fe0	0.18560743
229	0x3e9ada67	0.30244753
230	0x3e3d86dd	0.18508478
231	0xbe1a6f94	-0.15081626
232	0xbe9c10fa	-0.30481702
233	0xbe279736	-0.16366276
234	0x3ef4059c	0.4766053
235	0xbe50ea4a	-0.20401874
236	0x3f0f7c16	0.56048715
237	0xbea31d96	-0.3185851
238	0xbe88d436	-0.26724404
239	0xbaa84451	-0.0012837743
240	0xbec03493	-0.3754011
241	0xbdb09f75	-0.08624164
242	0x3ea2c35f	0.3178968
243	0xbbcdde83	-0.006282629
244	0xbe2270f1	-0.15863396
245	0x3e34490f	0.17605995
246	0x3f33cf2d	0.70238
247	0x3efb9f3d	0.49144927
248	0xbd8d0c4f	-0.06887113
249	0xbedf2db5	-0.4358956
250	0x3f387a56	0.7206167
251	0x3e6ca9ea	0.23111692
252	0x3ea26cc6	0.31723613
253	0xbeefed5f	-0.46860787
254	0xbea5a8a0	-0.32355213
255	0x3ea90f73	0.330196

weight f4 [128, 256]
0	0xbc85fa17	-0.016354604
1	0x3cc37666	0.023860168
2	0xbd0d5387	-0.034503486
3	0xbce3603c	-0.027755849
4	0x3d1692b6	0.03676101
5	0x3ce47dc0	0.027891994
6	0x3d4aab3a	0.0494797
7	0x3be9d270	0.007135682
8	0xbd2964f4	-0.041356042
9	0xbd77f941	-0.06054044
10	0xbd769c49	-0.06020764
11	0x3d250a1e	0.04029285
12	0x3cce4d1a	0.02518325
13	0x3d0fbaaf	0.035090145
14	0x3cf01439	0.029306518
15	0x3d375f17	0.04476842
16	0x3ced1bab	0.028943857
17	0x3c30957a	0.0107778255
18	0xbd91731d	-0.07102034
19	0xbca0a91b	-0.019611886
20	0xbd407b15	-0.04699238
21	0x3d2186dc	0.039435253
22	0xbd661a06	-0.05617716
23	0xbd0f4f60	-0.034987807
24	0xbc9412a2	-0.018075291
25	0x3d49ea66	0.049295805
26	0x3ca13007	0.019676222
27	0xbab3dc83	-0.0013722334
28	0x3cd616e3	0.02613396
29	0x3d2a6167	0.041596796
30	0xbcda3e0e	-0.026640918
31	0xbd13a257	-0.03604349
32	0x3bb17c4e	0.0054164296
33	0x3a958557	0.0011407536
34	0xbd1664f2	-0.036717363
35	0xbcfb74ba	-0.030695308
36	0x3d2b887f	0.04187822
37	0x3bbb9f29	0.0057257605
38	0x3b8ff82a	0.004393597
39	0xbd099667	-0.0335907
40	0x3d37a4ba	0.04483483
41	0x3d0f1479	0.034931634
42	0x3d1de0fa	0.038544632
43	0xbd346dcb	-0.04405002
44	0xbd274080	-0.040832996
45	0xbd35099e	-0.044198625
46	0xbd91be7c	-0.0711641
47	0xbb807c69	-0.003921081
48	0xbc540797	-0.012941263
49	0x3cb155d1	0.021647366
50	0xbc8ea65b	-0.017413309
51	0xbd93b5a3	-0.07212379
52	0x3d309c0c	0.043117568
53	0xbc0c68b2	-0.008569883
54	0x3b0a9fa1	0.0021152275
55	0x3cf16c17	0.029470487
56	0x3cb8f545	0.022577891
57	0xbd35913a	-0.044327952
58	0xbd29c4d7	-0.041447487
59	0x3c3ba690	0.011453286
60	0xbd4f6bb9	-0.05063984
61	0xbced6ba3	-0.02898199
62	0xbd848fa1	-0.064727075
63	0xbbf08230	-0.0073397383
64	0x3c854e76	0.016272765
65	0x3cf888bd	0.03033864
66	0x3cb4e830	0.022083372
67	0xbd2cb5ed	-0.042165685
68	0xbd3a428c	-0.04547362
69	0xbd25ce7b	-0.04048012
70	0x3d1493be	0.03627371
71	0xbd220b7a	-0.039561726
72	0x3cca7c55	0.02471749
73	0xbd8de494	-0.069283634
74	0xbd7d2889	-0.061806235
75	0x3c836706	0.016040336
76	0xbd3b2404	-0.045688644
77	0x3b099af2	0.0020996896
78	0xbd6766da	-0.05649457
79	0x3cdc5088	0.026893869
80	0xbad39240	-0.0016141608
81	0xbd38167b	-0.044943314
82	0xbd86ab43	-0.06575634
83	0x3d27054a	0.04077653
84	0x3c497184	0.012295131
85	0xbcc5ec44	-0.024160512
86	0x3caf770c	0.02141907
87	0x3d06f1b3	0.032945346
88	0x3d051fee	0.032501154
89	0xbd280401	-0.041019443
90	0xbd39858f	-0.045293387
91	0x3cfb1159	0.03064792
92	0xbc2e771d	-0.010648516
93	0x3ce866d8	0.028369352
94	0x3d5c06ea	0.05371753
95	0xbd6a0c2a	-0.057140507
96	0xbd4caf63	-0.04997195
97	0x3d3b596f	0.045739587
98	0xbd5ee51a	-0.054417707
99	0x3c9bbb0e	0.019010093
100	0xbd90a136	-0.070619985
101	0xbd3a0d84	-0.045423046
102	0xbd4ef102	-0.05052281
103	0xbcedf9c5	-0.029049763
104	0xbd1788a4	-0.036995545
105	0x3c33f4b7	0.0109836375
106	0xbd14481d	-0.036201585
107	0xbd9230c6	-0.07138209
108	0xbcf8614c	-0.030319832
109	0xbd8fab73	-0.07015123
110	0x3d06881d	0.03284465
111	0xbd264aa4	-0.040598527
112	0xbd052b28	-0.03251186
113	0xbd91929b	-0.07108041
114	0x3c6071fe	0.013699053
115	0xbd6e324f	-0.058153447
116	0x3d3154a3	0.043293606
117	0xbd0b2d6f	-0.033978876
118	0x3d5039fd	0.050836552
119	0xbd160611	-0.03662688
120	0x3d5126ce	0.051062398
121	0x3c95e463	0.01829738
122	0xbcd7701c	-0.026298575
123	0x3d4c310e	0.04985147
124	0x3c591268	0.013249017
125	0x3d50b3b0	0.050952613
126	0x3d36cf87	0.044631507
127	0xbd50c274	-0.050966695
128	0x3d1c1794	0.038108423
129	0x3d5a4054	0.053284004
130	0x3cf3caf1	0.029759856
131	0xbd600c88	-0.05469945
132	0xbd4f2d39	-0.050580237
133	0x3cb21f08	0.021743312
134	0xbd3f3b3f	-0.04668736
135	0x3beacc89	0.007165496
136	0xbd08903b	-0.033340674
137	0xbd1e89f0	-0.038705766
138	0xbd01dd7d	-0.03170537
139	0x3d41e9ae	0.047341995
140	0xbd2a28b4	-0.041542724
141	0xbd2dedca	-0.0424631
142	0xbd8b69fa	-0.06807323
143	0xbd564a66	-0.052317046
144	0x3caa3745	0.020778308
145	0xbd5195e3	-0.051168334
146	0xbd065e1a	-0.032804586
147	0xbd5bfce4	-0.053707972
148	0x3d1c2f30	0.03813094
149	0x3d4e7983	0.05040885
150	0xbd85adc8	-0.06527287
151	0x3c973594	0.018458165
152	0x3d4124a7	0.047154095
153	0xbd1261d3	-0.035737824
154	0xbb063d95	-0.0020483483
155	0x3d44b0d6	0.048020206
156	0xbbdb2c9d	-0.006688668
157	0xbd71fe4c	-0.059080407
158	0x3bf6411e	0.007515087
159	0xbd9256fb	-0.071454965
160	0x3d450acd	0.048106004
161	0xbb72f08d	-0.003706965
162	0xbd853609	-0.06504447
163	0xbd038da2	-0.032117493
164	0x3c17e799	0.009271526
165	0x3d23ed31	0.040021125
166	0xbc0c84c1	-0.008576573
167	0xbc663b7d	-0.014052269
168	0xbbee43e0	-0.007271275
169	0x3d32d840	0.043663263
170	0xbb88a719	-0.00417031
171	0xbcba396c	-0.022732459
172	0xbd5d39b4	-0.054010108
173	0xbc127748	-0.008939572
174	0x3be40fea	0.006959905
175	0x3d1b36e2	0.037894137
176	0xbc85c3a6	-0.016328644
177	0x3ce2095a	0.02759235
178	0x39ce6489	0.00039366286
179	0x3bc57a6b	0.0060265562
180	0xbc828885	-0.015934238
181	0x3abd8d2d	0.0014461629
182	0x3cf238e5	0.029568145
183	0x3c9ecd75	0.019385079
184	0xbbc439ff	-0.005988359
185	0x3b8b1bea	0.004245271
186	0xbd7281f1	-0.059205953
187	0xbd9396b7	-0.07206481
188	0xbcae1332	-0.021249387
189	0x3c9c3b5f	0.01907128
190	0x3c76ec3b	0.01507097
191	0xbd4a05ae	-0.049321823
192	0xbadc2590	-0.0016795862
193	0xbc8a3f9f	-0.01687604
194	0x3ceea720	0.029132426
195	0x3d26d4c0	0.040730238
196	0xbcc1489f	-0.023594199
197	0xbce0c9f5	-0.02744005
198	0xbbbfb552	-0.0058504725
199	0x3c411c32	0.011786507
200	0x3d2caa06	0.042154334
201	0x3d3b400e	0.045715384
202	0x3bf898b1	0.0075865616
203	0x3d2046fa	0.03913019
204	0xbd80dcdf	-0.06292128
205	0x3bb085cb	0.005387043
206	0x3d37e564	0.0448965
207	0xbd39d57e	-0.045369618
208	0xbc624870	-0.013811216
209	0x3d16731a	0.036730863
210	0xbd175273	-0.036943864
211	0x3c405872	0.011739837
212	0xbd14ecc9	-0.03635863
213	0xbb8ba694	-0.004261801
214	0xbba443b2	-0.0050129527
215	0x3d51e1d0	0.051240742
216	0xbd94399e	-0.07237552
217	0x3cc57f24	0.024108477
218	0xbcfb0bba	-0.03064524
219	0xbc94c084	-0.018158205
220	0xbd6824ac	-0.056675598
221	0xbd3269d8	-0.04355797
222	0xbd0ea6fc	-0.034827217
223	0x3be12bea	0.00687169
224	0x3d3105e4	0.04321851
225	0x3d551e9c	0.052031144
226	0xbd8374c3	-0.06418755
227	0x3c800a3f	0.015629886
228	0x3d458bff	0.048229214
229	0xbd3fe679	-0.046850655
230	0xbb815555	-0.00394694
231	0xbd9117df	-0.07084631
232	0xbd893e28	-0.067013085
233	0xbd2e6f9e	-0.042586915
234	0xbd2d9d65	-0.04238643
235	0xbd67e5f0	-0.05661577
236	0xbd23e89f	-0.040016767
237	0x3ab03f23	0.0013446551
238	0x3d3b98bb	0.045799952
239	0x3cee4332	0.029084776
240	0xbd600683	-0.05469371
241	0x3ccd5a1d	0.025067383
242	0x3cd75cbd	0.026289338
243	0xbd71ebf9	-0.05906293
244	0xbd8b3e99	-0.06799049
245	0xbd6aa9c5	-0.05729081
246	0x3d42f34a	0.0475953
247	0x3c972588	0.018450513
248	0xbd144208	-0.036195785
249	0x3b2ec5bc	0.0026668152
250	0xbc136d66	-0.008998251
251	0x3c5c6a2e	0.01345305
252	0xbcc317da	-0.023815084
253	0xbc1e1077	-0.00964748
254	0x3d5425e1	0.051793937
255	0x3d24729d	0.040148366

bias f4 [128]
0	0x3d1f92c0	0.03895831
1	0xbd0476ff	-0.032340046
2	0xbd838c50	-0.06423247
3	0xbc5a4381	-0.013321758
4	0xbe0abf51	-0.13549544
5	0xbd4f1b01	-0.050562862
6	0x3de49834	0.11161843
7	0x3c8810b6	0.01660953
8	0xbe18357f	-0.14864157
9	0xbd382b5c	-0.044963226
10	0x3d8de99f	0.06929325
11	0x3d2b4bd7	0.041820373
12	0xbcb91917	-0.022594972
13	0xbd7e1354	-0.06203015
14	0x3d3e1248	0.046404153
15	0xbd5661ad	-0.052339245
16	0xbd036a33	-0.0320837
17	0xbd29eb5d	-0.041484226
18	0xbd4a7bf1	-0.049434606
19	0xbbd26b53	-0.0064214855
20	0xbd473882	-0.048637874
21	0xbcc569f1	-0.024098368
22	0xbd864b4a	-0.06557329
23	0x3d131112	0.03590495
24	0x3c7c25fd	0.0153899165
25	0xbd842409	-0.06452186
26	0x3e190be4	0.14945942
27	0x3d36ccce	0.04462891
28	0x3d0303c8	0.031986028
29	0x3cea13c5	0.02857388
30	0x3cfcc9b2	0.030857895
31	0xbd4adcfd	-0.049527157
32	0x3d692f36	0.05692979
33	0x3d9594d3	0.073037766
34	0x3c07911f	0.008274346
35	0x3d11832e	0.035525493
36	0xbd29bb1d	-0.04143821
37	0xbd84d2fc	-0.064855546
38	0x3c12eccf	0.008967592
39	0x3c52d937	0.012869171
40	0x3e3f7d18	0.18700063
41	0x3daca516	0.08429925
42	0xbbab5bac	-0.005229434
43	0x3d0adf46	0.033904336
44	0x3ca5962e	0.020213213
45	0xbd46578a	-0.048423328
46	0x3d0e75f8	0.034780473
47	0x3cfb4573	0.030672764
48	0xbd705a02	-0.05867959
49	0x3da32163	0.079653524
50	0x3e2705a4	0.16310745
51	0x3d9aae32	0.07552756
52	0x3ca2ecec	0.019888364
53	0xbd34085c	-0.043953285
54	0xbd52d5af	-0.051473316
55	0xbd2efc35	-0.042720992
56	0xbd0bacd8	-0.034100384
57	0xbce771e4	-0.02825255
58	0xbd05b56e	-0.032643728
59	0xbdb57f62	-0.08862187
60	0x3e0c49ae	0.13699982
61	0x3cca05f9	0.024661051
62	0xbd1740da	-0.03692708
63	0xbbaed91c	-0.00533594
64	0xbcc6b70e	-0.02425721
65	0xbd8ba91e	-0.06819366
66	0xbd890b4c	-0.06691608
67	0xbb4fd012	-0.0031709713
68	0x3d3d4d2c	0.046216175
69	0xbd61a367	-0.055087473
70	0x3b6a7052	0.0035772515
71	0x3e7a1e26	0.24425563
72	0x3d30d092	0.04316766
73	0xbd871b7d	-0.0659704
74	0x3d2adc51	0.041714016
75	0x3c874ed3	0.016517079
76	0x3c8f2330	0.017472833
77	0xbc5104df	-0.012757509
78	0xbd40c3b3	-0.047061633
79	0x3b9bd1da	0.004755241
80	0xbc620635	-0.013795425
81	0xbd933dc1	-0.07189513
82	0xbd8b8b3b	-0.068136655
83	0x3d2526ba	0.040320136
84	0xbbaecd7f	-0.0053345556
85	0xbd4319ad	-0.04763191
86	0xbbbf725d	-0.0058424906
87	0xbd6478a2	-0.055779107
88	0xbd8b8559	-0.068125434
89	0x3d3bb2b3	0.045824718
90	0x3d48a317	0.04898366
91	0x3dc519d6	0.096240684
92	0xbd07e87b	-0.033180695
93	0x3d8d48e2	0.06898667
94	0xbd84797e	-0.06468485
95	0xbdf5df1c	-0.12005445
96	0x3cb19a48	0.021680012
97	0x3cb81637	0.02247153
98	0x3db8aadd	0.090169646
99	0x3b9f996c	0.0048705842
100	0x3e84167a	0.25798398
101	0x3cb31102	0.021858696
102	0xbd3372d5	-0.043810684
103	0x3d925f45	0.071470775
104	0x3ce42958	0.027851745
105	0x3d040cec	0.032238886
106	0xbd19a517	-0.037510958
107	0x3e0f36e6	0.13985786
108	0x39d00ab4	0.00039680826
109	0x3e117f0e	0.14208624
110	0xbcdea018	-0.027175948
111	0xbd3bc9a0	-0.04584658
112	0xbd2c8058	-0.042114586
113	0xbd32ddca	-0.043668546
114	0x3d355d2a	0.0442783
115	0xbb887cee	-0.0041652834
116	0xbb953eb9	-0.0045545963
117	0x3c299592	0.010350602
118	0xbc00456c	-0.007829051
119	0x3e09d004	0.13458258
120	0x3db95a20	0.09050393
121	0x3d53df84	0.051726833
122	0xbdafe536	-0.085886404
123	0xbc53ef04	-0.012935404
124	0x3d018a4b	0.031626027
125	0x3db26ab2	0.08711757
126	0x3d26f737	0.040763106
127	0xbd1b51ae	-0.037919693

weight f4 [2, 128]
0	0xbd2277f8	-0.039665192
1	0xbd3a68a2	-0.045509942
2	0xbc3fa996	-0.011698147
3	0xbd38c462	-0.04510916
4	0x3da93492	0.0826198
5	0x3eade042	0.33960158
6	0x3d998868	0.074967206
7	0xbd80e866	-0.062943265
8	0xbd113e99	-0.03546009
9	0xbcc8fa2c	-0.024533354
10	0x3e9c8180	0.3056755
11	0xbd003a12	-0.03130538
12	0x3d0d3747	0.034476545
13	0x3b0384c6	0.0020068153
14	0xbd9a652d	-0.07538829
15	0xbbe90c38	-0.0071120523
16	0xbd9ec814	-0.077530056
17	0x3c444f98	0.011981867
18	0xbc6c306c	-0.014415842
19	0x3e8d9424	0.27652085
20	0xbd8bb5d5	-0.06821791
21	0xbd8f471e	-0.069959864
22	0x3e5f7fcc	0.21826094
23	0x3c56c0d8	0.013107501
24	0x3e219bcf	0.15782093
25	0x3d02705d	0.03184544
26	0x3e841902	0.2580033
27	0xbd526854	-0.051369026
28	0xbcf9351d	-0.030420834
29	0xbd54e061	-0.051971797
30	0x3c9aecd1	0.018911751
31	0xbd82c668	-0.06385499
32	0x3e38b953	0.18039446
33	0x3ee6581b	0.44989094
34	0xbd9beab0	-0.076131225
35	0x3af248cc	0.001848483
36	0x3d7275ce	0.05919438
37	0x3c180234	0.009277869
38	0x3d474312	0.048647948
39	0xbbf2706b	-0.007398655
40	0xbe91f2b8	-0.28505492
41	0x3efd3658	0.49455523
42	0x3d84edd3	0.06490674
43	0xbce0d945	-0.027447352
44	0xbd8d70f3	-0.06906309
45	0x3d5cca32	0.053903766
46	0xbd4e6001	-0.050384525
47	0xbcbfd422	-0.023416582
48	0x3af2f9a4	0.0018537533
49	0x3ecb2e61	0.39683822
50	0xbe98f2c0	-0.29872704
51	0xbd936d1c	-0.07198545
52	0x3d4613a0	0.04835856
53	0x3d486e8a	0.048933543
54	0x3d8a14d2	0.067422524
55	0xbd828fae	-0.06375061
56	0x3cd6b265	0.026208112
57	0xbda06c55	-0.07833163
58	0xbd0bdf60	-0.034148574
59	0x3ef69119	0.48157576
60	0x3e8c3429	0.27383545
61	0x3e6e3bad	0.23264952
62	0x3eae1fbd	0.3400859
63	0x3d36cae7	0.044627097
64	0x3d7cc0cd	0.061707307
65	0xbd54fc60	-0.051998496
66	0x3c1e2a1e	0.009653596
67	0x3e75ca38	0.24002922
68	0xbd72a544	-0.05923964
69	0xbd836765	-0.06416205
70	0x3ee6d031	0.45080712
71	0xbe226187	-0.15857516
72	0x3ecbdd5f	0.3981733
73	0x3e5d2972	0.21597841
74	0xbd10b82a	-0.035331883
75	0x3e994fd8	0.29943728
76	0x3ee65d5b	0.449931
77	0xbe6b021f	-0.22950028
78	0x3e0a3bd4	0.13499385
79	0x3ebcf72e	0.36907333
80	0xbd02948c	-0.031879947
81	0xbbbc1290	-0.0057395175
82	0xbab7d37e	-0.0014024822
83	0xbc02b150	-0.007976845
84	0x3c2db73f	0.010602771
85	0x3d30a208	0.043123275
86	0xbd81051c	-0.06299803
87	0x3caea4d0	0.021318823
88	0x3f1b60bc	0.6069448
89	0x3f088a24	0.53335786
90	0xbd74a1e1	-0.059724692
91	0x3d506bac	0.050883934
92	0xbd837688	-0.064190924
93	0x3e927db4	0.2861153
94	0xbc948df1	-0.01813409
95	0xbd90b927	-0.07066565
96	0x3a6a05ea	0.0008927273
97	0xbcdc4fd6	-0.026893537
98	0x3e581702	0.21102527
99	0xbd30049f	-0.042973157
100	0xbdff83f7	-0.12476342
101	0x3da6d79c	0.08146593
102	0x3da01fea	0.07818587
103	0x3e21756f	0.15767454
104	0xbd3206f5	-0.043463666
105	0xbd2479c2	-0.04015518
106	0xbd11d4ef	-0.03560346
107	0x3e8f1623	0.27946576
108	0xbd85cfd2	-0.06533779
109	0xbea49ba2	-0.32149988
110	0xbcb442d3	-0.02200452
111	0xbe3c30d2	-0.18377998
112	0x3c581b88	0.013190158
113	0xbddf3c1d	-0.109001376
114	0xbceba467	-0.028764917
115	0x3ecf4c2a	0.40487796
116	0x3ea12de1	0.31480315
117	0xbda1bda4	-0.07897499
118	0x3eb82897	0.35968468
119	0x3e8505d8	0.2598102
120	0x3e8f7fc3	0.28027162
121	0xbd5c5b05	-0.05379774
122	0xbd66eaf3	-0.05637641
123	0xbd71146c	-0.058857366
124	0xbd0a2d00	-0.03373432
125	0x3ed21d81	0.41038135
126	0xbcb23d78	-0.021757826
127	0x3d2f58da	0.042809345
128	0xbd9a8a6d	-0.07545934
129	0x3d365d61	0.044522647
130	0xbd669fed	-0.05630486
131	0x3d5332e3	0.0515622
132	0xbeca9443	-0.3956624
133	0x3e35e3da	0.177627
134	0xbe4eb113	-0.20184736
135	0x3d33af80	0.04386854
136	0x3dee3758	0.1163165
137	0xbd7afb75	-0.061274964
138	0x3e1b3825	0.15158136
139	0x3d2a8813	0.041633677
140	0xbc6cebad	-0.014460486
141	0xbbca26fd	-0.0061691985
142	0x3cdeda1c	0.027203612
143	0x3d56af1c	0.05241309
144	0x3dafc8f6	0.08583252
145	0xbd322599	-0.043492887
146	0xbd2a171d	-0.04152595
147	0x3e84e681	0.2595711
148	0x3d6567be	0.05600714
149	0x3b64bf01	0.0034903886
150	0x3e5aac39	0.2135476
151	0x3d135434	0.035968974
152	0x3ed3de9e	0.4138078
153	0xbcba9a94	-0.022778787
154	0x3e87dfb7	0.26537868
155	0xbb532e86	-0.0032223775
156	0xbd816684	-0.063183814
157	0x3eb731fc	0.35780323
158	0xbc94fe01	-0.018187525
159	0xbcb57b16	-0.022153419
160	0x3eb12ac9	0.34602955
161	0x3eb543de	0.3540334
162	0xbc76f899	-0.015073919
163	0xbd56cacb	-0.052439492
164	0x3b8df9bb	0.0043327487
165	0xbb9e034b	-0.00482217
166	0xbd29f1ec	-0.04149048
167	0xbb76ac4a	-0.0037639313
168	0xbdb0285a	-0.086014464
169	0xbdf8ff65	-0.12158088
170	0x3c5b4e80	0.013385415
171	0xbd88d208	-0.06680685
172	0x3cad326a	0.021142203
173	0xbd7aaa3f	-0.061197516
174	0xbd130894	-0.035896853
175	0xbd9d949f	-0.07694363
176	0xbd793605	-0.060842533
177	0x3e08ff12	0.13378552
178	0xbd9f2595	-0.0777084
179	0xbe70b9fc	-0.23508447
180	0xbd3b4078	-0.04571578
181	0xbd1118ca	-0.03542403
182	0xbdaf8a28	-0.08571273
183	0xbd4f5f9c	-0.05062829
184	0xbcafeef2	-0.021476243
185	0xbc13bcf9	-0.009017223
186	0xbc1afc8a	-0.009459624
187	0x3f0fbb1e	0.56144893
188	0x3e8eb30b	0.27870974
189	0x3ed130ee	0.40857643
190	0x3e3f0e5e	0.18657824
191	0xbcd26bf2	-0.025686238
192	0x3f15d2cc	0.58524776
193	0xbc0a7d60	-0.008452743
194	0x3c699149	0.01425583
195	0x3ea5cf06	0.3238451
196	0x3d862108	0.06549269
197	0x3cc245eb	0.02371498
198	0x3e2dd5b6	0.16976056
199	0xbe98eb2f	-0.2986693
200	0x3db17ec9	0.086667605
201	0x3f2da48a	0.6782919
202	0xbd4d88c6	-0.050179265
203	0x3e6408b6	0.22268948
204	0x3e915f45	0.28392997
205	0x3e9009ad	0.28132382
206	0x3f089db4	0.53365636
207	0x3eddbaf4	0.43306696
208	0x3d02df5e	0.0319513
209	0x3cf23733	0.029567337
210	0x3c400aa1	0.011721284
211	0xbd8a9476	-0.06766598
212	0xbc847956	-0.016171139
213	0x3d23d6b3	0.039999675
214	0x3c1cf57f	0.009580015
215	0x3c45a123	0.012062344
216	0x3e30fed4	0.17284709
217	0x3da4de0b	0.08050164
218	0xbd133c81	-0.035946373
219	0x3ec660cc	0.38745725
220	0xbd608623	-0.054815423
221	0x3e3b0cdb	0.18266623
222	0xbbc8ca6d	-0.0061276467
223	0x3d0b00d8	0.03393635
224	0x3ed483c9	0.41506794
225	0xbbabbcc9	-0.005241011
226	0x3eb512a9	0.353658
227	0x3d6af698	0.057364076
228	0xbe73213b	-0.23743145
229	0xbd86f351	-0.06589378
230	0xbd3a5c97	-0.045498457
231	0x3eefe699	0.4685562
232	0xbd04a6d7	-0.032385673
233	0xbcb00056	-0.021484535
234	0x3cc22760	0.023700416
235	0x3e65233b	0.2237672
236	0x3db92ffc	0.090423554
237	0x3da3a772	0.07990922
238	0xbd6ef178	-0.05833575
239	0x3dc287fb	0.094985925
240	0xbc934210	-0.017975837
241	0x3ea9b83d	0.33148375
242	0x3daa7a51	0.08324111
243	0x3e9e0fa4	0.30871308
244	0x3e32b512	0.17451885
245	0x3d091f1c	0.033476934
246	0x3e04a48f	0.12953399
247	0x3e46b070	0.19403243
248	0x3e1820a2	0.14856198
249	0x3ce1d9e4	0.027569719
250	0x3d5e5371	0.054278795
251	0xbb0ac242	-0.0021172916
252	0x3d23296b	0.03983442
253	0x3dd2498f	0.102679364
254	0xbbc68a64	-0.006058978
255	0xbd2e0c53	-0.042492222

bias f4 [2]
0	0xbdcea4df	-0.100900404
1	0xbd884ce9	-0.066552944
