saved_models/run12/model_3000.pth (torch, 405668 bytes, 8 tensors)

weight f4 [256, 4]
00000000: c570 11be 5a32 9ebc c915 93c0 c01b 40be
00000010: 03b0 30be 9c91 d13c 6bda 93bf 5ad0 7ebe
00000020: 310c 113c f60d cb3d dde8 5dbe 281a 80be
00000030: b5df ad3d c223 be36 9c40 eabd 8532 49be
00000040: 0f0a c6bc ceef 57bd a91e 89bf a132 62bf
00000050: 09dc b4be 03da ba3e c349 4abe 19b4 d33e
00000060: d4df dfbe 5591 933e 07ad 9cbc f005 6c3f
00000070: 1589 87bf 6f0c 693e d0cc 6a3e c888 943e
00000080: 8060 0b3f bf78 77bd 7281 15bd f990 96bf
00000090: 6cd0 503d 0897 bdbd de63 7fbc f1c9 e03e
000000a0: 29ba 39be 7ea4 963e f51d 92be 02b3 5a3e
000000b0: c456 df3d 1f65 9bbe 3f22 c1be 58d4 89be
000000c0: ec1a 15be f4eb 8c3d b2f2 0abe 0481 013f
000000d0: cb9f a0bd c30f 7e3d 62bf 793e fd02 80be
000000e0: eb0c 343e 0f7c 8fbd f89b 9ebb 5815 9f3c
000000f0: 605d 963d 0eaa f63d 8ba9 05be ab23 afbf
00000100: c9f7 dfbe 391f ae3c 03f8 9fbe 112e b2bd
00000110: 49d9 3a3f a7e5 f7be d856 2e3d 5813 8abf
00000120: b54d f53e 15db 24be 79a7 b4bf 4e41 a2be
00000130: d2fa 34bf 296f 5dbe 0e96 09be 1c42 a93d
00000140: fc30 89be 0a45 7c3e cbe4 4d3e 7455 59bd
00000150: 2a71 023f 0452 b4be dd10 c7bf 692a bebe
00000160: a364 54be c2d6 ac3e e7fb 6abd 9604 c53e
00000170: f6c3 9f3e d29d f7bd fe1b d0bd 1ad7 dbbe
00000180: ccc8 433f 5540 66be 8379 d8bf 8982 e2be
00000190: f782 93be 3e60 563e 0fab 72be 2bb8 97bd
000001a0: 97b3 9f3d 2c14 14bc 5a85 89bf 2783 bfbe
000001b0: 8f73 7cbe e5ae c53d 9063 52be f4f8 86bc
000001c0: 5f1d ff3e c428 3abd b5b6 cebf a24b 7abf
000001d0: 48a2 9abe d4eb 5a3e 78aa fc3d 1488 433f
000001e0: 35b3 d53e bf90 a8be 04eb 80bf 4053 dbbe
000001f0: b161 60be c72c 0ebe 4ceb 93bf 7c56 09bf
00000200: dc4b 83be 3fed 053f a7d8 6dbe dbdd 053f
00000210: 15c4 b63e e3ce 8ebd b285 9cbf c82a 60be
00000220: 1442 183f b319 86be d75d 9ac0 827a 0ebf
00000230: 21f1 50be aba7 5fbe cdbb 01be 246c 97bd
00000240: 86b7 00be f307 3a3a 5042 ccbe f098 81bd
00000250: 651b 01be 1c8d a83d 147b 793e 42bf 363f
00000260: a8d1 563e 4392 b8bd f498 c3bf b5c2 11bf
00000270: 7e81 48be 0d51 a73d f2d8 5abe 6c9a 76be
00000280: 5073 383e fbb4 d8bd be87 3bbe 0ea5 72be
00000290: 308a 44bf 0b61 0d3e eb0f 1abf 4504 37c0
000002a0: 5191 3b3f 16cf 20bf e8e7 5fbd e95f 48bf
000002b0: 20d5 bb3e 2d43 703c f544 73bd ff89 053f
000002c0: 0bb6 f83c 15c9 8a3c 8820 c9be 47e4 91be
000002d0: c34e 1e3f 36a7 4abf 0490 2b3d cbc4 abbd
000002e0: cdd8 623d 644a 8dbd 8666 d7be 4118 20be
000002f0: 431b ecbd 2252 103e e685 19be f2e0 8a3e
00000300: cc87 e2be 8675 aeba d624 6bbe 71a8 62be
00000310: e00e f1bd 71d0 963d c850 72be d6c6 b13d
00000320: 6363 923e 4664 733d 5d60 79be 7d58 71bf
00000330: 01b4 ab3e 5dfe 42be 93e9 51bd 7928 13bf
00000340: f906 a83e 1ab0 19bf dda1 083e 3ed1 093f
00000350: 1490 1b3d 040f 083b 5376 ebbf 4716 a8bd
00000360: aba5 83be 4d62 553e babd d3be 6ee7 fe3d
00000370: 26d8 5dbe 78c7 893d 7d02 e9bd a7e6 3c3d
00000380: 5a43 f53e f93a 603d f574 28bf 2184 4b3e
00000390: cba3 8dbe 4db0 b4bd ef41 5cbf 72b9 29be
000003a0: c14f 513d e79e 93be 2153 b9be 662d e2bd
000003b0: 86b9 593e 4285 b9be 1a8e b6be d10a a8bf
000003c0: 0f46 563e bcc9 bbbd 858b 07be 7067 e0bd
000003d0: c45b a83f 6df2 93be 1ff1 a73c 96e3 4abf
000003e0: af01 733d 6dd8 eebe b951 00c0 8e2a 8abe
000003f0: 045e 2d3e af0d 4fbd b69a 9dbe b4ad a2be
-0.14203174 -0.019311119 -4.5964093 -0.18760586 -0.17254643 0.025582127 -1.1551031 -0.24884167
0.008853004 0.09914772 -0.21670862 -0.25019956 0.08489934 5.666604e-06 -0.114381045 -0.19648178
-0.024174718 -0.05271893 -1.0712482 -0.88358504 -0.35324124 0.36494455 -0.197547 0.4134834
-0.43725455 0.28821817 -0.019125475 0.9219656 -1.0588709 0.2275865 0.22929692 0.29010606
0.5444412 -0.060417887 -0.0365004 -1.1762992 0.050980017 -0.092573225 -0.015587775 0.4390407
-0.1813742 0.29422373 -0.2853848 0.21357349 0.10905221 -0.30350587 -0.3772144 -0.26919818
-0.14561051 0.06880942 -0.13569143 0.5058749 -0.07842978 0.06202675 0.24389413 -0.2500228
0.17583053 -0.07006084 -0.0048403703 0.019419357 0.073420286 0.12044154 -0.13052957 -1.368276
-0.43743733 0.021255122 -0.31243905 -0.08700193 0.729878 -0.48417398 0.04256329 -1.0787153
0.47910848 -0.16099198 -1.4113609 -0.3169045 -0.7069522 -0.21624435 -0.13436148 0.082645625
-0.26795185 0.24635711 0.20106809 -0.05306001 0.50953925 -0.35218823 -1.5552021 -0.3714173
-0.20741515 0.33757597 -0.05736914 0.3848006 0.31204194 -0.12090649 -0.10161589 -0.42937547
0.76478267 -0.22485478 -1.6912082 -0.44240215 -0.28810856 0.20935151 -0.23698066 -0.07408174
0.07797926 -0.0090380125 -1.0743821 -0.3740475 -0.24653457 0.09652499 -0.20545793 -0.016476132
0.49827096 -0.045449033 -1.6149508 -0.97771657 -0.30201936 0.21379024 0.12337202 0.76379514
0.41738287 -0.32922933 -1.0071721 -0.42836952 -0.21912266 -0.13884269 -1.1556182 -0.5364759
-0.25643814 0.52315134 -0.23227178 0.5229165 0.35696474 -0.06973054 -1.22283 -0.2189132
0.5947583 -0.26191482 -4.823955 -0.5565568 -0.20404483 -0.21841304 -0.12669297 -0.07393673
-0.12570009 0.00070965214 -0.39894342 -0.06327999 -0.12608106 0.082300395 0.24363357 0.71385586
0.20978415 -0.09012272 -1.5281053 -0.56937724 -0.19580647 0.08169756 -0.2137182 -0.24082345
0.18012738 -0.10581394 -0.183135 -0.23695776 -0.7677336 0.1380655 -0.6018054 -2.8596356
0.7326861 -0.6281599 -0.054664522 -0.7827135 0.3668604 0.014664453 -0.059391934 0.5216369
0.030360242 0.016941587 -0.39282632 -0.28494474 0.6183893 -0.79161394 0.04188539 -0.08387145
0.05538254 -0.068989545 -0.42070407 -0.15634252 -0.11528637 0.14093831 -0.14992484 0.27124745
-0.4424423 -0.0013310171 -0.2296327 -0.22134568 -0.11770415 0.07363976 -0.23663628 0.08680503
0.2859145 0.0594218 -0.24353166 -0.9427565 0.3353577 -0.19042344 -0.051248144 -0.5748363
0.3281782 -0.60034335 0.13342996 0.53834903 0.0379792 0.0020760903 -1.8395485 -0.08207374
-0.25712332 0.2083828 -0.41355687 0.124464855 -0.21664485 0.06727499 -0.11377428 0.046118405
0.47902948 0.05474374 -0.6580346 0.19874622 -0.27664027 -0.08822689 -0.86038107 -0.16574648
0.05110145 -0.2883217 -0.36196235 -0.11043815 0.21262178 -0.3623448 -0.3565529 -1.3128301
0.20925163 -0.09169337 -0.13236816 -0.10957229 1.3153005 -0.28895894 0.020500718 -0.7925352
0.059327777 -0.46649495 -2.004988 -0.26985592 0.16930395 -0.05055016 -0.30782098 -0.3177315

bias f4 [256]
00000000: e114 c73e 2200 05bf f0e6 bebe 305e e2be
00000010: 6a0b 0abf ff28 4abf 6313 dfbe 6a2e 3cbf
00000020: b532 79bf 851d 6fbf 9e75 683e d8bf 85be
00000030: 52f6 f6be 6764 5d3d 86fc 35bf df70 e3be
00000040: db86 f3be f433 07bf dc4c 1ebf ac44 bcbf
00000050: e1ea 32bf 69ee f5be f5c1 23bf 4849 12bf
00000060: cde2 3ebf c01b 9abe b6c5 37be 300e 2fbf
00000070: 2cc3 52bf 36a0 b4bc f5c8 e0be e40c 8abf
00000080: 94b2 43bf e839 27bf d69e 1d3e 8f05 19bf
00000090: 6a41 e1be 3f0c 11bf 1d7c dcbe d98d 11bf
000000a0: d417 0ebf 1a71 10bd 91be 843e 30b7 61bf
000000b0: 4f34 07bf 18bd 55be b6f6 bfbe 0e67 bdbe
000000c0: d2f4 8bbf 4f0a 39bf 9bf5 03bf 9a5e 73bf
000000d0: 63fc 5a3e 6f3d 5fbd cbfd 01bf b7d9 6ebf
000000e0: c9cb 86bf ac38 82bf 5339 77bf 6fae 82be
000000f0: 75e8 cebe ea9b 15bf d9c3 94bf 2063 42bf
00000100: 1f3f cebf 51ea fcbe 9650 52be 3a9c 5abf
00000110: f584 853e 8414 07bf 6828 22bf b7ce 9ebf
00000120: 6e5d 42bf cce9 dd3e 332f 04be 4e0a 06bf
00000130: 76d6 e33e e47c b7bd 6ec5 19be d0f2 e1be
00000140: 45d2 04bf 23a2 bcbe cc08 3cbe dc05 cebe
00000150: 79a7 4cbf a9cb 95bf 0de5 f2be 7787 cfbd
00000160: f5ac 973e bbb3 34be bbc7 3fbf 6c79 81bf
00000170: cbf4 08bf d07c 71bf 912a d0be d011 38bf
00000180: 1fdb 31bf e1c5 e5be 7afa c9be d436 48be
00000190: b689 bdbe f8e9 11bf 2aad 06bf 3366 ebbe
000001a0: fbbc 44bf d64b 32bf 8ecf b1be e436 04bf
000001b0: 6de9 9bbe 3e08 54bf ae72 48bf 13ad f1be
000001c0: 014b 29bf 18b6 d7be ce4b 4ebf 64eb abbe
000001d0: 0b2b a4be 843c 57bf 39b2 5abe 02c8 9cbe
000001e0: 2ab8 88bf 6265 0dbc 2dd8 23be 18c5 c2be
000001f0: f91d 2cbf 6218 95bf 2e9e 8dbe 5472 393e
00000200: 4a36 76be 56ab abbe 3441 cdbe e8a8 0cbf
00000210: ca44 05bf 6298 303e 9ed9 83bf 46a7 8ebe
00000220: 17ac 49bf 4b8d cabe a9e0 3e3e 1bf3 4dbf
00000230: e4cc 83bf 0ac2 96bf a943 5fbf a0fb 323d
00000240: f1c7 1bbf c6b8 fabe 93e0 a4be b6ca 6fbe
00000250: 2592 eabe bf4f 24bf 21ae a53c c78b afbe
00000260: 659c 12bf 1c06 52bf e2d6 7ebf 2c40 17bf
00000270: 95cd c3be aaac 8fbe 8b46 93bf aa2d b0be
00000280: e64f fc3b 8e81 93bd 6439 a7bf fa06 e2be
00000290: 6783 34bf b6bf 93be 05f7 1fbf 7c1b 3cbf
000002a0: b050 50bf e700 88bf 9af3 0ebf f75e 753e
000002b0: c283 68bf c74c 80bd bc86 913c 4ea5 46bf
000002c0: b297 16bf aec6 973e d20a 8cbf 30a9 63bc
000002d0: 85a8 35bf 3f2b a1be c60f 8bbc 7e12 c9be
000002e0: 77d8 053e a8ff 653e d723 ecbe ee84 313e
000002f0: 55a1 913e 0057 dbbe 877f e2bd 1413 cb3e
00000300: e5d8 13bf 1abe 11be 1ced b03e 716d a6be
00000310: 0950 00bf 5994 06bf 3a5b 23bf 42ef f53e
00000320: 29d1 b93e 1e0b d5be 097f d9be 5530 6abf
00000330: 748a 41be 77d0 edbe 3d9c 0bbf e347 b53d
00000340: 4f1c 1cbf 1393 d3bf ca08 12bf 880c 30bf
00000350: d436 23bf 6dc8 2dbf 58bb 89be 5862 cfbe
00000360: c1d8 583e 70bf 2cbf 026f a5be 9dfe 6e3d
00000370: 0bc0 d4bd f1dd 0cbf 1f2a 533e 6c93 a0bd
00000380: 25e4 16bf 1a73 cd3e 9cee cdbe eea1 a1be
00000390: 59fb 443e 3b88 e4be 2263 01bf b0da c1be
000003a0: a9ad 9abf a55d e9be 3afb 89bf 10a0 1fbf
000003b0: 73c7 b4be fbc0 49bf eea7 87bd 22b2 b73d
000003c0: 88a2 94bf 5c29 2abf e173 57bf e460 1dbf
000003d0: f4db 04bf 770d 53bf 6439 533f df93 0d3e
000003e0: e77a 4ebf 0d42 bbbd 556d 0cbf 73b0 cbbe
000003f0: 3bc9 0fbf 78bb 17bf c9e1 4b3e 374f 84bf
0.38883117 -0.5195333 -0.37285566 -0.44212484 -0.53923666 -0.78968805 -0.43569478 -0.7350832
-0.97343 -0.9340442 0.22701117 -0.26122928 -0.48234802 0.05405083 -0.71088445 -0.4442205
-0.47563824 -0.5281365 -0.6183603 -1.4708457 -0.69889647 -0.48033455 -0.6396783 -0.5714307
-0.7456482 -0.30099297 -0.17946514 -0.68381023 -0.8232906 -0.02204905 -0.43903318 -1.0785184
-0.76444364 -0.6532273 0.15392622 -0.59774107 -0.4399522 -0.5665931 -0.4306344 -0.5685707
-0.5550511 -0.035264112 0.2592664 -0.88170147 -0.5281419 -0.20872915 -0.37492913 -0.36992687
-1.0934088 -0.72281355 -0.5154664 -0.95066226 0.2138534 -0.054501947 -0.5077788 -0.93300956
-1.053094 -1.0173545 -0.96571845 -0.25523707 -0.40411726 -0.5844103 -1.1622268 -0.759325
-1.6113013 -0.4939752 -0.20538554 -0.8539463 0.26078 -0.5276568 -0.63342905 -1.2406834
-0.7592381 0.43342435 -0.1290863 -0.52359474 0.44499558 -0.08959368 -0.1501672 -0.44130564
-0.51883346 -0.3684245 -0.1836273 -0.40238845 -0.79943043 -1.1702777 -0.47440377 -0.1013326
0.29624143 -0.17646687 -0.7491414 -1.011518 -0.53498524 -0.94331074 -0.40657476 -0.7190218
-0.6947498 -0.44877532 -0.3944891 -0.19552165 -0.37019128 -0.56997633 -0.5260798 -0.4597641
-0.7685086 -0.69646966 -0.34728664 -0.51646256 -0.30451527 -0.82825077 -0.7829999 -0.47202358
-0.6613007 -0.42131114 -0.8058442 -0.33578026 -0.3206409 -0.84076715 -0.21357049 -0.30621344
-1.0681202 -0.008630129 -0.16000433 -0.38040996 -0.67233235 -1.1648066 -0.27659744 0.18110019
-0.24044147 -0.33529156 -0.4008881 -0.5494523 -0.5205809 0.1724563 -1.0300786 -0.27861995
-0.78778213 -0.39560923 0.18640389 -0.80449075 -1.0296903 -1.1777966 -0.87212616 0.043697
-0.6085196 -0.48969096 -0.32202587 -0.23417172 -0.45814624 -0.6418418 0.020224633 -0.3428633
-0.5726989 -0.8204057 -0.99546635 -0.59082294 -0.38242784 -0.2806142 -1.1505903 -0.3440984
0.0076999543 -0.07202445 -1.3064389 -0.44145948 -0.70513004 -0.288572 -0.62486297 -0.7347944
-0.8137312 -1.0625275 -0.55840456 0.23962007 -0.90826046 -0.06264644 0.017764442 -0.77595985
-0.5882522 0.29643768 -1.0940802 -0.013895318 -0.70960265 -0.31478307 -0.016975295 -0.3927192
0.13070856 0.22460806 -0.46121094 0.17335865 0.284434 -0.42839813 -0.1105948 0.39662993
-0.5775283 -0.14232674 0.345559 -0.32505372 -0.50122124 -0.5257011 -0.63811076 0.48034102
0.3629239 -0.41610044 -0.42479733 -0.9148 -0.18900472 -0.4644811 -0.54535276 0.08851602
-0.60980695 -1.6529258 -0.5704466 -0.6876912 -0.63755536 -0.6788395 -0.26900744 -0.40504718
0.21176435 -0.6747961 -0.32311255 0.058348287 -0.10388192 -0.55026156 0.20621537 -0.078406185
-0.5894187 0.40126878 -0.40221107 -0.31568855 0.19236507 -0.44635186 -0.5054189 -0.37862158
-1.2084247 -0.45579258 -1.0779793 -0.6235361 -0.35308418 -0.7881009 -0.06623827 0.08969523
-1.1612101 -0.6646936 -0.8416119 -0.6147597 -0.5189812 -0.8244242 0.82509446 0.1382594
-0.80656284 -0.091434576 -0.5485433 -0.39783058 -0.5616643 -0.5927043 0.19910349 -1.0336674

weight f4 [256, 256]
00000000: 9e6c b7bd 0894 d1bd aae6 fdbd cb49 e2bd
00000010: 308e c5bd f635 1bbd 8c4a 08be 32e0 83bd
00000020: a7d0 65bd 2744 51bd ca36 a8bd 6ada 80bd
00000030: 7a81 433d ad6b b0bd 689a a0bd 1552 dabd
00000040: b60d 05be f842 bbbd beca e3bd f3d2 f5bd
00000050: ab7a 09be e544 0cbe d224 cdbd 872d 1abd
00000060: fb05 e1bd 4ae0 67bd e7b1 efbd 91a2 b7bd
00000070: b27e f9bd 08cc 22be 8282 0cbe 6b13 debd
00000080: fa08 03be 3e7b 99bd dada adbd 507a 83bd
00000090: 3a5b 3abd fc8d 47bd 1c04 a0bd 71a0 cabd
000000a0: 7bdc f7bd e845 ae3c e9d1 f3bd 60b9 46bd
000000b0: 0abe 08bd b778 06be 30f2 8dbd 90e8 07be
000000c0: cf74 1fbe a688 ffbd 10af 12be 34bf 45bd
000000d0: 3d32 1bbd 268b fdbd 9eb1 1dbe 6688 cfbd
000000e0: fe03 eebd c3ff dfbd 454f 36bd 50fe 73bd
000000f0: bec3 1cbe a21b 0fbe f5c7 87bd 1ba7 00be
00000100: d004 13bc a4c1 b2bd ae53 e5bd 4b78 12be
00000110: a21f 12be 8853 3ebd 6888 abbd 05b6 83bd
00000120: ee39 3fbd f832 03be 65fb e2bd edb4 1dbd
00000130: 19eb d9bd 9a30 f2bd d863 65bd 2f64 ccbd
00000140: e3c8 c3bd 6f9d 07be 594b 9dbd 48cb 09be
00000150: 6078 0ebc f8fc 1ebe a05d 4bbd 5d65 e1bd
00000160: 054b 69bd c134 69bd a17c 07be c3eb 00be
00000170: 9b3e 29bd a0a9 d9bd bc6a adbd 59f6 e8bd
00000180: a7be 84bd d150 d8bd e639 f6bd e8d3 aebd
00000190: b4c4 d8bd 5f9b 11be 53c8 dbbd be52 f3bd
000001a0: c67f c3bd e39e 19be 3228 513d c4cb eb3c
000001b0: c1d2 1fbd 42c8 15be eb70 d7bd 9d26 01be
000001c0: 1822 84bd c5a1 19be 20a9 1abe 09b1 15be
000001d0: ebde 09be ba1c e8bd da75 d0bd 38f0 bebd
000001e0: 9649 98bd fb4f e1bd fec8 f8bd 4354 9fbd
000001f0: 3f8a dcbd fa14 a4bd 8f29 acbd 4884 35bd
00000200: 5d70 63bd 3cc1 84bd 46b0 123d f6f3 a6bd
00000210: b671 79bd b2ea c6bd 5ccf babc 80d4 3c3d
00000220: 7c58 98bd b3af e8bd e29c 48bd 6b8f dcbd
00000230: 9c49 f9bd 1188 d5bd a30e 98bd a6b0 babd
00000240: 0964 c3bd f69b 78bd 162c dfbd 7861 5cbd
00000250: e216 9ebd 7bb2 a2bd 6069 6dbd f027 e2bd
00000260: 4e47 1abd 952e 09be f25a a9bd 7b2c f6bd
00000270: a062 523c 7c50 f7bd 80f5 7dbd 5ada f1bd
00000280: 2035 cfbd f813 623d 5228 10be 2f3f 51bd
00000290: 81b9 cbbd 0b38 00be ffa4 aebd 60c1 ca3c
000002a0: 6c90 933c 97e8 9ebd 6fae 23be 67f9 cdbd
000002b0: 83de 1cbe 02ad f9bd fa3e d7bd ec0e 66bd
000002c0: b15c 1fbe eb05 8dbd e836 41bd f075 3abd
000002d0: 7b9e b0bd 7e26 393d cfe9 8ebd 86eb a5bd
000002e0: c14f a9bd 7251 97bd b39c f0bd 4255 f6bd
000002f0: fa90 6abd d39a abbd a4e5 e53c 987b c5bd
00000300: 74f4 aebd e578 f5bd 1a51 4ebd 0bc6 0ebe
00000310: e00c 5fbd 06fb 4abd 2bf9 11be 1348 35bd
00000320: faaa e1bd a7d6 18be 5e8e 26bd 6170 1cbe
00000330: 2cc9 0abe 16bd e3bd 9d28 bebd 4087 1ebd
00000340: b69a 8cbd 6848 383c 091c 4cbd d325 8bbd
00000350: 00e2 04be 06ed 41bd 11ea babd c00f afbd
00000360: 945d 1abe 5135 f9bd ead6 dabd 51d0 0bbe
00000370: 2745 0ebe a484 efbd 72fd adbd b2f6 d9bd
00000380: 0d49 4dbd c556 c7bd 4f30 1abe 421e f6bd
00000390: e142 f8bd 7e1b f8bd 66b7 26bd 8eb4 10be
000003a0: 94d5 19be 18d4 e3bc 4c95 5dbd 4d0c 8fbd
000003b0: cea2 ffbd 4460 06be 379e 1abe c690 88bd
000003c0: bab2 83bd abed 11be a2ff 17be 598b 1bbe
000003d0: 588f a3bd c09a 6bbd 0414 24be 92e7 edbd
000003e0: 98a5 1ebd 90f8 79bd 6a63 a3bd d87c 12be
000003f0: 86b4 99bd fdde 27bd c671 c5bd e991 26bd
-0.08956264 -0.10233313 -0.12397511 -0.11049231 -0.09646261 -0.037893258 -0.13309687 -0.06439246
-0.05610719 -0.051090386 -0.08213575 -0.06291659 0.0477309 -0.086142875 -0.07841951 -0.10660187
-0.12993512 -0.09143633 -0.111226544 -0.12003126 -0.134257 -0.13698156 -0.100167885 -0.037641075
-0.10987469 -0.056610383 -0.11703854 -0.08966554 -0.12182368 -0.15898144 -0.1372166 -0.108435474
-0.12796393 -0.0749421 -0.08489008 -0.06419814 -0.045497157 -0.04871939 -0.07813284 -0.09893883
-0.121026 0.021273568 -0.119052716 -0.04851663 -0.03338436 -0.13131987 -0.06930959 -0.1327231
-0.15571903 -0.124772355 -0.14324594 -0.04827805 -0.037889708 -0.12380056 -0.15399787 -0.10133438
-0.11621855 -0.109374546 -0.04450919 -0.059568703 -0.15309045 -0.13975385 -0.06629936 -0.12563746
-0.008973315 -0.0872834 -0.11197601 -0.143037 -0.1426988 -0.04646638 -0.08375627 -0.06431202
-0.046686105 -0.12812412 -0.11083106 -0.038502622 -0.106405444 -0.11825676 -0.05600342 -0.09980046
-0.095598005 -0.1324365 -0.07680387 -0.13456452 -0.008695692 -0.15526187 -0.049649835 -0.11005662
-0.05695631 -0.056935076 -0.13231136 -0.12589936 -0.04131947 -0.106280565 -0.084676236 -0.11375112
-0.064816765 -0.105622895 -0.12022762 -0.08536512 -0.10584393 -0.14219426 -0.10731568 -0.11881016
-0.09545855 -0.15002017 0.051063724 0.028783686 -0.03901935 -0.14627174 -0.10519584 -0.12612386
-0.06451815 -0.15003116 -0.15103579 -0.14618315 -0.13463943 -0.11333604 -0.101787284 -0.09323162
-0.074359104 -0.11001583 -0.12147711 -0.077797435 -0.10768556 -0.080118135 -0.08406364 -0.044315606
-0.05552708 -0.06482169 0.03581264 -0.081520006 -0.06089946 -0.09712733 -0.022803955 0.046101093
-0.07438752 -0.11361637 -0.04897774 -0.10769542 -0.12172243 -0.10426343 -0.07424667 -0.09115724
-0.095405646 -0.06069561 -0.108970806 -0.05380389 -0.07719208 -0.07944199 -0.05796182 -0.11042774
-0.037665658 -0.13396676 -0.082692996 -0.12020203 0.012840897 -0.12075898 -0.062001705 -0.118092254
-0.10117555 0.055194825 -0.14077881 -0.051085647 -0.099474914 -0.12521379 -0.08527564 0.024750412
0.018013202 -0.07759207 -0.1598451 -0.10057335 -0.15319256 -0.12191202 -0.10510059 -0.056166574
-0.15562703 -0.068858944 -0.047171503 -0.04552263 -0.08623978 0.045202725 -0.06978189 -0.08101563
-0.08267165 -0.07388581 -0.11748638 -0.120279804 -0.057267167 -0.0837914 0.028063603 -0.09642714
-0.085427195 -0.119859494 -0.050370313 -0.13942735 -0.054455638 -0.0495558 -0.14255206 -0.04425819
-0.11018939 -0.14925633 -0.040663116 -0.15277244 -0.13553303 -0.1112005 -0.0928509 -0.038703203
-0.06865446 0.011247732 -0.049831424 -0.06794324 -0.12976837 -0.047345184 -0.09126676 -0.08547926
-0.1507476 -0.121683724 -0.10685523 -0.13653685 -0.13893567 -0.11695221 -0.084956065 -0.106427565
-0.050118495 -0.09733347 -0.15057491 -0.1201749 -0.12122131 -0.12114619 -0.040702246 -0.14131376
-0.1502288 -0.027811095 -0.05409746 -0.06984768 -0.124822244 -0.1312266 -0.15099417 -0.06668238
-0.06430574 -0.1425082 -0.1484361 -0.15189876 -0.07986325 -0.057520628 -0.1602326 -0.11616434
-0.03873214 -0.061028063 -0.07977946 -0.14305437 -0.07505135 -0.040984143 -0.09640841 -0.040666495

bias f4 [256]
00000000: 56d0 f4bd fd07 bdbd a15b 96bd 33e5 1ebe
00000010: 7bd0 67bf d55c 42be 4fb6 93be e855 5e3f
00000020: 0de8 cfbe e407 f0bd ca7f 3fbd ef5e b6bd
00000030: 9d7b 76be 4e63 e9bd dcce 08be 2752 75be
00000040: 58a2 973b 6aae 9ebe 5f9e 13be 2987 26be
00000050: 355d 2abd 64fd 14be b2a5 f0bd b770 1fbe
00000060: b60a 00be 48ae 29bd 78fe e6be cd2c e5bd
00000070: 685a d5bd 718c c4bd e73b 0cbd e4b2 11be
00000080: 47cf 40bf efac 60be 6d8a 0fbe 24a8 2cbe
00000090: fce6 9bbd 40c2 cfbd 56fc 48be f14b 6dbd
000000a0: 7072 0bbe 5032 63be f1e6 623e 72f5 f1bd
000000b0: b3ac 42be c355 09be b737 e9be 0ac6 fdbd
000000c0: 4e7f 2ebe 76a8 f5bd f90d 14be f514 eabd
000000d0: 764b 15be 87c9 41be 17fa 4dbd 780f 89bb
000000e0: b487 83be 416b 88be fbf2 52bf bf65 cfbd
000000f0: 7019 4abe ea0a 22be bb6a 3abe 1b4c 2ebe
00000100: 0f08 333f 5b72 21be addb a4bd 7ca9 2d3c
00000110: 58e3 3cbd ccfb febd 3001 a0be d5fe 57bd
00000120: 414e 26be 4af1 f0bd b6f5 0ebe c987 94be
00000130: 5eb9 3cbf ec90 b2be 059a 25be fae7 96bd
00000140: 97de 443d ce6b 183d b15e 22be 6023 f4bd
00000150: e6b1 3abe 2f86 d7bd 764c a5bd 8338 12be
00000160: 9e09 893f a60a 413d 5e33 2ebd 2ed2 9a3b
00000170: 85ec ddbe 610b a1bd 9a5b 243d a7fb 22bd
00000180: caa1 f2bc c1f6 b4bd cda1 cc3d 9a9e 8abd
00000190: 6678 c1bd 9b4f 5bbe 770b 05be c9f7 f2bd
000001a0: 58a3 81be cd9d 0dbe e85f 16be 91c5 96bd
000001b0: 86d5 06be b935 82be 9b9c 34bd f1e2 d9bb
000001c0: cfb1 08be 49b6 e1bd 7298 19be 8c38 cb3d
000001d0: 964b 8bbd 5526 0cbf 0701 a2be 4628 b2bd
000001e0: e827 25be ac56 05be 9002 1abe 5dd6 2ebe
000001f0: 15a2 9ebd a079 38be 63db 92be b34c 15bc
00000200: 46f2 debc 5295 36bd f2e9 15be f99c b7be
00000210: 9b7f 153d 8ff3 a3bd 87e3 85be 8bf3 dbbd
00000220: 543a 0fbe 4e7b e1bd 83b7 46be 9d91 efbd
00000230: cb90 fabd 958e 083d c9ac 42bd e443 21bd
00000240: d745 eebd acbb d73c b1bd 913e ecbb eebd
00000250: cb84 77bd 2914 10be a2bd a7bd 4f16 37bd
00000260: 909d 26be 7cc5 1fbe 77d5 98be 5172 81be
00000270: f68e 2fbe 07f5 34bc b9f0 ccbd 17f5 9bbd
00000280: d0af 67bb 56f5 22bd 7820 33bd b373 45be
00000290: e00d 04bf b94d 33bd c559 0cbe 87d0 afbd
000002a0: 1282 bfbd 1f81 09bf 7a38 27be 53b6 0ebe
000002b0: 3de1 9a3d 962e 20be 0296 f1bb fcf6 dfbd
000002c0: c99b d6bd 66fa 25be 6f5c 0c3c aebc 9cbd
000002d0: 20b5 83be 3153 91be 7b74 54be d119 c33d
000002e0: b464 33bf 3f8f 2fbf 6ac8 27bd 390d 78be
000002f0: a3a8 a7bd c5d2 13be a325 babe 980e fcbd
00000300: 8ef9 e4bd 77a1 21be 44e5 3abe f8b3 12be
00000310: e0a8 afbe a1f9 0ebe 9980 1dbe ccec 82bd
00000320: b4ec 5abd 318b 00bf cfb6 cabe f049 97bd
00000330: 0d97 ccbd 580e a23b 34f9 3f3c 0d9b 19be
00000340: c592 f0bd e51d 84bd 2d41 58be 70e9 1ebe
00000350: 9263 85bd e252 83be ae19 49bd dd2e 28be
00000360: 5fba 24be 72a5 efbd 7cce 22be aecb 07be
00000370: 6784 6abd 595e cebd 2eb6 48be ae8b 88bd
00000380: 2083 03be 7963 fcbd 2bb2 e7bd 68ad d8bb
00000390: 51a4 acbd 96f3 72be be39 efbc cd4f c5bd
000003a0: 2009 d9be 56e6 52be 786c fdbd 8f74 44bd
000003b0: 6b3c 4ebf ce84 b7bd 69a1 32bf f904 60be
000003c0: b66e f4bd 966f 743f 5fe7 ec3e 4b0a 14bf
000003d0: 858f 04be 4c0c 66bf 6c6e a7be 26cc 15bd
000003e0: 9dd0 22be c122 4cbd 612a 96bd 16ba 953d
000003f0: ef68 123d f4a2 8ebc 3478 e73d 391e 65be
-0.119537994 -0.09230039 -0.073416956 -0.1551712 -0.9055249 -0.18980725 -0.28850028 0.8684983
-0.40606728 -0.11720255 -0.04675273 -0.08904826 -0.24070592 -0.11395894 -0.1336016 -0.2395712
0.004627507 -0.30992442 -0.14415883 -0.16262497 -0.041592795 -0.14549786 -0.11750354 -0.15570341
-0.12504086 -0.041425973 -0.4511602 -0.11190186 -0.10417634 -0.095970996 -0.034236815 -0.14228398
-0.7531628 -0.21940969 -0.14017649 -0.16861016 -0.07612416 -0.10144472 -0.19627509 -0.05793375
-0.13617873 -0.22187161 0.2215841 -0.11814393 -0.19011192 -0.13411622 -0.4555032 -0.123912886
-0.1704075 -0.11995022 -0.14458455 -0.114297785 -0.14579567 -0.18924533 -0.050287332 -0.004182752
-0.2568947 -0.26644328 -0.8240201 -0.101268284 -0.19736266 -0.15824476 -0.18204777 -0.1702122
0.6993417 -0.1576628 -0.08049712 0.01059949 -0.04611525 -0.1245037 -0.31250906 -0.05273326
-0.16240789 -0.11764772 -0.13960919 -0.29009846 -0.7372035 -0.34876192 -0.16172035 -0.07368465
0.04806384 0.037212186 -0.15856434 -0.1192081 -0.18231925 -0.1052364 -0.080712244 -0.1427937
1.070606 0.047129296 -0.042529456 0.0047247624 -0.43344513 -0.078634985 0.04012642 -0.039790776
-0.029618163 -0.08836127 0.099917985 -0.06768532 -0.09446792 -0.21417086 -0.12992655 -0.118636675
-0.25319934 -0.13829727 -0.14685023 -0.073619016 -0.1316739 -0.25431612 -0.044094663 -0.006649368
-0.13349079 -0.11021096 -0.1499956 0.09922895 -0.06801526 -0.5474599 -0.3164141 -0.08699088
-0.16128504 -0.13021344 -0.1504004 -0.1707396 -0.077457584 -0.18015146 -0.28683004 -0.009112525
-0.027215134 -0.044575997 -0.14640024 -0.35861948 0.036498647 -0.080054395 -0.26150152 -0.107398115
-0.13987094 -0.11009847 -0.19405942 -0.116976954 -0.12234648 0.0333391 -0.047528062 -0.039371386
-0.11634415 0.026334606 0.28465036 -0.11656937 -0.060429376 -0.1407019 -0.081904665 -0.04469901
-0.16271043 -0.15602678 -0.2985036 -0.2528253 -0.17144379 -0.011044747 -0.10006852 -0.076151066
-0.0035352595 -0.03978475 -0.043732136 -0.19282417 -0.5158367 -0.043775294 -0.1370612 -0.08584695
-0.09350981 -0.5371265 -0.16330138 -0.13936739 0.07562492 -0.15642771 -0.0073726187 -0.109357804
-0.104789324 -0.162088 0.00856696 -0.07653175 -0.25724125 -0.28383783 -0.20747559 0.095264085
-0.70075536 -0.6857795 -0.040962614 -0.24223794 -0.08186462 -0.14435871 -0.3635684 -0.12307471
-0.11180411 -0.1578425 -0.1825152 -0.14326465 -0.3430853 -0.13962413 -0.15381087 -0.06392822
-0.053448394 -0.5021239 -0.39592597 -0.07387149 -0.09989748 0.0049455576 0.0117171295 -0.15000553
-0.11746744 -0.064510144 -0.21118613 -0.15518737 -0.06513132 -0.25649172 -0.049096756 -0.16424127
-0.1608672 -0.11701478 -0.1589908 -0.13261291 -0.057255175 -0.10076589 -0.19600746 -0.06667267
-0.12842989 -0.123236604 -0.1131328 -0.0066124685 -0.08429778 -0.23725733 -0.029202338 -0.096343614
-0.42389774 -0.20595679 -0.123742044 -0.04796272 -0.8056094 -0.08960877 -0.6977754 -0.21876897
-0.11935179 0.95482767 0.46270272 -0.57828206 -0.12945373 -0.89862514 -0.32701433 -0.036571644
-0.15899892 -0.04983783 -0.07332302 0.07310884 0.035744604 -0.017411686 0.11302224 -0.2237481

weight f4 [128, 256]
00000000: 8af4 ddbd 7ed9 aebd 31c7 dabd 4543 1bbd
00000010: cc00 52be e31e 0cbe 56de 20bd 9742 74be
00000020: 3844 c6be 8021 a7bb 2fbb 25be d685 84be
00000030: 12e7 09be 6e61 c7bd 2ad2 d0bd 026e 55bd
00000040: 0819 eabd cfc1 cbbe ddb8 12be 048e f43e
00000050: 7dbf b1bd ce06 1ebe a09e 4fbd 8d20 d1bd
00000060: 1ef7 1dbe ec31 e1bc 6c86 de3c 992f fabd
00000070: e36e 08be a155 a0be f5aa fb3d 336e d5bd
00000080: 6994 f73d 9789 30bd d157 eabd 28f6 18be
00000090: a729 0abe 35c4 18be 7ea7 dabd b58b 3bbe
000000a0: 952c 98bd 76c6 3bbd 3d0c 36bd ed67 86bd
000000b0: e3b5 81bd f249 adbd 42fc 7dbe 276c 8abd
000000c0: c7ef b53e e9d8 82bd b498 21bd 4480 33bd
000000d0: 8931 12be 7448 fdbd db9f 4abd f8a9 a1bd
000000e0: f45a 843d e2af 30be 6236 b2be 7911 29bd
000000f0: 56fa cbbe f0bb 08be 488e 99be 9775 3fbd
00000100: e011 64be e34f 24be 9dcd 18bd c69e 7cbd
00000110: 1c42 c53c 527c 02be 6897 b93d 9bdd b2bd
00000120: ba6b ffbd 214d 20bd 1b17 d7bd 8a24 1abe
00000130: 13b6 92bf f9e8 8e3e 2148 dabd 6c16 ed3b
00000140: fd9b b4bd abfe 043e 7b27 c6bd c65b 26be
00000150: 39dd b6be 8c31 8bbd 1efd 3fbe 9f7d 1bbe
00000160: 2d98 94be 5ab7 74bd d8f7 08be 851a f8bd
00000170: 3a77 0ebf 8d4e 40be 7ae3 3bbd c122 99bd
00000180: d2d4 1cbe 8f80 79bd 772b 4f3d 01c0 11be
00000190: 3036 483d 9a40 4abd 70b0 e2be 1f25 1ebe
000001a0: 0c2f 61bd d746 40bd b728 82be 2a1d bbbd
000001b0: 5c0f 01be 49c2 b8bd 0a8e 693d de7d 783d
000001c0: 7f0c 30bd 099a 9a3e a9b5 0ebe 31ee 6a3e
000001d0: 3be9 3abd d96a 48bf 119f c2bf 7efd 6cbd
000001e0: fbf5 95bd 3806 20be 43e1 fabd d1d1 2e3f
000001f0: 75f0 26bd 91dc 21be 1967 bbbe d907 10ba
00000200: b019 41bc 475d d4bd 984e edbd 9091 b7bd
00000210: 3a50 21be 0d72 e73d 2831 34bf 435b a7bd
00000220: 9f1e 10be 5ad6 febd 0e2d 8cbd fa78 9bbd
00000230: 2867 fabd 8c25 b6be 2e0a e7bd 3b78 1bbd
00000240: 02d3 0c3f dd7b 923c 46f8 08bf cc54 1abd
00000250: 00bf 193d 7fc8 aabd 82f7 c5bd 5990 0bbe
00000260: ae58 8cbd 40c2 1fbd 9f55 ecbe dc75 6dbd
00000270: b582 a2bd 90d5 343e 00a8 64bc b237 56bd
00000280: 32ba 0ebe d9ef 85bd fd08 513e e79e 643e
00000290: ec8e 9bbf 0ce8 edbd 61e9 9ebd f11f fd3d
000002a0: 64a1 54bd 02cb c5be dc9e fe3e 8665 e3bd
000002b0: 556c 31bf f3f7 77bd 46ea 123c 550c 08be
000002c0: ef53 8abd b638 a6bd 577f dabd 759e afbd
000002d0: e4bc f2bd 1708 dcbd 12b4 b1be bbc5 ecbd
000002e0: ae3a 473d 7566 41ba 76c4 0bbe 0f3f c1bd
000002f0: f720 08be 9ccf 43bd 4340 8bbf 51f9 b7bd
00000300: c95e 3dbd a221 8d3d bfb7 59bd e458 22bf
00000310: 6b56 49be c496 20be 063e bcbd 6551 b5bd
00000320: 1db8 bdbd a62e 493e a973 2cbf 2d2b 06be
00000330: 12cb 1abe 05b3 38be 5f04 2f3e 87f9 0abe
00000340: 6565 11be 4367 90bd 876b bebd 009c 72b9
00000350: ddf0 57bd 2ea3 a8bd f578 1cbd c8db f6be
00000360: 5e25 9abd 0f6b 66bf 2dc0 c53f 2054 81bd
00000370: 0873 153d a6d9 1cbe d048 ebbd 7185 f73d
00000380: 430b a5bd 77d2 893d 9aa1 17be 67e7 0dbe
00000390: d222 113e 7849 4d3e 60a4 1fbe 20d6 b1bb
000003a0: 03c0 b5be 65d8 e2bd 2908 10be b174 1bbe
000003b0: c126 5abe e468 a93d 47df 80bf e36f 09be
000003c0: 854c 43bd 64b0 32bd fd73 0a3e 0850 83bf
000003d0: eee3 62bd 1d74 0bbe 4d75 63be d000 b03e
000003e0: a070 b5bc 43af 6fbd 6604 a3bd 8e24 44bf
000003f0: cf65 d1bd 5ce7 f5bd 338e 68bf 3685 a6bd
-0.10837658 -0.08537577 -0.10682524 -0.03790595 -0.20508116 -0.13683657 -0.039274536 -0.23853527
-0.38723922 -0.005100429 -0.16184686 -0.2588336 -0.13467053 -0.0973538 -0.101963356 -0.052106865
-0.114305556 -0.39796302 -0.14328332 0.477646 -0.086791016 -0.15432283 -0.050688386 -0.10211287
-0.15426299 -0.027489625 0.027163707 -0.1221611 -0.1332355 -0.3131533 0.12288467 -0.104214095
0.12088854 -0.043099966 -0.11442531 -0.14937651 -0.13492452 -0.14918597 -0.10676478 -0.18315013
-0.07430378 -0.045843564 -0.044445265 -0.06562791 -0.0633352 -0.084613696 -0.2480326 -0.0675891
0.35534498 -0.063890286 -0.03945227 -0.043823496 -0.14276709 -0.12367335 -0.049468856 -0.07893747
0.064626604 -0.17254594 -0.34807116 -0.04127643 -0.3983943 -0.13352942 -0.29991364 -0.046743
-0.22272444 -0.160461 -0.037305463 -0.061674856 0.024079375 -0.12742737 0.090620816 -0.08733674
-0.12471719 -0.039136056 -0.10502454 -0.15053001 -1.1461815 0.2791212 -0.10658289 0.007235339
-0.08818815 0.12987773 -0.09675499 -0.16245946 -0.35715654 -0.0679656 -0.187489 -0.1518464
-0.2902235 -0.05974517 -0.13375795 -0.12114433 -0.55650675 -0.18779965 -0.045871235 -0.07477332
-0.1531556 -0.06091362 0.05057856 -0.142334 0.048879802 -0.049378015 -0.44275236 -0.15443848
-0.054976508 -0.04694256 -0.25421688 -0.09136422 -0.12603515 -0.09021432 0.057020225 0.06066691
-0.042980667 0.30195644 -0.13936485 0.22942425 -0.045632582 -0.78288037 -1.5204793 -0.057858936
-0.07322308 -0.15627372 -0.122499965 0.68288904 -0.04075666 -0.15806796 -0.36602095 -0.00054943335
-0.0117859095 -0.10369354 -0.11587256 -0.08963311 -0.1575326 0.1130105 -0.70387506 -0.08171704
-0.14074181 -0.12443228 -0.06844531 -0.07591434 -0.12226707 -0.3557552 -0.112812385 -0.037956458
0.5500947 0.017881328 -0.53503835 -0.037678525 0.037535667 -0.08339023 -0.09666349 -0.13629283
-0.06852852 -0.03900361 -0.46159074 -0.057973728 -0.07935087 0.17659593 -0.01395607 -0.05229921
-0.13938215 -0.06539888 0.20413585 0.22326241 -1.2152991 -0.11616525 -0.07759357 0.12359608
-0.051911727 -0.38631445 0.49730575 -0.111033484 -0.69305927 -0.060539197 0.008966988 -0.13285954
-0.0675429 -0.081162855 -0.106688194 -0.08575145 -0.11852434 -0.107437305 -0.34707695 -0.115611516
0.048639946 -0.0007377633 -0.13649163 -0.094358556 -0.13293825 -0.047805414 -1.0878986 -0.089831
-0.046232972 0.068911806 -0.05315375 -0.63416886 -0.19661872 -0.15682513 -0.091915175 -0.088534154
-0.092636324 0.19646701 -0.67363983 -0.13102408 -0.15116528 -0.1803704 0.17091511 -0.1357175
-0.14198835 -0.070509456 -0.09297853 -0.00023137033 -0.05271994 -0.08234249 -0.03820129 -0.48214555
-0.075266585 -0.9000711 1.5449272 -0.06314874 0.036486655 -0.15317401 -0.11488497 0.12085999
-0.080587886 0.06729596 -0.1480774 -0.13857804 0.14173439 0.20047557 -0.15590048 -0.005427137
-0.35498056 -0.1107643 -0.14065613 -0.15181233 -0.21303846 0.082719594 -1.0068139 -0.13421588
-0.047680397 -0.04362525 0.13520809 -1.0258799 -0.055393152 -0.13618512 -0.22212715 0.3437562
-0.02214843 -0.058516752 -0.07959823 -0.7661828 -0.102244966 -0.12007019 -0.9084198 -0.08130877

bias f4 [128]
00000000: 1e2e 223e 48b5 1bbe 3f27 7cbe d278 eabe
00000010: 70bb 593d d163 4bbe b7e0 693f 5b7a dfbb
00000020: fb4f 50bc 4ac4 bbbe db30 36be d176 773f
00000030: 636b 22bf 849a 513e 9c3f 03bd ca77 89bd
00000040: 38b2 bf3e f63d b83e 86a6 523e 46ae 96be
00000050: 2c84 8fbe 681d 8a3e 2a6d fabd a9a3 c9be
00000060: 40a2 a83c 4a1a f0bd 41ea 293d 492a bc3e
00000070: 5b7c 7cbe e53e 70bd 4bc7 30be c1de a0be
00000080: 2177 5fbe 05d7 413f cf7e 10be 8a23 b83d
00000090: 781f 92bd 9d35 643d ce96 21be 8416 e8bd
000000a0: deda 44be 1bd0 41be 6a4b a9be a7f9 4cbe
000000b0: 649b d0bd 7b42 41be 8baf b9be 0f09 313e
000000c0: 8fd0 3dbe 7d06 f4bd 7baa e9be 8751 cc3e
000000d0: 3451 c93f 62dc dabd 3ee9 a3be 25f5 1abe
000000e0: 9f30 09be cb3b 7c3c 8de9 653c b997 663f
000000f0: ab56 50be 3f43 b3be 4f0a 3abe 606e 853f
00000100: df95 56be b76b 5a3f 1008 e83d 25cd 9e3f
00000110: ef5a 363f 235d fc3e 9a9b a3be 99d2 79bd
00000120: bade 2abe ea49 febd 6632 3cbe 74dc e53e
00000130: b6c8 ab3d 3e39 dfbd bb48 b63f bcea c13c
00000140: 3f57 a4be 08fc 51bd aaef 1dbe 1222 5e3e
00000150: 2351 03be 21cb f6bd 5ff2 1dbe 22a4 8abd
00000160: b7f8 f1bc 3990 073f 1148 253f 58ed 1fbe
00000170: 2ac2 44be cea8 2b3f 6bc7 4abe f08b 5fbe
00000180: 66ab 2bbd 876b 30be c0c3 263f 0184 fe3e
00000190: a18e 193e 840b b8bd 3322 86bd 663a 09bd
000001a0: 30d0 023f d837 15be ffac f9bd 91c1 a7be
000001b0: e14e 1cbf 9e5a 81be 4be0 453f 42e6 77bd
000001c0: c974 0fbe 1642 a9be 460b a73d 3dc8 7a3f
000001d0: 0ce3 293f 113b d43d a050 0a3f 4868 e13f
000001e0: f24b aebe 612e ad3e 25e2 4abe e0f7 8f3c
000001f0: a85a 19be 16cf 69bc b760 34be b6f5 ecbc
0.15837905 -0.15205872 -0.24624346 -0.45795304 0.05315727 -0.19862296 0.9135851 -0.006820006
-0.012714381 -0.36673194 -0.17792074 0.96665674 -0.6344511 0.204691 -0.032043085 -0.06712301
0.37440658 0.35984772 0.20571336 -0.29429835 -0.28030527 0.2697556 -0.12227853 -0.39382675
0.02058518 -0.11723764 0.041483168 0.3675101 -0.24656813 -0.05865373 -0.17263524 -0.31419948
-0.21822788 0.7571872 -0.14110874 0.089911535 -0.071349084 0.055715192 -0.15780184 -0.113324195
-0.19224116 -0.18927042 -0.3306535 -0.2001711 -0.101858884 -0.18873017 -0.3626674 0.17288612
-0.1853659 -0.119153 -0.4563788 0.3990595 1.5727906 -0.10686566 -0.32013887 -0.15132578
-0.13397454 0.015395115 0.014032734 0.9007526 -0.20345561 -0.35012242 -0.18167995 1.0424309
-0.20955609 0.8532061 0.11329663 1.2406355 0.71232504 0.49289808 -0.31954652 -0.060991857
-0.16686526 -0.12416442 -0.183786 0.44894755 0.08387892 -0.1089959 1.4240946 0.0236715
-0.32097813 -0.051265746 -0.15423456 0.21692684 -0.1282392 -0.120504625 -0.15424488 -0.06769587
-0.029537542 0.5295444 0.6456309 -0.15617883 -0.19214693 0.6705445 -0.19802634 -0.21830726
-0.041911505 -0.17228518 0.6514244 0.49710086 0.14995815 -0.089865714 -0.06549492 -0.03350296
0.5109892 -0.14572084 -0.121911995 -0.32764867 -0.6105786 -0.25264448 0.7729537 -0.060522325
-0.14009394 -0.33058232 0.08156447 0.9796179 0.6636207 0.103628285 0.54029274 1.7609949
-0.34042317 0.33824447 -0.1981283 0.01757425 -0.14975989 -0.014270565 -0.17615019 -0.028925758

weight f4 [2, 128]
00000000: c947 5ebd a7ea 01be b5f9 87bc 395c 393c
00000010: c19d 50bd 0f14 c43d b3cc 633e 59dd c03c
00000020: 21ad 9dbd 3c9b a9bc 9c33 8dbd be20 923e
00000030: 76c2 0ebf fd1c e93e 04bf 953b 60c8 ea3c
00000040: 839e 84bd 6fe9 b53d e6ba 033e 20cd 5ebd
00000050: 7ebb 70be 3606 46bc 7097 b83c 3ca3 573c
00000060: e25a 42bc 5b92 8cbd 8a23 23bd e27f e63d
00000070: 848e bc3d e78f a9bb 3f57 843d 9cca 583c
00000080: 0dfd 16bd 997b 7b3e 58c1 8c3c 9b95 853e
00000090: c182 fc3d f399 4dbb 597c a43d de7a fa3e
000000a0: 446a c5bb a1e8 7ebd 3ba0 a3bd c887 463d
000000b0: 1a50 e33d e768 bc3d 60d6 93bd eb1f 363e
000000c0: 3e90 e03d 4ef0 033d b6a2 00bd f500 eabc
000000d0: 5a43 853e a6ca bcbd 06f0 753c 2f24 8f3c
000000e0: ff4a 86ba 8afa b43e ea68 f43c 9887 8e3d
000000f0: 88f8 053f 25a5 6d3d 2549 cf3c a061 a73e
00000100: e498 a13b 15cf 053e 6f0f c3be f330 213f
00000110: 54ae 563d af96 de3e 32e7 92bd 5257 0f3d
00000120: f971 5dbc 4ae4 603e 4c7a 01bd e3be 97bd
00000130: 93e9 b43d 9d8b 5b3d 815c 253e 5c52 233d
00000140: 1c70 c03d 75f4 953c 040a f5ba a595 ae3e
00000150: ee77 1f3e 8e18 73be 84d6 8c3d 483d 803d
00000160: 2881 c3bd 7d3c 713e 2043 aa3e 0c3c 4e3d
00000170: 589e d33d 7467 aa3d 09c1 adbd 66c2 253d
00000180: 7fc9 5ebe 100f 983c 3adf 11bc a2a8 983d
00000190: e409 a53e a4e4 a7bd 3fdd 75bc 6c6c c5bb
000001a0: 98f4 013d e6f4 92bc 08f5 473e 93ca 933c
000001b0: f03b debe 1b93 043d e4a6 023e 5f0e afbc
000001c0: 9b7f 69be 9da3 d5bc a42c 1e3c 60c1 e5bd
000001d0: 8cec 503c 146b 243f 43de b5bd cbe0 273f
000001e0: 22b9 37bc a821 8abe 67cb 74bc c77c 793d
000001f0: 6156 183e 5b5c 513d a164 b3bd 022b 02b9
00000200: 7450 60bd 9dc6 9a3d bbae 563d 9f72 273b
00000210: 9c93 803c 16cd e73c 49de 963e a868 b6bc
00000220: 0d5f 983d 3f18 343c 3230 103e 2f1b 8cbe
00000230: a2b5 0fbf 7cc8 9e3d 8108 ccb8 344b 07bc
00000240: 0eb3 173e 0382 88bc c954 b13d 483e 6f3c
00000250: 89fe 943d 9d7e b33d 5ce2 313e 9685 21bd
00000260: a094 19bd a7fc b83c ec65 d8bc c968 263d
00000270: 9a3e 91bd 4650 6dbb 2653 053d e371 e9bd
00000280: 0fa1 8ebd 2683 ae3d 7d5c 93bd 28b9 f7bd
00000290: 881b 373d 3438 9b3c c052 4bbd 541a 2cbd
000002a0: d85b 7a3d af55 703c 6858 fdbd 16a9 da3c
000002b0: 1792 603d 968c dd3b d6ac b33e acde 52be
000002c0: bdad 503d 5e9b 1e3d 898e 363e d67d 1f3e
000002d0: 3ad6 ce3e 2366 8abc 3e65 0f3d 7220 3c3e
000002e0: 3035 dfbb 12f9 853d 7d88 d63b 9380 0e3f
000002f0: e7ac cabd 3982 a8bd 9194 363c 3a21 bb3e
00000300: 79a0 2bbd 6f02 633e 5ca9 abbe 3fa2 183e
00000310: 0e22 cd3d 517f 13be e1f3 183d c64d 903d
00000320: 75e5 cabc f33f 2bbc 58b4 9abe 0032 733e
00000330: 8338 2dbf cbee 1c3c 5f94 163f d682 d8bc
00000340: 03b4 b63c fe8a 403e 651e 973d 886e 953b
00000350: ee5b 56bc 3f49 773e 03f0 19bd 1225 763d
00000360: f9d3 56bc 676c 853d cd0a 2abd 5d8a 5b3d
00000370: 6c07 b7bd bf88 823e 6d7a 4a3e 8f04 473c
00000380: 07e0 3e3e 9b3a 10bd 1877 413d aa30 373d
00000390: 69c3 0cbd 166d a33c ba9e 653d c156 2dbc
000003a0: d5ba e9bc e92b 813e cbca 523d 08c6 843d
000003b0: 3105 72be 7df9 9dbc 8df1 ddbb dbd7 36bd
000003c0: e24d c43e 6a18 59bd 6a4a 04bc 0317 ed3e
000003d0: dee2 f83d b984 4d3d dc40 773e 779b 403e
000003e0: a9bc 6b3c 9f8e 1cbe 2aef adbd c8ed ba3c
000003f0: 2cf8 b5bd f9e9 a9bc 1bb0 b03d d1c0 ddbd
-0.05426768 -0.12687169 -0.016598562 0.0113134915 -0.050931696 0.095741384 0.22246055 0.023543047
-0.07699037 -0.020703904 -0.06894609 0.28540605 -0.55765474 0.4552993 0.00456989 0.02866
-0.06475546 0.088824145 0.12864265 -0.05439484 -0.23509023 -0.012086442 0.022533149 0.013161477
-0.011862488 -0.068638526 -0.039828815 0.112548605 0.0920687 -0.005174625 0.06461953 0.0132319
-0.03686242 0.24558868 0.017182037 0.26090702 0.12329627 -0.0031372278 0.0803153 0.48921865
-0.0060246307 -0.06223357 -0.07989546 0.048469335 0.110992625 0.09199696 -0.07218623 0.17785613
0.10965012 0.032211594 -0.031405173 -0.02856491 0.26027948 -0.092183396 0.015010839 0.017473308
-0.0010245739 0.35347396 0.029835183 0.06959456 0.52332354 0.058018822 0.025303433 0.3269167
0.004931556 0.13067277 -0.38097712 0.62965316 0.052412346 0.43474337 -0.07173003 0.034995385
-0.013515943 0.21962085 -0.031610772 -0.074094556 0.08833613 0.053599942 0.16148569 0.039873466
0.09396383 0.018305043 -0.0018695001 0.34098545 0.15573093 -0.23739836 0.06876853 0.062616885
-0.09546119 0.2355823 0.33254337 0.050350234 0.10332936 0.08320513 -0.08484084 0.040468596
-0.21756552 0.01856187 -0.008903319 0.07454039 0.32234108 -0.081979066 -0.015006362 -0.006024888
0.031727403 -0.017939042 0.19527066 0.01804093 -0.43405104 0.032366853 0.12758976 -0.021369157
-0.22802584 -0.026078993 0.009654198 -0.11218524 0.01275171 0.6422589 -0.08880284 0.6557738
-0.011213573 -0.26978803 -0.014941073 0.060910013 0.14876701 0.051113468 -0.08759428 -0.00012413788
-0.054764226 0.07557414 0.05241273 0.0025550497 0.015695386 0.028296035 0.29466465 -0.0222667
0.074400045 0.010992109 0.14080885 -0.2736449 -0.56136525 0.07753083 -9.729062e-05 -0.008257676
0.14814398 -0.016663557 0.086587496 0.014602251 0.07275111 0.08764384 0.17371505 -0.039434038
-0.037495255 0.022581412 -0.026415788 0.040627275 -0.070920184 -0.0036211177 0.03255 -0.11398675
-0.06964313 0.08521108 -0.07195375 -0.120958626 0.04470399 0.018947698 -0.049639463 -0.042017296
0.061122745 0.014668866 -0.12370378 0.026691955 0.054826822 0.006761144 0.350928 -0.20592755
0.05094694 0.03872239 0.1782781 0.15575346 0.40397817 -0.016894406 0.03500866 0.18371752
-0.0068117604 0.06541647 0.0065470324 0.5566494 -0.0989626 -0.08227963 0.011143819 0.36548787
-0.041901086 0.22168897 -0.33527648 0.14905642 0.10016261 -0.14404036 0.037341956 0.07046084
-0.024767617 -0.010452258 -0.30215716 0.23749542 -0.67664355 0.009578417 0.58820146 -0.026429575
0.022302633 0.18803021 0.07378844 0.0045602955 -0.013083441 0.24149035 -0.03758241 0.060093947
-0.013112062 0.06514817 -0.041514207 0.05359875 -0.089369625 0.25494954 0.19773264 0.012147083
0.18640147 -0.03521214 0.047232717 0.044724144 -0.034366045 0.019949477 0.056059577 -0.010579766
-0.028531471 0.25228813 0.05146293 0.06483084 -0.23634793 -0.019284004 -0.00677318 -0.04463945
0.3834067 -0.0530018 -0.008074382 0.4630662 0.121526465 0.050175402 0.24145836 0.18809305
0.014388242 -0.1528878 -0.084928825 0.022818461 -0.08885226 -0.02074145 0.086273395 -0.108277924

bias f4 [2]
00000000: 723b ba3f 2fee 973f
1.4549391 1.1869563
