saved_models/run12/model_2000.pth (torch, 405668 bytes, 8 tensors)

weight f4 [256, 4]
-0.11759706 -0.056488305 -2.514967 -0.089613795 -0.27473795 0.08366586 -1.0908296 -0.3694687
-0.13078968 0.14154337 -0.09275827 -0.3737748 0.07622045 -0.0422467 -0.050866872 -0.1704552
-0.17962289 -0.16386655 -0.9626185 -0.7248633 -0.24966916 0.28208703 -0.1911532 0.05099522
-0.38408184 0.2592782 -0.10483423 0.70495003 -0.89427143 0.2187587 0.22310302 0.14137244
0.50709766 0.08028797 -0.08017173 -0.95609266 0.31190163 -0.059012216 -0.11875117 0.43561658
-0.38173208 0.24265924 -0.22165166 -0.022142747 0.27366972 -0.18315871 -0.18407671 0.29871887
-0.19670661 0.13173687 -0.10447374 -0.05142776 -0.007861945 0.014773632 0.24540792 -0.1800123
0.20155463 -0.12398708 0.018954482 0.109229535 -0.05037667 0.080235116 -0.41019437 -0.83209354
-0.4056962 0.33432212 -0.08406502 -0.24367018 0.51404566 -0.46047628 -0.004876113 -0.47542495
0.42392242 -0.08549407 -1.0866089 -0.6843516 -0.6607032 -0.17800687 -0.101708375 -0.028783547
-0.04474052 0.1705457 0.29511228 -0.09040883 0.502904 -0.133427 -1.2052755 -0.59965634
-0.08474571 0.000783928 -0.17671707 0.37322563 0.24603614 -0.24099657 -0.0029014233 -0.30906743
0.6994168 -0.15717624 -1.3931719 -0.65628743 -0.49829337 0.3378395 -0.018346392 -0.1967571
0.06988665 -0.08507034 -0.60066265 -0.2924716 -0.45973578 0.23483828 -0.07952933 0.11656107
0.49684674 -0.016862707 -1.2825371 -1.0187905 -0.31193212 0.15581778 0.19372246 0.48978245
0.41179454 -0.1840128 -0.5844988 -0.5768249 -0.28569153 -0.16903344 -0.98481494 -0.62868315
-0.5291128 0.2644531 0.043112915 0.5684126 0.29805255 -0.03063139 -1.0222385 -0.3857953
0.5687382 -0.24801938 -2.6055589 -0.46312466 -0.2480537 -0.29425776 -0.12521045 -0.10675529
-0.12570009 0.00070965214 -0.39894342 -0.06327999 0.01150615 0.024995776 0.2752158 0.43452176
0.17705561 -0.002204003 -1.0441866 -0.41559073 -0.2128824 0.099806994 -0.1067533 -0.27715763
0.28863767 -0.1579781 -0.070403494 0.08771973 -0.8234114 0.19665815 -0.72251093 -2.4983819
0.6379654 -0.49403036 -0.10360576 -0.48541275 0.3163982 0.0562568 -0.08653843 0.42638326
0.030360242 0.016941587 -0.39282632 -0.28494474 0.65544933 -0.55374265 -0.0110403355 0.22706912
0.057934843 -0.064361505 -0.19122823 -0.23519152 -0.2602859 0.15000576 -0.011041392 0.06492216
-0.43193573 0.12123743 -0.019083748 -0.15441991 -0.06221939 0.2176036 -0.11238905 0.2302933
0.06366594 0.079293326 -0.25943208 -0.5686446 0.15594584 -0.37959656 -0.01030413 -0.108636305
0.43015984 -0.3177486 0.097648636 0.4638095 -0.024533715 -0.08044992 -0.58063376 0.0013737098
-0.33327815 0.25625017 -0.42866215 0.38210136 -0.45853984 -0.036555618 -0.115046605 0.116686404
0.38533732 0.076356634 -0.35596576 0.33750093 -0.35755163 -0.028931929 -0.48749682 -0.26924634
0.22759493 -0.16287737 -0.0011204877 0.22235495 0.2272244 -0.41217494 -0.63282853 -0.8719068
0.24661691 -0.19833268 0.032498956 0.22933279 0.7755227 -0.13156523 -0.06732157 -0.79012495
-0.11910633 -0.360025 -1.007264 -0.4588455 0.16930395 -0.05055016 -0.30782098 -0.3177315
00000000: bad6 f0bd 4860 67bd 38f5 20c0 7087 b7bd
00000010: 74aa 8cbe 0259 ab3d 4ea0 8bbf 002b bdbe
00000020: bbed 05be bff0 103e 0cf8 bdbd 695f bfbe
00000030: 7819 9c3d e00a 2dbd c859 50bd cf8b 2ebe
00000040: 10ef 37be a2cc 27be 2b6e 76bf a490 39bf
00000050: 46a9 7fbe b66d 903e aabd 43be 5de0 503d
00000060: 60a6 c4be 1dc0 843e 54b3 d6bd 9b77 343f
00000070: f9ee 64bf 4802 603e 1e75 643e f0c3 103e
00000080: 27d1 013f 056e a43d 1331 a4bd 7dc2 74bf
00000090: 92b1 9f3e cbb6 71bd d033 f3bd 2309 df3e
000000a0: 6372 c3be aa7b 783e a7f8 62be b564 b5bc
000000b0: 701e 8c3e f58d 3bbe 9b7e 3cbe aef1 983e
000000c0: 756d 49be 08e6 063e 54f6 d5bd eaa5 52bd
000000d0: 63cf 00bc 1b0d 723c 374c 7b3e 2555 38be
000000e0: 5664 4e3e f0ec fdbd 6e46 9b3c bcb3 df3d
000000f0: c457 4ebd 4f52 a43d ff04 d2be 1504 55bf
00000100: 6ab7 cfbe 452c ab3e 482a acbd ad84 79be
00000110: 7f98 033f 8cc3 ebbe cdc7 9fbb e66a f3be
00000120: 5c0c d93e 8417 afbd 0016 8bbf ab31 2fbf
00000130: d823 29bf 6f47 36be 7b4c d0bd 79cb ebbc
00000140: d641 37bd 88a3 2e3e f518 973e 4428 b9bd
00000150: 51be 003f 16a1 08be 7846 9abf 1483 19bf
00000160: 298f adbd 8480 4d3a 52f5 34be 6e17 bf3e
00000170: e6f0 7b3e cec7 76be ce25 3ebb 163e 9ebe
00000180: fb0c 333f cff2 20be 7553 b2bf 7402 28bf
00000190: 4f20 ffbe 4df9 ac3e 2c4b 96bc b17a 49be
000001a0: bb20 8f3d 5c39 aebd 07c5 19bf d6be 95be
000001b0: 7d62 ebbe 7279 703e 46e0 a2bd 92b7 ee3d
000001c0: b262 fe3e a923 8abc 2d2a a4bf ba67 82bf
000001d0: 91b5 9fbe b28e 1f3e 2e5f 463e c4c4 fa3e
000001e0: bcd6 d23e da6d 3cbe b7a1 15bf ccaa 13bf
000001f0: 2946 92be 1a17 2dbe d51c 7cbf 61f1 20bf
00000200: f073 07bf 6666 873e 2b97 303d 7d83 113f
00000210: 589a 983e aeee fabc b6d8 82bf f686 c5be
00000220: d498 113f cbf8 7dbe 7ac1 26c0 ad1e edbe
00000230: ca01 7ebe f4a8 96be 2b37 00be 84a2 dabd
00000240: 86b7 00be f307 3a3a 5042 ccbe f098 81bd
00000250: 4a84 3c3c f1c3 cc3c 16e9 8c3e a379 de3e
00000260: 114e 353e 0971 10bb e8a7 85bf 4fc8 d4be
00000270: d8fd 59be 9c67 cc3d 79a1 dabd 9be7 8dbe
00000280: 51c8 933e 03c5 21be b52f 90bd 67a6 b33d
00000290: 17cb 52bf c160 493e 7af6 38bf 7de5 1fc0
000002a0: b351 233f 8cf1 fcbe 422f d4bd 0588 f8be
000002b0: f2fe a13e 886d 663d 0f3b b1bd e84e da3e
000002c0: 0bb6 f83c 15c9 8a3c 8820 c9be 47e4 91be
000002d0: 87cb 273f 14c2 0dbf 86e2 34bc cf84 683e
000002e0: 164d 6d3d f7cf 83bd 55d1 43be 0cd6 70be
000002f0: 3244 85be 1c9b 193e f4e6 34bc e9f5 843d
00000300: ae26 ddbe 544b f83d 8555 9cbc 4120 1ebe
00000310: c2d9 7ebd 7ad3 5e3e 3b2c e6bd 02d2 6b3e
00000320: 4a63 823d 8a64 a23d 48d4 84be b192 11bf
00000330: 44b0 1f3e 7b5a c2be a7d2 28bc b67c debd
00000340: e93d dc3e f2af a2be 02fc c73d 7078 ed3e
00000350: eefa c8bc edc2 a4bd 6aa4 14bf 0d0e b43a
00000360: 6fa3 aabe 3933 833e 9b79 dbbe caa2 c33e
00000370: bcc5 eabe 58bb 15bd 8e9d ebbd 48f9 ee3d
00000380: ef4a c53e de60 9c3d 2541 b6be eccc ac3e
00000390: 0211 b7be a702 edbc 2f99 f9be a8da 89be
000003a0: a50e 693e 53c9 26be 54dd 92ba 04b1 633e
000003b0: 83ad 683e 9808 d3be 0d01 22bf 4935 5fbf
000003c0: 2589 7c3e b917 4bbe a01d 053d 37d6 6a3e
000003d0: a888 463f 09b9 06be e4df 89bd a145 4abf
000003e0: 05ee f3bd 3255 b8be 07ee 80bf cced eabe
000003f0: 045e 2d3e af0d 4fbd b69a 9dbe b4ad a2be

bias f4 [256]
0.5267642 -0.3346638 0.009268402 -0.08719835 -0.44681707 -0.6062721 -0.1596016 -0.5655469
-0.80971026 -0.55928034 0.16864821 -0.08821584 -0.24912763 0.14319637 -0.64982206 -0.42797664
-0.1381744 -0.49822384 -0.48625717 -1.0904365 -0.497795 -0.43934676 -0.49998322 -0.2088397
-0.62765235 0.038351383 0.18880993 -0.26538828 -0.66828585 -0.03596162 -0.24645846 -0.88393795
-0.4105746 -0.5532826 0.12720717 -0.28231278 -0.4399522 -0.4176855 -0.22147152 -0.34739384
-0.25048098 -0.13577013 0.27115232 -0.67200243 -0.5281419 -0.19799064 0.08961981 -0.0663808
-0.876083 -0.5150778 -0.09473701 -0.6282994 0.38271412 0.28126764 -0.07347432 -0.6969169
-0.82878274 -0.79701644 -0.7992103 -0.1358064 0.055839892 -0.5354222 -0.90632457 -0.759325
-1.2233815 -0.09362083 -0.05119868 -0.72868735 0.22788073 -0.4676077 -0.3236996 -1.0079973
-0.48650444 0.5600353 -0.03126224 -0.44693506 0.5522094 -0.08959368 -0.1501672 -0.32442328
-0.49571338 0.12854156 0.09483201 -0.3862444 -0.7271984 -0.9460773 -0.2245175 -0.12955952
0.46859002 -0.083703265 -0.61217976 -0.78536963 -0.15940388 -0.7307186 -0.27788296 -0.56251454
-0.5485904 -0.21743944 -0.43100017 0.05528973 -0.08146723 0.019203112 -0.3418429 -0.29258516
-0.6279445 -0.69646966 -0.356757 -0.14918756 -0.12977536 -0.66351014 -0.6454893 -0.35205403
-0.5426907 -0.3125843 -0.63549715 -0.2564466 -0.01602711 -0.7690392 0.25537214 -0.06069169
-0.8459956 0.02393325 -0.22730587 0.01028423 -0.5268442 -0.86705136 -0.13026534 0.1383864
0.07560112 -0.0076349955 -0.4008881 -0.42123336 -0.5205809 0.25238502 -0.79334366 -0.16468363
-0.35642603 -0.19572581 -0.023884227 -0.21781668 -0.89106953 -0.87694293 -0.5775724 -0.00035006198
-0.51158625 -0.20543309 -0.13909595 -0.2693022 -0.30596802 -0.5011099 -0.093756676 -0.3428633
-0.49514073 -0.6435166 -0.70245516 -0.26647636 -0.46211684 0.1541655 -0.69515336 -0.060034636
0.021613017 -0.20042244 -1.0812066 -0.19307722 -0.4207847 -0.025458572 -0.39742666 -0.4622664
-0.6132123 -0.9532818 -0.53858113 0.1349722 -0.7225191 0.039132662 -0.02873336 -0.4065388
-0.4002162 0.2642032 -0.85740066 -0.00433105 -0.37539276 -0.485441 -0.09173633 -0.13832258
-0.066579066 0.09686323 -0.19778286 0.34019297 -0.050483115 0.05662318 -0.08191418 0.5082506
-0.43964657 -0.12239989 0.46472976 0.028843783 -0.50122124 -0.4841319 -0.30934912 0.5322378
0.3708727 -0.025353383 -0.33567914 -0.668178 -0.18900472 -0.335562 -0.3376267 0.12565488
-0.45987552 -1.102866 -0.40239382 -0.47144184 -0.28744066 -0.6788395 -0.2159819 -0.09282902
0.1732181 -0.5698393 -0.19351162 0.16066216 0.078790024 -0.5502602 0.19409971 -0.16338663
-0.4982833 0.39939156 -0.34717917 -0.15488522 0.2055432 -0.44635186 -0.40165558 0.21688186
-1.0086924 -0.12956847 -0.9298991 -0.3960796 -0.07962939 -0.6344353 -0.00086526404 0.1356895
-0.86261034 -0.6420534 -0.7504652 -0.42430687 -0.5189812 -0.45133406 0.73882145 0.28261912
-0.4826871 -0.09921728 -0.5485433 -0.044503007 -0.5325938 -0.48132387 0.35452178 -0.8810207
00000000: 05da 063f 0e59 abbe 7fda 173c 0c95 b2bd
00000010: 35c5 e4be a634 1bbf 9a6e 23be aec7 10bf
00000020: 2c49 4fbf ff2c 0fbf 1eb2 2c3e 82aa b4bd
00000030: 501b 7fbe 12a2 123e bd5a 26bf c11f dbbe
00000040: 977d 0dbe 3217 ffbe b3f6 f8be 6c93 8bbf
00000050: fcde febe 0ff2 e0be cdfd ffbe 13da 55be
00000060: d3ad 20bf 5716 1d3d 6457 413e f9e0 87be
00000070: c814 2bbf 7e4c 13bd 9b5f 7cbe c249 62bf
00000080: d536 d2be eea3 0dbf 9942 023e 4d8b 90be
00000090: 6a41 e1be e0da d5be 6ec9 62be 9bdd b1be
000000a0: 0b3f 80be 5307 0bbe 7ad4 8a3e 5a08 2cbf
000000b0: 4f34 07bf 0fbe 4abe 978a b73d a8f2 87bd
000000c0: fa46 60bf 24dc 03bf 7a05 c2bd 3bd8 20bf
000000d0: 1bf3 c33e 5002 903e b479 96bd 2569 32bf
000000e0: 1b2b 54bf 4509 4cbf 0c99 4cbf d510 0bbe
000000f0: 5fb8 643d 6e11 09bf e304 68bf 2063 42bf
00000100: c497 9cbf 47bc bfbd b5b5 51bd 418b 3abf
00000110: 9159 693e 476a efbe f4bb a5be 0e06 81bf
00000120: 1c17 f9be 795e 0f3f d60c 00bd acd4 e4be
00000130: 985d 0d3f e47c b7bd 6ec5 19be cf1a a6be
00000140: 25ce fdbe 66a0 033e 4937 c23d d3c1 c5be
00000150: ad29 3abf 1f32 72bf eae7 65be 40ab 04be
00000160: 08eb ef3e 9e6c abbd d0b7 1cbf fc0d 49bf
00000170: c53a 23be 6010 3bbf ad46 8ebe f400 10bf
00000180: 6c70 0cbf 72a8 5ebe 0eac dcbe 7c77 623d
00000190: 4bd8 a6bd d84f 9d3c 0806 afbe b9cd 95be
000001a0: f9c0 20bf d64b 32bf daa8 b6be a0c4 18be
000001b0: d5e3 04be cddb 29bf c93e 25bf 6d40 b4be
000001c0: c7ed 0abf 0d0b a0be f1af 22bf f84c 83be
000001d0: 494b 83bc c1df 44bf 23c0 823e d997 78bd
000001e0: 2b93 58bf aa0f c43c dfc2 68be 307f 283c
000001f0: 43df 06bf 14f7 5dbf 4764 05be 2ab5 0d3e
00000200: c3d4 9a3d fc2e fabb 3441 cdbe e6ab d7be
00000210: ca44 05bf 9c38 813e 9218 4bbf d3a2 28be
00000220: 797d b6be 596c 48be dba8 c3bc 560b 5fbe
00000230: 221d 64bf 557f 60bf c9db 13bf 8688 b7b9
00000240: 51f7 02bf 0d5d 52be 2b6f 0ebe fae1 89be
00000250: d7a7 9cbe bd48 00bf 8003 c0bd c78b afbe
00000260: 1683 fdbe 81bd 24bf 1ad4 33bf 976f 88be
00000270: 949a ecbe 90dd 1d3e 92f5 31bf e1e6 75bd
00000280: c80d b13c 8a3b 4dbe fa64 8abf 09b6 45be
00000290: 1871 d7be 7f8e d0bc 827b cbbe 2eae ecbe
000002a0: 7bfb 1cbf 470a 74bf 74e0 09bf 2736 0a3e
000002b0: 03f7 38bf 9249 203d 3962 ebbc db25 d0be
000002c0: 23e9 ccbe a445 873e 9c7e 5bbf 7beb 8dbb
000002d0: 7b33 c0be b98b f8be 42e0 bbbd 6fa4 0dbe
000002e0: 9b5a 88bd 3b60 c63d 9787 4abe c62d ae3e
000002f0: 62c7 4ebd b5ed 673d 9fc2 a7bd b61c 023f
00000300: 5b19 e1be cbac fabd 0ff1 ed3e cc49 ec3c
00000310: 0950 00bf 23e0 f7be 0263 9ebe bd40 083f
00000320: 07e3 bd3e e6b1 cfbc 23de abbe b70d 2bbf
00000330: 748a 41be c8ce abbe 68dd acbe acab 003e
00000340: ce74 ebbe b72a 8dbf 9006 cebe d360 f1be
00000350: 6c2b 93be 6dc8 2dbf 5c2a 5dbe 241d bebd
00000360: 1660 313e fde0 11bf e927 46be 9f84 243e
00000370: aa5c a13d dadd 0cbf 13c2 463e d34e 27be
00000380: fd1e ffbe 0d7d cc3e 78c1 b1be 3b9a 1ebe
00000390: eb79 523e 3b88 e4be cda5 cdbe 4716 5e3e
000003a0: d51c 81bf 99ad 04be de0d 6ebf f2ca cabe
000003b0: bc14 a3bd 5a6a 22bf e3d2 62ba 30f2 0a3e
000003c0: 08d4 5cbf 9d5d 24bf 7d1e 40bf c03e d9be
000003d0: f4db 04bf 4215 e7be 6723 3d3f 74b3 903e
000003e0: c322 f7be 6e32 cbbd 556d 0cbf c948 36bd
000003f0: 1158 08bf 1570 f6be e183 b53e 938a 61bf

weight f4 [256, 256]
-0.08956264 -0.10233313 -0.12397511 -0.11049231 -0.09646261 -0.037893258 -0.13309687 -0.06439246
-0.05610719 -0.051090386 -0.08213575 -0.06291659 0.0477309 -0.086142875 -0.07841951 -0.10660187
-0.12993512 -0.09143633 -0.111226544 -0.12003126 -0.134257 -0.13698156 -0.100167885 -0.037641075
-0.10987469 -0.056610383 -0.11703854 -0.08966554 -0.12182368 -0.15898144 -0.1372166 -0.108435474
-0.12796393 -0.0749421 -0.08489008 -0.06419814 -0.045497157 -0.04871939 -0.07813284 -0.09893883
-0.121026 0.021273568 -0.119052716 -0.04851663 -0.03338436 -0.13131987 -0.06930959 -0.1327231
-0.15571903 -0.124772355 -0.14324594 -0.04827805 -0.037889708 -0.12380056 -0.15399787 -0.10133438
-0.11621855 -0.109374546 -0.04450919 -0.059568703 -0.15309045 -0.13975385 -0.06629936 -0.12563746
-0.008973315 -0.0872834 -0.11197601 -0.143037 -0.1426988 -0.04646638 -0.08375627 -0.06431202
-0.046686105 -0.12812412 -0.11083106 -0.038502622 -0.106405444 -0.11825676 -0.05600342 -0.09980046
-0.095598005 -0.1324365 -0.07680387 -0.13456452 -0.008695692 -0.15526187 -0.049649835 -0.11005662
-0.05695631 -0.056935076 -0.13231136 -0.12589936 -0.04131947 -0.106280565 -0.084676236 -0.11375112
-0.064816765 -0.105622895 -0.12022762 -0.08536512 -0.10584393 -0.14219426 -0.10731568 -0.11881016
-0.09545855 -0.15002017 0.051063724 0.028783686 -0.03901935 -0.14627174 -0.10519584 -0.12612386
-0.06451815 -0.15003116 -0.15103579 -0.14618315 -0.13463943 -0.11333604 -0.101787284 -0.09323162
-0.074359104 -0.11001583 -0.12147711 -0.077797435 -0.10768556 -0.080118135 -0.08406364 -0.044315606
-0.05552708 -0.06482169 0.03581264 -0.081520006 -0.06089946 -0.09712733 -0.022803955 0.046101093
-0.07438752 -0.11361637 -0.04897774 -0.10769542 -0.12172243 -0.10426343 -0.07424667 -0.09115724
-0.095405646 -0.06069561 -0.108970806 -0.05380389 -0.07719208 -0.07944199 -0.05796182 -0.11042774
-0.037665658 -0.13396676 -0.082692996 -0.12020203 0.012840897 -0.12075898 -0.062001705 -0.118092254
-0.10117555 0.055194825 -0.14077881 -0.051085647 -0.099474914 -0.12521379 -0.08527564 0.024750412
0.018013202 -0.07759207 -0.1598451 -0.10057335 -0.15319256 -0.12191202 -0.10510059 -0.056166574
-0.15562703 -0.068858944 -0.047171503 -0.04552263 -0.08623978 0.045202725 -0.06978189 -0.08101563
-0.08267165 -0.07388581 -0.11748638 -0.120279804 -0.057267167 -0.0837914 0.028063603 -0.09642714
-0.085427195 -0.119859494 -0.050370313 -0.13942735 -0.054455638 -0.0495558 -0.14255206 -0.04425819
-0.11018939 -0.14925633 -0.040663116 -0.15277244 -0.13553303 -0.1112005 -0.0928509 -0.038703203
-0.06865446 0.011247732 -0.049831424 -0.06794324 -0.12976837 -0.047345184 -0.09126676 -0.08547926
-0.1507476 -0.121683724 -0.10685523 -0.13653685 -0.13893567 -0.11695221 -0.084956065 -0.106427565
-0.050118495 -0.09733347 -0.15057491 -0.1201749 -0.12122131 -0.12114619 -0.040702246 -0.14131376
-0.1502288 -0.027811095 -0.05409746 -0.06984768 -0.124822244 -0.1312266 -0.15099417 -0.06668238
-0.06430574 -0.1425082 -0.1484361 -0.15189876 -0.07986325 -0.057520628 -0.1602326 -0.11616434
-0.03873214 -0.061028063 -0.07977946 -0.14305437 -0.07505135 -0.040984143 -0.09640841 -0.040666495
00000000: 9e6c b7bd 0894 d1bd aae6 fdbd cb49 e2bd
00000010: 308e c5bd f635 1bbd 8c4a 08be 32e0 83bd
00000020: a7d0 65bd 2744 51bd ca36 a8bd 6ada 80bd
00000030: 7a81 433d ad6b b0bd 689a a0bd 1552 dabd
00000040: b60d 05be f842 bbbd beca e3bd f3d2 f5bd
00000050: ab7a 09be e544 0cbe d224 cdbd 872d 1abd
00000060: fb05 e1bd 4ae0 67bd e7b1 efbd 91a2 b7bd
00000070: b27e f9bd 08cc 22be 8282 0cbe 6b13 debd
00000080: fa08 03be 3e7b 99bd dada adbd 507a 83bd
00000090: 3a5b 3abd fc8d 47bd 1c04 a0bd 71a0 cabd
000000a0: 7bdc f7bd e845 ae3c e9d1 f3bd 60b9 46bd
000000b0: 0abe 08bd b778 06be 30f2 8dbd 90e8 07be
000000c0: cf74 1fbe a688 ffbd 10af 12be 34bf 45bd
000000d0: 3d32 1bbd 268b fdbd 9eb1 1dbe 6688 cfbd
000000e0: fe03 eebd c3ff dfbd 454f 36bd 50fe 73bd
000000f0: bec3 1cbe a21b 0fbe f5c7 87bd 1ba7 00be
00000100: d004 13bc a4c1 b2bd ae53 e5bd 4b78 12be
00000110: a21f 12be 8853 3ebd 6888 abbd 05b6 83bd
00000120: ee39 3fbd f832 03be 65fb e2bd edb4 1dbd
00000130: 19eb d9bd 9a30 f2bd d863 65bd 2f64 ccbd
00000140: e3c8 c3bd 6f9d 07be 594b 9dbd 48cb 09be
00000150: 6078 0ebc f8fc 1ebe a05d 4bbd 5d65 e1bd
00000160: 054b 69bd c134 69bd a17c 07be c3eb 00be
00000170: 9b3e 29bd a0a9 d9bd bc6a adbd 59f6 e8bd
00000180: a7be 84bd d150 d8bd e639 f6bd e8d3 aebd
00000190: b4c4 d8bd 5f9b 11be 53c8 dbbd be52 f3bd
000001a0: c67f c3bd e39e 19be 3228 513d c4cb eb3c
000001b0: c1d2 1fbd 42c8 15be eb70 d7bd 9d26 01be
000001c0: 1822 84bd c5a1 19be 20a9 1abe 09b1 15be
000001d0: ebde 09be ba1c e8bd da75 d0bd 38f0 bebd
000001e0: 9649 98bd fb4f e1bd fec8 f8bd 4354 9fbd
000001f0: 3f8a dcbd fa14 a4bd 8f29 acbd 4884 35bd
00000200: 5d70 63bd 3cc1 84bd 46b0 123d f6f3 a6bd
00000210: b671 79bd b2ea c6bd 5ccf babc 80d4 3c3d
00000220: 7c58 98bd b3af e8bd e29c 48bd 6b8f dcbd
00000230: 9c49 f9bd 1188 d5bd a30e 98bd a6b0 babd
00000240: 0964 c3bd f69b 78bd 162c dfbd 7861 5cbd
00000250: e216 9ebd 7bb2 a2bd 6069 6dbd f027 e2bd
00000260: 4e47 1abd 952e 09be f25a a9bd 7b2c f6bd
00000270: a062 523c 7c50 f7bd 80f5 7dbd 5ada f1bd
00000280: 2035 cfbd f813 623d 5228 10be 2f3f 51bd
00000290: 81b9 cbbd 0b38 00be ffa4 aebd 60c1 ca3c
000002a0: 6c90 933c 97e8 9ebd 6fae 23be 67f9 cdbd
000002b0: 83de 1cbe 02ad f9bd fa3e d7bd ec0e 66bd
000002c0: b15c 1fbe eb05 8dbd e836 41bd f075 3abd
000002d0: 7b9e b0bd 7e26 393d cfe9 8ebd 86eb a5bd
000002e0: c14f a9bd 7251 97bd b39c f0bd 4255 f6bd
000002f0: fa90 6abd d39a abbd a4e5 e53c 987b c5bd
00000300: 74f4 aebd e578 f5bd 1a51 4ebd 0bc6 0ebe
00000310: e00c 5fbd 06fb 4abd 2bf9 11be 1348 35bd
00000320: faaa e1bd a7d6 18be 5e8e 26bd 6170 1cbe
00000330: 2cc9 0abe 16bd e3bd 9d28 bebd 4087 1ebd
00000340: b69a 8cbd 6848 383c 091c 4cbd d325 8bbd
00000350: 00e2 04be 06ed 41bd 11ea babd c00f afbd
00000360: 945d 1abe 5135 f9bd ead6 dabd 51d0 0bbe
00000370: 2745 0ebe a484 efbd 72fd adbd b2f6 d9bd
00000380: 0d49 4dbd c556 c7bd 4f30 1abe 421e f6bd
00000390: e142 f8bd 7e1b f8bd 66b7 26bd 8eb4 10be
000003a0: 94d5 19be 18d4 e3bc 4c95 5dbd 4d0c 8fbd
000003b0: cea2 ffbd 4460 06be 379e 1abe c690 88bd
000003c0: bab2 83bd abed 11be a2ff 17be 598b 1bbe
000003d0: 588f a3bd c09a 6bbd 0414 24be 92e7 edbd
000003e0: 98a5 1ebd 90f8 79bd 6a63 a3bd d87c 12be
000003f0: 86b4 99bd fdde 27bd c671 c5bd e991 26bd

bias f4 [256]
-0.119537994 -0.09230039 -0.073416956 -0.1551712 -0.5402581 -0.18980725 -0.18900964 0.6849536
-0.13230047 -0.11720255 -0.04675273 -0.0061164787 -0.14071433 -0.11395894 -0.1336016 -0.2395712
0.004627507 -0.17704004 -0.14415883 -0.07768239 -0.041592795 -0.14549786 -0.11750354 -0.15570341
-0.12504086 -0.041425973 -0.21587865 -0.11190186 -0.10417634 -0.095970996 -0.031665877 -0.14228398
-0.42459312 -0.21940969 -0.14017649 -0.16861016 -0.07612416 -0.10144472 -0.19627509 0.051248353
-0.13617873 -0.0738726 0.034547586 -0.11814393 -0.19011192 -0.13411622 -0.22496592 -0.123912886
-0.094200075 -0.11995022 -0.14458455 -0.114297785 -0.14579567 -0.29779193 -0.050287332 -0.004182752
-0.12100847 -0.16747493 -0.45628828 -0.101268284 -0.09408774 -0.15824476 -0.04209778 -0.1702122
0.6010386 -0.1576628 -0.08049712 0.01059949 -0.04611525 -0.1245037 -0.1993775 -0.05273326
-0.16240789 -0.11764772 -0.13960919 -0.0629347 -0.39633468 -0.2321049 -0.16172035 -0.07368465
0.04806384 0.037212186 -0.15856434 -0.1192081 -0.10306397 -0.1052364 -0.080712244 -0.1427937
0.8049276 0.053778466 0.04454735 -0.016901279 -0.13426054 -0.06941226 0.04012642 -0.039790776
-0.029618163 -0.08836127 -0.03642159 -0.06768532 -0.041464474 -0.21417086 -0.05900428 -0.118636675
-0.25319934 -0.13829727 -0.07040564 -0.073619016 -0.1316739 -0.25431612 -0.044094663 -0.006649368
-0.04706683 0.05452445 -0.1499956 -0.025901541 -0.06801526 -0.23669332 -0.33879742 -0.08699088
-0.16128504 -0.07533753 -0.1504004 -0.078053564 -0.077457584 -0.18015146 -0.15592048 -0.009112525
-0.027215134 -0.044575997 -0.04807494 -0.22532868 0.036498647 -0.080054395 -0.101829 -0.107398115
-0.13987094 -0.11009847 0.004919027 -0.116976954 -0.12234648 0.0333391 -0.047528062 -0.039371386
-0.037461884 0.026334606 0.13142893 -0.11656937 -0.060429376 -0.1407019 -0.081904665 -0.010657989
-0.16271043 -0.15602678 -0.08836613 -0.2528253 -0.17144379 -0.011044747 -0.10006852 -0.076151066
-0.0035352595 0.04753649 -0.06340223 -0.13866757 -0.31406435 -0.043775294 -0.1370612 -0.08584695
-0.09350981 -0.21895841 -0.10913777 0.022758922 0.21068296 -0.15642771 -0.0073726187 -0.109357804
-0.104789324 -0.162088 0.00856696 -0.07653175 -0.25724125 -0.123970404 -0.10632517 0.008990764
-0.39752784 -0.46629646 -0.040962614 -0.13174407 -0.007179927 -0.14435871 -0.119401455 -0.12307471
-0.11180411 -0.04730299 -0.08253246 -0.14326465 -0.13643372 -0.13962413 -0.15381087 -0.06392822
-0.053448394 -0.16214368 -0.18514931 -0.07387149 -0.09989748 -0.15562022 0.0117171295 -0.05001654
-0.11746744 -0.064510144 -0.12047908 -0.15518737 -0.05174085 -0.25649172 -0.049096756 -0.16424127
-0.1608672 -0.11007335 -0.055678677 -0.13261291 0.036055483 -0.10076589 -0.19600746 -0.06667267
-0.034691885 -0.123236604 -0.1131328 -0.0066124685 -0.08429778 -0.18890649 0.14389381 -0.096343614
-0.2363386 -0.030473128 -0.123742044 -0.04796272 -0.45058936 0.03910697 -0.2682632 -0.21876897
-0.05546973 0.7218273 0.20428373 -0.2576242 -0.12945373 -0.4759289 -0.15504064 -0.036571644
-0.15899892 -0.04983783 -0.07332302 -0.07523075 0.035744604 -0.017411686 -0.047253534 -0.09114314
00000000: 56d0 f4bd fd07 bdbd a15b 96bd 33e5 1ebe
00000010: 5b4e 0abf d55c 42be be8b 41be 1e59 2f3f
00000020: c679 07be e407 f0bd ca7f 3fbd be6c c8bb
00000030: 6b17 10be 4e63 e9bd dcce 08be 2752 75be
00000040: 58a2 973b fc49 35be 5f9e 13be f217 9fbd
00000050: 355d 2abd 64fd 14be b2a5 f0bd b770 1fbe
00000060: b60a 00be 48ae 29bd 4b0f 5dbe cd2c e5bd
00000070: 685a d5bd 718c c4bd 14b4 01bd e4b2 11be
00000080: 4564 d9be efac 60be 6d8a 0fbe 24a8 2cbe
00000090: fce6 9bbd 40c2 cfbd 56fc 48be cbe9 513d
000000a0: 7072 0bbe 854a 97bd c581 0d3d 72f5 f1bd
000000b0: b3ac 42be c355 09be 775d 66be 0ac6 fdbd
000000c0: f8eb c0bd 76a8 f5bd f90d 14be f514 eabd
000000d0: 764b 15be 2f78 98be 17fa 4dbd 780f 89bb
000000e0: 4ad3 f7bd 8c7e 2bbe 9e9e e9be bf65 cfbd
000000f0: 13b1 c0bd ea0a 22be b96e 2cbd 1b4c 2ebe
00000100: aadd 193f 5b72 21be addb a4bd 7ca9 2d3c
00000110: 58e3 3cbd ccfb febd 9e29 4cbe d5fe 57bd
00000120: 414e 26be 4af1 f0bd b6f5 0ebe e8e3 80bd
00000130: 61ec cabe e8ac 6dbe 059a 25be fae7 96bd
00000140: 97de 443d ce6b 183d b15e 22be 6023 f4bd
00000150: 3413 d3bd 2f86 d7bd 764c a5bd 8338 12be
00000160: bc0f 4e3f cf46 5c3d 4877 363d 8d74 8abc
00000170: 987b 09be 0428 8ebd 9a5b 243d a7fb 22bd
00000180: caa1 f2bc c1f6 b4bd ce2e 15bd 9a9e 8abd
00000190: a7d6 29bd 9b4f 5bbe 79ae 71bd c9f7 f2bd
000001a0: 58a3 81be cd9d 0dbe d530 90bd 91c5 96bd
000001b0: 86d5 06be b935 82be 9b9c 34bd f1e2 d9bb
000001c0: 26c9 40bd 0855 5f3d 7298 19be 782f d4bc
000001d0: 964b 8bbd bc5f 72be db76 adbe 4628 b2bd
000001e0: e827 25be 904a 9abd 9002 1abe 8cda 9fbd
000001f0: 15a2 9ebd a079 38be 9ea9 1fbe b34c 15bc
00000200: 46f2 debc 5295 36bd 3aea 44bd 90bc 66be
00000210: 9b7f 153d 8ff3 a3bd b98b d0bd 8bf3 dbbd
00000220: 543a 0fbe 4e7b e1bd ca2f a13b 9d91 efbd
00000230: cb90 fabd 958e 083d c9ac 42bd e443 21bd
00000240: a271 19bd acbb d73c 4e95 063e ecbb eebd
00000250: cb84 77bd 2914 10be a2bd a7bd d99e 2ebc
00000260: 909d 26be 7cc5 1fbe 4df9 b4bd 5172 81be
00000270: f68e 2fbe 07f5 34bc b9f0 ccbd 17f5 9bbd
00000280: d0af 67bb 9fb5 423d 07d9 81bd dffe 0dbe
00000290: 0bcd a0be b94d 33bd c559 0cbe 87d0 afbd
000002a0: 1282 bfbd a236 60be a083 dfbd eb70 ba3c
000002b0: 46bd 573e 962e 20be 0296 f1bb fcf6 dfbd
000002c0: c99b d6bd 66fa 25be 6f5c 0c3c aebc 9cbd
000002d0: 20b5 83be 32e4 fdbd 03c1 d9bd ff4d 133c
000002e0: c588 cbbe 69be eebe 6ac8 27bd ebe7 06be
000002f0: 9845 ebbb c5d2 13be c088 f4bd 980e fcbd
00000300: 8ef9 e4bd c8c0 41bd c706 a9bd f8b3 12be
00000310: 48b5 0bbe a1f9 0ebe 9980 1dbe ccec 82bd
00000320: b4ec 5abd fe08 26be c897 3dbe f049 97bd
00000330: 0d97 ccbd e85a 1fbe 34f9 3f3c 25de 4cbd
00000340: c592 f0bd e51d 84bd bcbd f6bd 70e9 1ebe
00000350: 37ee 53bd e252 83be ae19 49bd dd2e 28be
00000360: 5fba 24be 236e e1bd 530f 64bd aecb 07be
00000370: eaae 133d 595e cebd 2eb6 48be ae8b 88bd
00000380: 1419 0ebd 7963 fcbd 2bb2 e7bd 68ad d8bb
00000390: 51a4 acbd b470 41be e658 133e cd4f c5bd
000003a0: bf02 72be c8a2 f9bc 786c fdbd 8f74 44bd
000003b0: a6b3 e6be a12e 203d cb59 89be f904 60be
000003c0: 3a34 63bd adc9 383f c12f 513e 52e7 83be
000003d0: 858f 04be f4ac f3be f9c2 1ebe 26cc 15bd
000003e0: 9dd0 22be c122 4cbd 612a 96bd 9412 9abd
000003f0: ef68 123d f4a2 8ebc ec8c 41bd 41a9 babd

weight f4 [128, 256]
-0.10837658 -0.08537577 -0.10682524 -0.03790595 -0.20508116 -0.13683657 -0.0012681374 -0.17964539
-0.38982275 -0.005100429 -0.16184686 -0.2588336 -0.13467053 -0.0973538 -0.101963356 -0.052106865
-0.114305556 -0.39796302 -0.14328332 0.477646 -0.086791016 -0.15432283 -0.050688386 -0.10211287
-0.15426299 -0.027489625 0.059001118 -0.1221611 -0.1332355 -0.3131533 0.12288467 -0.104214095
0.122722596 -0.043099966 -0.11442531 -0.14937651 -0.13492452 -0.14918597 -0.10676478 -0.18315013
-0.07430378 0.20792077 -0.06476571 -0.06562791 -0.0633352 -0.084613696 -0.1819152 -0.0675891
0.40679803 -0.063890286 -0.03945227 -0.043823496 -0.14276709 -0.12367335 -0.049468856 -0.07893747
0.06546775 -0.20657592 -0.34807116 -0.04127643 -0.3983943 -0.13352942 -0.29991364 -0.046743
-0.19005466 -0.160461 -0.037305463 -0.061674856 0.024079375 -0.12742737 0.16464326 -0.08733674
-0.12471719 -0.039136056 -0.10502454 -0.15053001 -1.1458157 0.2791212 -0.10658289 0.007235339
-0.08818815 0.12987773 -0.09675499 -0.16245946 -0.35715654 -0.0679656 -0.187489 -0.1518464
-0.17791595 -0.05974517 -0.13375795 -0.09879679 -0.55650675 -0.18779965 -0.045871235 -0.07477332
-0.1531556 -0.06091362 0.06993322 -0.142334 0.031669956 -0.049378015 -0.48598954 -0.15443848
-0.054976508 -0.04694256 -0.0013073179 -0.09136422 -0.12603515 -0.09021432 0.057020225 0.06066691
-0.042980667 0.37341928 -0.13936485 0.24926327 -0.045632582 -0.7829676 -1.5204793 -0.057858936
-0.07322308 -0.12277133 -0.122499965 0.68288904 -0.04075666 -0.15806796 -0.3046252 -0.00054943335
-0.0117859095 -0.10369354 -0.11587256 0.09269959 -0.1575326 0.1130105 -0.70387506 -0.08171704
-0.14074181 -0.12443228 -0.0069054235 -0.07591434 -0.12226707 -0.3557552 -0.112812385 -0.037956458
0.5500947 0.017881328 -0.5286753 -0.037678525 0.037535667 -0.08339023 -0.09666349 -0.13629283
-0.06852852 -0.03900361 -0.40646014 -0.057973728 -0.07935087 0.17659593 -0.01395607 -0.05229921
-0.13938215 -0.06539888 0.21636729 0.22326241 -1.1734014 -0.11616525 -0.07759357 0.12359608
-0.051911727 -0.37188146 0.58870006 -0.012085241 -0.68768317 -0.060539197 0.008966988 -0.13285954
-0.0675429 -0.081162855 -0.106688194 -0.08575145 -0.11852434 -0.09590384 -0.34707695 -0.115611516
0.27954477 -0.0007377633 -0.13649163 -0.094358556 -0.13293825 -0.047805414 -1.0525444 -0.089831
-0.046232972 -0.034151047 -0.05315375 -0.63416886 -0.19661872 -0.15682513 -0.091915175 -0.088534154
-0.092636324 0.2675219 -0.67363983 -0.13102408 -0.15116528 -0.0499124 0.17091511 -0.1357175
-0.14198835 -0.070509456 -0.09297853 -0.00023137033 -0.05271994 -0.08234249 -0.03820129 -0.48214555
-0.075266585 -0.9000711 1.6293447 -0.06314874 0.036486655 -0.15317401 -0.11488497 0.12085999
-0.080587886 0.06729596 -0.1480774 -0.13857804 0.14173439 0.20047557 -0.116371065 -0.005427137
-0.35498056 -0.098445155 -0.14065613 -0.15181233 -0.21247575 0.082719594 -0.9625209 -0.13421588
-0.047680397 0.013432805 0.17708632 -1.0258799 -0.055393152 -0.13620925 -0.22212715 0.3437562
-0.02214843 -0.058516752 -0.07959823 -0.7661828 -0.102244966 -0.12007019 -0.7711844 0.15069112
00000000: 8af4 ddbd 7ed9 aebd 31c7 dabd 4543 1bbd
00000010: cc00 52be e31e 0cbe a137 a6ba f6f4 37be
00000020: d996 c7be 8021 a7bb 2fbb 25be d685 84be
00000030: 12e7 09be 6e61 c7bd 2ad2 d0bd 026e 55bd
00000040: 0819 eabd cfc1 cbbe ddb8 12be 048e f43e
00000050: 7dbf b1bd ce06 1ebe a09e 4fbd 8d20 d1bd
00000060: 1ef7 1dbe ec31 e1bc 28ab 713d 992f fabd
00000070: e36e 08be a155 a0be f5aa fb3d 336e d5bd
00000080: fc55 fb3d 9789 30bd d157 eabd 28f6 18be
00000090: a729 0abe 35c4 18be 7ea7 dabd b58b 3bbe
000000a0: 952c 98bd 2fe9 543e e2a3 84bd ed67 86bd
000000b0: e3b5 81bd f249 adbd fa47 3abe 276c 8abd
000000c0: d547 d03e e9d8 82bd b498 21bd 4480 33bd
000000d0: 8931 12be 7448 fdbd db9f 4abd f8a9 a1bd
000000e0: f513 863d a388 53be 6236 b2be 7911 29bd
000000f0: 56fa cbbe f0bb 08be 488e 99be 9775 3fbd
00000100: b09d 42be e34f 24be 9dcd 18bd c69e 7cbd
00000110: 1c42 c53c 527c 02be 3e98 283e 9bdd b2bd
00000120: ba6b ffbd 214d 20bd 1b17 d7bd 8a24 1abe
00000130: 17aa 92bf f9e8 8e3e 2148 dabd 6c16 ed3b
00000140: fd9b b4bd abfe 043e 7b27 c6bd c65b 26be
00000150: 39dd b6be 8c31 8bbd 1efd 3fbe 9f7d 1bbe
00000160: 992f 36be 5ab7 74bd d8f7 08be f955 cabd
00000170: 3a77 0ebf 8d4e 40be 7ae3 3bbd c122 99bd
00000180: d2d4 1cbe 8f80 79bd 2639 8f3d 01c0 11be
00000190: 5bb8 013d 9a40 4abd 9fd3 f8be 1f25 1ebe
000001a0: 0c2f 61bd d746 40bd 4f5a abba 2a1d bbbd
000001b0: 5c0f 01be 49c2 b8bd 0a8e 693d de7d 783d
000001c0: 7f0c 30bd d030 bf3e a9b5 0ebe df3e 7f3e
000001d0: 3be9 3abd 9170 48bf 119f c2bf 7efd 6cbd
000001e0: fbf5 95bd 896f fbbd 43e1 fabd d1d1 2e3f
000001f0: 75f0 26bd 91dc 21be d6f7 9bbe d907 10ba
00000200: b019 41bc 475d d4bd 984e edbd 48d9 bd3d
00000210: 3a50 21be 0d72 e73d 2831 34bf 435b a7bd
00000220: 9f1e 10be 5ad6 febd e446 e2bb fa78 9bbd
00000230: 2867 fabd 8c25 b6be 2e0a e7bd 3b78 1bbd
00000240: 02d3 0c3f dd7b 923c 4457 07bf cc54 1abd
00000250: 00bf 193d 7fc8 aabd 82f7 c5bd 5990 0bbe
00000260: ae58 8cbd 40c2 1fbd 8b1b d0be dc75 6dbd
00000270: b582 a2bd 90d5 343e 00a8 64bc b237 56bd
00000280: 32ba 0ebe d9ef 85bd 638f 5d3e e79e 643e
00000290: 0432 96bf 0ce8 edbd 61e9 9ebd f11f fd3d
000002a0: 64a1 54bd 3f67 bebe 0cb5 163f 2d01 46bc
000002b0: 010c 30bf f3f7 77bd 46ea 123c 550c 08be
000002c0: ef53 8abd b638 a6bd 577f dabd 759e afbd
000002d0: e4bc f2bd 3c69 c4bd 12b4 b1be bbc5 ecbd
000002e0: 7e20 8f3e 7566 41ba 76c4 0bbe 0f3f c1bd
000002f0: f720 08be 9ccf 43bd c6b9 86bf 51f9 b7bd
00000300: c95e 3dbd f8e1 0bbd bfb7 59bd e458 22bf
00000310: 6b56 49be c496 20be 063e bcbd 6551 b5bd
00000320: 1db8 bdbd a1f8 883e a973 2cbf 2d2b 06be
00000330: 12cb 1abe f270 4cbd 5f04 2f3e 87f9 0abe
00000340: 6565 11be 4367 90bd 876b bebd 009c 72b9
00000350: ddf0 57bd 2ea3 a8bd f578 1cbd c8db f6be
00000360: 5e25 9abd 0f6b 66bf 5e8e d03f 2054 81bd
00000370: 0873 153d a6d9 1cbe d048 ebbd 7185 f73d
00000380: 430b a5bd 77d2 893d 9aa1 17be 67e7 0dbe
00000390: d222 113e 7849 4d3e f453 eebd 20d6 b1bb
000003a0: 03c0 b5be 9d9d c9bd 2908 10be b174 1bbe
000003b0: 3e93 59be e468 a93d c567 76bf e36f 09be
000003c0: 854c 43bd 4515 5c3c 1e56 353e 0850 83bf
000003d0: eee3 62bd 707a 0bbe 4d75 63be d000 b03e
000003e0: a070 b5bc 43af 6fbd 6604 a3bd 8e24 44bf
000003f0: cf65 d1bd 5ce7 f5bd 576c 45bf c64e 1a3e

bias f4 [128]
0.25828597 0.0069727283 -0.18147217 -0.16192538 0.35922417 -0.09863462 0.5695059 0.004224108
0.066259995 -0.31099942 -0.17792074 0.755345 -0.30330434 -0.008262906 0.22581547 -0.011201398
0.41353685 0.32770342 0.005714403 -0.29429835 -0.06044919 0.30935496 -0.12227853 -0.39382675
-0.07295644 -0.027959127 0.055730537 0.4482451 0.07306027 -0.009465569 0.052479766 -0.25912252
-0.21822788 0.4767976 -0.14110874 -0.22125213 -0.05017308 -0.16263917 -0.0022187952 -0.25035423
-0.19224116 -0.18927042 -0.22290385 -0.2001711 -0.071231194 -0.18873017 -0.1340267 -0.17145626
-0.026651526 -0.119153 -0.36766514 0.28821063 1.1794761 0.08445861 -0.23448138 -0.15132578
-0.07724634 0.11654613 0.06495204 0.2506561 -0.14398916 -0.2619212 -0.18167995 0.6198349
-0.07141265 0.6074447 -0.2573421 0.8700847 0.45401448 0.088743925 -0.21954767 -0.060991857
-0.16686526 -0.037909366 -0.113701664 -0.095500015 0.50224745 -0.1089959 1.0713551 0.0236715
-0.26791725 -0.051265746 -0.17266504 -0.07226262 -0.1282392 0.0052355058 -0.054513626 -0.06769587
0.16691302 0.23632535 0.39230418 -0.15617883 -0.19214693 0.48468772 -0.19802634 -0.21830726
0.19212776 -0.17228518 0.6258675 0.35479158 -0.090824276 0.042051915 -0.022122195 -0.022839895
0.9511758 -0.3195118 -0.121911995 -0.22764914 -0.24970841 -0.13183509 0.5207957 0.17590904
-0.07470739 -0.33058232 0.033614013 0.90399927 0.3388755 -0.02969709 0.4159679 1.2848618
-0.23974347 0.5934048 -0.1981283 0.1068344 -0.13222381 -0.02052902 -0.17615019 -0.07519183
00000000: 0f3e 843e 7c7b e43b d7d3 39be c4cf 25be
00000010: 3bec b73e f300 cabd 23cb 113f 636a 8a3b
00000020: 52b3 873d 513b 9fbe db30 36be 4a5e 413f
00000030: b54a 9bbe 2461 07bc 2c3c 673e 1286 37bc
00000040: 1abb d33e bec8 a73e e33f bb3b 46ae 96be
00000050: 9299 77bd c663 9e3e 2a6d fabd a9a3 c9be
00000060: 306a 95bd 8a0a e5bc b445 643d 6280 e53e
00000070: 9fa0 953d 7915 1bbc 06f5 563d b5ab 84be
00000080: 2177 5fbe d11e f43e cf7e 10be eb8f 62be
00000090: 4a82 4dbd e28a 26be 3569 11bb 6e2e 80be
000000a0: deda 44be 1bd0 41be e840 64be a7f9 4cbe
000000b0: a9e1 91bd 7b42 41be 4c3e 09be 3b92 2fbe
000000c0: 4d54 dabc 7d06 f4bd 9b3e bcbe 5890 933e
000000d0: 13f9 963f a3f8 ac3d e31b 70be 25f5 1abe
000000e0: 5433 9ebd bdaf ee3d 9305 853d ff55 803e
000000f0: e571 13be 891a 86be 4f0a 3abe 80ad 1e3f
00000100: cc40 92bd 7f81 1b3f 58c2 83be dfbd 5e3f
00000110: 9674 e83e 60bf b53d 1bd1 60be 99d2 79bd
00000120: bade 2abe da46 1bbd 6bdc e8bd 8395 c3bd
00000130: 4a93 003f 3e39 dfbd 2a22 893f bcea c13c
00000140: 732c 89be 08fc 51bd 1bcf 30be 6dfe 93bd
00000150: 2351 03be 9b8e ab3b ae49 5fbd 22a4 8abd
00000160: 3feb 2a3e 46ff 713e 18dc c83e 58ed 1fbe
00000170: 2ac2 44be fd28 f83e 6bc7 4abe f08b 5fbe
00000180: 24bd 443e 876b 30be da38 203f 3ea7 b53e
00000190: 1402 babd a13e 2c3d 9b39 b5bc bb1a bbbc
000001a0: 4280 733f 0d97 a3be ffac f9bd db1c 69be
000001b0: 90b3 7fbe c7ff 06be de52 053f 8021 343e
000001c0: 3000 99bd 1642 a9be d9ae 093d 7f6c 673f
000001d0: 1781 ad3e 5047 f3bc bff9 d43e 5a76 a43f
000001e0: 507f 75be 61e9 173f 25e2 4abe fecb da3d
000001f0: ae65 07be 7a2c a8bc b760 34be 2dfe 99bd

weight f4 [2, 128]
0.022939742 -0.032186363 -0.017013272 0.009552452 0.12468568 0.095741384 0.16984384 0.0160975
-0.07788471 -0.03147349 -0.06894609 0.22699614 -0.319309 0.10600179 0.11488128 0.034085933
0.061947398 0.12928466 -0.081331655 -0.05439484 -0.020129299 -0.0195738 0.022533149 0.013161477
0.022684887 -0.068638526 -0.018386832 0.03468781 0.0010015187 0.00020428679 -0.020595763 0.06529016
-0.03686242 0.14302966 0.017182037 0.18449818 0.10856092 0.08895115 0.0803153 0.14572994
-0.0060246307 -0.06223357 -0.0011580404 0.048469335 -0.014646338 0.09199696 -0.026484828 0.12428711
-0.016493587 0.032211594 -0.023751216 0.014028809 0.16968319 -0.029427988 -0.016713027 0.017473308
0.021573715 0.021239787 0.06823886 0.18867972 0.34739378 0.062447287 0.025303433 0.19838889
-0.006822285 0.10957373 0.027117472 0.46440265 0.044059817 -0.021897832 -0.07173003 0.034995385
-0.013515943 0.08476165 -0.0040614107 -0.07448427 0.10403793 0.053599942 0.12023403 0.039873466
0.08038449 0.018305043 0.059512965 0.10100989 0.15573093 -0.117220506 0.06876853 0.062616885
0.0108005395 0.078781344 0.116820864 0.050350234 0.10332936 0.105403006 -0.08484084 0.040468596
-0.023342066 0.01856187 0.12349375 0.13647948 -0.0066489126 0.036180936 -0.014251652 -0.0060770987
0.026608748 -0.041211084 0.19527066 0.01804093 -0.42706808 0.008092699 0.028096346 0.02233579
-0.22238626 -0.026078993 0.030706558 -0.07356873 -0.021707395 0.033458527 0.03786756 0.5074515
-0.03132341 0.004032348 -0.014941073 0.06445982 0.14875661 0.055514824 -0.08759428 0.04722606
-0.059468467 0.074294604 0.05335856 -0.0040513324 -0.0036249475 -0.07166816 0.17992684 -0.033084176
0.07663781 0.057616744 0.14080885 -0.37347856 -0.42505386 -0.03399618 0.027443616 -0.011711869
0.13052694 -0.110349365 -0.07695688 0.014602251 0.0196938 0.024328256 0.17371505 -0.039434038
0.07263687 0.024469156 -0.02016107 -0.012032813 0.008328038 0.0013874079 -0.017659517 -0.038355898
-0.06964313 -0.025990997 -0.07195375 0.021302085 -0.055270106 0.046524957 -0.05162415 -0.032058906
0.061122745 0.014668866 -0.12370378 0.026691955 0.040306307 0.006761144 0.10106409 -0.08955041
0.09073287 0.03872239 0.01233227 0.10473569 0.26252264 0.22453159 0.0154242115 0.18371752
0.015867209 0.0026715228 0.011207561 0.2744429 0.07557841 -0.08227963 0.011143819 0.18310143
0.0109936325 0.16979253 -0.07315751 0.080082044 -0.022967197 -0.023063349 0.1373175 0.07046084
-0.024767617 -0.06034255 -0.26918328 0.051956434 -0.34212786 0.009578417 0.41037056 -0.026429575
0.010323505 0.18803021 0.057366922 -0.09838909 -0.013083441 0.25703722 -0.038413696 0.060093947
0.05175296 0.041347157 0.018057493 0.05359875 -0.089369625 0.15299194 0.19773264 0.012147083
0.029029733 -0.03521214 0.03922038 0.07711782 0.06494216 -0.013169626 0.05714033 -0.010642465
0.12672146 0.18347347 0.05146293 0.1648303 -0.30418724 0.07197826 0.025165142 -0.0025436545
0.14660347 -0.0530018 0.041284587 0.40364918 0.10731076 0.031816375 -0.013348723 0.055895798
0.018380588 -0.11139726 -0.084928825 0.024544533 -0.08941855 0.038236976 0.086273395 0.07079317
00000000: 20ec bb3c d9d5 03bd 6b5f 8bbc e381 1c3c
00000010: 355b ff3d 0f14 c43d 8beb 2d3e e8de 833c
00000020: 0582 9fbd 59ea 00bd 9c33 8dbd ad71 683e
00000030: 787c a3be 7717 d93d e046 eb3d b19d 0b3d
00000040: 8ebc 7d3d 3363 043e 3691 a6bd 20cd 5ebd
00000050: 33e6 a4bc 3c59 a0bc 7097 b83c 3ca3 573c
00000060: a8d5 b93c 5b92 8cbd fb9f 96bc ce14 0e3d
00000070: 6445 833a d135 5639 72b8 a8bc d9b6 853d
00000080: 0dfd 16bd 5e76 123e 58c1 8c3c 17ed 3c3e
00000090: 3055 de3d 052c b63d 597c a43d 3b3a 153e
000000a0: 446a c5bb a1e8 7ebd 63c9 97ba c887 463d
000000b0: 32f7 6fbc e768 bc3d b6f6 d8bc 3e8a fe3d
000000c0: 8f1d 87bc 4ef0 033d e991 c2bc 17d9 653c
000000d0: 6ec1 2d3e f712 f1bc c2e9 88bc 2f24 8f3c
000000e0: 5cbb b03c 10ff ad3c d1c0 8b3d 4235 413e
000000f0: 99dd b13e bac8 7f3d 2549 cf3c 7526 4b3e
00000100: 798d dfbb 3168 e03d 7625 de3c 2fc6 ed3e
00000110: 1178 343d 1563 b3bc 32e7 92bd 5257 0f3d
00000120: f971 5dbc 8497 ad3d 9515 85bb 358b 98bd
00000130: d711 d53d 9d8b 5b3d 423d f63d 5c52 233d
00000140: a0a0 a43d 75f4 953c dec3 733d 46de ce3d
00000150: ee77 1f3e 4e11 f0bd 84d6 8c3d 483d 803d
00000160: bff4 303c 1d58 a13d c73f ef3d 0c3c 4e3d
00000170: 589e d33d 88dd d73d 09c1 adbd 66c2 253d
00000180: dc37 bfbc 100f 983c 4bea fc3d 47c1 0b3e
00000190: 1fdf d9bb 7632 143d c37f 69bc 6622 c7bb
000001a0: 97fa d93c f4cc 28bd 08f5 473e 93ca 933c
000001b0: aba8 dabe 3d97 043c 4f2a e63c 8cf9 b63c
000001c0: 39b9 63be 9da3 d5bc 528c fb3c 34ab 96bd
000001d0: b5d3 b1bc cf0b 093d 041b 1b3d 57e8 013f
000001e0: fa4c 00bd c921 843b 67cb 74bc 8303 843d
000001f0: a753 183e 8363 633d a164 b3bd 1d70 413d
00000200: 3595 73bd c527 983d 818e 5a3d 0ac1 84bb
00000210: 8790 6dbb c2c6 92bd be3e 383e 4683 07bd
00000220: 49f4 9c3d 89ff 6b3d 3230 103e 9538 bfbe
00000230: a9a0 d9be 943f 0bbd 6fd1 e03c 24e3 3fbc
00000240: dba8 053e d9fe e1bd 929b 9dbd 483e 6f3c
00000250: e454 a13c 0d4c c73c 5ce2 313e 9685 21bd
00000260: a4c2 943d 8a73 c83c d428 a5bc 4725 45bc
00000270: 5372 083c afd9 b53a b1aa 90bc 131b 1dbd
00000280: 0fa1 8ebd 12eb d4bc 7d5c 93bd b681 ae3c
00000290: e862 62bd f490 3e3d d873 53bd 3350 03bd
000002a0: d85b 7a3d af55 703c 6858 fdbd 16a9 da3c
000002b0: 3a18 253d 968c dd3b b1fa ce3d 3566 b7bd
000002c0: 28d2 b93d 5e9b 1e3d 4a0d 4a3c aa7f d63d
000002d0: 5e69 863e 9ceb 653e d5b5 7c3c 7220 3c3e
000002e0: f3fb 813c b714 2f3b eb9f 373c c883 8c3e
000002f0: dac8 9a3d 3982 a8bd 9194 363c f17e 3b3e
00000300: a31e 343c 18de 2d3e 9bd3 95bd 0e02 a43d
00000310: b425 bcbc 59ef bcbc f59c 0c3e c64d 903d
00000320: 75e5 cabc c029 77bd 64d2 89be 45d0 543d
00000330: 622b afbe cbee 1c3c 171c d23e d682 d8bc
00000340: eb23 293c fe8a 403e 94f9 6a3d 3880 c9bd
00000350: ee5b 56bc 629a 833e ae57 1dbd 1225 763d
00000360: e9fa 533d a35b 293d 4fed 933c 5d8a 5b3d
00000370: 6c07 b7bd eba9 1c3e 6d7a 4a3e 8f04 473c
00000380: c3cf ed3c 9b3a 10bd 8da5 203d f3ef 9d3d
00000390: 6500 853d 6ac5 57bc fb0b 6a3d bc5d 2ebc
000003a0: 45c3 013e 78e0 3b3e cbca 523d 46c9 283e
000003b0: 6ebe 9bbe 5769 933d 2127 ce3c 71b3 26bb
000003c0: 381f 163e 6a18 59bd 071a 293d 1bab ce3e
000003d0: bec5 db3d e351 023d 9ab4 5abc fef2 643d
000003e0: e392 963c 3f24 e4bd 2aef adbd 9e11 c93c
000003f0: 1321 b7bd 609e 1c3d 1bb0 b03d 02fc 903d

bias f4 [2]
0.8894725 0.71814847
00000000: 78b4 633f 94d8 373f
