saved_models/run3/model_1000.pth (torch, 550886 bytes, 6 tensors)

weight f4 [1024, 4]
000000 10 ce ae 3e 1d 07 06 be ba ce 60 3d 03 8a b6 be
       0.34141588 -0.13088651 0.05488465 -0.3565217
000010 1d 53 d0 be 2e f6 bd 3e 0e 39 ae 3d 38 9b 1f 3f
       -0.4068841 0.37101883 0.08506976 0.6234622
000020 aa eb 38 be da d5 8c 3e 21 9b d5 3e d9 eb e2 bd
       -0.18058649 0.27506906 0.41719916 -0.110801406
000030 8e b6 5b bd 10 9f 2e 3e f9 41 99 3e 14 40 d8 3e
       -0.053640895 0.17052865 0.29933146 0.42236388
000040 b6 52 c3 be 34 86 a8 3e ce fb 9d be 5b 5d da be
       -0.3814904 0.3291489 -0.30856174 -0.4264935
000050 ed 9a 64 be a5 2c c9 be 6d b7 92 be 31 25 3a 3c
       -0.22324724 -0.39291874 -0.28655568 0.011361406
000060 de af a0 be 45 78 5b 3e d8 19 21 be a5 0f d9 3e
       -0.31384176 0.21432598 -0.15732515 0.42394748
000070 6c 29 00 be 63 38 aa be f3 09 87 bc e5 07 b2 bd
       -0.12515801 -0.33246145 -0.016484236 -0.08692912
000080 7b ae 5b 3d e9 6d f2 3d 4d ca 1c bf 6f 96 80 3d
       0.053633194 0.1183737 -0.61246186 0.06278693
000090 4c de 0a be ac ff 65 3c 48 ea 63 bd fb 20 f5 3e
       -0.13561362 0.014038008 -0.05564335 0.47876725
0000a0 be ed 2d 3e 9f f9 8b be 64 52 65 be 7f df 3d be
       0.16985223 -0.27338883 -0.22394711 -0.18542288
0000b0 ec 98 27 3e b7 85 e0 be f6 3f e0 bd 41 d5 e0 3b
       0.16366929 -0.43852016 -0.109496996 0.0068613593
0000c0 af 70 29 be ef fe e6 3e 91 a3 32 3e 56 51 c3 3e
       -0.16546892 0.45116374 0.17445208 0.38147992
0000d0 38 a7 bc be 27 dc f0 3e 31 f7 65 be b1 de b9 3e
       -0.36846328 0.47042963 -0.22457577 0.36302713
0000e0 9c 07 bd bc 5c d9 74 be 04 ea 3e be 96 fb fc 3d
       -0.023074917 -0.23911041 -0.18643957 0.12352674
0000f0 ac 59 84 be 3b c8 af be 2b a3 32 3c 15 1e 01 bf
       -0.25849664 -0.3433245 0.01090316 -0.50436527
000100 7d 82 43 3e 26 dc b0 3e cd 5f 1b bf 6b 1b e4 bd
       0.19092746 0.3454296 -0.60693055 -0.11138042
000110 a3 fa b8 3e a4 d6 18 be 2d 61 06 bf b2 a2 72 3e
       0.3612872 -0.14925629 -0.5249203 0.23694876
000120 2a 43 24 3e ee d1 b9 be 13 94 75 be 63 c7 f9 3e
       0.16041246 -0.36292976 -0.23982267 0.48784932
000130 f6 43 ac 3d 67 74 84 3e 7f 02 dd bc 15 59 3a be
       0.084114 0.25870058 -0.02697873 -0.18198045
000140 e1 dd 2c bf 1b 87 82 3e b6 4a 9e 3d fe 99 84 3c
       -0.6752606 0.25493702 0.07729094 0.01618671
000150 39 00 b3 3e d3 ca ca bd 6f 00 a1 3d 32 46 da be
       0.34961107 -0.09901967 0.07861411 -0.4263168
000160 da 4d f4 3e 54 b0 55 3e 02 bd 04 bf 38 3a e5 3e
       0.47715646 0.20868045 -0.51850903 0.4477098
000170 e6 ae d6 bd 59 16 0e be 97 bd 92 bb 80 25 97 3e
       -0.10482578 -0.13875712 -0.0044781673 0.29520798
000180 18 cb 97 be 71 4d bd be 39 10 1d be 8c f9 42 3e
       -0.29647136 -0.36973146 -0.1533822 0.19040507
000190 8b ac aa be b3 89 00 3d d3 7f 0b bf b9 64 5b 3e
       -0.33334765 0.03138132 -0.5449192 0.21425141
0001a0 4e ae f4 be ed 96 b5 be 35 46 b5 3d b4 5c 4e 3e
       -0.47789234 -0.3546671 0.088512816 0.20152551
0001b0 d3 05 3a 3e 4d bd 96 3e b0 52 a8 3e 09 e0 d0 3d
       0.18166284 0.294413 0.32875586 0.10198981
0001c0 8c b4 00 bf 08 10 0f be fb 60 48 be 5d e6 fd 3e
       -0.5027549 -0.13970959 -0.19568245 0.49589816
0001d0 d3 db af 3e 33 9e 89 be 9d 96 86 3d d8 26 e1 be
       0.343474 -0.2687851 0.06571696 -0.43974948
0001e0 6b 61 ac 3d b9 ec 3b 3e c1 a0 ea bb 8f 90 f4 3e
       0.084170185 0.18352021 -0.0071602766 0.4776654
0001f0 b0 62 b1 be c4 a1 b3 be b9 64 17 be e6 79 97 3e
       -0.34645605 -0.35084355 -0.14784516 0.2958519
000200 59 b9 03 be 58 c4 d0 3e be 5e 46 3e ca 42 a0 3d
       -0.12863673 0.40774798 0.19372079 0.07825239
000210 6a 92 51 3e c1 db cf 3e 4d 23 90 3e 68 f8 b0 3e
       0.20466009 0.40597346 0.28151932 0.3456452
000220 91 3e ea be ed 37 9f be 98 da 9e be f0 d8 0e 3e
       -0.4575086 -0.31097355 -0.3102615 0.13949943
000230 40 fa b5 be 9d da ec 3c 2e 1e 72 3e ab bf b4 be
       -0.35542488 0.028912837 0.23644325 -0.3530248
000240 f7 d0 71 be 5c 99 ab be 99 ed 91 be 16 66 88 3e
       -0.2361487 -0.3351544 -0.28501585 0.26640385
000250 10 50 56 be c6 9f ed bd 1c 25 a2 be 30 3a d4 3e
       -0.20928979 -0.1160274 -0.31668937 0.41450644
000260 df 87 57 be 59 e6 05 3e 59 e0 2f be ee cf 10 bf
       -0.21047924 0.13076152 -0.17175426 -0.56567276
000270 11 63 29 3f f3 4e 6b be 38 4d 6f 3a c5 27 0d bf
       0.6616679 -0.22979335 0.0009128633 -0.5513881
000280 9c 0f 81 be 63 ea bd be f9 9b 26 bf c1 c3 87 3e
       -0.25207222 -0.37092885 -0.65081745 0.26516536
000290 fb a4 9f bd 80 75 14 39 9a 12 0b 3e cd 12 19 bf
       -0.077951394 0.00014158152 0.13581315 -0.5979431
0002a0 dd e8 17 3e c9 19 1d 3e f1 a0 46 be 22 a3 11 bf
       0.14834924 0.15341868 -0.19397332 -0.56889546
0002b0 52 5f d8 be 92 fd 81 3e 0a 6a a6 3e ea 88 11 3f
       -0.42260224 0.2538877 0.32502776 0.5684954
0002c0 0b 35 b8 be 6a 5f 4e bc 80 99 f6 3d 6c b8 a7 3e
       -0.3597797 -0.012595991 0.120409966 0.3275789
0002d0 a5 b8 2d be ca 74 e0 3e 7e 7d fa 3e 1f db a0 3d
       -0.16964968 0.43839103 0.48923868 0.07854294
0002e0 ca 63 7c bb 2a 61 f6 3e e8 11 7c 3e 54 78 d0 3e
       -0.0038511627 0.48121005 0.24616206 0.40716803
0002f0 73 0a a3 3e 40 b7 c1 bd 7d 91 b0 3e b0 d2 82 be
       0.3184391 -0.0945878 0.34486 -0.25551367
000300 a7 ff 3c be f3 3d 84 3d f8 78 45 3e 57 eb 7e bd
       -0.18456899 0.064571284 0.19284427 -0.062236156
000310 09 70 1f bf a5 fb d6 3e 1b 1c c4 3d 0a 00 48 3e
       -0.6228033 0.41988865 0.09575673 0.19531265
000320 dd cc 00 bf 2b 26 a7 bb 38 1c 9a bd 57 cb 93 3e
       -0.50312597 -0.0051009855 -0.075249135 0.28866073
000330 2e 49 bf be 5d c9 e1 bd 39 01 b7 3e 24 75 8c be
       -0.3736052 -0.11024735 0.3574312 -0.2743312
000340 34 62 09 bf 02 bc c3 3e 4c 1c 86 3e 4e 74 a1 be
       -0.5366547 0.38229376 0.26193464 -0.31534046
000350 d1 db 5a be d0 f0 c5 3e e7 fc f5 3d c6 31 cb be
       -0.21372916 0.38660288 0.12011128 -0.39686412
000360 92 17 22 be 55 48 ea 3e 65 3f 57 be a0 d8 03 3f
       -0.15829304 0.4575831 -0.21020277 0.5150242
000370 73 7c da 3d a2 d9 cd 3e e4 03 dc bd 2c 8b ae be
       0.10668268 0.40205103 -0.107429296 -0.34090555
000380 82 35 b0 be fa 6e 81 3e 03 bd 24 3e d0 7e d1 bd
       -0.34415823 0.2527998 0.16087727 -0.10229266
000390 00 e9 99 3d 2d f0 c0 bb 51 13 c0 bd c2 04 57 3e
       0.07515144 -0.005888006 -0.09378684 0.20997909
0003a0 ae 8b a9 be 12 16 86 3e 49 5b 1f bd 69 23 d2 be
       -0.3311438 0.26188713 -0.038905416 -0.4104264
0003b0 ec 37 4c bd af db b1 bd 7a e3 11 bf df f6 55 3b
       -0.04985802 -0.086844794 -0.56987727 0.0032648367
0003c0 ee 8c 16 3f 5c c0 d9 be a5 6a 04 bf 17 d2 62 be
       0.5880879 -0.4252957 -0.51725227 -0.22150455
0003d0 df 7d 87 3e 4f a0 f8 3e d4 c1 31 be de dd b2 bd
       0.2646322 0.48559806 -0.17359096 -0.08733724
0003e0 ff 62 3a be 32 ac 46 be 89 52 84 3e f1 8c 98 bd
       -0.18201827 -0.19401625 0.2584422 -0.074487574
0003f0 25 d8 06 3f 5c 55 1d bd fa a3 88 3d a3 50 8d be
       0.5267356 -0.038411483 0.06671901 -0.27600583

bias f4 [1024]
000000 4a 51 af be 1d 9b 72 3d c2 3f b3 3e 45 16 77 be
       -0.34241706 0.05922996 0.3500958 -0.24129589
000010 25 c6 14 bd 08 30 ad be 74 04 1c 3e 8d c9 f0 3e
       -0.036321778 -0.33825707 0.15236074 0.4702877
000020 e1 00 10 3f af d3 9f bd ca 72 6d be 37 ac 0e bf
       0.5625134 -0.07804047 -0.2318832 -0.5573153
000030 6e 2d 18 be 17 cc b2 be b2 ac c0 3e a8 01 42 bb
       -0.1486108 -0.34921333 0.37631756 -0.0029603038
000040 30 fe ed be ee ac 8e 3e 38 d9 0d be 75 7a 55 3e
       -0.46482992 0.2786631 -0.13852394 0.20847495
000050 ff 8b 7c be 91 20 bf bd 78 d3 fb 3e b2 b2 18 bd
       -0.2466278 -0.093323834 0.49184775 -0.037279792
000060 d9 83 1c bc fa df 10 3f d9 af 4a bb bc 69 af be
       -0.009552919 0.5659176 -0.0030927567 -0.34260356
000070 75 1a 61 be fd 2c b7 be 67 2f 6c be 2e 41 8c 3e
       -0.21982749 -0.3577651 -0.23064958 0.27393478
000080 31 35 98 bd e7 8c bd be fa 30 c3 bd 44 60 6e 3e
       -0.074320205 -0.37021562 -0.09530826 0.2327891
000090 06 4b a6 be 8b 3f 0b 3f d0 eb 1e 3e 96 61 80 3e
       -0.32479113 0.54393834 0.15519643 0.25074452
0000a0 8d 3a aa 3e 25 fc c9 3e f1 98 b3 3e 6f d0 86 be
       0.33247796 0.39450184 0.35077623 -0.26330897
0000b0 18 85 d7 3e 18 4f 4f be 0c 75 8f be 33 79 a6 3e
       0.4209373 -0.20245016 -0.28018987 0.32514343
0000c0 e1 ac 3a 3e 40 b2 b0 be 02 e3 1e be 5c 09 c6 bd
       0.1823001 -0.34510994 -0.15516284 -0.09669754
0000d0 3f 21 bb bc 68 7c b9 3e fb 56 76 be 7a 14 f0 be
       -0.022843001 0.36227727 -0.24056618 -0.46890622
0000e0 c5 15 85 3e 61 e3 82 be ea df 1d be a0 61 01 3f
       0.2599317 -0.255641 -0.15417448 0.5053959
0000f0 39 e8 ea 3e 1a 42 7f be 2d 19 16 3e bc 16 16 be
       0.45880297 -0.2492756 0.14658041 -0.1465711
000100 53 ca 9d 3e 7a 1c 7b bd fe de 1d 3e 5c a8 a5 be
       0.30818424 -0.061306454 0.15417096 -0.3235501
000110 68 87 d0 bd 05 e5 a2 3e fb 8b 9d 3e 87 b1 be be
       -0.10182077 0.31815353 0.3077086 -0.37244818
000120 97 f0 9a bc 40 ed 75 3d 1a 7b 15 3e c7 32 36 3e
       -0.01891355 0.060040712 0.14597741 0.17792808
000130 4f 3a b1 bd 9c 77 cd be c9 85 f9 3e b3 a3 81 b8
       -0.086536996 -0.40130317 0.48734882 -6.181691e-05
000140 40 9f bf be de 04 94 be fd ad c9 be c6 81 11 3f
       -0.37426186 -0.28909963 -0.39390555 0.56838644
000150 c1 a3 7c be 50 57 93 bd c3 68 de 3d df 1f c4 be
       -0.24671842 -0.07194388 0.108598255 -0.38305566
000160 92 b1 39 3b c4 75 a3 be c1 19 b1 bd 9a a6 1f 3e
       0.00283346 -0.31925786 -0.0864749 0.15590897
000170 13 a0 f5 be cd fe ab 3e 20 99 09 3d cb 24 bd 3e
       -0.4797369 0.33592835 0.033593297 0.36942133
000180 74 56 f4 be 5e fe 92 be fb 13 df be bb fd 4b be
       -0.47722208 -0.28709692 -0.4356993 -0.19921009
000190 cc ba 7f bd 1d 49 ee be f6 99 a4 3e 1c 78 c6 3e
       -0.062434003 -0.46540156 0.32148713 0.3876351
0001a0 ed 9f 57 3e 72 90 7e bd 58 66 43 3d 1a 2c e2 3e
       0.210571 -0.062149473 0.047705024 0.44174272
0001b0 e7 b8 df 3e 79 3f de 3e cd 4a ff be ec 88 44 3e
       0.43695757 0.434078 -0.49861756 0.19192857
0001c0 74 b4 94 be 88 57 7f be 36 9f 93 3d c9 1a a2 be
       -0.29043925 -0.24935734 0.072081015 -0.3166106
0001d0 be 74 05 3f 8f cf 19 3f 83 c9 f2 3e 89 bc 27 3e
       0.5213126 0.60082334 0.47419366 0.16380514
0001e0 bb e5 86 ba 45 7e bb be 96 00 22 3f 75 66 91 3e
       -0.0010291854 -0.36619774 0.63282144 0.2839848
0001f0 c0 26 30 be 00 19 c2 be d7 67 ee be b5 cc 2e bc
       -0.17202282 -0.37909698 -0.465636 -0.010668923
000200 2a 06 c5 3e 52 fe e1 be 98 78 1b 3f d1 e2 9e be
       0.38481265 -0.44139344 0.60730886 -0.31032422
000210 1c be 40 3e f9 43 f9 3b 62 2b b5 3e f5 4a 09 3e
       0.18822521 0.00760698 0.3538466 0.134075
000220 1d 8e d7 be 87 ee db be 2e e3 da be 6d d2 d3 3c
       -0.4210061 -0.4295542 -0.4275145 0.025857175
000230 e1 90 2d 3e b6 26 de 3e 6d 5d a8 bc 77 85 01 bf
       0.16949798 0.4338891 -0.020552361 -0.50594276
000240 21 d2 bb 3e dd 76 ed b8 87 d2 17 be 23 e7 9e 3e
       0.36683753 -0.00011323181 -0.14826404 0.31035718
000250 f3 85 bc be e7 04 b8 3e 20 28 10 3f c2 3d 8e 3e
       -0.36820945 0.3594124 0.56311226 0.27781492
000260 1c f4 d2 be ba 84 5b be 17 40 05 bf 73 75 dd 3e
       -0.41201866 -0.2143735 -0.5205092 0.4325367
000270 b4 f3 f3 be b7 cb 8e 3e 50 0d 93 be ad 76 5a 3e
       -0.47646868 0.27889797 -0.28721094 0.21334334
000280 2c e2 da 3e 23 b9 aa be e0 80 9f bc 2f 0d 2c 3e
       0.4275068 -0.33344373 -0.019470632 0.16801904
000290 98 d2 5a 3e 43 04 e0 bc c5 73 5b 3e d7 61 73 be
       0.21369398 -0.027345782 0.21430881 -0.23767792
0002a0 cf 33 c3 be a2 a1 c1 be 05 0e 37 bc 62 c3 ea be
       -0.38125464 -0.3781863 -0.011172776 -0.4585219
0002b0 cb 2d 9d 3e 50 32 96 be 7e 25 ae 3e 45 40 32 3e
       0.30699 -0.2933526 0.3401298 0.1740733
0002c0 b3 cb a7 be 1b 36 04 3f 58 9d ef 3e d4 37 15 3f
       -0.32772598 0.5164506 0.4679973 0.5828831
0002d0 9d 6a e5 3e 35 39 d4 be 3d 57 4f 3e 25 b2 01 3f
       0.44807902 -0.41449896 0.20248123 0.5066245
0002e0 ae 66 7d be 72 77 d2 bd b1 e9 7e be 67 94 92 3e
       -0.247462 -0.10276689 -0.24893834 0.28628847
0002f0 2e 38 61 3e 9c dc e4 be b4 ef ca 3e 68 84 63 3e
       0.21994087 -0.44699562 0.39636004 0.22218478
000300 f7 a1 e9 be f6 a7 8d 3e 6e 53 b5 3e 1d 4b 42 be
       -0.45631382 0.27667207 0.35415214 -0.18973966
000310 05 ba 98 3e b6 f9 7c 3e 6b 9c 2f be fb 11 0d 3f
       0.29829422 0.24704632 -0.17149512 0.5510556
000320 76 72 a7 be 5a b9 db be 77 e0 9f bc e5 72 b9 be
       -0.32704514 -0.4291485 -0.019516213 -0.3622047
000330 89 cc a4 3e 1b b0 cf be f3 34 77 3d 52 5e 58 be
       0.32187298 -0.40564045 0.06035323 -0.2112973
000340 42 f3 c0 be 9e 7e 00 be bb 5e f2 3e 64 72 a7 be
       -0.3768559 -0.125483 0.473379 -0.3270446
000350 94 3d a3 3d d2 b6 0f 3e 51 85 09 3f bb a7 66 3e
       0.079707295 0.14034584 0.5371905 0.22524922
000360 bd 71 0d bf 6a 99 a3 be f2 a7 ad be 9d f1 a2 be
       -0.55251676 -0.31952983 -0.33917195 -0.3182496
000370 d7 d4 bc be 26 59 5c 3e 51 b5 d7 3e 7e 92 92 be
       -0.36881134 0.21518382 0.4213052 -0.2862739
000380 d2 87 d2 be 15 33 86 be 57 b7 c4 be a8 a5 7a 3e
       -0.41119248 -0.26210847 -0.38421127 0.24477255
000390 ec 19 15 3f b2 71 82 3e c5 ac b7 3e 60 07 89 be
       0.5824268 0.25477368 0.35874 -0.2676344
0003a0 cd f9 60 3e c8 88 af bb 72 3d de 3e cc 2e 96 3e
       0.21970291 -0.005356882 0.43406254 0.29332578
0003b0 61 5c 08 3f 6d 19 f9 3d ae 34 7c 3e 54 63 0a 3f
       0.5326596 0.12163053 0.2462947 0.5405781
0003c0 bd 21 d5 3e 2d 1a ed be ca 87 0b be 28 f0 05 bf
       0.41627303 -0.46309033 -0.13626018 -0.52319574
0003d0 9e 46 06 3f 2d fa 91 3e f2 9b 29 be b4 35 b8 be
       0.52451503 0.2851118 -0.16563395 -0.35978472
0003e0 c8 f8 91 3e 34 ce 77 bc 1f 6f 4e 3e 77 46 a3 be
       0.28510118 -0.015124846 0.20159577 -0.31889698
0003f0 dc 16 f0 be be 2d e2 3e 4f c6 8c be a5 74 64 be
       -0.4689244 0.44175524 -0.27495047 -0.22310121

weight f4 [128, 1024]
000000 42 6f ac bc 9b 56 32 3b 95 50 11 bd cd 98 86 bc
       -0.021049146 0.0027212265 -0.03547724 -0.016430283
000010 3d 70 c0 3c 77 fb f5 bc 75 0b 12 bd ba 99 c9 3c
       0.02349102 -0.030027134 -0.035655458 0.024609435
000020 27 79 a1 3c c9 cd 8f bc 98 4a 8a bc 03 7e 08 bd
       0.01971109 -0.01755418 -0.016881272 -0.0333233
000030 97 5f 95 bc 34 f6 62 3c d8 99 b3 bc 41 8d 0a 3c
       -0.018234057 0.013852645 -0.021923944 0.008456529
000040 70 47 75 bb 8b 37 d0 bc b3 b1 e6 bc ee 9f 06 bc
       -0.0037426613 -0.02541711 -0.028160905 -0.008216841
000050 60 69 74 bc a1 6b e7 bb 1b 4d 4e 3c b5 d8 96 3c
       -0.0149177015 -0.007062391 0.012591626 0.01841388
000060 70 6d ce 3c 22 b3 cf bc ea d3 a5 bb f0 6c 85 bc
       0.025198668 -0.025353972 -0.0050606625 -0.016287297
000070 c3 ce 38 bc 42 04 da bc 37 d0 c3 bc ec 56 82 3c
       -0.011279765 -0.026613358 -0.023902996 0.015910588
000080 1f 77 cd 3c 9d 5b bd 3c 90 2e bd bc 66 71 60 bc
       0.025081215 0.023114974 -0.023093492 -0.013698911
000090 f8 d1 0e bd cc 88 49 bc e4 5e 0c bd 33 aa a7 bc
       -0.03486821 -0.012300681 -0.034270182 -0.0204669
0000a0 ca 3a c8 bb 54 bb a8 bb 85 af 7b bc 0f 26 44 bb
       -0.006110524 -0.0051492844 -0.015361671 -0.0029929911
0000b0 4b 9e 96 bc 00 e5 fc bc 9c 68 f3 ba 4a 93 2b b9
       -0.018386027 -0.030870914 -0.0018570605 -0.000163627
0000c0 47 f3 f6 bc 2d 21 5d 3c 25 12 cb 3c 7d 4b 33 bb
       -0.0301453 0.013496679 0.024788925 -0.0027358227
0000d0 25 0a 0d bc 8e b9 0b bd bf ba 0f bd d2 13 db bc
       -0.008608376 -0.034112506 -0.035090204 -0.02674285
0000e0 f2 df b7 3b ff 43 85 3c 60 a0 bf 3c 68 86 92 3c
       0.005611413 0.016267775 0.023391902 0.017886356
0000f0 33 36 84 3c 02 38 f8 bc 82 a4 66 3c 88 28 e9 bc
       0.016139125 -0.030300144 0.014077308 -0.02846171
000100 22 04 19 bc dc d6 ae bc 51 c5 7d bb f7 59 c9 3c
       -0.009339364 -0.021342687 -0.0038722346 0.024579031
000110 11 f2 5a bc 3d 39 8e 3c a5 48 bd 3c 9a 2b 49 3c
       -0.013363377 0.017361278 0.023105929 0.012278462
000120 3e eb 76 bc 00 31 d3 3c e2 65 97 bc f7 48 18 3c
       -0.015070735 0.025780201 -0.018481199 0.00929474
000130 50 d0 0b bb 07 36 73 bb fa 97 73 bc 4b 60 a7 3c
       -0.002133388 -0.003711106 -0.014867777 0.020431658
000140 4e 48 99 3c e3 81 5d 3c 04 5d 11 bd 4f b3 73 bc
       0.018711235 0.013519737 -0.035489097 -0.0148742935
000150 90 f7 a1 3c d8 b2 a5 bc 8c 7b fd bc 96 57 83 bc
       0.019771367 -0.02022688 -0.0309427 -0.016032975
000160 4e db d4 3c 21 b2 45 3c eb f4 c7 bc 8a 28 48 bb
       0.025983479 0.012066395 -0.024408778 -0.0030541741
000170 98 4e 8d 3b 50 1a 7d bc 0c 85 3a bc 04 3c ad bb
       0.0043123476 -0.015448168 -0.01138426 -0.0052866954
000180 8d 52 aa 3c 74 17 76 bc 51 7d 08 bd 23 68 28 3b
       0.020791316 -0.01502024 -0.033322636 0.0025696836
000190 7b a2 31 3c 5e 47 aa bb c9 34 7f bb 79 12 a6 3c
       0.010841961 -0.005196496 -0.0038941375 0.02027248
0001a0 e2 41 0b bd 1a f9 11 bd 1c 41 ff bc b9 2a 90 bc
       -0.033998378 -0.035637952 -0.031158976 -0.017598497
0001b0 99 fd ed 3b 27 53 9a 3c d4 f0 10 bc 5e 0f cd 3c
       0.007262897 0.018838478 -0.00884648 0.025031742
0001c0 4b 11 14 bd 52 9e 0e bc 1a f2 c6 bc b8 bd 8c 3c
       -0.036149304 -0.008704739 -0.024285365 0.017180309
0001d0 4a e2 f6 3b c5 46 a0 3c 48 6a 95 bc 3e 43 02 bd
       0.0075343 0.019564996 -0.018239155 -0.03180241
0001e0 10 86 84 3b 7d c6 bd bc 26 92 87 b9 8c 69 d6 3c
       0.004044302 -0.023165936 -0.00025858096 0.026173376
0001f0 c0 7f 19 3b 65 99 7c bc 02 0c 8e 3c 40 2c 78 3c
       0.0023422092 -0.0154174315 0.01733971 0.015147269
000200 4f 89 65 3b 18 b7 b6 3c 5c 00 11 bd 46 0e 98 ba
       0.003502447 0.022304103 -0.035400733 -0.0011600934
000210 32 db b1 bc a7 72 e5 bc 1d fe 2d bc 9f 9d 83 bc
       -0.021710966 -0.028008772 -0.010619667 -0.01606637
000220 41 aa cb 3c 20 75 ab bc 6e 0c da bc 0f 17 83 bc
       0.024861457 -0.020929873 -0.026617255 -0.016002206
000230 d3 88 2a ba b4 9c be ba f3 bf 0a bd 99 3b 85 bb
       -0.0006505374 -0.0014542551 -0.033874463 -0.0040659425
000240 c8 94 0c bd a4 05 37 bc 86 14 c9 bc 03 f8 84 bc
       -0.034321576 -0.011170778 -0.02454592 -0.016231542
000250 90 9b 44 3c 1d cd c7 3c 89 4d 93 3c 15 f1 0a bd
       0.01199998 0.024389798 0.017981308 -0.03392132
000260 f3 3a 89 3c eb 5b c7 bb 69 6b 9c bc e0 8b 46 bc
       0.016751742 -0.0060839555 -0.019094186 -0.01211831
000270 3b d7 ee bc 1f 47 f2 bc 28 96 0a 3c 13 e6 ce 3b
       -0.029155364 -0.029574929 0.008458652 0.006314048
000280 1e 02 c9 3c 54 06 b5 3c 4e f9 3b bc f1 fb b1 3c
       0.024537142 0.022097744 -0.011473013 0.02172658
000290 c3 be b7 bc 23 9d ae 3c 45 5b 74 3c 12 fc d0 3c
       -0.02242983 0.021315163 0.0149143385 0.025510821
0002a0 05 cc a4 3c fc 3f 8c 3c 9a af ba bc 93 0c 50 bc
       0.020116815 0.017120354 -0.022788811 -0.01269831
0002b0 b3 4c 45 3b ed c9 ac 3c 12 e4 d4 3c 7f f8 53 bc
       0.003010553 0.02109238 0.025987659 -0.012937664
0002c0 62 21 23 3c 92 eb e1 bc 8e 1a 00 bd 4c 0b 75 3c
       0.00995669 -0.027578149 -0.031275325 0.014956307
0002d0 60 eb e5 3b 25 20 06 3b 58 55 aa 3c 50 16 c9 3c
       0.0070165843 0.0020465937 0.020792648 0.024546772
0002e0 00 5c 72 b9 f7 1f 59 bc b0 00 dd 3c 72 61 bd 3b
       -0.00023113191 -0.01325225 0.026977867 0.0057794387
0002f0 6e c9 80 3c c6 31 fe 3c dd 6b ea bc 3d b7 22 bc
       0.01572105 0.031029593 -0.028615886 -0.009931383
000300 a4 69 02 bc fb 55 d0 bc 88 b6 94 bb f8 09 0f bd
       -0.007959757 -0.025431624 -0.004538361 -0.034921616
000310 99 14 19 bc b5 93 06 bd 70 f4 5f bb 3a 67 64 bc
       -0.00934329 -0.03285571 -0.0034172796 -0.013940627
000320 60 e7 ae 3b f2 4a 94 3c 00 f6 53 39 43 2b 11 bd
       0.0053376406 0.018102143 0.0002021417 -0.03544165
000330 7e c4 9b 3c 36 d9 50 bc e8 e0 9d bb a4 24 db 3c
       0.019014593 -0.0127471 -0.0048180707 0.02675087
000340 d9 ba d6 bc 38 bf c6 3b 0e 20 b4 3c 98 4e a3 3c
       -0.026212143 0.0060652755 0.021987941 0.019934937
000350 3a 31 f7 bc f1 10 9e bb cf 94 ae ba 93 f0 93 bc
       -0.03017484 -0.004823797 -0.0013319495 -0.01805905
000360 54 2f c0 bc f0 fa d9 bc bc de b7 bc 0c 32 95 3b
       -0.023460068 -0.026608914 -0.022445075 0.004553085
000370 70 55 17 bb 19 fc f1 bc a0 7a 8c bb de c4 8c 3c
       -0.0023091696 -0.029539155 -0.004287079 0.017183717
000380 3b 10 a9 bc 72 03 30 3b a4 68 9c bc 91 07 68 3c
       -0.020637622 0.0026857522 -0.019092865 0.01416196
000390 6f 18 10 bc 26 94 2e 3c 88 2d 86 bc 72 ad 5c bb
       -0.008794888 0.0106554385 -0.016379133 -0.0033672717
0003a0 71 41 9a 3b d1 f8 9d bc 1a 96 3f bc b5 b3 a5 bc
       0.0047075083 -0.019283684 -0.011693502 -0.020227293
0003b0 8f 14 e4 bc ed a6 63 3c 2c 91 a1 bc dc a2 08 bd
       -0.027841834 0.013894779 -0.019722544 -0.03335844
0003c0 e6 2d 24 bc a7 bd 88 bc aa 01 a0 bc fc 89 ca bc
       -0.010020709 -0.016691996 -0.019532043 -0.024724
0003d0 ec 6c 01 bd c4 37 96 bc da 28 be bc 32 47 40 bc
       -0.031598017 -0.018337138 -0.023212839 -0.011735724
0003e0 43 a4 c3 3a b2 1c 19 bc cd 4a ca bc 0c ec d5 3c
       0.0014926273 -0.00934522 -0.02469387 0.026113532
0003f0 15 57 d0 3b da 3a c5 bc d2 1f fb bc d1 ff 0c bd
       0.0063580372 -0.024075914 -0.030654822 -0.034423653

bias f4 [128]
000000 dc d6 d2 3c e1 a2 74 3b d2 6b 71 3c df 9c 10 bd
       0.025737219 0.0037328529 0.014735179 -0.035305854
000010 81 1b 0a bd 4a c0 75 3d 1d a1 8f 3b 8f 47 12 bd
       -0.033717636 0.059997834 0.00438322 -0.035712775
000020 25 db 87 3c 42 92 82 bc 63 a4 30 3b 53 0f cb 3c
       0.016583988 -0.015938882 0.002695345 0.02478758
000030 e4 91 b2 bc 74 93 4e 3b 3f 5e bc bc 2d 0b 69 3c
       -0.021798082 0.0031520994 -0.022994159 0.014223856
000040 68 5f ff bc 8b 2a 63 bc 3d e4 66 3d 0b 90 76 3d
       -0.031173423 -0.0138651235 0.05637001 0.060195964
000050 9d 7c bb 3c de 3d 6a bc 9a 9a 0c 3c f5 fc ce bc
       0.022886569 -0.014296977 0.008581782 -0.025267104
000060 d1 76 ba 3c 86 98 cf 3a bc 65 ed bc 3c 12 60 bb
       0.022761734 0.0015838302 -0.028979175 -0.0034190556
000070 e7 7c bb bb d3 f5 c5 3d 7f 9c 94 3a 62 d4 57 3c
       -0.0057216766 0.09666028 0.0011338143 0.013173195
000080 37 ab f1 3b 03 5e 26 3d 1c 36 6e 3d ac b7 09 bd
       0.0073751467 0.040617 0.05815707 -0.03362243
000090 c3 36 d5 3c 4c e0 b7 3c 02 11 0c 3c 29 2d 47 3d
       0.026027089 0.02244582 0.008548977 0.048627052
0000a0 77 30 8a bc cb a0 ed 3c b3 48 43 3d 1a c5 5e bb
       -0.016868813 0.029007336 0.047676753 -0.0033991993
0000b0 a9 a0 af bc ae 7b cc bb 9a a3 e2 3b 5d 39 40 3c
       -0.021438913 -0.0062403297 0.0069164755 0.0117324265
0000c0 41 96 fc 3c fd e3 c9 3c 77 3f 1d bc 5b 61 3a 3d
       0.030833365 0.024644846 -0.009597651 0.045503
0000d0 12 0a a1 bc 6f 63 94 3c ac 05 24 bd dc 75 83 3d
       -0.019658122 0.01811382 -0.04004447 0.06418964
0000e0 4c a8 f1 3b f2 b8 e1 3b 49 b1 c1 bc c9 a3 2f 3d
       0.007374799 0.0068885023 -0.023644106 0.042880807
0000f0 1e dc 5c 3d f6 b7 4b bc 51 19 9e bc da ca 79 3d
       0.053920858 -0.012433996 -0.019299181 0.06098447
000100 84 36 1a 3c 50 e3 98 bc 0c ec be bb c4 9d a7 3c
       0.009412412 -0.018663079 -0.005826479 0.02046097
000110 5b 8d bf 3a 16 46 35 3d 82 85 21 3c c5 44 6d 3d
       0.0014614271 0.044256292 0.009858491 0.05792691
000120 69 8f c5 3c b5 1a 03 bc a7 9c b6 3d f8 37 66 3d
       0.024116235 -0.008001973 0.08916598 0.05620572
000130 ae 39 89 3c eb 91 5c 3b 1c 8f 85 3c c8 4c b6 3c
       0.016751137 0.003365631 0.016303591 0.022253409
000140 61 56 25 bb 31 21 95 bb 01 02 53 3d 03 b6 d7 bc
       -0.0025228488 -0.004551076 0.051515583 -0.026331907
000150 7b 5f 15 bc d0 f4 91 bc 1b a3 3b 3d a4 f1 e3 3b
       -0.009117003 -0.017816931 0.045809846 0.006956296
000160 97 4d 21 3b c9 14 e9 b8 f2 e3 d5 3c f7 cc 02 bd
       0.0024612898 -0.00011114177 0.02610967 -0.03193375
000170 9c 75 74 3a b3 05 54 3d bc 25 ee 3c 85 43 0e bc
       0.00093253865 0.051763248 0.029070728 -0.00868309
000180 b7 be b5 bc 38 0d 08 3c b2 a1 e5 bc 10 15 3e 3c
       -0.022185666 0.008303933 -0.028031204 0.011601701
000190 b5 01 80 bc d0 c8 7f 3d ba 6c 6d bc b5 ad 0a bc
       -0.015625814 0.06244737 -0.014491254 -0.008464267
0001a0 ec 8f 7c 3c d1 c0 ff bc 2b 55 db bc 88 a6 a5 3d
       0.015415173 -0.031219872 -0.02677401 0.08088404
0001b0 e8 0d 0d bd 03 fa 37 bb 41 45 bd bc 3a 73 70 3c
       -0.03443709 -0.0028072603 -0.023104312 0.01467591
0001c0 ec a4 ed 3c e5 ce 8b 3c 66 01 cb bb 41 b7 19 bc
       0.029009305 0.017066428 -0.006195235 -0.00938207
0001d0 71 a8 7c 3c 3f d7 32 bc 58 db aa 3c 83 f0 1b bc
       0.015421019 -0.0109155765 0.020856544 -0.009517792
0001e0 5b 64 4a 3c 2a eb 5a 3d 83 19 8a 3c f5 35 27 b9
       0.012353028 0.053446926 0.016857868 -0.00015946462
0001f0 77 b5 6e ba 02 fb 4d bc b1 db 72 3d 70 00 15 bc
       -0.000910602 -0.012572052 0.059291545 -0.009094343

weight f4 [3, 128]
000000 ef b3 74 bd a5 b9 34 bc 25 04 9d bd 6b 15 b8 3d
       -0.05974191 -0.011030589 -0.07666806 0.0898846
000010 77 2b e3 bc b7 b4 0c 3e db 55 11 3d 08 0d 4b bd
       -0.027730687 0.13740812 0.03548227 -0.049572974
000020 c3 ae 57 bd f0 2d 8f 3c d3 95 9f 3d 32 82 19 bd
       -0.0526569 0.01747796 0.077922486 -0.03747768
000030 da 39 89 3c b6 55 19 3e 25 eb 09 3d 11 d2 58 bd
       0.016751219 0.14974102 0.033671517 -0.05293471
000040 02 3c c5 bc 8e c1 6a bc cc 37 c6 3d d2 86 da 3d
       -0.024076466 -0.014328374 0.09678611 0.10670246
000050 6a 37 8b bd 28 bf cf 3d 80 57 95 bd 82 68 9a bd
       -0.06797679 0.10143882 -0.0729208 -0.075394645
000060 95 32 01 bc 35 5a 02 bc 61 bf ae 3c fb 83 80 3c
       -0.007885595 -0.007956077 0.021331491 0.015687933
000070 4b 36 3d bd 22 be a9 3d 29 60 63 bd 12 8d 8d bd
       -0.046194356 0.08288218 -0.055511627 -0.06911673
000080 6e 8a a8 bc 01 89 39 3e 0f 0d 30 3e 19 d2 73 bd
       -0.02057382 0.18118669 0.17192481 -0.059526537
000090 9e 9a 8d bd 87 e3 51 bd 00 0c 51 3c 13 5f 0f 3e
       -0.069142565 -0.051242378 0.012759209 0.14001112
0000a0 a8 0a 2e bd 62 b1 8b 3d 40 7a b1 3d 99 aa 8c 3d
       -0.04249063 0.068209425 0.086658955 0.068684764
0000b0 d7 77 10 bd 4f cf ed 3c 1b 53 07 bd 88 23 6a bd
       -0.03527054 0.029029517 -0.03303824 -0.05716279
0000c0 45 35 eb 3d 75 89 b9 3d 92 6d dd 3d 44 4c 99 3c
       0.1148477 0.09059421 0.108119145 0.018713124
0000d0 70 f9 37 3d da 89 0d bd d9 80 e2 3c 2b 0a ba 3d
       0.044915617 -0.034555294 0.02764933 0.09083971
0000e0 f8 2e f5 3d 0f bf 7b 3d a5 d5 78 bd 9a bb 18 3e
       0.11971849 0.061461505 -0.060750622 0.14915314
0000f0 5c db 9a 3d 0d c1 58 bd fd 11 10 bd 40 7a 8a 3c
       0.07561371 -0.052918483 -0.035173405 0.016903996
000100 51 fc 94 3c 33 2c 84 bd 36 32 88 3d 41 2b a2 3d
       0.01818672 -0.06453743 0.06650202 0.07918406
000110 be c4 12 be e2 92 cd 3d 73 1e e6 bc c0 23 16 3e
       -0.14332864 0.10037781 -0.028090691 0.14662075
000120 2e 71 18 bd 9a 28 8a 3d ed 0a bf 3d a7 46 23 3e
       -0.03721731 0.067460254 0.09328256 0.1594492
000130 a5 43 d9 bc 8e 38 32 3d d0 ae 8d bc 76 e8 cf bc
       -0.026521513 0.043510966 -0.017295271 -0.0253794
000140 e6 62 e9 bc 73 8d 5e 3d 53 76 85 3d 68 3d 85 3d
       -0.028489541 0.054334115 0.06516709 0.06505853
000150 18 4d 77 bd 83 76 89 bd 32 ef 45 3c 88 7c 94 bd
       -0.060376257 -0.067120574 0.012080954 -0.07250315
000160 60 15 c9 3d 70 6b 41 3d b0 5c f6 3c 32 3c 89 bc
       0.0981853 0.0472216 0.030073494 -0.016752336
000170 20 ad 4a bd 62 1c 03 3e 9d 37 be 3c d0 23 53 bc
       -0.04948151 0.12803796 0.023219878 -0.012886956
000180 31 88 98 bd 36 0c 73 3d 4f 52 d3 bc 09 8d 30 3c
       -0.074478514 0.059337817 -0.025796084 0.010775813
000190 6c b1 62 bd d5 95 17 3e 3a 67 b1 3c b9 f5 09 ba
       -0.055344984 0.1480325 0.021655668 -0.0005262751
0001a0 0a 5a bf bc 27 7d 54 bd 83 9e 2f bd 8f 9e 23 3e
       -0.023358364 -0.051877167 -0.042875778 0.15978454
0001b0 fb 24 a4 bd 4b 8c e6 3d 66 9d 8d 3b 85 a6 71 ba
       -0.08014866 0.112572275 0.004321742 -0.0009218234
0001c0 c1 17 e8 3d 86 f4 5e bd 21 89 93 bd e1 df 0a bb
       0.11332656 -0.054432414 -0.0720389 -0.002119057
0001d0 7a cd 59 bc 36 07 e6 3d d9 7f 40 3d 25 0b 6c 3d
       -0.013293618 0.11231844 0.046996925 0.057627816
0001e0 91 d9 f3 bc 0d 94 aa bc 62 40 fb 3d 6c 87 61 3d
       -0.02976683 -0.02082255 0.122681394 0.05506079
0001f0 6e fb 9f bb 79 e8 02 3e 2c c7 9d 3d de 29 42 bd
       -0.0048822677 0.12783994 0.07704005 -0.04740321
000200 71 76 a8 bd 7c 67 e4 3c 9a 24 75 3d 72 43 8d bd
       -0.08225716 0.027881376 0.05984936 -0.0689763
000210 8b ca 35 bc 32 43 7e 3d 02 f3 3d bd aa 66 81 bd
       -0.011095653 0.0620758 -0.04637433 -0.0631841
000220 a3 b5 78 3d 18 43 62 3b a1 2e 3d 3d 44 f9 a1 bd
       0.060720097 0.0034524854 0.046187047 -0.07908872
000230 56 3f 15 3d 72 16 81 3a 0b c9 95 bd f4 27 c0 bc
       0.036437355 0.0009848608 -0.073137365 -0.023456551
000240 59 7b 20 3e 8b e8 5a 3a dd 58 ff bd 85 33 1c 3d
       0.15672053 0.00083506916 -0.12468121 0.03813507
000250 fd 89 b1 3d aa a6 51 bd 9b a1 8c 3d a4 53 ff bc
       0.08668897 -0.051184334 0.06866761 -0.031167813
000260 49 b5 0b 3e 30 98 f4 3b 75 94 54 3a 89 d8 9f 3d
       0.13643374 0.007464431 0.000810928 0.07804973
000270 82 4e 93 3d 35 b0 6d 3e 78 de 38 3d 29 f6 cf bc
       0.071927086 0.23211749 0.045134038 -0.025385933
000280 bc a6 ef 3d 9b 83 85 3d 63 f4 aa 3d 8d a8 40 bd
       0.11701724 0.065192424 0.08347394 -0.047035743
000290 b9 d0 79 bd 96 58 34 3c a7 dd b0 3c 96 40 0b 3b
       -0.06099007 0.011007449 0.021590067 0.0021248213
0002a0 e7 67 27 bd 2d 10 98 3d 27 08 d1 3c c2 b8 36 3c
       -0.040870573 0.0742496 0.025516583 0.011152448
0002b0 43 37 75 bd b4 28 63 bd 50 2d 6e bd fb 22 d0 3c
       -0.059867155 -0.05545874 -0.058148682 0.025407305
0002c0 7b 10 0f 3e db b0 06 bd ed e7 15 bc f2 e7 03 3e
       0.1397113 -0.032883506 -0.009149534 0.12881449
0002d0 cd ab 1f 3d a7 d5 8c bd 23 2e 85 bd 75 84 ce bc
       0.0389822 -0.068766885 -0.065029405 -0.025209645
0002e0 a2 f1 53 3d e4 dc 95 bd 15 55 85 bd 8e 8f ef 3d
       0.05174411 -0.07317522 -0.06510369 0.11697303
0002f0 73 14 9d 3d 2d fc 25 bb ac cb 05 bd 13 10 2a 3e
       0.07669916 -0.002532731 -0.03266494 0.16607694
000300 98 11 75 bd 5b 7b 83 3d f1 8e 59 bc 36 b9 f8 3d
       -0.05983123 0.064200126 -0.013278709 0.12144701
000310 49 b5 8a bc 66 ce 2f 3e 9e fd c8 bc 59 34 28 3e
       -0.016932147 0.17168579 -0.024534997 0.16426219
000320 7a ce 22 bd ff 02 68 bd 80 65 13 3e a8 15 2a 3e
       -0.039747693 -0.056643482 0.14394188 0.16609824
000330 0f 16 a3 bd 17 fc f2 3d 8a 06 01 3d 28 62 80 3d
       -0.07963192 0.118644886 0.031500377 0.06268722
000340 03 e2 88 3d 09 37 5f 3c 7c 28 9c 3d cf 82 ec bc
       0.06683733 0.013623961 0.07624909 -0.028870968
000350 62 20 1c 3d 31 27 72 bd b9 3a d4 3d 1c c8 83 3b
       0.03811682 -0.059119407 0.10362763 0.0040216576
000360 59 4e 84 3d 04 e4 a8 bd 77 17 10 bc 28 f8 c5 bc
       0.06460256 -0.082466155 -0.008794657 -0.024166182
000370 bf f5 dd bc 08 fc 06 3e 51 23 4f bd b9 38 e2 bc
       -0.02709472 0.1318208 -0.05057079 -0.027614938
000380 fc 90 8b bd ca 1e f0 3d ac fe 3b 3d d6 56 80 bb
       -0.06814763 0.117246225 0.04589717 -0.0039166017
000390 b8 44 9c 3d ae 16 7b 3d 9c 46 6d 3c 4a 6a 0a 39
       0.076302946 0.061300926 0.014482167 0.00013200301
0003a0 5e 80 93 3b dc 83 13 3d 43 ba 6d bc 7f 3c 3f 3e
       0.0045013865 0.036014423 -0.01450974 0.18675421
0003b0 5a 12 ee bb bc aa ad 3c 1a b1 ca bc 88 a9 83 bc
       -0.0072653713 0.021199577 -0.024742652 -0.01607205
0003c0 91 09 9e 3d e5 c5 c7 3c 48 2d a3 bd cb e3 2e 3d
       0.077166684 0.024386356 -0.07967621 0.04269771
0003d0 d2 f9 a9 bd 9a b0 17 bd 6d 48 48 3b 3a 68 4e bd
       -0.082996026 -0.037033655 0.0030560747 -0.050392367
0003e0 c4 78 e9 bb b9 79 14 3e 70 66 23 bc 6e 0a 28 3e
       -0.007124992 0.14499559 -0.0099731535 0.16410229
0003f0 bf 7e d1 3d 49 d9 ec 3c 66 1c 14 3e 27 ca 79 3c
       0.10229253 0.028912203 0.14463958 0.015245951

bias f4 [3]
000000 b7 5c c9 3c 57 38 b8 3d 00 aa e5 3c
       0.024580343 0.08995121 0.028035164
