saved_models/run3/model_4000.pth (torch, 550886 bytes, 6 tensors)

weight f4 [1024, 4]
00000000: 8e10 d13e 967a 34be 9122 2a3d 9cf1 eebe
00000010: 4e57 58be 0a36 e33e fcda df3d 346e 4a3f
00000020: 757c 3abd 1b7b a63e 67d6 c63e dcb0 a3bd
00000030: ff39 9fbb 15e9 5e3e dc58 993e 24f0 123f
00000040: a439 12bf f63d 673e 9872 b9be a56b 03bf
00000050: a33d 9ebe cbfa d4be 5f60 8fbe 4c1f f6bd
00000060: 5fbc babd 99a6 203e 2b03 40bd 612c 233f
00000070: 30ff 70be cc3d a3be b868 67bd 4b3e 41be
00000080: bd5c 0ebd 340b ca3d 2297 afbf 4850 9b3d
00000090: 2221 84bd b181 7d3c d997 41bd b197 183f
000000a0: af71 123e 9e14 96be 03c2 47bf 8195 a2be
000000b0: 1cc1 e83d 0065 f0be e6ca aabd e172 adbd
000000c0: 7cd1 83be 5e5b 0a3f ffe0 243e 6903 f73e
000000d0: 37cc 7abe b0d8 023f f242 80be df36 bf3e
000000e0: f34b 89bd 9b29 81be f53f 16be 3ae0 d23d
000000f0: 911d 73be 2e1b c5be 28fc 403c 8351 43bf
00000100: 371d 2a3e bc20 af3e 8b75 8cbf 69cd 56be
00000110: 8d4a 8f3e 1848 b2bd fc20 b7bf 3c5d 833e
00000120: e578 423e 37eb c0be 9dda b8be 06d2 ff3e
00000130: 06ca 583d f94b 813e 53d1 03bd 5b92 70be
00000140: e1bc 57bf 5d49 783e 8af1 af3d 78bd b9bd
00000150: 31a0 843e c39e f0bd 2c31 b63d ab14 2ebf
00000160: 7d73 d93e 1726 4e3e e1d2 bebf 93cf ed3e
00000170: 7ffc 423d 9dd4 eabd 4024 73bc 5056 1a3f
00000180: 51c0 a1be 378f cebe 22d2 fdbd 4070 403e
00000190: 3ea7 c4be 5459 543d aca6 a6bf 76f9 463e
000001a0: 14af f2be d3dc aabe 7417 763d 1198 9b3e
000001b0: 10ab e83d 7b47 8b3e 4545 a73e 9672 323e
000001c0: 4cca 06bf 3a94 2abe c107 50be e4d9 e13e
000001d0: c4db 8d3e 7bfc b1be 6eec 603d f5ba 1cbf
000001e0: c47e 3d3e 5040 9d3e 596f 66bb 744e 1f3f
000001f0: 4562 aabe 445b b9be 4cdf 34be 8130 b83e
00000200: 8c97 3fbe 1d87 033f 3be7 1e3e 8634 c83d
00000210: 9565 1c3e b3ff db3e de8d 8b3e 7c54 e33e
00000220: 362c 10bf f74d adbe 8b6c 91be 4413 98bc
00000230: f67b b0be 6c8d 6a3d ea29 483e 15f0 edbe
00000240: 44f0 6dbe 21fd b3be 80da 94be 9475 843e
00000250: 98d2 8bbe 76b4 aebd 10b3 5ebf bd6c d93e
00000260: ae35 05bf 5618 58bd 920d 0bbe a908 2cbf
00000270: 2807 623f 42b9 21be 8241 763c 977e 23bf
00000280: bedc 9abe e976 abbe 658b c0bf abfc 773e
00000290: 7145 bbbb a089 cf3c a0c4 ea3d eb51 43bf
000002a0: 18a7 ecbb 3c4d 8f3d 1879 41be 58c8 2dbf
000002b0: 8020 c3be 99b8 8f3e 75fd a73e 28a3 363f
000002c0: d03d e5be 5bc4 c63c 91e7 b73d abbd c73e
000002d0: b281 05be 2ac9 ec3e 9ffb f13e 87ca 2b3e
000002e0: ab47 47bd b0d8 1c3f 3b62 5b3e d79a ef3e
000002f0: 023f e93e 573a 6dbd dfac b83e 4d07 6dbe
00000300: 37d6 45be 7079 ec3c 2ab5 183e 3e97 55bd
00000310: e36b 19bf 2491 f33e 05b5 de3d 63a1 5a3e
00000320: b879 12bf ed8f cebc 34c8 62bd a74f 1d3e
00000330: a88c babe 8e00 88bd 1c0f 9d3e 5708 8fbe
00000340: d9bf 0cbf 494c f13e 8072 663e 05c5 cbbe
00000350: 94c4 c6be a4a7 8c3e c679 c83d a200 16bf
00000360: bb2a 933a d576 093f 52cd f5bd f812 0b3f
00000370: 1eaf 293e 51d7 d03e 1dd6 e2bd 4efb bfbe
00000380: 7c05 cdbe 8bd9 893e ec03 a03d b76c ddbd
00000390: b1dc f33d 0214 f9bc e23b f5bc ae9a 823e
000003a0: d630 12bf 9073 4d3d f1e7 40bd bad3 e6be
000003b0: bdee bbbd 5e1c 66bd 1f83 acbf 2cff b0bc
000003c0: 5fcf 003f c4e0 ccbe c6dd aebf 7508 8fbe
000003d0: 0a63 f63e c0da 093f b478 a9be d257 973d
000003e0: 9fe9 16be 1864 29be aaf1 5c3e e715 8bbd
000003f0: 6e4b 3c3f 60aa 60bd fd32 a63d 7018 a9be
0.40832943 -0.17624888 0.04153687 -0.46668708 -0.21127054 0.44377166 0.1093044 0.79074407
-0.045528848 0.32515797 0.3883545 -0.079927176 -0.0048592086 0.21768601 0.29950607 0.57397676
-0.571192 0.2258223 -0.3622024 -0.5133613 -0.309064 -0.4159759 -0.28003213 -0.12017688
-0.0911796 0.15688552 -0.04687802 0.6373959 -0.23534846 -0.31883085 -0.056496352 -0.18871419
-0.03475641 0.09865418 -1.3717997 0.07583672 -0.06451632 0.015472815 -0.047263954 0.5960646
0.1430118 -0.29312605 -0.78030413 -0.31754687 0.11364958 -0.46952057 -0.08339481 -0.08469177
-0.2574576 0.54045665 0.16101454 0.4824479 -0.24491964 0.5111189 -0.25051075 0.3734655
-0.06703939 -0.25227055 -0.14672835 0.10296674 -0.23741747 -0.384973 0.011778869 -0.7629625
0.16612707 0.34204662 -1.0973371 -0.20976795 0.27986565 -0.08705157 -1.4306941 0.2565707
0.1899143 -0.37679455 -0.3610429 0.49964923 0.05292704 0.25253275 -0.03218205 -0.2349333
-0.8427258 0.24246736 0.08590992 -0.090693414 0.25903466 -0.117490314 0.088960975 -0.68000287
0.42470923 0.20131718 -1.4908105 0.4644743 0.04760408 -0.11466334 -0.014840186 0.6028795
-0.31592038 -0.4034364 -0.12393595 0.1879282 -0.38408846 0.051843002 -1.3019614 0.194311
-0.473992 -0.333716 0.06008096 0.30389455 0.113607526 0.27202973 0.32670036 0.17426524
-0.5265243 -0.16658106 -0.20315458 0.4411155 0.2770673 -0.3476294 0.054912977 -0.61222774
0.18505388 0.3071313 -0.0035161583 0.62229085 -0.332781 -0.36202443 -0.17663306 0.35974506
-0.18710154 0.5137804 0.15517895 0.09775643 0.15273125 0.4296852 0.27256674 0.44400394
-0.5631746 -0.33848545 -0.28403124 -0.018563874 -0.34469575 0.057263777 0.19547239 -0.4647223
-0.23236185 -0.3515406 -0.29072952 0.25870955 -0.27309108 -0.08530514 -0.8699198 0.42465773
-0.52035034 -0.052757584 -0.13579395 -0.67200714 0.8829217 -0.15793326 0.015030267 -0.63865036
-0.30246538 -0.3348916 -1.504254 0.24217479 -0.005715065 0.02533418 0.114632845 -0.7629687
-0.0072220676 0.06997153 -0.1889385 -0.67883825 -0.38110733 0.28070524 0.3281056 0.71342707
-0.44773722 0.024263551 0.08979715 0.39011893 -0.13037756 0.46247226 0.47262284 0.16776477
-0.048652332 0.6126814 0.2142419 0.4679782 0.45555884 -0.057916965 0.3606939 -0.23147316
-0.19319998 0.0288665 0.14912859 -0.05214619 -0.5993025 0.4757167 0.108743705 0.21350627
-0.5721698 -0.025215114 -0.05536671 0.15362416 -0.36435437 -0.06640731 0.3067559 -0.2793605
-0.54980236 0.47128513 0.22504616 -0.3979875 -0.38821852 0.2747165 0.097888514 -0.58594716
0.0011227945 0.5369695 -0.12002052 0.5432582 0.16570708 0.40789273 -0.11075995 -0.37496418
-0.40043247 0.26923785 0.07813248 -0.10811751 0.11907328 -0.030405048 -0.02993578 0.25508636
-0.5710577 0.050159037 -0.047096197 -0.4508341 -0.09176395 -0.056179397 -1.3477515 -0.02160605
0.50316423 -0.40015233 -1.366143 -0.2793614 0.48122436 0.5384941 -0.33099902 0.07389797
-0.14737557 -0.16542089 0.21576563 -0.06791287 0.73552597 -0.054849982 0.08115194 -0.33026457

bias f4 [1024]
00000000: 4404 9ebe 0505 253d 784d aa3e bb29 20be
00000010: 32fd d9bd 2c02 a8be 47b8 7d3e 9bf7 f63e
00000020: 76d7 053f 2849 e93a 9e00 8dbe 39a5 0fbf
00000030: e480 3cbe ad1f a9be 22b2 c83e 9710 65bc
00000040: 9870 1bbf a226 713e 4347 1cbe be83 813e
00000050: 2215 8cbe 441e 05be c57d da3e c14a 2cbd
00000060: 8d21 d5bc 3b46 083f da03 9abc 4293 c7be
00000070: 6918 88be 6644 afbe 47ad cbbc 4f4c 833e
00000080: 6f71 19be 8cad d1be 2db3 b0bd 5de3 5a3e
00000090: 4ef4 b8be 4925 143f 3782 3f3e 5491 a33e
000000a0: 5794 923e f133 e23e dc41 ae3e 873c 47be
000000b0: 7a15 b73e c060 82be b82b b3be 6ea4 b23e
000000c0: f862 393e 9571 bebe 8c23 3fbe 2410 67be
000000d0: 3ed4 e2bd c9a4 a73e 5ea7 3abe af5e e3be
000000e0: 27c8 3d3e 3a13 81be 9f1e 5ebe c668 ed3e
000000f0: 5cf7 cb3e b949 17be 33b3 b03d 39d9 d4bd
00000100: b50a 8c3e 74bf 41bc 8e27 f73d 65e5 b1be
00000110: ae8e 91bd cce4 a53e aa5c 8b3e 6451 b5be
00000120: 32d7 833d acd8 1b3e ff2b 3a3e 4c5b 123e
00000130: 1bee 66bd e375 cdbe 38c9 ef3e e452 cd3c
00000140: 1e5f dabe 1ce6 bdbe a48b d9be 2f7f 263f
00000150: 7b2b 91be 9137 2abe a638 4c3e d36c b6be
00000160: 3ebe 543a c6f3 8dbe 861e cfbc c61f ee3d
00000170: d44d eebe df3f ac3e c145 c73c d09d 873e
00000180: adbd 06bf db13 a7be 3666 08bf 2967 303b
00000190: 6baa 523b 5b54 ccbe fe19 b13e 67a8 cf3e
000001a0: 009a 223e abe7 07be 4c69 783c f0ab dd3e
000001b0: 3f66 db3e 1558 d33e d742 15bf 6e9f 603e
000001c0: 7b3f a9be db54 42be 84df 653d e977 c9be
000001d0: e61e f43e cd7a 103f f998 dd3e 8f4a 4b3e
000001e0: 62a8 21bc 0f46 a1be 6a46 1c3f 554d 363e
000001f0: 58d8 03be 7199 b6be 44ff 09bf 55d3 8abd
00000200: 78ae c13e be00 f0be e55b 113f 6293 b9be
00000210: ae0e 923e 7e5b 3fb9 d0c8 a13e 0db6 7d3e
00000220: 596a e7be 1861 07bf 13b0 eabe 1cb2 473d
00000230: bdb2 023e 5318 d53e b0e5 a7bc 6824 09bf
00000240: d1c7 cb3e 4be4 0a3c 6819 0fbe 8319 c73e
00000250: 11bb 02be 20bc a33e 052f fe3e 7db2 8b3e
00000260: 0f37 bbbe 56a4 babe 994f 0bbf 1fc5 b03e
00000270: 3bea 06bf b676 a93e d751 bcbe 822b 313e
00000280: b423 d83e 9810 a6be 5510 2c3d 04af 283e
00000290: 6244 393e cc1c 1d3d da24 7a3e f19d 3fbe
000002a0: b1e7 cdbe 16c1 ecbe b330 553d e6d3 fabe
000002b0: fc7f a33e 5c38 a1be 7f11 9a3e d87c ae3d
000002c0: 7579 cdbe e0ed 003f a82c bf3e 9664 113f
000002d0: aa00 b73e dedb febe 0200 643e 6173 003f
000002e0: 5d2d 9abe 38cc c6bc cd73 a2be 7a85 873e
000002f0: a92d 663e e822 01bf d74e c23e 81c7 3d3e
00000300: 0c5a 11bf 1f79 793e 5a9b a23e 77b5 33be
00000310: f50f 6c3e 2250 533e 225e 73be 882e 0a3f
00000320: 4004 bfbe c974 e0be b1af 78b9 4864 eabe
00000330: aeee 9a3e b78a f3be e7e6 273e b909 3abe
00000340: b8ce babe c460 bfbd e1a2 e03e d1c8 94be
00000350: 6d88 393d cad3 ee3d 3f42 ea3e f1c7 593e
00000360: 8217 37bf 6a19 e6be 06b7 d2be 2360 cbbe
00000370: ba9c dcbe f689 1c3e 3618 d43e e997 b6be
00000380: 66ae e9be 27bb 66be 9505 e7be a8c8 863e
00000390: 7978 143f 31c0 7b3e 981b ac3e 4d8e aebe
000003a0: 2f25 4d3e 5984 d0bd f137 ba3e ca78 b13e
000003b0: 2484 fe3e c9de b43d daa9 263e 22c6 e93e
000003c0: 0f09 be3e b946 ffbe 87ba 34be 6df5 0abf
000003d0: e483 f43e b753 843e 9664 8c3c 50c8 fabe
000003e0: d7b7 8a3e 0a6b f93b 3ca2 053e 4e5d c7be
000003f0: 92ed 17bf 8d73 d93e 43d5 73be 4d62 abbe
-0.3086263 0.04028799 0.3326223 -0.15640919 -0.10643996 -0.32814157 0.24777327 0.48235783
0.5228189 0.0017798292 -0.27539533 -0.56111485 -0.18408543 -0.3303198 0.39198405 -0.013981006
-0.6071868 0.23549893 -0.15261559 0.25295824 -0.27359873 -0.12999827 0.4267408 -0.04206348
-0.026016975 0.53232163 -0.018800665 -0.38979536 -0.26581123 -0.3423187 -0.024862899 0.25644156
-0.14984678 -0.40952718 -0.08627925 0.21375795 -0.3612389 0.5786939 0.18702017 0.31946814
0.286288 0.44180253 0.34034622 -0.19456683 0.35758573 -0.2546444 -0.34994292 0.34891075
0.1810416 -0.3719603 -0.18665904 -0.22564751 -0.11075638 0.3274291 -0.18227908 -0.44408175
0.18533383 -0.2520998 -0.21691369 0.46368998 0.39837158 -0.14774217 0.086279295 -0.103929944
0.2735192 -0.011825431 0.12068091 -0.34745327 -0.07107292 0.3240112 0.27219135 -0.3541366
0.064375296 0.15219373 0.18180846 0.1429264 -0.05637942 -0.40129003 0.46833205 0.02506394
-0.42650694 -0.37089622 -0.4248935 0.65037817 -0.28353485 -0.1662276 0.19943485 -0.356299
0.00081155065 -0.27725047 -0.02528311 0.11627154 -0.46543753 0.3364248 0.024325253 0.2648759
-0.5263317 -0.32632336 -0.5328096 0.0026916957 0.0032145034 -0.39908108 0.34590143 0.40558168
0.15879059 -0.13271968 0.0151618235 0.4329524 0.42851445 0.4127814 -0.58305115 0.21935818
-0.33056244 -0.18977682 0.056121364 -0.39349297 0.47679824 0.5643738 0.4328077 0.1985266
-0.009866806 -0.31498763 0.61044943 0.17802937 -0.12875497 -0.35663942 -0.5390513 -0.0677859
0.37828422 -0.46875566 0.56780845 -0.36245257 0.28526825 -0.00018249263 0.3159852 0.24776478
-0.45198324 -0.5288253 -0.4583746 0.048753843 0.12763496 0.4162012 -0.020495266 -0.53571177
0.39800885 0.008477281 -0.13974535 0.3888665 -0.12766673 0.31979465 0.49645248 0.27284613
-0.36565444 -0.36453503 -0.5441833 0.3452539 -0.5270116 0.33098382 -0.3678119 0.17301753
0.4221474 -0.32434535 0.042007763 0.16473013 0.18092492 0.03835754 0.2442812 -0.18712594
-0.4021583 -0.46241063 0.052048396 -0.4898979 0.31933582 -0.3148831 0.30091473 0.08519906
-0.40131727 0.5036297 0.37338758 0.56794107 0.35742694 -0.4977712 0.22265628 0.50176054
-0.30112734 -0.024267301 -0.31728974 0.26469022 0.22478355 -0.5044389 0.37950775 0.18533136
-0.56778026 0.2436261 0.3175915 -0.17549692 0.23052962 0.20636037 -0.23766378 0.5397725
-0.3730793 -0.438391 -0.00023716573 -0.45779634 0.30260223 -0.4756677 0.16396676 -0.18167771
-0.3648584 -0.093446285 0.43874267 -0.2905946 0.04529612 0.11661489 0.45753667 0.21267678
-0.71520245 -0.44941264 -0.4115526 -0.39721784 -0.43088323 0.15287003 0.4142472 -0.35662773
-0.45640868 -0.2253233 -0.45121446 0.26324964 0.57996327 0.24585034 0.33614802 -0.34092942
0.20033716 -0.10181493 0.36370805 0.34662467 0.4971019 0.088315554 0.1627573 0.45658976
0.37116286 -0.49858645 -0.1764928 -0.5428074 0.47756875 0.2584512 0.017137807 -0.4898095
0.27093384 0.007611637 0.13050169 -0.38938373 -0.5934688 0.4247097 -0.23811822 -0.33473435

weight f4 [128, 1024]
00000000: 426f acbc 9b56 323b 9550 11bd cd98 86bc
00000010: 3d70 c03c 77fb f5bc 750b 12bd ba99 c93c
00000020: 2779 a13c c9cd 8fbc 984a 8abc 037e 08bd
00000030: 975f 95bc 34f6 623c d899 b3bc 418d 0a3c
00000040: 7047 75bb 8b37 d0bc b3b1 e6bc ee9f 06bc
00000050: 6069 74bc a16b e7bb 1b4d 4e3c b5d8 963c
00000060: 706d ce3c 22b3 cfbc ead3 a5bb f06c 85bc
00000070: c3ce 38bc 4204 dabc 37d0 c3bc ec56 823c
00000080: 1f77 cd3c 9d5b bd3c 902e bdbc 6671 60bc
00000090: f8d1 0ebd cc88 49bc e45e 0cbd 33aa a7bc
000000a0: ca3a c8bb 54bb a8bb 85af 7bbc 0f26 44bb
000000b0: 4b9e 96bc 00e5 fcbc 9c68 f3ba 4a93 2bb9
000000c0: 47f3 f6bc 2d21 5d3c 2512 cb3c 7d4b 33bb
000000d0: 250a 0dbc 8eb9 0bbd bfba 0fbd d213 dbbc
000000e0: f2df b73b ff43 853c 60a0 bf3c 6886 923c
000000f0: 3336 843c 0238 f8bc 82a4 663c 8828 e9bc
00000100: 2204 19bc dcd6 aebc 51c5 7dbb f759 c93c
00000110: 11f2 5abc 3d39 8e3c a548 bd3c 9a2b 493c
00000120: 3eeb 76bc 0031 d33c e265 97bc f748 183c
00000130: 50d0 0bbb 0736 73bb fa97 73bc 4b60 a73c
00000140: 4e48 993c e381 5d3c 045d 11bd 4fb3 73bc
00000150: 90f7 a13c d8b2 a5bc 8c7b fdbc 9657 83bc
00000160: 4edb d43c 21b2 453c ebf4 c7bc 8a28 48bb
00000170: 984e 8d3b 501a 7dbc 0c85 3abc 043c adbb
00000180: 8d52 aa3c 7417 76bc 517d 08bd 2368 283b
00000190: 7ba2 313c 5e47 aabb c934 7fbb 7912 a63c
000001a0: e241 0bbd 1af9 11bd 1c41 ffbc b92a 90bc
000001b0: 99fd ed3b 2753 9a3c d4f0 10bc 5e0f cd3c
000001c0: 4b11 14bd 529e 0ebc 1af2 c6bc b8bd 8c3c
000001d0: 4ae2 f63b c546 a03c 486a 95bc 3e43 02bd
000001e0: 1086 843b 7dc6 bdbc 2692 87b9 8c69 d63c
000001f0: c07f 193b 6599 7cbc 020c 8e3c 402c 783c
00000200: 4f89 653b 18b7 b63c 5c00 11bd 460e 98ba
00000210: 32db b1bc a772 e5bc 1dfe 2dbc 9f9d 83bc
00000220: 41aa cb3c 2075 abbc 6e0c dabc 0f17 83bc
00000230: d388 2aba b49c beba f3bf 0abd 993b 85bb
00000240: c894 0cbd a405 37bc 8614 c9bc 03f8 84bc
00000250: 909b 443c 1dcd c73c 894d 933c 15f1 0abd
00000260: f33a 893c eb5b c7bb 696b 9cbc e08b 46bc
00000270: 3bd7 eebc 1f47 f2bc 2896 0a3c 13e6 ce3b
00000280: 1e02 c93c 5406 b53c 4ef9 3bbc f1fb b13c
00000290: c3be b7bc 239d ae3c 455b 743c 12fc d03c
000002a0: 05cc a43c fc3f 8c3c 9aaf babc 930c 50bc
000002b0: b34c 453b edc9 ac3c 12e4 d43c 7ff8 53bc
000002c0: 6221 233c 92eb e1bc 8e1a 00bd 4c0b 753c
000002d0: 60eb e53b 2520 063b 5855 aa3c 5016 c93c
000002e0: 005c 72b9 f71f 59bc b000 dd3c 7261 bd3b
000002f0: 6ec9 803c c631 fe3c dd6b eabc 3db7 22bc
00000300: a469 02bc fb55 d0bc 88b6 94bb f809 0fbd
00000310: 9914 19bc b593 06bd 70f4 5fbb 3a67 64bc
00000320: 60e7 ae3b f24a 943c 00f6 5339 432b 11bd
00000330: 7ec4 9b3c 36d9 50bc e8e0 9dbb a424 db3c
00000340: d9ba d6bc 38bf c63b 0e20 b43c 984e a33c
00000350: 3a31 f7bc f110 9ebb cf94 aeba 93f0 93bc
00000360: 542f c0bc f0fa d9bc bcde b7bc 0c32 953b
00000370: 7055 17bb 19fc f1bc a07a 8cbb dec4 8c3c
00000380: 3b10 a9bc 7203 303b a468 9cbc 9107 683c
00000390: 6f18 10bc 2694 2e3c 882d 86bc 72ad 5cbb
000003a0: 7141 9a3b d1f8 9dbc 1a96 3fbc b5b3 a5bc
000003b0: 8f14 e4bc eda6 633c 2c91 a1bc dca2 08bd
000003c0: e62d 24bc a7bd 88bc aa01 a0bc fc89 cabc
000003d0: ec6c 01bd c437 96bc da28 bebc 3247 40bc
000003e0: 43a4 c33a b21c 19bc cd4a cabc 0cec d53c
000003f0: 1557 d03b da3a c5bc d21f fbbc d1ff 0cbd
-0.021049146 0.0027212265 -0.03547724 -0.016430283 0.02349102 -0.030027134 -0.035655458 0.024609435
0.01971109 -0.01755418 -0.016881272 -0.0333233 -0.018234057 0.013852645 -0.021923944 0.008456529
-0.0037426613 -0.02541711 -0.028160905 -0.008216841 -0.0149177015 -0.007062391 0.012591626 0.01841388
0.025198668 -0.025353972 -0.0050606625 -0.016287297 -0.011279765 -0.026613358 -0.023902996 0.015910588
0.025081215 0.023114974 -0.023093492 -0.013698911 -0.03486821 -0.012300681 -0.034270182 -0.0204669
-0.006110524 -0.0051492844 -0.015361671 -0.0029929911 -0.018386027 -0.030870914 -0.0018570605 -0.000163627
-0.0301453 0.013496679 0.024788925 -0.0027358227 -0.008608376 -0.034112506 -0.035090204 -0.02674285
0.005611413 0.016267775 0.023391902 0.017886356 0.016139125 -0.030300144 0.014077308 -0.02846171
-0.009339364 -0.021342687 -0.0038722346 0.024579031 -0.013363377 0.017361278 0.023105929 0.012278462
-0.015070735 0.025780201 -0.018481199 0.00929474 -0.002133388 -0.003711106 -0.014867777 0.020431658
0.018711235 0.013519737 -0.035489097 -0.0148742935 0.019771367 -0.02022688 -0.0309427 -0.016032975
0.025983479 0.012066395 -0.024408778 -0.0030541741 0.0043123476 -0.015448168 -0.01138426 -0.0052866954
0.020791316 -0.01502024 -0.033322636 0.0025696836 0.010841961 -0.005196496 -0.0038941375 0.02027248
-0.033998378 -0.035637952 -0.031158976 -0.017598497 0.007262897 0.018838478 -0.00884648 0.025031742
-0.036149304 -0.008704739 -0.024285365 0.017180309 0.0075343 0.019564996 -0.018239155 -0.03180241
0.004044302 -0.023165936 -0.00025858096 0.026173376 0.0023422092 -0.0154174315 0.01733971 0.015147269
0.003502447 0.022304103 -0.035400733 -0.0011600934 -0.021710966 -0.028008772 -0.010619667 -0.01606637
0.024861457 -0.020929873 -0.026617255 -0.016002206 -0.0006505374 -0.0014542551 -0.033874463 -0.0040659425
-0.034321576 -0.011170778 -0.02454592 -0.016231542 0.01199998 0.024389798 0.017981308 -0.03392132
0.016751742 -0.0060839555 -0.019094186 -0.01211831 -0.029155364 -0.029574929 0.008458652 0.006314048
0.024537142 0.022097744 -0.011473013 0.02172658 -0.02242983 0.021315163 0.0149143385 0.025510821
0.020116815 0.017120354 -0.022788811 -0.01269831 0.003010553 0.02109238 0.025987659 -0.012937664
0.00995669 -0.027578149 -0.031275325 0.014956307 0.0070165843 0.0020465937 0.020792648 0.024546772
-0.00023113191 -0.01325225 0.026977867 0.0057794387 0.01572105 0.031029593 -0.028615886 -0.009931383
-0.007959757 -0.025431624 -0.004538361 -0.034921616 -0.00934329 -0.03285571 -0.0034172796 -0.013940627
0.0053376406 0.018102143 0.0002021417 -0.03544165 0.019014593 -0.0127471 -0.0048180707 0.02675087
-0.026212143 0.0060652755 0.021987941 0.019934937 -0.03017484 -0.004823797 -0.0013319495 -0.01805905
-0.023460068 -0.026608914 -0.022445075 0.004553085 -0.0023091696 -0.029539155 -0.004287079 0.017183717
-0.020637622 0.0026857522 -0.019092865 0.01416196 -0.008794888 0.0106554385 -0.016379133 -0.0033672717
0.0047075083 -0.019283684 -0.011693502 -0.020227293 -0.027841834 0.013894779 -0.019722544 -0.03335844
-0.010020709 -0.016691996 -0.019532043 -0.024724 -0.031598017 -0.018337138 -0.023212839 -0.011735724
0.0014926273 -0.00934522 -0.02469387 0.026113532 0.0063580372 -0.024075914 -0.030654822 -0.034423653

bias f4 [128]
00000000: dcd6 d23c e1a2 743b f61b 3b3c df9c 10bd
00000010: 811b 0abd b715 d23c 1da1 8f3b 8f47 12bd
00000020: 25db 873c 4292 82bc 6f62 dbbc 530f cb3c
00000030: e491 b2bc 3325 e3bc 3f5e bcbc 2d0b 693c
00000040: 71f4 8abd a413 a5bd 9dc2 523c 8578 133d
00000050: 9d7c bb3c c14a f6bc 9a9a 0c3c f5fc cebc
00000060: bee0 32bc 8698 cf3a bc65 edbc 3c12 60bb
00000070: a89c 8ebd 554a 9a3d 7f9c 943a 62d4 573c
00000080: f5e9 c2bc ccdf 183c d2a7 fb3c acb7 09bd
00000090: c336 d53c 4ce0 b73c 0211 0c3c f89e 683a
000000a0: 7730 8abc 1e81 853c 27e5 6cbb 490a 56bd
000000b0: a9a0 afbc ae7b ccbb 9aa3 e23b 609e dc3b
000000c0: 15b3 613c a4e3 c43d 29d3 79bd d183 a43c
000000d0: 54d1 46bd 6f63 943c ac05 24bd 01e1 4c3c
000000e0: 7ae6 83bc f2b8 e13b 49b1 c1bc 1fbf 9c3c
000000f0: 1b24 acbb f6b7 4bbc 5119 9ebc 0582 493d
00000100: 9c54 1e3d 50e3 98bc 0cec bebb 1b21 81bc
00000110: 8f0c 9e3d cf66 633c ce10 8abd c77b 3f3d
00000120: 698f c53c 92fa 05bc a0a7 ca3d 39a6 bd3c
00000130: ae39 893c 0c87 2dbd 3d64 ad3d c84c b63c
00000140: 6156 25bb 3121 95bb e331 3dbc 03b6 d7bc
00000150: 7b5f 15bc d0f4 91bc 8aba a9bc a4f1 e33b
00000160: 5095 74bd c914 e9b8 f2e3 d53c f7cc 02bd
00000170: 9c75 743a 2398 0b3d 3732 c53c 8543 0ebc
00000180: b7be b5bc 9070 8ebc b2a1 e5bc ed04 43bd
00000190: b501 80bc 72c3 973d ba6c 6dbc a73d 97bd
000001a0: ec8f 7c3c d1c0 ffbc 2b55 dbbc 5f4a 3f3d
000001b0: e80d 0dbd 4b36 69bd cb85 2bbd 3a73 703c
000001c0: a16a 52bc e5ce 8b3c 6601 cbbb 41b7 19bc
000001d0: 71a8 7c3c a021 d9bc 58db aa3c 83f0 1bbc
000001e0: 5b64 4a3c 91b2 133d a9b8 adbc a49c c0bc
000001f0: 861b 6fbd 037f 0bbd a8d2 8c3c 7000 15bc
0.025737219 0.0037328529 0.011420241 -0.035305854 -0.033717636 0.02564512 0.00438322 -0.035712775
0.016583988 -0.015938882 -0.026780335 0.02478758 -0.021798082 -0.027727699 -0.022994159 0.014223856
-0.06784905 -0.08060387 0.012863782 0.03600361 0.022886569 -0.030064942 0.008581782 -0.025267104
-0.0109178405 0.0015838302 -0.028979175 -0.0034190556 -0.069634736 0.07533709 0.0011338143 0.013173195
-0.0237932 0.009330701 0.030719671 -0.03362243 0.026027089 0.02244582 0.008548977 0.0008873786
-0.016868813 0.01629692 -0.0036147328 -0.052255902 -0.021438913 -0.0062403297 0.0069164755 0.006732747
0.013775607 0.096137315 -0.060992394 0.020082386 -0.048539475 0.01811382 -0.04004447 0.012504817
-0.01610111 0.0068885023 -0.023644106 0.019134102 -0.0052533275 -0.012433996 -0.019299181 0.049196262
0.03865491 -0.018663079 -0.005826479 -0.015762856 0.07717239 0.013879492 -0.067414865 0.046748903
0.024116235 -0.008177416 0.09895253 0.02315055 0.016751137 -0.04236512 0.084663846 0.022253409
-0.0025228488 -0.004551076 -0.011547538 -0.026331907 -0.009117003 -0.017816931 -0.020718832 0.006956296
-0.059712708 -0.00011114177 0.02610967 -0.03193375 0.00093253865 0.034080636 0.024071796 -0.00868309
-0.022185666 -0.017387658 -0.028031204 -0.04761212 -0.015625814 0.07410325 -0.014491254 -0.07384806
0.015415173 -0.031219872 -0.02677401 0.046701785 -0.03443709 -0.056936543 -0.04187564 0.01467591
-0.012842805 0.017066428 -0.006195235 -0.00938207 0.015421019 -0.026505291 0.020856544 -0.009517792
0.012353028 0.036058966 -0.021206217 -0.023512192 -0.058375858 -0.034056675 0.017190292 -0.009094343

weight f4 [3, 128]
00000000: efb3 74bd a5b9 34bc 2803 9dbd 6b15 b83d
00000010: 772b e3bc f88b 6e3e db55 113d 080d 4bbd
00000020: c3ae 57bd f02d 8f3c 017b 183e 3282 19bd
00000030: da39 893c 572d f43e 25eb 093d 11d2 58bd
00000040: 095c b439 0888 f43b e639 993e 09db f13e
00000050: 6a37 8bbd b8bf 1b3e 8057 95bd 8268 9abd
00000060: 4575 423d 355a 02bc 61bf ae3c fb83 803c
00000070: f5e9 7bbd 65f0 883e 2960 63bd 128d 8dbd
00000080: a670 173d 5893 023f d376 013f 19d2 73bd
00000090: 9e9a 8dbd 87e3 51bd 000c 513c ddfb a33e
000000a0: a80a 2ebd 4b8a 4b3e bb17 113e d6e6 ff3d
000000b0: d777 10bd 4fcf ed3c 1b53 07bd 8823 6abd
000000c0: f949 b93e ce0c 153e 9f88 833e 5cf4 f53d
000000d0: 8dbd bc3d da89 0dbd d980 e23c 2822 a33e
000000e0: 9098 3d3e 0fbf 7b3d a5d5 78bd 29c4 e43e
000000f0: 0539 3f3e 0dc1 58bd fd11 10bd 8587 a23d
00000100: 7b07 fa3c 332c 84bd 3632 883d 596e 9c3e
00000110: 3693 8cbe 9d76 813e 927e d33d 5bd0 783e
00000120: 2e71 18bd 78f5 7f3d bbab 6c3e c6ac e83e
00000130: a543 d9bc 64ea 013e 67eb 12be 76e8 cfbc
00000140: e662 e9bc 738d 5e3d dbf1 173e 683d 853d
00000150: 184d 77bd 8376 89bd 3338 a13d 887c 94bd
00000160: 02b9 6b3e 706b 413d b05c f63c 323c 89bc
00000170: 20ad 4abd 6387 643e 9d37 be3c d023 53bc
00000180: 3188 98bd 45af 0b3e 4f52 d3bc f2f2 413d
00000190: 6cb1 62bd 1f25 ea3e 3a67 b13c 33a0 633d
000001a0: 0a5a bfbc 277d 54bd 839e 2fbd a5de ca3e
000001b0: fb24 a4bd 37ac 8c3e 0f3e 25be 85a6 71ba
000001c0: 519e 843e 86f4 5ebd 2189 93bd e1df 0abb
000001d0: 7acd 59bc 9e6f 6a3e d97f 403d 250b 6c3d
000001e0: 91d9 f3bc 42d8 993d ae39 9f3e dac7 b93d
000001f0: 7b7c 433d d721 a13e 943e ac3e de29 42bd
00000200: 7176 a8bd 7c67 e43c 9a24 753d 7243 8dbd
00000210: 8bca 35bc 1067 e53d 02f3 3dbd aa66 81bd
00000220: a3b5 783d 1843 623b da70 c43d 44f9 a1bd
00000230: 563f 153d b69b ccbd 0bc9 95bd f427 c0bc
00000240: acb6 943e 5443 c1bc 228f 49be 0b38 763e
00000250: fd89 b13d 1faf 09be 9ba1 8c3d a453 ffbc
00000260: 1fca af3e 3098 f43b 7594 543a 89d8 9f3d
00000270: d424 dc3d 5fb1 e13e 78de 383d 29f6 cfbc
00000280: ad8e 443e 567d 4d3e 5c96 8e3e 8da8 40bd
00000290: b9d0 79bd 9658 343c a7dd b03c 99ef 7d3c
000002a0: e767 27bd 56fa 7a3e 5b7e 663d d26e 1b3d
000002b0: 4337 75bd b428 63bd 502d 6ebd 536f a73c
000002c0: e415 c83e f3f3 0cbe 2bfd d1bc 50d1 8f3e
000002d0: 2126 7b3d a7d5 8cbd 232e 85bd fdf8 1cbe
000002e0: 56a0 ba3d e4dc 95bd 1555 85bd be71 ac3e
000002f0: f8c2 2e3e 2dfc 25bb accb 05bd 6d8c c43e
00000300: 6803 a0bd 5b7b 833d f18e 59bc 4fc7 ae3e
00000310: 32d9 35be 6a3c c23e 885a d8bd acc9 ad3e
00000320: 7ace 22bd 379f 53bd ec00 ab3e 6858 d43e
00000330: 0f16 a3bd 055e 5a3e 3e52 203e 2862 803d
00000340: 03e2 883d 0937 5f3c 66f0 193e cf82 ecbc
00000350: 6220 1c3d 3127 72bd 462d 593e 1cc8 833b
00000360: 3cf0 1d3e 04e4 a8bd 7717 10bc 28f8 c5bc
00000370: bff5 ddbc a9b3 663e 5123 4fbd b938 e2bc
00000380: fc90 8bbd a84f 3a3e acfe 3b3d 09a3 a23c
00000390: b844 9c3d 2359 2e3e 9c46 6d3c 479f 3dbd
000003a0: 5e80 933b dc83 133d 43ba 6dbc 215b c33e
000003b0: 5a12 eebb 0a5a 4d3d b127 e8bc 88a9 83bc
000003c0: d4f6 393e e5c5 c73c 482d a3bd cbe3 2e3d
000003d0: d2f9 a9bd 7d54 1bbd 6d48 483b 3a68 4ebd
000003e0: c478 e9bb 9b90 a13e cc0a 82bb 221e a23e
000003f0: fb0a 2b3e 075b 6e3d 1d8c da3e 27ca 793c
-0.05974191 -0.011030589 -0.07666618 0.0898846 -0.027730687 0.23295581 0.03548227 -0.049572974
-0.0526569 0.01747796 0.14890672 -0.03747768 0.016751219 0.47690842 0.033671517 -0.05293471
0.00034400847 0.0074625053 0.29926986 0.47237423 -0.06797679 0.15209854 -0.0729208 -0.075394645
0.04747512 -0.007956077 0.021331491 0.015687933 -0.061502416 0.26745906 -0.055511627 -0.06911673
0.036972664 0.5100608 0.50571936 -0.059526537 -0.069142565 -0.051242378 0.012759209 0.32028094
-0.04249063 0.19876973 0.14169209 0.124952 -0.03527054 0.029029517 -0.03303824 -0.05716279
0.3618925 0.14555666 0.2569017 0.120094985 0.092158414 -0.034555294 0.02764933 0.31861997
0.18515229 0.061461505 -0.060750622 0.44680908 0.18674095 -0.052918483 -0.035173405 0.079360045
0.030521145 -0.06453743 0.06650202 0.3055294 -0.27456063 0.25285807 0.10326876 0.24298231
-0.03721731 0.062489957 0.23112385 0.45444316 -0.026521513 0.12687069 -0.14347611 -0.0253794
-0.028489541 0.054334115 0.14838354 0.06505853 -0.060376257 -0.067120574 0.07872047 -0.07250315
0.23019794 0.0472216 0.030073494 -0.016752336 -0.04948151 0.22317271 0.023219878 -0.012886956
-0.074478514 0.13641079 -0.025796084 0.04735083 -0.055344984 0.45731446 0.021655668 0.0555727
-0.023358364 -0.051877167 -0.042875778 0.3962299 -0.08014866 0.2747514 -0.16136955 -0.0009218234
0.25902036 -0.054432414 -0.0720389 -0.002119057 -0.013293618 0.22894141 0.046996925 0.057627816
-0.02976683 0.07511951 0.31098694 0.09071322 0.047726136 0.3147113 0.33641493 -0.04740321
-0.08225716 0.027881376 0.05984936 -0.0689763 -0.011095653 0.11201298 -0.04637433 -0.0631841
0.060720097 0.0034524854 0.09591837 -0.07908872 0.036437355 -0.09990637 -0.073137365 -0.023456551
0.29045618 -0.023591675 -0.19683507 0.24044816 0.08668897 -0.1344571 0.06866761 -0.031167813
0.34333894 0.007464431 0.000810928 0.07804973 0.10749212 0.44080636 0.045134038 -0.025385933
0.19195051 0.20067343 0.2784909 -0.047035743 -0.06099007 0.011007449 0.021590067 0.015499019
-0.040870573 0.24509558 0.056272846 0.037947483 -0.059867155 -0.05545874 -0.058148682 0.020438826
0.390792 -0.13764934 -0.025633415 0.2808938 0.06131566 -0.068766885 -0.065029405 -0.15329356
0.09112613 -0.07317522 -0.06510369 0.33680528 0.17066562 -0.002532731 -0.03266494 0.38388386
-0.0781315 0.064200126 -0.013278709 0.34136435 -0.17758635 0.37936717 -0.105641425 0.33942926
-0.039747693 -0.05166551 0.3339914 0.414737 -0.07963192 0.21324928 0.15656373 0.06268722
0.06683733 0.013623961 0.15033111 -0.028870968 0.03811682 -0.059119407 0.21208677 0.0040216576
0.15423673 -0.082466155 -0.008794657 -0.024166182 -0.02709472 0.22529472 -0.05057079 -0.027614938
-0.06814763 0.18194449 0.04589717 0.019853132 0.076302946 0.1702619 0.014482167 -0.046294477
0.0045013865 0.036014423 -0.01450974 0.38155463 -0.0072653713 0.050134696 -0.028339239 -0.01607205
0.18160564 0.024386356 -0.07967621 0.04269771 -0.082996026 -0.03792237 0.0030560747 -0.050392367
-0.007124992 0.31555638 -0.0039685722 0.31663615 0.16703407 0.05819228 0.42685023 0.015245951

bias f4 [3]
00000000: b1c3 003c 2c96 463b 73fe f4bc
0.0078591565 0.0030301912 -0.029906487
