saved_models/run6/model_13000.pth (torch, 550896 bytes, 6 tensors)

weight f4 [1024, 4]
0	0xbf1f7cb1	-0.6229964
1	0xbef9dc17	-0.48800728
2	0xbe4a7ac8	-0.197734
3	0xbf72ef84	-0.9489672
4	0x3eb7f09e	0.35925764
5	0xbebeceef	-0.37267253
6	0xc0132f1d	-2.2997506
7	0xbea56d00	-0.32309723
8	0x3e8494a5	0.25894657
9	0xbe108ab7	-0.14115416
10	0xbfd4a01a	-1.6611359
11	0xbef7e052	-0.4841333
12	0x3f016695	0.5054715
13	0xbea15c08	-0.31515527
14	0xbdb234ab	-0.08701452
15	0xbf3ac4b3	-0.7295639
16	0xbd91ff71	-0.071288
17	0xbde1d9f7	-0.110279016
18	0xbde857e6	-0.1134489
19	0xbf49c4bb	-0.7881581
20	0xbef78448	-0.4834311
21	0xbe10e482	-0.14149669
22	0x3eac977e	0.3370933
23	0x3ebe3b90	0.37154818
24	0xbe9d3f44	-0.3071233
25	0x3e97149a	0.29507905
26	0x3ca39a20	0.019970953
27	0x3e752a45	0.23941906
28	0x3bd48738	0.006485846
29	0x3eb4b1e2	0.35291964
30	0x3f0510ed	0.5197895
31	0x3f7a9f56	0.9789938
32	0x3e9dbaba	0.30806524
33	0xbe799f2d	-0.24377127
34	0x3ddb87bc	0.10719249
35	0xbf5dd5a4	-0.86654115
36	0x3e937019	0.2879646
37	0xbe337235	-0.17524035
38	0x3c1eb0ec	0.009685736
39	0xbd9604a5	-0.073251046
40	0xbd5195f0	-0.051168382
41	0xbe974418	-0.2954414
42	0xbdad150b	-0.08451279
43	0xbf4c8e33	-0.7990448
44	0xbe9dcba5	-0.3081943
45	0xbee3f148	-0.4452002
46	0xbd9a60e8	-0.07538015
47	0xbed59871	-0.41717866
48	0x3f5aca90	0.85465336
49	0xbe8cf46c	-0.2753023
50	0xbe0cb6e3	-0.13741641
51	0xbf0e6c78	-0.5563426
52	0x3dac12e2	0.08402039
53	0xbb8fca61	-0.004388139
54	0xc03be6c6	-2.9359603
55	0xbf122b29	-0.5709711
56	0x3f968fbd	1.1762615
57	0x3f12602d	0.57178
58	0xbd937d03	-0.072015785
59	0xbea06682	-0.31328207
60	0xbccbc280	-0.024873018
61	0x3eed7174	0.4637562
62	0x3e8c40d4	0.2739321
63	0x3ef58b8f	0.47958037
64	0xbda18cda	-0.078881934
65	0xbcfbd62e	-0.030741777
66	0xc0235143	-2.5518348
67	0xbe6cd3aa	-0.23127618
68	0xbf2b301e	-0.66870296
69	0x3cbb7241	0.022881629
70	0x3e150892	0.1455405
71	0x3e520c37	0.20512472
72	0xbe5c71df	-0.21527813
73	0xbca6bf91	-0.020355018
74	0xbe460e41	-0.19341375
75	0xbf602dd2	-0.87569916
76	0xbf147db9	-0.5800434
77	0xbe2d7790	-0.1694014
78	0x3ec073e2	0.37588412
79	0xbed81cc9	-0.4220946
80	0x3d4969b4	0.049173072
81	0xbbce45ca	-0.0062949406
82	0xbffb1b5d	-1.9617726
83	0x3accd673	0.0015627876
84	0xbdc602c0	-0.09668493
85	0xbb61b92f	-0.0034442653
86	0x3b6073a7	0.0034248622
87	0x3ea9fc51	0.33200315
88	0xbd005052	-0.0313266
89	0xbed91b26	-0.42403525
90	0x3d92df04	0.07171443
91	0xbed65430	-0.41861105
92	0xbe79dd6b	-0.2440087
93	0x3eb78363	0.35842428
94	0x3e844f82	0.2584191
95	0x3f5a488d	0.85266954
96	0xbe9e9e61	-0.3098021
97	0x3f157a23	0.5838949
98	0xbccd15b0	-0.025034755
99	0x3f5d6f4c	0.8649795
100	0xbf48ffce	-0.78515327
101	0xbecf074a	-0.4043525
102	0x3dac8538	0.08423847
103	0x3d5e8feb	0.05433647
104	0xbef7d4d5	-0.48404565
105	0x3f1b7849	0.60730416
106	0x3edc2204	0.42994702
107	0x3f6c05dd	0.92196447
108	0xbd837640	-0.06419039
109	0xbe9a2b0e	-0.30110973
110	0x3d656d3c	0.056012377
111	0xbf45c631	-0.7725554
112	0xbeb8297a	-0.35969144
113	0xbd130abd	-0.035898913
114	0x3df71b8d	0.12065802
115	0xbe5aad09	-0.2135507
116	0x3ed83a46	0.4223196
117	0x3f024d08	0.5089879
118	0x3cfd2366	0.030900668
119	0x3f64a403	0.8931276
120	0x3ed1124e	0.40834278
121	0xbeb6b14c	-0.35682142
122	0xbcd3faa2	-0.025876347
123	0xbee7da80	-0.4528389
124	0xbf529324	-0.8225577
125	0xbde0e37f	-0.109808914
126	0x3c098243	0.008392873
127	0xbcef258e	-0.029192712
128	0xbe1bc371	-0.15211274
129	0xbdafe0a0	-0.08587766
130	0xc06252fa	-3.5363145
131	0xbe96042d	-0.2930006
132	0xbe254067	-0.16137849
133	0xbf41a504	-0.7564242
134	0x3ddffb3f	0.10936593
135	0xbf2463ee	-0.6421498
136	0xbe6f28b4	-0.23355371
137	0xbeabfaf1	-0.3358989
138	0xc0177194	-2.3663073
139	0xbde16e36	-0.11007349
140	0x3d781b75	0.06057306
141	0x3ea26996	0.3172118
142	0x3e885946	0.2663061
143	0xbf15ae17	-0.58468765
144	0xbe8c6b99	-0.2742584
145	0xbeba5be1	-0.36398223
146	0x3c6ea813	0.014566439
147	0xbf2ced21	-0.6754933
148	0x3fcd45f5	1.6036974
149	0xbe9edeeb	-0.31029448
150	0x3c919032	0.017768953
151	0xbeca625b	-0.39528164
152	0xbe62a6f2	-0.22133997
153	0x3efbec0f	0.49203536
154	0xbed039a9	-0.4066899
155	0x3e36b80d	0.17843647
156	0x3f04009d	0.51563436
157	0x3ebceb1d	0.36898127
158	0xbeaa44c8	-0.332556
159	0xbf62d846	-0.8861126
160	0x3d5e4621	0.0542661
161	0x3e816eca	0.25279838
162	0x3d830b97	0.06398695
163	0x3f13981a	0.57653964
164	0x3de7fd2f	0.11327588
165	0x3f113c43	0.5673258
166	0x3eea9989	0.45820263
167	0x3ea23040	0.31677437
168	0x3dc6591d	0.09684966
169	0xbe8d946e	-0.27652305
170	0x3e5f9d97	0.2183746
171	0xbf34b259	-0.70584637
172	0xbf0cf90e	-0.5506753
173	0x3eb8329c	0.35976112
174	0xbe80bf51	-0.25145963
175	0x3e3b501f	0.18292283
176	0x3d7835be	0.060598128
177	0x3e848e13	0.25889644
178	0x3e897714	0.26848662
179	0xbe3d3e41	-0.18480779
180	0xbe9a62ae	-0.30153412
181	0x3ea441e8	0.32081532
182	0x3ee9082d	0.4551405
183	0x3f510c11	0.81659037
184	0xbf3e90f7	-0.7443995
185	0x3e6c6bf1	0.23088051
186	0x3d108e4d	0.03529196
187	0xbeca69e8	-0.39533925
188	0xbf628cdc	-0.88496184
189	0xbf086476	-0.5327829
190	0x3d737380	0.05943632
191	0xbda75ef2	-0.08172406
192	0x3e8b8be8	0.27255177
193	0x3e95662d	0.29179516
194	0xc03f7713	-2.9916427
195	0xbe961870	-0.2931552
196	0xbf1c9b86	-0.6117481
197	0x3eaaa715	0.33330598
198	0x3da4d515	0.08048455
199	0x3e28cfe1	0.1648555
200	0x3ea78442	0.32718092
201	0x3f1c55e6	0.6106857
202	0xbc971f58	-0.018447563
203	0x3ecdb4c0	0.40176964
204	0xbf16db63	-0.5892851
205	0x3ef9aaa8	0.48763013
206	0x3eab1d9e	0.33421034
207	0x3eb43875	0.35199323
208	0x3e1c9321	0.152905
209	0xbf091e9c	-0.5356233
210	0xbfcc87a0	-1.597889
211	0xbe9c9cdd	-0.30588427
212	0xbe92632d	-0.2859129
213	0x3da8d6f8	0.08244127
214	0xc00bdcac	-2.1853437
215	0xbcda2db3	-0.02663312
216	0xbb7a06b8	-0.0038150977
217	0x3e1a186f	0.15048383
218	0xbdceda0a	-0.101001814
219	0x3f21fbec	0.6327503
220	0xbe56baa0	-0.2096963
221	0xbe5cf35e	-0.21577212
222	0x3d1abf74	0.03778024
223	0xbede8adb	-0.43465313
224	0x3f919e79	1.1376487
225	0x3e324096	0.1740745
226	0x3e6dc95e	0.23221347
227	0xbf3d29b7	-0.73891777
228	0xbf3c33c7	-0.73516506
229	0x3ebf0142	0.37305647
230	0x3ea49b60	0.32149792
231	0x3f841af5	1.0320727
232	0x3f409b5f	0.7523708
233	0x3e46f1bb	0.1942815
234	0xbe65ea46	-0.2245265
235	0xbeb93d13	-0.36179408
236	0x3e17dd11	0.14830424
237	0xbe7965d3	-0.24355249
238	0x3e911931	0.28339532
239	0xbf6fa4b5	-0.936107
240	0xbf6ba75e	-0.9205226
241	0xbc922d30	-0.017843813
242	0x3e68b49d	0.22725148
243	0xbe6c72ae	-0.23090622
244	0x3f39570b	0.7239844
245	0xbe8365d3	-0.25663623
246	0x3d58c49c	0.052921876
247	0xbf504e46	-0.81369436
248	0x3e40d0cf	0.18829654
249	0xbebda1a1	-0.37037376
250	0xbbfd6d9c	-0.0077340137
251	0xbf75a091	-0.9594813
252	0x3f10ac9c	0.5651338
253	0xbe56c0fa	-0.20972052
254	0x3df20ecf	0.11819231
255	0xbf5965e3	-0.8492109

bias f4 [1024]
0	0xbe0fb010	-0.14032006
1	0x3ee9089a	0.45514375
2	0x3f148955	0.5802205
3	0xbe4d192d	-0.20029135
4	0xbf178dcb	-0.59200734
5	0xbea07e48	-0.31346345
6	0x3ef85592	0.48502785
7	0xbeb16fd6	-0.34655637
8	0xbed23735	-0.41057745
9	0x3efa4ea5	0.48888126
10	0x3e9f808b	0.31152758
11	0x3e03081c	0.12796062
12	0x3f1a6c36	0.60321367
13	0xbe2eb134	-0.17059785
14	0x3f322230	0.69583416
15	0x3d798c31	0.060924713
16	0x3f001056	0.50024927
17	0x3e8d0499	0.2754257
18	0xbe97264e	-0.29521412
19	0xbf094b80	-0.5363083
20	0x3edff133	0.43738708
21	0xbf21646f	-0.63043875
22	0xbea6c9af	-0.32575747
23	0x3d99d003	0.07510378
24	0x3f4c1321	0.7971669
25	0xbf16256b	-0.58650845
26	0xbe707d41	-0.2348528
27	0x3c7029de	0.014658419
28	0x3bc51eeb	0.0060156486
29	0xbd3bcac1	-0.045847658
30	0x3f2dc74f	0.67882246
31	0x3d123462	0.035694487
32	0x3d8f821a	0.07007237
33	0xbef6c245	-0.4819509
34	0x3f19a0b6	0.6001085
35	0xbf003dc7	-0.50094265
36	0x3d931e70	0.0718354
37	0x3e697a2b	0.2280051
38	0xbe4b9835	-0.19882281
39	0x3e7b01d3	0.24512415
40	0x3efa2c35	0.48861852
41	0x3d4d60f8	0.050141305
42	0xbe122a71	-0.14274003
43	0x3d2302bb	0.039797526
44	0xbf2357da	-0.63805926
45	0x3dc7053a	0.09717794
46	0x3d1b95f4	0.037984803
47	0xbe7a8a70	-0.24466872
48	0xbefa8823	-0.4893199
49	0x3ebd33ab	0.36953482
50	0xbd796529	-0.06088749
51	0xbe6f311f	-0.23358582
52	0xbd6b3db9	-0.05743191
53	0x3f0bcef7	0.5461268
54	0x3ee50e13	0.447373
55	0x3e4d6d0a	0.20061126
56	0xbdce262b	-0.10065874
57	0xbeb7064b	-0.3574699
58	0x3f07e5f6	0.5308527
59	0xbf18bd5e	-0.5966395
60	0xbe995cc5	-0.2995359
61	0xbe0ea259	-0.13929118
62	0xbece0d15	-0.40244356
63	0xbe981cff	-0.29709622
64	0xbd0998ee	-0.03359311
65	0x3ccc8823	0.024967259
66	0xbe9ed433	-0.3102127
67	0xbc82f896	-0.015987676
68	0xbe947ea2	-0.29002863
69	0x3eb97fb6	0.36230248
70	0xbe29945d	-0.16560502
71	0x3f2a5821	0.66540724
72	0xbecc3f74	-0.3989216
73	0x3e88376d	0.26604787
74	0xbc542c9f	-0.012950092
75	0xbebe2fff	-0.37145993
76	0x3ee7e89c	0.45294654
77	0xbe0f5fb4	-0.14001352
78	0x3d6cd6e1	0.057822112
79	0x3e9c36a6	0.30510443
80	0x3e5e7a04	0.21726233
81	0xbef9d1f0	-0.48792982
82	0xbe117b25	-0.14207132
83	0x3db5b3ab	0.088721596
84	0xbedbe8bf	-0.4295101
85	0x3f28c51b	0.6592576
86	0x3f052d9e	0.5202273
87	0xbe9a88f9	-0.30182627
88	0x3d8d0011	0.06884778
89	0x3caecb29	0.021337109
90	0xbea12444	-0.3147298
91	0xbdabc5ac	-0.08387312
92	0x3ec9d0e2	0.39417177
93	0x3f0c5faa	0.5483347
94	0xbe9b0713	-0.30278835
95	0x3e905bda	0.28195077
96	0x3f0a5b56	0.5404562
97	0xbf031858	-0.5120902
98	0x3eb352f1	0.35024217
99	0xbdb78084	-0.08960059
100	0xbd5da967	-0.054116633
101	0xbdcb4c01	-0.09926606
102	0x3c88eacf	0.016713528
103	0x3dcf9351	0.1013552
104	0x3e3e7c66	0.18602142
105	0xbecf1521	-0.40445808
106	0xbe98f7aa	-0.29876453
107	0x3f1e13a5	0.61748725
108	0x3db17415	0.08664719
109	0xbe8ad89d	-0.27118388
110	0xbddcbafd	-0.10777853
111	0xbe2fee00	-0.17180634
112	0xbe65c191	-0.22437121
113	0x3f06ff93	0.52733725
114	0x3ed336d3	0.41252765
115	0x3f349f5b	0.7055566
116	0x3ed57882	0.41693503
117	0xbeec523d	-0.46156493
118	0xbea98968	-0.33112645
119	0x3f5133a6	0.81719434
120	0x3f50c1e7	0.8154587
121	0x3e31a34e	0.17347452
122	0xbeb71ef9	-0.35765818
123	0x3f0e8e9e	0.55686367
124	0xbf0b04a8	-0.5430398
125	0xbd17a535	-0.037022788
126	0x3f3ff86e	0.7498845
127	0x3dbcbdd6	0.09215896
128	0xbea057d0	-0.31316996
129	0xbee6728d	-0.4500927
130	0xbeef43ba	-0.4673136
131	0x3da1d640	0.07902193
132	0x3f0680e3	0.52540416
133	0x3ec21ffc	0.37915027
134	0xbda1798c	-0.07884511
135	0x3eb98adf	0.36238763
136	0xbd167a93	-0.03673799
137	0x3edcdce6	0.43137282
138	0xbebb344f	-0.36563346
139	0x3ebb1633	0.36540374
140	0x3e2110ba	0.15729037
141	0xbe9e866c	-0.3096193
142	0x3eceb75d	0.4037427
143	0x3f400aee	0.7501668
144	0xbf15ba72	-0.5848762
145	0xbd869753	-0.065718316
146	0xbd83751e	-0.06418823
147	0x3ea29731	0.31755975
148	0xbc11aa69	-0.008890727
149	0x3e196a3e	0.14981934
150	0x3dffc4dd	0.124887206
151	0x3eff797e	0.4989738
152	0xbf0b3a5d	-0.5438593
153	0x3f025c01	0.50921637
154	0xbece3961	-0.40278152
155	0x3e8341d1	0.2563615
156	0xbf007c65	-0.5018981
157	0x3f269953	0.65077704
158	0xbebfc230	-0.3745284
159	0xbd0f0c25	-0.03492369
160	0x3e79f0f2	0.2440832
161	0x3eb428af	0.3518729
162	0x3cd95238	0.026528463
163	0x3e5ee41e	0.21766707
164	0x3ea7e277	0.32789966
165	0x3edca9fc	0.43098438
166	0xbe8df264	-0.27723992
167	0xbe6ff744	-0.23434168
168	0x3f00091f	0.5001392
169	0xbf265f11	-0.6498881
170	0xbee3235a	-0.4436291
171	0x3ebc7511	0.36808065
172	0xbefd9052	-0.4952417
173	0x3e740f78	0.23834026
174	0xbf1f70b5	-0.6228135
175	0x3ecda086	0.40161532
176	0xbef23962	-0.47309405
177	0x3f24e51c	0.64412093
178	0x3ebaac1a	0.36459428
179	0x3e8891ea	0.26673824
180	0xbf0b88fc	-0.54505897
181	0xbeb68776	-0.35650223
182	0xbd8321bb	-0.06402918
183	0xbef194eb	-0.47183928
184	0x3eddafde	0.4329824
185	0x3db26e3d	0.087124325
186	0xbef34170	-0.47510862
187	0xbedc92ce	-0.43080753
188	0xbe421efb	-0.1895713
189	0xbce810ad	-0.028328264
190	0x3f07237d	0.52788526
191	0xbef8f36e	-0.48623222
192	0x3eea8e7e	0.45811838
193	0xbe8879e6	-0.266555
194	0x3e3abcde	0.1823611
195	0x3dd19e00	0.10235214
196	0xbf2c5020	-0.6730976
197	0xbef4b3e6	-0.47793502
198	0xbf4365ff	-0.7632751
199	0xbf0c311f	-0.5476245
200	0xbedfb2b2	-0.4369102
201	0xbe35feab	-0.1777293
202	0xbe55f524	-0.20894295
203	0xbede6442	-0.43435866
204	0xbdd57a37	-0.10423701
205	0x3edaa2c3	0.42702302
206	0x3e943816	0.2894904
207	0xbd341ec5	-0.043974657
208	0x3ef630af	0.48084018
209	0xbe2a7ccc	-0.16649169
210	0xbe9687f1	-0.2940059
211	0x3e198c2b	0.14994876
212	0x3edf41db	0.4360493
213	0xbe82bc7b	-0.25534424
214	0x3e8abb41	0.27095988
215	0x3ea97c9c	0.33102882
216	0xbf162d85	-0.5866321
217	0x3edd4cc3	0.43222627
218	0xbeac1312	-0.336083
219	0xbed019d5	-0.40644708
220	0x3d8d8a52	0.06911148
221	0x3e50cc00	0.2039032
222	0x3def0913	0.11671653
223	0x3c6556e3	0.013997766
224	0x3e6ab049	0.2291881
225	0x3d9ead52	0.07747902
226	0xbf2fbfac	-0.68651843
227	0x3e8c2b8f	0.27376983
228	0xbe916ec5	-0.28404823
229	0x3ec1f65f	0.3788328
230	0xbdc41f74	-0.09576312
231	0x3f0bc4d2	0.545972
232	0x3e71ac56	0.23600897
233	0xbeeaa3eb	-0.45828184
234	0x3d973b86	0.073844
235	0x3f10fce2	0.5663587
236	0xbe52210b	-0.20520417
237	0x3e6ce53e	0.23134324
238	0x3e3dca2e	0.18534157
239	0x3e604120	0.21899843
240	0x3eae00a0	0.33984852
241	0xbee4def7	-0.4470136
242	0x3df0a91b	0.11751004
243	0x3ebf6c60	0.3738737
244	0x3ea3e7c0	0.3201275
245	0xbe8385b6	-0.2568795
246	0xbed57fb9	-0.41699007
247	0xbef7e767	-0.48418733
248	0xbf0e035e	-0.5547389
249	0xbe551153	-0.2080739
250	0xbea9400f	-0.33056685
251	0xbf20dd46	-0.62837636
252	0x3e6f361d	0.23360486
253	0xbdcd888f	-0.10035812
254	0x3d09a493	0.033604216
255	0xbe415bf3	-0.18882732

weight f4 [128, 1024]
0	0xbe805995	-0.25068346
1	0x3e9911e9	0.29896477
2	0x3e7654e0	0.24055815
3	0xbf46265b	-0.77402276
4	0xbf08f2a0	-0.53495216
5	0x3cba32bc	0.02272927
6	0x3c9c219e	0.019058999
7	0x3e023656	0.1271604
8	0xbdb12e06	-0.086513564
9	0x3d102016	0.03518685
10	0xbea67da1	-0.32517722
11	0x3daadecd	0.08343277
12	0xbe326a41	-0.17423345
13	0xbe292ac2	-0.16520217
14	0xbe510f3a	-0.20415965
15	0x3d10d988	0.035363704
16	0x3f15c1a4	0.584986
17	0xb99dc1c0	-0.00030089729
18	0xbe9d02ed	-0.30666295
19	0x3d4fedb6	0.05076381
20	0x3ee57822	0.44818217
21	0xbf8542a4	-1.0410962
22	0x3bcb7c74	0.0062099043
23	0x3dc47625	0.09592847
24	0xbdfb4206	-0.12268452
25	0x3ccb39eb	0.02480789
26	0x3de4c07a	0.111695245
27	0x3cf53c8f	0.029936103
28	0x3c9f3a89	0.019437091
29	0xbf3f2f22	-0.74681294
30	0xbcfd0c0f	-0.030889539
31	0x3ea8779e	0.3290376
32	0xbe809739	-0.25115374
33	0xbca62d25	-0.020285198
34	0x3e6b308f	0.22967742
35	0x3e0412de	0.12897822
36	0xbd9b71fe	-0.07590102
37	0xbd25d63a	-0.040487505
38	0xbddc4494	-0.10755268
39	0xbd8780db	-0.06616374
40	0xbcd20cb4	-0.025640823
41	0x3d8d760f	0.069072835
42	0x3ca243ee	0.019807782
43	0xbda00f4b	-0.07815417
44	0x3e1359de	0.1438975
45	0x3d9e754b	0.077372156
46	0x3c6cf4f4	0.014462698
47	0x3d8ab475	0.06772701
48	0xbc14f269	-0.009090998
49	0xbd508d04	-0.050915733
50	0xbe522ae7	-0.20524178
51	0x3d52c493	0.051457
52	0x3d1b7e7a	0.037962414
53	0x3ea60352	0.32424408
54	0xbeb92fc4	-0.36169255
55	0xbba719e0	-0.00509952
56	0x3dc3f578	0.09568304
57	0x3df74723	0.12074115
58	0xbd812656	-0.0630614
59	0x3d247324	0.04014887
60	0x3d50daf4	0.05099006
61	0xbea46b3f	-0.32113072
62	0xbf91f7c1	-1.1403733
63	0x3cbc9ae1	0.02302307
64	0x3d10886f	0.035286363
65	0xbd231d00	-0.03982258
66	0x3dae82d5	0.08521048
67	0x3df0b4cc	0.11753234
68	0x3b3b0550	0.0028537102
69	0x3f121807	0.5706791
70	0x3dde46d0	0.1085335
71	0xbc52cfc4	-0.012866918
72	0x3ab88b60	0.0014079623
73	0x3e49924f	0.19684719
74	0xbde9a65c	-0.11408684
75	0x3d55ddac	0.052213356
76	0x3d0d887d	0.034553993
77	0xbf12e76f	-0.5738439
78	0x3b21cd63	0.002468907
79	0x3e6730f8	0.22577274
80	0xbcd2e68b	-0.025744697
81	0xbf620988	-0.88295794
82	0x3d94cd66	0.07265739
83	0x3d24a57a	0.040196873
84	0xbea0b94b	-0.31391367
85	0xbd4ab614	-0.04949005
86	0x3f085aab	0.5326335
87	0x3c9567cf	0.018237976
88	0x3dae9746	0.08524947
89	0x3d841195	0.06448666
90	0x3d550148	0.052003175
91	0xbf541a87	-0.8285298
92	0xbe082c53	-0.13298158
93	0x3b090f48	0.002091365
94	0xbd867901	-0.065660484
95	0x3ee62e88	0.44957376
96	0xbe7e999b	-0.24863283
97	0x3df8c745	0.12147383
98	0x3cd381a7	0.025818659
99	0x3d88adf8	0.06673807
100	0xbde5cc61	-0.11220623
101	0x3da4c602	0.080455795
102	0x3cb3508d	0.021888996
103	0x3d25c793	0.040473532
104	0x3f16f790	0.589715
105	0x3d517daa	0.051145233
106	0x3dc0d03b	0.09414717
107	0x3ee7db7d	0.45284644
108	0x3de37f68	0.11108285
109	0x3e0c24cf	0.13685916
110	0x3da04818	0.07826251
111	0x3d0cb283	0.03434993
112	0xbeb99080	-0.36243057
113	0x3efb24f5	0.49051633
114	0xbef0b6d8	-0.470145
115	0xbed3b4bb	-0.41348824
116	0xbacee361	-0.0015784317
117	0xbe0a5d6f	-0.13512205
118	0x3d9c2fd4	0.0762631
119	0x3e5e68f6	0.21719727
120	0xbd85d427	-0.065346055
121	0xbc8d4580	-0.017245054
122	0xbf06d50e	-0.52668846
123	0x3da91299	0.082555
124	0x3da58b10	0.08083165
125	0xbeabdebc	-0.3356837
126	0xbf11a8b2	-0.56898034
127	0xbe8afaac	-0.27144372
128	0x3d576a55	0.05259164
129	0x3de62066	0.11236648
130	0x3dacb32b	0.08432611
131	0xbd383295	-0.044970114
132	0xbe057858	-0.13034189
133	0x3c915d15	0.01774458
134	0x3c1c37c2	0.009534778
135	0xbe9365ab	-0.28788504
136	0xbb80404b	-0.0039139143
137	0xbf02451d	-0.5088671
138	0x3dd926c5	0.10603098
139	0xbda9de51	-0.082943566
140	0x3f141323	0.578417
141	0x3e3016a4	0.17196137
142	0xbea470bc	-0.3211726
143	0x3e9cdab0	0.30635595
144	0xbf38fc3e	-0.7225989
145	0x3ddc34ff	0.10752296
146	0x3ddc588c	0.107590765
147	0x3d87e965	0.06636313
148	0x3d4f3950	0.050591767
149	0x3d225fda	0.039642192
150	0xbb044fea	-0.0020189234
151	0x3f1d5ef4	0.6147301
152	0xbe94ccf9	-0.29062632
153	0x3eb2eebe	0.3494777
154	0x3c86cea1	0.01645595
155	0x3e2edf13	0.17077284
156	0xbebf390c	-0.3734821
157	0xbe60c7c0	-0.21951199
158	0x3dfe893d	0.1242852
159	0x3db8a09a	0.09015007
160	0x3d70508a	0.058670558
161	0x3ec8d07e	0.39221567
162	0x3cb02b12	0.021504913
163	0xbec034e9	-0.37540367
164	0x3edfcc83	0.43710718
165	0xbedf99fa	-0.43672162
166	0x3d3a445e	0.045475356
167	0xbe5dbf61	-0.21655037
168	0x3e332d81	0.17497827
169	0x3df4c082	0.119507805
170	0xbf9e49bb	-1.2366251
171	0x3c71d3b5	0.014759948
172	0x3d43f4fa	0.04784105
173	0x3c9117e7	0.017711593
174	0x3e4c7157	0.1996511
175	0x3ee1f9a3	0.4413577
176	0xbe04f72c	-0.12984914
177	0x3ca53895	0.020168582
178	0x3d0ae437	0.03390905
179	0xbb2cd363	-0.0026371113
180	0x3db10671	0.08643807
181	0xbdf6d8a9	-0.120530434
182	0x3d8d3138	0.06894153
183	0xbf917f4a	-1.136697
184	0x3dcfd598	0.10148162
185	0xbe0e7738	-0.13912666
186	0x3dcdb0d8	0.10043496
187	0xbf2b3702	-0.6688081
188	0xbc84d28f	-0.016213683
189	0x3d8343ac	0.06409392
190	0x3eeb35bb	0.4593943
191	0x3d51f8c8	0.051262647
192	0xbe149ec2	-0.14513686
193	0x3d5a7048	0.053329736
194	0x3f36308b	0.7116782
195	0x3d967ef0	0.0734843
196	0x3e0272b7	0.12739073
197	0xbec4a9ba	-0.3841074
198	0x3d92fd97	0.07177275
199	0x3e94871f	0.2900934
200	0xbe1f4ffb	-0.15557854
201	0xbf12061d	-0.5704058
202	0x3d032a92	0.03202302
203	0xbf1f2df4	-0.62179494
204	0x3d921a4a	0.071339205
205	0xbe9d9385	-0.3077661
206	0x3bb5501e	0.0055332324
207	0x3d407f37	0.04699632
208	0x3f0c400e	0.5478524
209	0xbe70f6be	-0.23531625
210	0xbdc704e0	-0.09717727
211	0xbcdd243e	-0.02699482
212	0x3c9dfc27	0.019285275
213	0xbd6d7b86	-0.05797913
214	0x3ee8ecdf	0.45493218
215	0xbb80c1eb	-0.003929367
216	0x3d2da82f	0.04239672
217	0x3f4909be	0.7853049
218	0xbf3770b8	-0.7165637
219	0xbd98acfa	-0.07454868
220	0x3e0dbe18	0.13842046
221	0x3d815ece	0.06316911
222	0x3d3c60e4	0.04599084
223	0x3d9e9369	0.0774296
224	0x3ed39918	0.4132774
225	0x3d22ac2f	0.03971499
226	0xba857c07	-0.0010184058
227	0xbef0c1b5	-0.47022787
228	0xbeb7e435	-0.35916296
229	0x39ac97a3	0.00032919375
230	0xbea4fde7	-0.32224962
231	0xbe89a4f4	-0.26883662
232	0xbe9f8435	-0.31155553
233	0x3d545b3e	0.051844828
234	0x3e2561f6	0.1615065
235	0x3e9b3b33	0.30318603
236	0xbd06a9a2	-0.03287662
237	0xbebc3351	-0.367579
238	0x3d4911ad	0.049089123
239	0x3f29998c	0.6624992
240	0xbeddfb0d	-0.433556
241	0xbed88ba2	-0.4229403
242	0x3d0ff25b	0.035143238
243	0xbca189b2	-0.019718979
244	0x3d440342	0.04785467
245	0xbdbd8716	-0.09254281
246	0x3d83d17c	0.0643644
247	0xbda9086d	-0.0825356
248	0x3d13127c	0.0359063
249	0x3dc8aa9e	0.09798168
250	0xbe55cf2b	-0.2087981
251	0x3de1cd72	0.11025514
252	0xbebe56dc	-0.37175643
253	0xbe17a317	-0.14808308
254	0x3c9a26d1	0.018817337
255	0xbecd5255	-0.40101877

bias f4 [128]
0	0xbc21be7c	-0.009872075
1	0xbc23b64e	-0.009992195
2	0x3c30607b	0.01076519
3	0xbc01323d	-0.007885513
4	0x3a582c19	0.0008246317
5	0x3c9a978d	0.018871093
6	0x3ca6d7ac	0.020366512
7	0x3d4ebeba	0.05047486
8	0x3cc6e4b9	0.024278985
9	0x3da377cf	0.07981836
10	0xbddca38b	-0.10773381
11	0x3d80d748	0.06291062
12	0x3cbb9bbe	0.022901412
13	0xbdb9fb80	-0.09081173
14	0xbd49b678	-0.04924628
15	0xbc997d1f	-0.01873642
16	0x3c5a13e8	0.01331041
17	0xbd9ce43e	-0.07660721
18	0xbcec8257	-0.028870745
19	0xbdbc6cbb	-0.09200426
20	0xbd40b9da	-0.04705224
21	0xbd063315	-0.03276356
22	0xbcfc93e8	-0.030832246
23	0xba0d8db1	-0.0005399837
24	0xbcdd3e77	-0.027007325
25	0x3e1ed7e7	0.15512048
26	0x3bb5c8b3	0.005547607
27	0xbc92da31	-0.017926307
28	0xbc8a149d	-0.016855532
29	0xbce10b9d	-0.027471358
30	0x3c87b157	0.016564054
31	0x3d00c04d	0.031433392
32	0x3c54cd10	0.012988344
33	0xbb19baae	-0.0023457217
34	0xbc6c8d48	-0.014437981
35	0xbca5cf8a	-0.020240564
36	0xbd62b0fb	-0.055344563
37	0x3b78afbf	0.003794655
38	0xbcdb3781	-0.026759865
39	0x3d960e16	0.073269054
40	0x3c5e4df5	0.013568391
41	0x3b7841c4	0.0037880996
42	0xbceeedfe	-0.029166218
43	0x3c1a4067	0.009414769
44	0xbc0947e1	-0.008378954
45	0x3d7be1b4	0.061494544
46	0x3d03a942	0.03214384
47	0xbc0d4793	-0.008623022
48	0x3e41885d	0.18899675
49	0x3e92ec52	0.28695923
50	0xbd365688	-0.044516116
51	0xbb639307	-0.0034725086
52	0xbb9cc89d	-0.004784657
53	0x3ce27ebc	0.027648322
54	0x3d812ded	0.06307588
55	0xbcb8af03	-0.02254439
56	0x3c08bc9e	0.008345751
57	0xbd9443da	-0.07239504
58	0x3b2d24c8	0.0026419628
59	0xbcb66c27	-0.022268368
60	0xbc47244a	-0.012154648
61	0xbdb07a9b	-0.08617135
62	0x3cd3544d	0.025797034
63	0xbcb5fcba	-0.022215236
64	0x3d8674d1	0.0656525
65	0x3bdf7b8b	0.0068201474
66	0xbc7ce4f2	-0.015435444
67	0x3c53e56c	0.012933116
68	0xbbb492c6	-0.005510661
69	0xbca2887d	-0.019840473
70	0xbbd1dad7	-0.0064042616
71	0x3dbfa22f	0.09357106
72	0xbcfea233	-0.031083202
73	0x3dd9238b	0.106024824
74	0x3de151c4	0.11001924
75	0x3bd5e7ca	0.0065278756
76	0x3c4cad27	0.012492455
77	0x3c8100e6	0.015747499
78	0x3cc54e69	0.02408524
79	0xbdf0b314	-0.117529064
80	0xbbcaa84a	-0.0061846124
81	0xbaa90e28	-0.0012897896
82	0x3e08a807	0.13345347
83	0x3d1edc02	0.038784035
84	0x3c456147	0.0120471185
85	0x3cb0311b	0.02150779
86	0xbc96449a	-0.018343259
87	0xbc30e628	-0.010797061
88	0x3bf1e9e9	0.0073826206
89	0x3b57ae1f	0.003291018
90	0x3c57f38b	0.013180624
91	0xbccca0e3	-0.02497906
92	0xbc02e3ed	-0.007988912
93	0x3c6f2d96	0.014598271
94	0xbd3c46cc	-0.045965955
95	0x3b53ad4d	0.003229934
96	0x3dd0ea1b	0.10200902
97	0xbc5ccf79	-0.0134772
98	0x3c90c276	0.017670851
99	0xbcb6f015	-0.022331277
100	0x3c3956da	0.011312211
101	0x3c4c4ad7	0.012469015
102	0xbc47e537	-0.012200645
103	0xbcec2c2b	-0.028829655
104	0xbded0188	-0.11572558
105	0xbdb33199	-0.087496944
106	0x3dc7d81d	0.09758017
107	0x3a4474a8	0.000749419
108	0xbd965175	-0.073397554
109	0x3bffdfad	0.0078086467
110	0x3cb36148	0.021896973
111	0xbca73e9d	-0.020415599
112	0x3d9decdc	0.07711193
113	0xbc64041e	-0.013916997
114	0xba571163	-0.000820419
115	0x3c66a3ea	0.014077166
116	0xbd888175	-0.06665317
117	0x3e0f7fbd	0.14013572
118	0x3e2707e6	0.16311607
119	0xbcf4a98e	-0.029866006
120	0xbc4e8f48	-0.012607403
121	0x3a889fbd	0.0010423582
122	0xbc9a6ab7	-0.018849714
123	0xbd0e20b3	-0.034699153
124	0x3da45211	0.080234654
125	0xbc4259e5	-0.011862253
126	0x3df19ecc	0.11797866
127	0x39be6a3a	0.0003631877

weight f4 [3, 128]
0	0x3f28cf80	0.6594162
1	0xbd823781	-0.06358243
2	0xbcaed2ed	-0.021340812
3	0xbd03b937	-0.032159057
4	0xbcded817	-0.027202649
5	0xbd9e52b4	-0.07730618
6	0xbda9481a	-0.082657054
7	0x3f5d92a1	0.8655186
8	0xbd81ef6d	-0.06344495
9	0x3ed76c24	0.42074692
10	0x3eaee476	0.34158677
11	0x3da6e0e6	0.08148365
12	0xbd9eb635	-0.07749597
13	0x3f82de5c	1.0224109
14	0x3e98c533	0.2983795
15	0x3aad6031	0.001322752
16	0x3de351f4	0.11099616
17	0xbf2ee259	-0.6831413
18	0xbd3019ef	-0.042993482
19	0x3f7dd626	0.9915489
20	0x3eda79c1	0.42671016
21	0x3d06b8c0	0.032891035
22	0xbcdd9ddd	-0.027052814
23	0xbd1864c2	-0.037205465
24	0xbc1145e2	-0.008866759
25	0x3e476712	0.19472912
26	0x3daa4536	0.08313982
27	0x3c862684	0.016375788
28	0xbd44074a	-0.047858514
29	0xbd2ef145	-0.04271056
30	0x3c82aff7	0.015953047
31	0xbdc1bd49	-0.094599314
32	0xbd031853	-0.03200562
33	0x3c480075	0.01220714
34	0xbd704af6	-0.05866524
35	0xbda1e2f3	-0.07904615
36	0x3df50aaf	0.11964928
37	0xbd00be0d	-0.031431247
38	0x3f070b5b	0.527517
39	0x3ea302a3	0.3183795
40	0xbd7d9b78	-0.061915845
41	0xbda0e637	-0.0785641
42	0xbca9e9d3	-0.020741379
43	0xbc585888	-0.013204701
44	0x3fa946b5	1.3224703
45	0x3ca5da48	0.020245686
46	0xbe8cb640	-0.27482796
47	0xbd03698a	-0.03208307
48	0xbf813e8d	-1.0097214
49	0xbf207cba	-0.6269032
50	0x3e4ae359	0.19813289
51	0x3cebf859	0.028804945
52	0xbd89d43e	-0.06729935
53	0x3f91c921	1.1389505
54	0xbe055084	-0.13018996
55	0xbd10542c	-0.035236523
56	0x3da0ea91	0.0785724
57	0x3e8c4f1b	0.27404103
58	0x3f44ccda	0.7687508
59	0xbd08546e	-0.033283643
60	0xbda9d8b4	-0.08293286
61	0xbe50027d	-0.20313449
62	0xbd9010b8	-0.07034439
63	0xbd3364a0	-0.043797135
64	0x3f2ae261	0.66751677
65	0x3ba679bf	0.0050804312
66	0x3ced137c	0.028939955
67	0xbd6eb6c2	-0.05827976
68	0xbc357f95	-0.011077781
69	0x3d5d69a8	0.05405584
70	0xbe96dac5	-0.29463783
71	0x3e77f0bc	0.24212927
72	0x3e563920	0.20920229
73	0x3f4313d6	0.7620214
74	0x3f805ed2	1.0028937
75	0xbd264044	-0.040588632
76	0xbc7e3f4c	-0.015518021
77	0xbd799ff7	-0.06094357
78	0x3f09a015	0.5375989
79	0xbe29ab03	-0.16569142
80	0xbd2670d2	-0.040634938
81	0xbaedd718	-0.0018145768
82	0x3e5997a9	0.2124926
83	0x3f14aaea	0.58073294
84	0xbb178611	-0.0023120681
85	0xbea15934	-0.3151337
86	0xbdaa4954	-0.083147675
87	0xbc372bbc	-0.011179861
88	0x3e2054ee	0.15657398
89	0x3f513d00	0.81733704
90	0xbca1ab12	-0.019734893
91	0x3e7aed5c	0.24504608
92	0x3ea8105b	0.32824978
93	0xbd90ade6	-0.070644185
94	0xbbefc12b	-0.0073167286
95	0xbc192dc2	-0.009349288
96	0x3e238b9a	0.15971223
97	0xbc544c82	-0.012957694
98	0xbd5cbda5	-0.053891797
99	0xbd2c977a	-0.042136647
100	0xbd97ebd0	-0.074180245
101	0x3db6c09f	0.08923458
102	0xbcbacb3e	-0.022801992
103	0xbd3185fb	-0.043340664
104	0xbe33ea51	-0.17569853
105	0x3f6ca904	0.924454
106	0x3f2e3b16	0.6805891
107	0x3d5d45f3	0.054021787
108	0xbf02baf5	-0.51066524
109	0xbcafe5e4	-0.021471925
110	0xbd252742	-0.040320642
111	0x3d28227e	0.04104852
112	0xbe9d38bd	-0.3070735
113	0xbd91542a	-0.07096131
114	0xbd7962c5	-0.06088521
115	0x3e18040d	0.14845295
116	0x3f2f22c9	0.6841245
117	0x3efc9922	0.4933558
118	0x3ec617c4	0.38690007
119	0x3e52ab83	0.20573239
120	0x3d9731a2	0.073825136
121	0x3cc20c3b	0.023687473
122	0xbcd3ad47	-0.025839461
123	0x3d50220d	0.050813723
124	0x3f4b6bf5	0.79461604
125	0x3f728137	0.94728416
126	0x3eea79f9	0.45796183
127	0x3d863a10	0.06554043
128	0x3ec2183f	0.37909123
129	0xbd0aee02	-0.03391839
130	0xbc0a7cc8	-0.008452602
131	0xbcd06d17	-0.025442643
132	0x3db8580e	0.0900117
133	0xbcc288b4	-0.023746826
134	0xbc9fdd16	-0.019514602
135	0xbcf7c7fb	-0.030246725
136	0xbd98d98c	-0.07463369
137	0x3f6e5c1f	0.93109316
138	0x3f937644	1.1520467
139	0xbe2a2c55	-0.16618474
140	0x3d4bd561	0.04976404
141	0x3f7b765b	0.9822747
142	0x3f7edfe8	0.99560404
143	0xbd9828cf	-0.074296586
144	0x3f230bcd	0.6368988
145	0xbec399da	-0.38203317
146	0xbd8742b0	-0.066045165
147	0x3cc75f37	0.024337394
148	0x3f91f45e	1.14027
149	0xbe2d08b6	-0.16897854
150	0xbcbf86c0	-0.023379683
151	0xbca4fa73	-0.020138955
152	0xbd5dbb81	-0.054133896
153	0x3f1914d2	0.59797394
154	0xbd2c2fe0	-0.042037845
155	0xbd4bd6ca	-0.049765386
156	0xbd61648a	-0.055027522
157	0x3d3fcc62	0.046825774
158	0xbd54672f	-0.051856216
159	0x3dcc5086	0.09976296
160	0x3dc30357	0.095221214
161	0xbc9a83b7	-0.018861635
162	0x3d3a4bd0	0.045482457
163	0x3c89c904	0.016819485
164	0x3e43dc81	0.19127084
165	0xbcbcf296	-0.023064893
166	0x3f47ae59	0.7800041
167	0x3e11e50f	0.14247535
168	0xbcab9b8b	-0.020948192
169	0x3d08889c	0.033333406
170	0xbcc85c22	-0.024457995
171	0x3cfaee70	0.030631274
172	0xbdebdf05	-0.11517147
173	0x3dc42c44	0.095787555
174	0x3e5042ec	0.20338029
175	0x3e7f4665	0.24929197
176	0x3ec6806c	0.38769853
177	0xbec10244	-0.3769704
178	0xbeba8ce0	-0.36435604
179	0xbda7c891	-0.08192552
180	0xbce0f644	-0.027461179
181	0x3f5fcf58	0.87425756
182	0x3d9df0e6	0.07711963
183	0xbda9e110	-0.082948804
184	0xbd9abe6d	-0.07555852
185	0x3e9c0db9	0.3047922
186	0x3e2d0c9f	0.16899346
187	0xbd041e07	-0.0322552
188	0xbd0c109a	-0.03419552
189	0xbf1f346d	-0.6218937
190	0xbb6e3595	-0.0036347855
191	0xbc768272	-0.015045749
192	0x3db2add3	0.087245606
193	0xbd9bca0d	-0.076068975
194	0xbb1cfe23	-0.0023955188
195	0xbd5e6e50	-0.05430442
196	0xbd8402ed	-0.064458705
197	0xbd15253a	-0.036412455
198	0xbf50eddb	-0.8161294
199	0x3f051711	0.5198832
200	0x3e4df6c0	0.20113659
201	0x3d9450b8	0.072419584
202	0x3f3a664e	0.72812355
203	0x3cd71418	0.026254699
204	0x3d780052	0.06054718
205	0xbd1dc082	-0.038513668
206	0x3f6ec578	0.93270063
207	0xbe8c875f	-0.2744703
208	0x3d8556be	0.065106854
209	0xbd695774	-0.056968167
210	0xbe47218f	-0.19446395
211	0x3e74c2cc	0.23902434
212	0xbca8971b	-0.020579865
213	0x3f195d51	0.59908015
214	0x3d367351	0.044543568
215	0xbd6eda97	-0.058313932
216	0x3e07ff93	0.13281088
217	0x3f0874b3	0.5330307
218	0xbd4f6c1c	-0.05064021
219	0x3e86d3ad	0.2633337
220	0xbfa7b8b0	-1.3103237
221	0xbd1f130d	-0.038836528
222	0x3d6e18d1	0.058129136
223	0xbd3c9bff	-0.046047207
224	0x3f93559b	1.15105
225	0x3bc15a4d	0.0059006573
226	0x3e651859	0.22372569
227	0x3cefdbb3	0.029279565
228	0xbb9479f4	-0.0045311395
229	0xbda5eb5a	-0.081015304
230	0x3d04118f	0.032243308
231	0xbcdd67ba	-0.027027
232	0xbe0c188f	-0.13681243
233	0x3ee162a2	0.44020563
234	0xbe9b9c92	-0.3039289
235	0x3e174c2a	0.14775148
236	0x3eac8303	0.33693704
237	0xbd8ba6c0	-0.068189144
238	0xbbc5b0e9	-0.006033052
239	0xbd8c85bd	-0.06861446
240	0x3e87ce8b	0.26524767
241	0xbd3e4328	-0.046450764
242	0xbd99a4dd	-0.07502148
243	0x3f7ebdb7	0.9950823
244	0x3f823c38	1.0174627
245	0x3f2a7122	0.66578877
246	0xbea54ce0	-0.32285213
247	0x3e242e70	0.1603334
248	0xbc6a2f6e	-0.014293535
249	0xbca540e8	-0.020172551
250	0xbd0bd174	-0.034135297
251	0xbd62ac3f	-0.055340048
252	0xbde4cd8e	-0.11172019
253	0xbdc560a2	-0.09637572
254	0x3f2a7cdf	0.6659679
255	0x3d279cb8	0.040920943

bias f4 [3]
0	0xbc870549	-0.016482012
1	0xbd8975d9	-0.06711931
2	0x3d977628	0.073955834
