saved_models/run6/model_1000.pth (torch, 550886 bytes, 6 tensors)

weight f4 [1024, 4]
00000000: 8ad6 01bf b228 ccbe 8b69 02be f7da eebe
00000010: 14c0 193f d105 d4be 547e 0dbf 7a26 82be
00000020: 59da ab3e 4976 1ebe f69f 42be 94b0 c2be
00000030: fc0a 993d 5ef8 dfbd 8b9b 54bd 1ef6 e5be
00000040: 4748 8e3e 851e 03be 83ab 3fbe 92eb 5bbe
00000050: 262a e2be 9c11 6bbe a996 b33e d7d8 323e
00000060: 35ee 79bc 1e7b 4a3e f7e2 d63c f431 303e
00000070: 2f5d 563e 7705 9d3e 2994 fc3e 349a 063f
00000080: 0f17 913e ce18 0abc f6b7 ef3d b7e1 87be
00000090: 81cd a03e 1a19 46be 28a8 0e3e 3232 6e3d
000000a0: 471a 2e3b a104 153c 2ec2 00be 5c2d f0be
000000b0: 1b8d 033e 51e0 a9be f85f e5bd 6208 47be
000000c0: 478e ab3e 41bc 6b3c 673a 11be eac3 c6be
000000d0: 4d74 113e 58ab 0f3e 28b3 14bf 3dd1 bebe
000000e0: 135f f63e 20b5 f13e 7a11 ebbd 91d1 edbe
000000f0: 398f 293e 4d9c 873e 5e9d 923e d1ea 853e
00000100: 7139 cc3d e538 e2bc 3359 2abf 7c8d 84bd
00000110: aeeb f8be dd5b 9ebd d9b2 4c3e a834 053e
00000120: 07a7 bcbd 3a47 123e 35d3 1cbe ea29 18bf
00000130: 948c eabe 6472 40be 1ac7 cd3e 4244 90be
00000140: 2df2 953e 53cf 603d 0ae0 cabe 623d 58be
00000150: aa55 45be 62b7 42bd 5c8f 7ebc 84e8 623e
00000160: 0ec6 3f3e a56a 9bbe 114c 2b3d c98a a0bc
00000170: 2a78 86bc c339 4b3d 8c0a 7d3e ac02 0c3f
00000180: 34df 75be 0c0b 0c3f 4f0b c7bd fcf9 d53e
00000190: a902 f5be 13e3 c9be d178 1f3e 544f c13d
000001a0: 0ec3 93be 1434 f33e 5095 cf3e f501 0e3f
000001b0: de1b 4f3c e78e 94be 2af4 853e f49b e8be
000001c0: 9073 c9bd 0d4c 89bc 2adf 1c3e 2cf8 15bc
000001d0: 2646 e2bc d218 9a3e 5097 f7bd 8c96 053f
000001e0: 00ca 503e d5c0 bcbe 82fe 603d d409 5dbe
000001f0: fd12 a3be a3cc 9dbd fb38 c0bc 6a06 d4bd
00000200: 9dbe 403e 6e3f 3c3e 61e4 8dbe 1d3d 7cbe
00000210: e990 a8bd 6300 0dbf df38 5b3e d795 a1be
00000220: 5185 1a3c 0ee7 c1be 15a0 23bf d30d 8cbd
00000230: 1204 9e3d 4cff b53e 67de 643e 2a7c 8cbe
00000240: 8d4c a1be 43d1 45be dd97 013d 46b8 72be
00000250: 53bf 113f 8452 c7be 5780 523e a2da c0be
00000260: 820f 84be eb13 c33e 1e68 4fbe 617f 783c
00000270: 6836 f43e 8d6e e43e 0edc 98be e2d9 f9be
00000280: 85ab 823e 2112 013e 9b5a f33d 9a24 fb3e
00000290: 1614 ff3d 456b d83e ab5d fb3e 6e4c ba3d
000002a0: 4eaa 8fbe 45b5 14be 6780 a83e 28ae b3be
000002b0: 8dfa 8cbe 47f4 c73e 3912 36be 8f16 94bc
000002c0: 19b3 6c3e dd06 8b3e ef5a 803e be28 1dbd
000002d0: 8804 84be 9df5 923e 71c5 d43e 8880 df3e
000002e0: 4d7f 98bd 81c3 b03e e8dc ac3c 28b9 3ebe
000002f0: 9690 ecbe 7fb3 fdbe 7b51 fa3c 30de dbbc
00000300: 948f 4a3e 18b6 a93e 138f 06bf b322 6abe
00000310: b8ae bebe e345 743e 0057 173e e4da 933d
00000320: 12f8 883e 459e c93e fe27 813b 71ef 013e
00000330: 3b49 e1be f17e c03e 264d b13e 8d54 ac3d
00000340: 2072 dc3e ccbb c8be 08e5 fcbe 7ace 4cbe
00000350: 722a 02be c479 ea3d a7ea 0abf 9a20 b73d
00000360: 173a 6d3e 9953 f3bc a59c cbbd 29df cc3e
00000370: 0048 e63b ed1d 82be 5e2b 9e3e 65f2 8abe
00000380: a73b 033f 37c1 913e b54b 8d3e 7560 bbbe
00000390: 99b0 1abf 5fce 8a3e 6463 9c3e b442 273f
000003a0: 875e 083f 95be 833e aab8 78be 1f8f 8ebe
000003b0: 66a5 1a3e 5438 60bd 902b e63e 308f 07bf
000003c0: c641 e8be 5757 1f3e b46d 6e3e 3723 0ebe
000003d0: 9b96 a23e a1ee 34be 177a ad3b 9274 e0be
000003e0: c26b 92bd 0418 e1bd 2fca 28bd 7873 20bf
000003f0: 0204 673e b530 debd b6e3 963e c999 d6be
-0.50717986 -0.39874798 -0.12735574 -0.46651432 0.6005871 -0.41410688 -0.55270886 -0.2541998
0.33565024 -0.1547481 -0.19006333 -0.38025343 0.07472798 -0.10936044 -0.05190615 -0.44914335
0.27789518 -0.12804611 -0.1871777 -0.21476582 -0.44172782 -0.22955936 0.35075882 0.1746553
-0.015254547 0.19773528 0.026231272 0.17206556 0.20933984 0.30668232 0.49331787 0.52579045
0.28337905 -0.008428765 0.1170501 -0.26539394 0.31406787 -0.19345513 0.13931334 0.05815334
0.0026565955 0.009095342 -0.12574074 -0.46909606 0.12846796 -0.33178952 -0.11199945 -0.19436792
0.33506986 0.014388145 -0.14182435 -0.38821346 0.14204521 0.14030206 -0.5808587 -0.3726901
0.4811941 0.472085 -0.11477943 -0.4644895 0.16558541 0.26486436 0.28635687 0.26155713
0.099718936 -0.02761502 -0.6654236 -0.064722985 -0.4861731 -0.07732365 0.199901 0.13008368
-0.092115454 0.14284983 -0.15314944 -0.59438956 -0.45810378 -0.18793637 0.40190965 -0.28177077
0.29286328 0.05488522 -0.39624053 -0.21117166 -0.1927096 -0.04753817 -0.015537109 0.2215901
0.18727896 -0.303548 0.04182059 -0.019597428 -0.01641472 0.049615633 0.24711055 0.54691577
-0.24010926 0.54704356 -0.09718954 0.41792285 -0.47853592 -0.39431056 0.15573432 0.09438959
-0.28859752 0.4750067 0.40543604 0.55471736 0.012640921 -0.29015276 0.26162845 -0.45431483
-0.09836495 -0.016759897 0.15319505 -0.009153407 -0.02762134 0.3009706 -0.120894074 0.5218284
0.20389557 -0.3686587 0.054930218 -0.2158578 -0.31850424 -0.07705047 -0.02346467 -0.10352786
0.18822713 0.18383572 -0.27713302 -0.24632688 -0.082307644 -0.55078715 0.21408413 -0.3155963
0.009431199 -0.37871593 -0.6391614 -0.06838574 0.0771562 0.3554634 0.22350465 -0.2743848
-0.31503716 -0.19318108 0.03163897 -0.23703107 0.5693256 -0.38930142 0.2055677 -0.37666804
-0.25793082 0.38101134 -0.20254561 0.015167088 0.4769776 0.44615594 -0.29855388 -0.48799044
0.25521484 0.12604572 0.11882516 0.49051362 0.12455003 0.4226934 0.490949 0.09096609
-0.2805962 -0.14522274 0.32910463 -0.35093808 -0.27534905 0.39053556 -0.17780389 -0.018077163
0.23115195 0.27153674 0.25069377 -0.038368933 -0.25784707 0.28703013 0.41556886 0.4365275
-0.07446156 0.34524158 0.02110143 -0.18625319 -0.4620406 -0.49551007 0.030556431 -0.026839346
0.19781333 0.3314674 -0.52562064 -0.22864799 -0.37242675 0.23854785 0.14779282 0.072194844
0.26751763 0.39378563 0.003941535 0.12688996 -0.44001183 0.3759685 0.34629172 0.08414564
0.4305582 -0.39205778 -0.49393487 -0.2000064 -0.12711504 0.11449006 -0.542643 0.08941765
0.23166691 -0.029702948 -0.09941987 0.40014008 0.007027626 -0.25413457 0.30892462 -0.27138057
0.512629 0.28467724 0.27596822 -0.36597028 -0.60425717 0.27110574 0.3054458 0.65336156
0.5326924 0.2573134 -0.24289194 -0.27843568 0.15102157 -0.05474122 0.4495511 -0.5295286
-0.4536268 0.15560661 0.23284036 -0.13880621 0.31755528 -0.17669155 0.0052940953 -0.43838936
-0.071494594 -0.10990909 -0.041208442 -0.6267619 0.22560123 -0.10849134 0.29470605 -0.41914204

bias f4 [1024]
00000000: 4b27 51be 7d21 cb3e c3d7 023f d629 1b3d
00000010: aa14 fbbe ad52 20be 5fac a93e ced5 c4be
00000020: 39ef abbe 03fe fb3e afc9 533e d4cf 403e
00000030: d4d8 cf3e e1ed 1fbe 6833 013f 1221 e43d
00000040: fc21 0c3f d5db b33e 831c 4fbd 0458 f5be
00000050: b00c 873e 5910 ccbe a5f9 99be 9979 d0bd
00000060: 7095 173f 67c9 babe d411 7abe 90b1 823e
00000070: 650e 303d ce4b 94bc 94d2 073f 7891 ca3d
00000080: f561 7b3e 6411 babe d099 1e3f 278b eebe
00000090: 850d babd e5d4 453e 186f fdbd cfa0 b33e
000000a0: a54c ff3e 7e84 573e e8dd 01be c655 2cbd
000000b0: 3b87 f2be 2abd 11be 5ded c5bc 5467 6cbe
000000c0: 94ba b8be 13d8 df3e a2d2 c3bb c10f e8bd
000000d0: 5a0e 29be 4efc 063f 7bc9 21bd dde7 eb3e
000000e0: 1c80 be3b 15ae a3be 8d83 d83e 8219 7cbe
000000f0: 495f c1be 0e72 fc3c 0015 76be da92 d1bd
00000100: 8d6b 993e 3451 1a3c c6f6 acbe 1993 fd3d
00000110: 02d3 36bd 5f4e 9c3e 3ac5 37be 36ce af3e
00000120: 36a5 c6be 4c11 e13e 3699 16be 0692 8cbe
00000130: dbc7 e33e 7074 88bd a09a 6b3e a194 1f3e
00000140: 16f0 753e 7565 bdbe 3c13 02be e5c9 933d
00000150: 79d9 58be 009e f73e a0ad 053f 988d d8bd
00000160: bdf9 e2bd 534b 7b3d 98f5 10be 1b91 71be
00000170: de29 963e 5448 093f 3dcf a9be 0dba 8b3e
00000180: bb63 653e 1ed2 8fbe e934 d63e 1575 a7bc
00000190: 6f35 01be 6f6f 923c 66c2 203e c977 103e
000001a0: a381 d13e 2f50 97be fa44 44be 4c74 1c3f
000001b0: 39da 263e dd10 2abe 4547 a0bd a098 3b3d
000001c0: 5c7f 52be 5d10 c03e 6f63 50bd a1b5 fd3e
000001d0: 0807 e23e 21be a8be 3869 1bbe 63fb 233f
000001e0: 2aac 073f 0333 b33e 79db ccbe 93ea 093f
000001f0: 8afa d3be 4466 12be 6e38 aa3e 9c45 9f3d
00000200: 679a c2be 53a9 a4be 313c bfbe 779f bf3d
00000210: 31a7 cf3e 5fd0 f03e cd93 423e a4d9 473e
00000220: 85ac a73d 11e5 093e 6ab0 a6be 59cb d43e
00000230: 7051 573e 0570 6dbe 9890 263e 56f3 163f
00000240: 9ba7 acbe d15a 77bd e1ac fcbd 6610 d33e
00000250: 8843 e83c 8736 c43e ce93 5e3e 0546 de3e
00000260: bb96 f7be 4bc7 eb3e 8f76 aebe b1af 1e3e
00000270: c351 d5be 76d2 fd3e c894 d2be 2068 d93d
00000280: 9d65 bc3e 6ace b63e 7013 193e 40cc 35bc
00000290: 31bc b23e bbbb fa3d c5fb 3fbe c0dd 733c
000002a0: 5122 963e 4c94 f8be 0ff9 67be 2549 e03e
000002b0: 5953 98be 0e90 8c3e 352c b5be 17e1 7b3e
000002c0: 0e4f 9cbe d8af f93e 6dc0 f33e 2ff2 753e
000002d0: 5242 ddbe 7529 83be f6c7 7f3d 9e5e a9be
000002e0: 68f3 c43e 4ce5 b0bb 0b3f ddbe 84cf 83be
000002f0: 42f8 043d fa98 2f3d f514 033f 360d d6be
00000300: e1db ac3e bafe 96be 80da de3e ba09 a33d
00000310: 1134 e9be 7ca7 cebe b1e3 06bf 5371 dfbe
00000320: 65c5 f5be 3331 45be 4c9c e8bd 1d6a c5be
00000330: 9dfe a9bd 97df f83d 73e2 c43e e5e8 653c
00000340: 879a ca3e 5ac1 2fbe eea9 7cbe 9369 6b3e
00000350: 4504 f23e 4c77 90be 8bde 3a3e 22a1 f13e
00000360: 0c61 adbe 5379 893e ff9f 87be 4891 6ebe
00000370: e19d 7a3d 6187 a43e ac02 843e d288 813e
00000380: 2c8b ab3e 1cd6 a83e d2b0 f9be 5999 d3bd
00000390: e402 3cbe 1b3c b43e ee7b f63c 5d28 e63e
000003a0: a2fb 203d 45a3 adbe fcd8 c03d 020f e33e
000003b0: cb7e c6bd f86d 01bd 7afc 203e 0c96 023e
000003c0: 761f adbc f608 86be 8e76 303d 74be 993e
000003d0: e6bc d03e bb7e abbe 3276 86be 250e efbe
000003e0: 38a5 b1be b2dd 4cbe 03ee d7be 6b47 02bf
000003f0: 98b7 2abd 363a 24bc 90ba 903e 2c08 9dbe
-0.20425145 0.39673987 0.51110476 0.037881695 -0.49039203 -0.15656538 0.3313932 -0.3844437
-0.3358095 0.49217233 0.20682405 0.1882928 0.40595114 -0.15618087 0.50469065 0.1113912
0.54739356 0.35128656 -0.0505643 -0.47918713 0.26376867 -0.39856222 -0.30073276 -0.10179443
0.592124 -0.36481783 -0.24420863 0.25526094 0.042982478 -0.018102553 0.5305569 0.09891027
0.24549086 -0.36341393 0.6195345 -0.4659054 -0.0908461 0.19319494 -0.12374705 0.35083625
0.49863163 0.21046636 -0.12682307 -0.042073987 -0.47368798 -0.14232317 -0.024161035 -0.23086292
-0.36079848 0.4371954 -0.005976037 -0.1133113 -0.16509381 0.52728736 -0.039498787 0.46075335
0.0058136117 -0.31968752 0.42287865 -0.24619105 -0.3776801 0.030816104 -0.24031448 -0.10233088
0.29964867 0.009418774 -0.33782023 0.12381572 -0.044634826 0.30528542 -0.1794633 0.34337014
-0.3879792 0.4395851 -0.14706883 -0.27455157 0.44488415 -0.06662834 0.23008204 0.15584041
0.24017367 -0.36991468 -0.1270265 0.07216243 -0.21176709 0.48362732 0.52218056 -0.10573882
-0.1108279 0.06135113 -0.14156187 -0.2359051 0.29328817 0.5362599 -0.33165923 0.27290383
0.22401325 -0.28089994 0.41837242 -0.020441571 -0.1261804 0.017875401 0.15699157 0.14108194
0.40919217 -0.29553363 -0.19166937 0.61114955 0.16294183 -0.16607995 -0.078260936 0.04579985
-0.20556396 0.37512484 -0.050876077 0.49552634 0.4414599 -0.32957557 -0.15176857 0.6405546
0.52997077 0.34999856 -0.40011194 0.53873557 -0.41402084 -0.14296824 0.33246177 0.07776949
-0.38008425 -0.32160434 -0.3735061 0.093565874 0.40557244 0.47033975 0.19001694 0.19516617
0.08187202 0.13466288 -0.32556468 0.41561392 0.2102716 -0.23187263 0.16266096 0.5896505
-0.33721623 -0.060389344 -0.123376615 0.4122345 0.028352514 0.3832285 0.2173607 0.43412796
-0.48357186 0.46050486 -0.34074828 0.15496708 -0.41663942 0.4957463 -0.41129136 0.106155634
0.36796275 0.35704356 0.14948821 -0.01109606 0.34909204 0.12242838 -0.18748386 0.014884412
0.29323056 -0.48550642 -0.22653602 0.43805805 -0.2975109 0.27453655 -0.3538529 0.24597584
-0.30529064 0.4876697 0.47607747 0.24018167 -0.4321466 -0.25617567 0.062446557 -0.3308
0.38466954 -0.005398428 -0.4321216 -0.2574426 0.03246332 0.0428705 0.5120385 -0.41806954
0.33761504 -0.29491216 0.43526077 0.079608396 -0.45547536 -0.40362155 -0.5269118 -0.43641147
-0.48002163 -0.1925705 -0.11357936 -0.3855752 -0.08300517 0.121520214 0.38454017 0.014032577
0.3957102 -0.17163602 -0.24674198 0.22989492 0.47268882 -0.28216016 0.18248956 0.47193247
-0.33863103 0.26850376 -0.26489255 -0.23297608 0.06118572 0.32134536 0.25783288 0.25299698
0.33504617 0.32975852 -0.48767716 -0.10331983 -0.18360478 0.35202107 0.030088391 0.4495267
0.039302476 -0.33913627 0.094163865 0.44347388 -0.096921526 -0.031599015 0.15721312 0.12752551
-0.021133166 -0.26178712 0.043081813 0.30028117 0.40769118 -0.33495125 -0.2626205 -0.4669048
-0.34696364 -0.20006445 -0.42173776 -0.50890225 -0.041678995 -0.010023644 0.28267336 -0.30670297

weight f4 [128, 1024]
00000000: 5edf 90bd 41e3 bd3d daa6 213c 513a 1dbe
00000010: b01c 2fbc 8166 99bc 3de4 7d3d 7183 143d
00000020: 636b 41bd f1c0 173d 6ce5 10bd 60fc 5d3d
00000030: 6572 11bc 322d 423d 96cf 2d3c 2615 aab9
00000040: 7bd7 0d3e 9e3b 473c 387e 59bd efa2 6cbc
00000050: ac20 5b3d a824 36be 885e 14bc 1991 913c
00000060: 2d6c 703c a605 403a 9eca 143d f41a 123c
00000070: 284a 14bc 0cdb 96bd cb41 5ebc 92f2 693b
00000080: 88ac ecbb 0767 80ba 107a aa3d 0015 8cba
00000090: 4c99 9ebc bd5c 13bd 7478 9dba d18a 00bc
000000a0: e890 253d 3b28 0f3d 740f 0cbd 7564 a1bb
000000b0: 9037 d23b d9f7 913c ee1a f73c 1daa ee3b
000000c0: 1109 94bc fd4e 1ebc 4b20 da3c 442f 423c
000000d0: 3467 e93c 3cda 333d 5dca b8bc 8e29 e1bb
000000e0: 17d0 51bb dcec 453d 8b1b 803c 65d3 a13c
000000f0: 789f dfbb a09c 5cbe 4dc0 3cbe abd4 52bc
00000100: fe83 0f3c 2860 86bc cd5f bb3c addf 3dbd
00000110: 5bd8 833b 3b88 093e 9335 173d e112 813c
00000120: 608b b83a 3427 6e3d ecec 27bd 97e1 9bba
00000130: 8673 783c 4468 a7ba 6bd7 90bb d4fa fe3c
00000140: a9c3 91ba 5169 0dbe 5b7d 82bd 871c 283c
00000150: 27d1 25bd bc64 003d 70d1 003e 6fec 66bc
00000160: eb73 503c 6dab 083d c298 df3b 0e3c 45be
00000170: 71a4 3a3d 0e99 573d 1dc1 42bd bc2e be3d
00000180: 78b0 873c 74c7 4dbc 5b5a 8a3c 74a0 cb3c
00000190: e158 96bd c49f cfb9 abf7 d4bb 9c22 f9bc
000001a0: de86 353d cb2e ddb9 264f 063d 6cc6 b63d
000001b0: fc75 7b3d d0de aabc 69c6 3a3c fe11 963c
000001c0: 674a f2bd 7d6e fe3d 3a95 93bd 8b52 b6bd
000001d0: 24e7 d1bc fbdc 71bc 8137 d83c 743e 153d
000001e0: dc55 783d a38d aebc fef3 edbd 80cd 8bbc
000001f0: ec93 9a3c a7ac 81bd 7f05 c43c 2cde 533d
00000200: 8675 0abe 5ac6 bc3c 2951 673c 4413 b43d
00000210: 8cc1 cabc 8a1d 103c ad87 90bc 613d 2bbd
00000220: dc55 9cbc b20e aabd 0072 c6bc 7112 a0bc
00000230: 0bdd 243d 5a2b 823c 5658 eebc 5cd5 ac3d
00000240: f144 9ebd bc9a 5d3d 29a5 813d b15f 373d
00000250: ace7 1cbd 71ca 513b cd45 1b3d 89e6 3a3e
00000260: 4fc0 a1bd c8fc de3c 6130 ea3c 8c9b 3e3d
00000270: 78e8 febc 7a59 02bd c85c 383d c62f 173d
00000280: 5a20 343d 5de8 013d 9054 093c 6d31 06be
00000290: 48d8 2d3d fab8 69bc fd9e 89bc 2bd1 dcbd
000002a0: b0a7 283d 8aff 003d 0fb2 9cbd 3232 07bc
000002b0: fe18 8fbc a638 8a3b 0ab6 1b3b cf88 763d
000002c0: ed14 99bc 2c92 913c ca91 ea3c 315c 93bc
000002d0: 00d6 f43c be36 39bc ac80 5dbc a54e fbbd
000002e0: cf2c 443d 576d 14bc 48ea d53b ecef c4bd
000002f0: 32d0 aabc 810f ed3c 8971 cc3d 955b fcbb
00000300: 33ce af3c ae89 b93c a4b7 3f3d 6206 84bb
00000310: 0484 8ebb 9eb2 b9bd f12b 10bc 59f2 2e3d
00000320: a538 83bd 58b7 66bb 57ac 04bb bd95 cebd
00000330: 16a7 c63c caa0 f4bc 7b80 a2b9 b2a0 a23b
00000340: ab88 fe3d bb4b 72bc cb8b acbc 0968 793c
00000350: 6b40 92bb a340 b8bd 2f89 b93b 03f8 5e3a
00000360: 23f6 0cbc 401d ce3d 8370 dabd 2fc5 33bd
00000370: 7171 0c3d 4655 453d 9371 843c 8047 0d3d
00000380: a129 163d 084c 2e3c b9d1 3f3c 1dec f6bd
00000390: de2e c7bd 27cb da3c cf9b 4cbe 4dcc 803c
000003a0: 8b70 90bd b086 c33b 1260 ba3c 13ae 843d
000003b0: cfbc c7bc a366 a6bd 6f32 6abc 52db af3d
000003c0: ba10 0fbd 7d37 7abd a564 19bc cb16 a33c
000003d0: 9c03 543d a4e0 4abd 1854 e63b efc1 37bc
000003e0: 0303 d4bc 1ea7 c93c d070 edbd 7e60 cd3c
000003f0: b017 47bc 919b 16bd cb18 843b 6223 cbbd
-0.07073854 0.09271861 0.009866441 -0.15354277 -0.010687992 -0.018725635 0.061985243 0.036258165
-0.047221553 0.037049238 -0.035375044 0.05419576 -0.008877371 0.047406383 0.010608574 -0.00032440684
0.1385173 0.01216021 -0.053098887 -0.014443143 0.053497955 -0.17787421 -0.009055741 0.017769383
0.014674229 0.00073250604 0.036326043 0.008917559 -0.009050883 -0.073659986 -0.013565491 0.0035697562
-0.0072227158 -0.000979633 0.08324063 -0.0010687411 -0.019360207 -0.035977114 -0.0012014047 -0.007845596
0.040421396 0.034950476 -0.034194425 -0.0049253055 0.006415315 0.017818378 0.030164208 0.0072834627
-0.01807073 -0.009662387 0.026626727 0.011852089 0.028491594 0.043909296 -0.022557432 -0.006871409
-0.00320149 0.04832159 0.015638134 0.019754121 -0.00682443 -0.21544123 -0.18432732 -0.012868087
0.008759497 -0.016403273 0.02287283 -0.046355892 0.0040235943 0.13430874 0.036916327 0.015756072
0.0014079623 0.058142856 -0.04099743 -0.0011892793 0.015164262 -0.0012772162 -0.004420211 0.031125464
-0.0011120933 -0.13809706 -0.06371566 0.010260708 -0.040482666 0.031346068 0.12579894 -0.014094456
0.0127229495 0.03336661 0.00682363 -0.1926119 0.04556698 0.0526362 -0.04754745 0.092862576
0.016563639 -0.01255976 0.016888788 0.024856783 -0.07341171 -0.0003960115 -0.006499251 -0.03041201
0.044318072 -0.00042187268 0.032790326 0.08924565 0.061391816 -0.020858198 0.011399844 0.018319126
-0.11830597 0.12423418 -0.07206197 -0.089024626 -0.025622912 -0.0147621585 0.026393654 0.036436513
0.060628757 -0.021307772 -0.116188034 -0.017065763 0.018869363 -0.06331759 0.023928402 0.05172555
-0.13521394 0.0230438 0.014118471 0.08792737 -0.024750493 0.008796105 -0.01764282 -0.041806582
-0.01908391 -0.08303584 -0.024224281 -0.019540044 0.040249866 0.015889812 -0.029094856 0.084391326
-0.07727993 0.054102644 0.0633033 0.044768993 -0.038306877 0.0032011534 0.037908364 0.18252005
-0.07898008 0.027220145 0.028587522 0.04653506 -0.03111671 -0.031823613 0.045010358 0.036910795
0.043976165 0.03171574 0.008381978 -0.13104792 0.04244259 -0.014265293 -0.016799444 -0.10782083
0.041175544 0.0314937 -0.076511495 -0.008251714 -0.017467972 0.004218179 0.0023759627 0.060189065
-0.018686736 0.017769895 0.02863397 -0.017988296 0.0298872 -0.011304555 -0.013519447 -0.1227086
0.047894295 -0.009059272 0.0065281726 -0.09616074 -0.020851228 0.028938057 0.099825926 -0.007701347
0.021460628 0.022648659 0.046805993 -0.004029081 -0.0043492336 -0.09067272 -0.008799539 0.04271159
-0.064072885 -0.0035204496 -0.0020244324 -0.10087154 0.024249595 -0.029861826 -0.00030994773 0.004963004
0.12428411 -0.014788563 -0.021062752 0.015222558 -0.0044632456 -0.089967035 0.0056621055 0.00085055846
-0.008603605 0.10064173 -0.10665991 -0.04388922 0.034287874 0.048177026 0.016167438 0.034492016
0.036660794 0.010638244 0.011707717 -0.12056754 -0.09725736 0.026708199 -0.19981311 0.015722418
-0.07052716 0.0059669837 0.022750888 0.064785145 -0.024382023 -0.08125045 -0.014294251 0.08586754
-0.03492806 -0.061088074 -0.009362374 0.01990833 0.051761255 -0.04953064 0.0070290677 -0.011215671
-0.025880342 0.02461582 -0.11593783 0.025070425 -0.012151644 -0.036769453 0.004031276 -0.09918858

bias f4 [128]
00000000: dd53 633d 4eb6 23bc 7b60 303c 3d32 01bc
00000010: 192c 583a 8d97 9a3c acd7 a63c 169a 603d
00000020: b9e4 c63c ea6d 883d 343e 2d3c baab 5b3d
00000030: be9b bb3c cae2 63bc 47e1 6d3b 1f7d 99bc
00000040: dfeb 6e3d 1ff4 a93c 5782 ecbc b96d 23ba
00000050: 8921 e63c 71ac 9abc e893 fcbc b18d 0dba
00000060: 773e ddbc f5c4 4d3d b3c8 b53b 31da 92bc
00000070: 9d14 8abc 3716 b8bc 57b1 873c d259 ab3b
00000080: a448 973c aeba 19bb 488d 6cbc 72bf 79bc
00000090: 464a 343a bfaf 783b 55d6 03bc dfad 7c3d
000000a0: 521b 983c c441 783b feed eebc 6740 1a3c
000000b0: a77e 4d3d e1f3 1d3d 115d 453d 1d44 a83c
000000c0: 3f45 533d eeeb 64bc 7f60 2a3c 0793 63bb
000000d0: 9dc8 9cbb 73a0 df3b de75 1d3d 0ace 8fbc
000000e0: 3e30 593c b06d 0abd 8a17 803c 276c b6bc
000000f0: 4a24 47bc 0468 21bc 4d54 d33c bafc b5bc
00000100: 8587 0f3d 8b7b df3b bf48 3cbc 6ce5 533c
00000110: c692 b4bb d630 73bc 79ae 17bd 2e21 743d
00000120: 86cd 0d3d 2443 723d 66c1 993d cae7 d53b
00000130: 27ad 4c3c e600 813c e43a bc3c ba55 edbb
00000140: 4aa8 cabb 280e a9ba 80b8 093d f885 913c
00000150: 4761 453c 274a 2e3d 9a44 96bc 28e6 30bc
00000160: 49a4 173d 8a72 043d 8bf3 573c 6c69 1a3d
00000170: f317 e2bb 962d 6f3c 4acc 27bd 4dad 533b
00000180: 33aa 993d 79cf 5cbc 2ac4 4b3d 15f0 b6bc
00000190: 6e7d 853c d74a 4c3c 37e5 47bc 2b2c ecbc
000001a0: cea9 f3bc 2a98 733b 8a06 d6bb 2240 2f3d
000001b0: cc59 01bd addf ff3b 4861 b33c 9d3e a7bc
000001c0: a6bd 2c3d 1e04 64bc 6311 57ba 6e1b 543d
000001d0: e0de 0e3d 1255 893c 752e a03c 857f 483d
000001e0: 7868 f9bb bd9f 883a b76a 9abc b320 0ebd
000001f0: d0d8 433d 7639 0e3d 131a 4b3d 3a6a be39
0.0554999 -0.009992195 0.01076519 -0.007885513 0.0008246317 0.018871093 0.020366512 0.054834448
0.024278985 0.066615894 0.010573912 0.053630568 0.022901412 -0.013909051 0.0036297606 -0.01873642
0.058330413 0.020746289 -0.028870745 -0.00062343065 0.028092163 -0.018881055 -0.030832246 -0.0005399837
-0.027007325 0.05023666 0.005547607 -0.017926307 -0.016855532 -0.02247153 0.016564054 0.0052292133
0.018467255 -0.0023457217 -0.014437981 -0.015243398 0.00068775227 0.003794655 -0.008046706 0.061689254
0.018567715 0.0037880996 -0.029166218 0.009414769 0.050169613 0.03856266 0.04818446 0.020540291
0.05157971 -0.013972266 0.010398983 -0.0034725086 -0.004784657 0.006824547 0.038442485 -0.017554302
0.013256131 -0.033796012 0.015636224 -0.022268368 -0.012154648 -0.009851459 0.025797034 -0.022215236
0.03504135 0.0068201474 -0.011491953 0.012933116 -0.005510661 -0.014843186 -0.037031624 0.059601955
0.03461983 0.05914606 0.07507591 0.0065278756 0.012492455 0.015747499 0.0229773 -0.0072428854
-0.0061846124 -0.0012897896 0.03362322 0.017764077 0.0120471185 0.042551186 -0.018343259 -0.010797061
0.03702191 0.032335795 0.013180624 0.037698194 -0.0068998276 0.014598271 -0.04096631 0.003229934
0.07503166 -0.0134772 0.049747624 -0.022331277 0.016295161 0.012469015 -0.012200645 -0.028829655
-0.029744055 0.0037169554 -0.0065315412 0.04278577 -0.031579778 0.0078086467 0.021896973 -0.020415599
0.04217305 -0.013916997 -0.000820419 0.05178397 0.03488052 0.016764197 0.019553402 0.048949737
-0.0076113306 0.0010423582 -0.018849714 -0.034699153 0.04781419 0.034722768 0.049585413 0.0003631877

weight f4 [3, 128]
00000000: 3ad3 083e 8137 82bd edd2 aebc 37b9 03bd
00000010: 17d8 debc b452 9ebd 1a48 a9bd 3236 2e3e
00000020: 6def 81bd 2bcd ac3d 9cb7 883d 13ca 9e3d
00000030: 35b6 9ebd 2873 3b3d 162f ff3c 3160 ad3a
00000040: f39c f33b 0ee7 e0bd ef19 30bd 4749 0a3e
00000050: e2f8 663d 5724 243d dd9d ddbc c264 18bd
00000060: e245 11bc fb9f 1c3d 3645 aa3d 8426 863c
00000070: 4a07 44bd 45f1 2ebd f7af 823c 7f9f c6bc
00000080: 66b1 17bd 7500 483c f64a 70bd f3e2 a1bd
00000090: fc29 5b3d 0dbe 00bd 6072 843d a604 d03d
000000a0: 7c09 89bd 37e6 a0bd d3e9 a9bc 8858 58bc
000000b0: 6830 0e3e 16f0 4d3c fe4f 6fbd a0a4 89bb
000000c0: 79b3 3cbe a6b6 9ebd e195 f03d 59f8 eb3c
000000d0: 3ed4 89bd eec3 ea3d aa7a 13bd 2c54 10bd
000000e0: 77ed a03d 8dfe b23c 6ef9 cd3d 6e54 08bd
000000f0: b4d8 a9bd e5c7 143d b810 90bd a064 33bd
00000100: 96f9 083e bf79 a63b 18b7 0a3d c2b6 6ebd
00000110: 957f 35bc a869 5d3d b9ec 163d 914d f63c
00000120: 493f af3d 1863 cd3d 9209 0f3e 4440 26bd
00000130: 4c3f 7ebc f79f 79bd 9d50 133d e10d 163d
00000140: d270 26bd 18d7 edba c4d2 cb3d 9c90 ce3d
00000150: 1186 17bb 94da 053c 5449 aabd bc2b 37bc
00000160: 7ae8 753d 5fd7 213e 12ab a1bc 957b 643d
00000170: 39cc 173d e6ad 90bd 2bc1 efbb c22d 19bc
00000180: d5c4 cb3c 824c 54bc fd44 29bb 7a97 2cbd
00000190: d0eb 97bd 9fc0 b63d 3ecb babc fb85 31bd
000001a0: 5a3e 45bd 57de 093e 2241 f93d 7984 053d
000001b0: 7eb4 3fbd e4e5 afbc 4227 25bd 7e22 283d
000001c0: 8665 9fbd 2a54 91bd c562 79bd b34a 203d
000001d0: 92a9 f33d 9dc2 943d a7b4 2e3e 63e1 e43d
000001e0: a231 973d 3b0c c23c 47ad d3bc 0d22 503d
000001f0: c31e c13d 702e d83d 3f21 ea3d 103a 863d
00000200: c75e 063e 02ee 0abd c87c 0abc 176d d0bc
00000210: 0e58 b83d b488 c2bc 16dd 9fbc 59ed a0bd
00000220: 8cd9 98bd 0275 1e3e e1e3 0e3e bb65 73bd
00000230: 61d5 4b3d 1c0a 7a3d ed8d d03d cf28 98bd
00000240: 992d 0b3e c811 f4bd b042 87bd 0b05 55bc
00000250: b2ed 3f3e 589e 02bd c086 bfbc 73fa a4bc
00000260: 81bb 5dbd db5e d23d e02f 2cbd cad6 4bbd
00000270: 8a64 61bd a945 543d 2f67 54bd 32d3 883d
00000280: 299d b43d b783 9abc d04b 3a3d 3cba b13c
00000290: 0ace 803d 96f2 bcbc e8c2 e93d 38b9 ad3d
000002a0: 8b9b abbc 9c88 083d 225c c8bc 70ee fa3c
000002b0: 4f17 7b3b 7301 4e3d b270 ef3d 272e ce3d
000002c0: 8582 983d c1a2 f3bd 3c8c 11bd 91c8 a7bd
000002d0: 44f6 e0bc e72a 8b3d cf32 b13d 10e1 a9bd
000002e0: 6dbe 9abd 1f37 dc3d 1794 b03d 071e 04bd
000002f0: 9a10 0cbd 237f 97bd 9535 6ebb 7282 76bc
00000300: c1f3 ec3c 0dca 9bbd 75a5 e5bb 506e 5ebd
00000310: ed02 84bd 3554 16bd 359c d3bd 5027 a53d
00000320: 3c36 c63d 8c4b 8c3d 5cd0 bd3d 1814 d73c
00000330: 5200 783d 82c0 1dbd 5835 0f3d e3fb a73c
00000340: be56 853d 7457 69bd d9c2 90bd 39b4 b03d
00000350: 1b97 a8bc 5c34 e73d 5173 363d 97da 6ebd
00000360: 2ee0 663d 99b1 d83d 1c6c 4fbd 365f a93d
00000370: 7d12 9bbd 0d13 1fbd 1dee 733d ff9b 3cbd
00000380: 824f 463e 4d5a c13b 60bc b03d b3db ef3c
00000390: f6cb 1bbc 5aeb a5bd 8f11 043d ba67 ddbc
000003a0: 472b 50bc b970 053e 074d 57bd 5510 5c3d
000003b0: 51f9 a73d c0a6 8bbd e9b0 c5bb bd85 8cbd
000003c0: 8e35 c23d 2843 3ebd dda4 99bd ff9e df3d
000003d0: dd1b f93d 1cd2 d23d 9f6c 07bc 897d 713d
000003e0: 6e2f 6abc e840 a5bc 74d1 0bbd 3fac 62bd
000003f0: 0b12 41bc 5fce 4b3c ebdf 023e b89c 273d
0.13361827 -0.06358243 -0.021340812 -0.032159057 -0.027202649 -0.07730618 -0.082657054 0.17012861
-0.06344495 0.0843757 0.06675646 0.07753386 -0.07749597 0.04576412 0.031150382 0.001322752
0.0074344813 -0.1098157 -0.042993482 0.13504516 0.056389697 0.04007372 -0.027052814 -0.037205465
-0.008866759 0.038238507 0.08313982 0.016375788 -0.047858514 -0.04271056 0.015953047 -0.024245976
-0.037034415 0.01220714 -0.05866524 -0.07904615 0.053506836 -0.031431247 0.06467128 0.101571366
-0.06691262 -0.0785641 -0.020741379 -0.013204701 0.13885653 0.012569448 -0.058425896 -0.004200533
-0.18427838 -0.07749681 0.11747337 0.028804945 -0.06729935 0.11463152 -0.036005653 -0.035236523
0.07857793 0.021849895 0.100573406 -0.033283643 -0.08293286 0.036323447 -0.07034439 -0.043797135
0.1337646 0.0050804312 0.033866018 -0.05827976 -0.011077781 0.05405584 0.03684685 0.030066283
0.085569926 0.10028666 0.13968495 -0.040588632 -0.015518021 -0.06094357 0.03596555 0.03663433
-0.040634938 -0.0018145768 0.0995231 0.10086176 -0.0023120681 0.008169789 -0.083147675 -0.011179861
0.06003616 0.15804814 -0.019734893 0.05578192 0.037059996 -0.070644185 -0.0073167286 -0.009349288
0.02487413 -0.012957694 -0.0025828474 -0.042136647 -0.074180245 0.08923458 -0.022801992 -0.043340664
-0.048155166 0.13463722 0.12170626 0.03259704 -0.04680299 -0.021471925 -0.040320642 0.04104852
-0.07783036 -0.07096131 -0.06088521 0.03913374 0.11897577 0.07263682 0.17061101 0.111758016
0.073825136 0.023687473 -0.025839461 0.050813723 0.094296955 0.10555732 0.114321224 0.06554043
0.13122092 -0.03391839 -0.008452602 -0.025442643 0.0900117 -0.023746826 -0.019514602 -0.078577705
-0.07463369 0.15474322 0.13954116 -0.05942319 0.04976404 0.061044797 0.1018332 -0.074296586
0.13591613 -0.11917454 -0.066045165 -0.013001691 0.18743017 -0.03188929 -0.023379683 -0.020138955
-0.054133896 0.102719985 -0.042037845 -0.049765386 -0.055027522 0.051824246 -0.051856216 0.06680907
0.088190384 -0.018861635 0.045482457 0.021695249 0.06289299 -0.023064893 0.114141285 0.08482593
-0.020948192 0.033333406 -0.024457995 0.030631274 0.0038313454 0.05029435 0.11691417 0.100673966
0.074467696 -0.11896277 -0.03553413 -0.08192552 -0.027461179 0.06795292 0.08652269 -0.082948804
-0.07555852 0.10752701 0.08621996 -0.0322552 -0.03419552 -0.07397296 -0.0036347855 -0.015045749
0.028924825 -0.076068975 -0.0070082494 -0.05430442 -0.064458705 -0.0367014 -0.103325285 0.08064139
0.09678313 0.06850347 0.09268257 0.026254699 0.06054718 -0.038513668 0.034962982 0.020505851
0.065106854 -0.056968167 -0.07068414 0.08628125 -0.020579865 0.11289284 0.044543568 -0.058313932
0.05636614 0.10580749 -0.05064021 0.08270113 -0.07571886 -0.038836528 0.059553254 -0.046047207
0.19366267 0.0059006573 0.0862968 0.029279565 -0.009509077 -0.081015304 0.032243308 -0.027027
-0.012705631 0.13031282 -0.052563693 0.053726513 0.0820185 -0.068189144 -0.006033052 -0.06861446
0.09482871 -0.046450764 -0.07502148 0.10918998 0.121635176 0.102939814 -0.008265643 0.05895761
-0.014293535 -0.020172551 -0.034135297 -0.055340048 -0.011784087 0.012439339 0.1278073 0.040920943

bias f4 [3]
00000000: 0085 acbc f301 b43a f6ab e2bc
-0.021059513 0.0013733491 -0.027669888
