saved_models/run6/model_4000.pth (torch, 550886 bytes, 6 tensors)

weight f4 [1024, 4]
00000000: f822 b2be 544f fbbe fe5d 24be 5f82 15bf
00000010: 9090 0c3f e91b c7be 01c8 b4bf b647 5cbe
00000020: 5dde f23e f23e 14be bfdb 3fbf bcd8 bdbe
00000030: 529a c53e 8d6a 76be 033c 12bd 67da 1bbf
00000040: 0903 d83e 3c68 f0bd 1509 32be 35f4 c8be
00000050: cae6 f6be de21 26be 296f b53e 0fbd 8c3e
00000060: 8acd 03be addf 7f3e 0266 8b3c 07e6 503e
00000070: 9c1c cbbd 9a36 963e c946 033f e1ae 463f
00000080: 9dc9 cf3e f528 ecbd 7621 f33d 047f 17bf
00000090: 7e5c b53e c12b 45be ec39 c73d 8992 d03d
000000a0: 80ec 763e 9181 6fbd b3fe 12be f894 19bf
000000b0: ba62 4fbe a131 babe ed1a dfbd 01ac a4be
000000c0: bdee 193f 4b52 f2bd 4181 f2bd 5ca4 f0be
000000d0: 0acf 973e 7513 0a3e 9bf7 b0bf 499d dfbe
000000e0: 9033 363f d840 da3e 9894 d1bd d5d6 c0be
000000f0: a9c5 12bd a147 ab3e cd88 8c3e 328c cd3e
00000100: 087c 0bbd 4e5a 1ebd 14e6 c9bf 6f6e 01be
00000110: 6586 2fbf eb14 7dbd 6d61 403e 64ee 143e
00000120: 58b4 a13d 35e4 103e 10d9 3bbe b8f2 37bf
00000130: d39c 29bf cb0c 3dbe 093d c43e 0d6e 99be
00000140: 319c db3e ef6a 233d 136f b9bf 84b9 95bd
00000150: 2bdd 87bd 7a30 15bd d3a2 b2bc 815b 983e
00000160: 7b2a 123e 9f84 b8be e317 953d a9ac 1dbe
00000170: 8a9a 47be 3981 763e 342a 823e cc2e 313f
00000180: b2c7 a2be 9e02 193f e7a8 ddbd 3db2 fb3e
00000190: e558 40bf 5014 d9be dbc4 f93d 653c 293b
000001a0: bcee 04bf e6fb 013f 54b6 d73e 26b8 463f
000001b0: 6ca1 5abe 5bf3 9ebe 1eef 343e feaa 11bf
000001c0: 8c16 bcbe f555 023c 752f 1c3e aec8 3ebe
000001d0: efda 0cbd d704 b33e 6e1a cdbb b88d 273f
000001e0: 8516 c13e 3c3b b0be 2e32 8a3c e567 a3be
000001f0: 3993 55bf dd70 01be cfec a7bc 2c38 33be
00000200: d915 283e a6bd 003e aa58 aebf 6170 a2be
00000210: cf06 8cbd f67f 2fbf c183 113e a682 e6be
00000220: 67ef 65be a2b3 b4be 08e3 babf 3ffe 01bd
00000230: 1013 c03d 7fb7 a03e 3c1f 7d3e 78e4 d5be
00000240: e8e1 febd a205 a7be 1b54 493c 6f60 fbbe
00000250: 0bef 5e3f 191d eabe 298e 213e fcae e6be
00000260: d38d 7fbe c899 d63e bb88 61be f0fe 963d
00000270: aebb 193f fd66 d83e 41e2 a2be 4def 35bf
00000280: ad2f 223e 36b9 253e a93e fa3d 2572 083f
00000290: e3c4 da3d 866d e73e 48ab f83e 7789 323e
000002a0: 1b38 953c aeb9 68be 0fae 933e 1e81 2dbf
000002b0: 7b48 a4be 204f d53e c54c 6abe 8ce2 873d
000002c0: 3f01 353e d3da 923e bbde 793e 932f ffbd
000002d0: 8d93 afbe 3d10 a73e 3408 e23e 54b2 243f
000002e0: a274 00bf 473e af3e bbc3 2b3c b75c 40be
000002f0: d710 5bbf b59b 08bf d316 523d ccd7 2cbe
00000300: 2798 b43e d2b9 a13e 106a a9bf cfb9 8fbe
00000310: 7a66 0abf 6764 7f3e 923a 043e 932d e33d
00000320: 9f99 bb3e 0319 db3e 8ad0 cc3b 01fa ab3e
00000330: 096c 32bf 1689 ce3e 397a ae3e 960e 333e
00000340: 4c67 ad3e 7c25 f1be a879 66bf ebe6 5bbe
00000350: 666a 8abe b96f d93d a772 adbf 498f 393d
00000360: 8b39 883c 5b99 f73d 04c0 80bd 2039 013f
00000370: 9a84 16be 38b9 8abe 1a3f 853e e4ca 8ebe
00000380: 85d6 1b3f cbde 4b3e 0d3a 733e 0b8d 33bf
00000390: cf8f 3cbf f852 b93e 6b5d ad3e 8198 4f3f
000003a0: 8c0b 363f abe8 6d3e c441 5dbe 6e35 a1be
000003b0: a02c 893e 361e 1ebe 6d18 cc3e d313 48bf
000003c0: 5710 69bf 9e34 8f3d e1cb 703e 0b12 1abe
000003d0: 9c6a f33e 40a1 7dbe 42e6 373d 34c3 2cbf
000003e0: 389d 9c3e 8631 36be 0d70 89bd 798e 4cbf
000003f0: f8da ca3e 4e73 4bbe e24a 783e 3549 2bbf
-0.34792304 -0.4908396 -0.1605148 -0.58402056 0.54908085 -0.3888848 -1.4123536 -0.2151173
0.47435275 -0.14477137 -0.7494468 -0.37079418 0.385943 -0.24064083 -0.035701763 -0.6088013
0.42189816 -0.11738631 -0.17386277 -0.39248815 -0.48222953 -0.16223857 0.3543637 0.2748799
-0.12871376 0.2498767 0.017016415 0.20400248 -0.09917566 0.29338533 0.51279885 0.77610594
0.40583506 -0.115312494 0.118716165 -0.59178185 0.35422128 -0.19254972 0.097278446 0.10184199
0.24113655 -0.058473174 -0.14354973 -0.59992933 -0.20252505 -0.3636599 -0.108938076 -0.3216248
0.6012991 -0.118321024 -0.118410595 -0.47000396 0.29650146 0.13483985 -1.3825563 -0.43674687
0.7117243 0.42627597 -0.1023342 -0.37663904 -0.035833035 0.33453086 0.2744812 0.40146023
-0.034053832 -0.03866034 -1.5773339 -0.12639783 -0.68564445 -0.061787527 0.18787165 0.14544064
0.07895726 0.14149554 -0.18344522 -0.71854734 -0.6625492 -0.18461911 0.38327816 -0.29966775
0.42892602 0.0398969 -1.4487022 -0.07310775 -0.06633981 -0.036423184 -0.021806156 0.29757312
0.14274018 -0.36038682 0.07279947 -0.15397896 -0.19492546 0.24072732 0.25422823 0.6921203
-0.3179298 0.5976962 -0.10823231 0.49159423 -0.7513564 -0.4239831 0.1219575 0.0025823351
-0.5192678 0.5077499 0.42131293 0.7762474 -0.2135064 -0.3104504 0.17669341 -0.5690154
-0.36735952 0.007955064 0.15252478 -0.1863124 -0.03438848 0.3496463 -0.006259254 0.6545062
0.37712494 -0.34420192 0.01686963 -0.31915203 -0.8342777 -0.1264071 -0.020498661 -0.17501897
0.16414584 0.12572345 -1.3620808 -0.31726363 -0.06837236 -0.6855463 0.14210416 -0.45021552
-0.22454606 -0.352933 -1.4600534 -0.03173661 0.09378636 0.31389996 0.24718946 -0.4177587
-0.12445432 -0.32621485 0.012288119 -0.4909701 0.870835 -0.45725325 0.15776886 -0.45055377
-0.24956445 0.419142 -0.22024815 0.07372844 0.60052 0.42266074 -0.31813243 -0.7106827
0.158385 0.16183934 0.12218983 0.5329917 0.106820844 0.45200747 0.48568177 0.17435251
0.01821523 -0.22727081 0.28843734 -0.6777514 -0.32086548 0.4166193 -0.22880848 0.06635007
0.17676257 0.28682575 0.24401371 -0.12460246 -0.3429226 0.32629576 0.44146883 0.6433461
-0.5017797 0.342272 0.0104836775 -0.18785368 -0.8557257 -0.5336259 0.051291298 -0.16879195
0.35272333 0.31587082 -1.3235493 -0.28071448 -0.54062617 0.24940644 0.12912968 0.11092677
0.3664064 0.4279252 0.0062504457 0.33589175 -0.696961 0.40338963 0.34077623 0.17486033
0.33867872 -0.4709891 -0.9002938 -0.21474807 -0.270343 0.106170125 -1.3550614 0.045302663
0.016629001 0.12089797 -0.06286624 0.5047779 -0.14699021 -0.27094436 0.26024705 -0.27889168
0.60874206 0.19909208 0.23752613 -0.7013709 -0.73656934 0.36196113 0.33860335 0.8109208
0.7111137 0.23233287 -0.21607119 -0.31486076 0.2679186 -0.15441212 0.39862385 -0.7815525
-0.9104056 0.06992458 0.23515274 -0.15045945 0.47542274 -0.24768543 0.044897325 -0.67485356
0.30588698 -0.17792329 -0.06710825 -0.79904896 0.39620185 -0.19868204 0.24247316 -0.6690858

bias f4 [1024]
00000000: 2bc0 12be daa5 d13e ca13 113f e82c 3ebd
00000010: 7595 f6be 280e 45be d927 ad3e 35ab a5be
00000020: 21ca 8fbe 62b3 043f df53 6d3e 011a 243e
00000030: 0448 1a3f 7220 5cbe d829 1c3f 08f2 623d
00000040: a8b2 0a3f 9c1d bc3e 173f 6bbd 835b 05bf
00000050: 35c7 7b3e 8d93 f3be be08 adbe 2046 bdbd
00000060: fe70 223f c0e9 eebe d1a4 3ebe 1cb5 983e
00000070: 5190 723d a939 d4bc df10 253f b614 8c3d
00000080: e224 f33d 3797 d3be faeb 213f 82f8 04bf
00000090: 0872 c13c e454 823e 712a afbd c5ac 823e
000000a0: 01b0 013f a564 363e dd38 19bd 1b05 11bd
000000b0: 8148 0fbf 1e98 15be d5ee d9bc 8fe9 62be
000000c0: 6356 eebe c1e2 e53e 1dd6 71bd 5b90 16be
000000d0: 8839 41bd 7740 0b3f 23c7 9c3d c341 e23e
000000e0: 3cf3 07be 3573 94be 5801 043f 02f0 99be
000000f0: b0d0 b2be 2bd2 bfbc 6055 8fbe 23cf debd
00000100: 7293 683e 26c0 c73d 7e91 b4be c7d1 1b3d
00000110: 27e5 62bd 0605 b13e db85 01be 2264 f23e
00000120: 4332 c9be e623 e73e 2402 88bd 19b3 8fbe
00000130: e3dd e03e 04d3 06be 5849 383e a7e2 823e
00000140: 731d 563e b3cb bdbe 483a f3bd b452 d33d
00000150: 05f1 92be f032 043f 3029 0c3f 1d7a 02be
00000160: 8019 40bc 255b cf3d ae7b 67be 89c4 1ebe
00000170: e760 883e a977 033f 8a29 7abe 8596 853e
00000180: ee26 823e 7f5a ddbe 5904 d33e d302 20be
00000190: 0103 0abc d35b 0abe a396 193e 2f40 3e3c
000001a0: b4ce d83e 15e8 89be a36a 64be 22c2 243f
000001b0: 8c3c 273e 43ad 5abe 8227 b1bd 6e36 583d
000001c0: 6c8a 48be 71b4 e03e 2883 853d e7fc 0a3f
000001d0: 7bdb cd3e f033 e0be 1621 82be 79bb 253f
000001e0: 840e 0b3f a249 8c3e 2851 b0be a973 003f
000001f0: ce01 e4be 6467 1cbe 65d5 9c3e 7271 f33d
00000200: e817 cbbe 99a1 c6be 040c c5be 1597 243e
00000210: 907f f93e 885f f83e 66e4 543d 90b5 803e
00000220: 0297 d43c 2ae6 093e 1efa ccbe afdf e33e
00000230: 85fb 163e f227 9bbe 079e 583e cb0f 133f
00000240: adeb bcbe 2155 99bd 5853 b3bd ec93 c93e
00000250: fce1 93bd bef3 bf3e 65a5 683e d6e8 e13e
00000260: 48ae e3be 1864 f03e 7585 c0be 3693 233e
00000270: c438 febe d140 123f 43fe d0be e952 8d3d
00000280: ade0 b13e 8893 bd3e 8871 013e 7c7e 253d
00000290: f00e c03e 7732 493e 7698 61be 6e5b 20bd
000002a0: 9d70 9f3e 75d8 0bbf ed8c 9cbe 8516 d33e
000002b0: 1e82 c4be 83d9 7b3e 4770 f9be 849b a63e
000002c0: c954 f5be 80ea 0c3f 82e3 f43e 8897 6c3e
000002d0: da2e d3be 4db3 71be 90d5 8dbd 79ca d5be
000002e0: fc19 e43e f519 f7bc 851d dfbe aac0 9bbe
000002f0: 29a5 2dbd e37e 8d3d 3185 083f 6bc0 ddbe
00000300: 457b ae3e c976 86be 75e5 e13e b1be 903d
00000310: 5196 06bf 0640 d1be 4dbf 22bf 4bb7 efbe
00000320: 758e f4be c983 2ebe cbd8 2cbe 280a e8be
00000330: d819 e5bd 5bc2 553e a61a cd3e 9b52 303d
00000340: 3416 ca3e a131 1cbe 4ec5 7fbe 402c 7c3e
00000350: ab79 d83e 86da aabe aec3 613e 65e0 e63e
00000360: 3b8a 9fbe 5e61 933e 895d 86be 73fa a5be
00000370: 1c56 c23d ab28 a03e 10d2 733e 3ea3 3c3e
00000380: b542 cf3e b4a5 703e d184 1fbf 9eb1 12bc
00000390: 481c 4abe 3336 b73e 0637 b8bb 43d1 eb3e
000003a0: 02e9 8fbc f47a cdbe d9da 1f3e 0a99 fb3e
000003b0: 1707 50be e888 013d 9143 503e 87bb 163e
000003c0: 4304 813d b95e a2be decb 8b3d 3ac3 bf3e
000003d0: 29ae d33e b36e 6fbe 32e0 75be 875f f5be
000003e0: 53bf e8be 802c 58be 3574 dbbe 2869 08bf
000003f0: 7f4c 833c d9a5 bdbc 66ac 973e 6cc7 5ebe
-0.14331119 0.40946847 0.5667082 -0.046429545 -0.48160902 -0.19243681 0.33819464 -0.32357183
-0.280839 0.51836216 0.23176526 0.16025545 0.6026614 -0.21496752 0.6100135 0.0554066
0.5417886 0.3674134 -0.057433214 -0.5209276 0.2458771 -0.4757351 -0.33795732 -0.09241891
0.6345366 -0.46662712 -0.1861756 0.29825675 0.059219662 -0.0259064 0.6447887 0.06839888
0.11872269 -0.41326305 0.63250697 -0.5194169 0.023613945 0.2545539 -0.08553017 0.25522438
0.50659186 0.1781183 -0.037407745 -0.03540526 -0.5597001 -0.1460881 -0.026603142 -0.22159408
-0.46550283 0.44899562 -0.059042085 -0.14703505 -0.047174007 0.5439524 0.0765517 0.44190797
-0.1327638 -0.28994146 0.5156455 -0.30065924 -0.3492484 -0.023415646 -0.27994823 -0.10879352
0.22712496 0.09753446 -0.35267252 0.038041856 -0.055394318 0.34574145 -0.12648718 0.4734202
-0.3929616 0.45144576 -0.06641033 -0.28066328 0.43919286 -0.13166434 0.17996728 0.25563547
0.20909671 -0.37069473 -0.11876351 0.10318509 -0.28699508 0.51640224 0.5475035 -0.12741895
-0.01172483 0.10124806 -0.22605774 -0.1550466 0.2663643 0.5135446 -0.24429908 0.260914
0.25420326 -0.43233106 0.41214254 -0.15626077 -0.008423568 -0.1351159 0.1499887 0.011611982
0.42345202 -0.26934877 -0.22306304 0.64358723 0.1633169 -0.21355157 -0.08650114 0.052786283
-0.19584054 0.43887666 0.06519157 0.5429215 0.40206513 -0.43789625 -0.25415868 0.64739186
0.54319024 0.27399927 -0.34436917 0.50176483 -0.44532627 -0.15273815 0.30631557 0.11886872
-0.39666677 -0.38795164 -0.3848573 0.16073258 0.48730135 0.48510385 0.05197563 0.2513852
0.025950912 0.13466707 -0.40034574 0.44506595 0.14744385 -0.30303913 0.21154033 0.57445973
-0.36898556 -0.0748694 -0.08756131 0.39370668 -0.072208375 0.37490648 0.22719343 0.44122952
-0.44468904 0.46951365 -0.3760182 0.15974125 -0.49652684 0.5713015 -0.40818986 0.069005795
0.34741727 0.3702662 0.12640965 0.040403828 0.37511396 0.19648157 -0.22030815 -0.039149694
0.31140605 -0.5462716 -0.30576268 0.4122812 -0.38380522 0.24594693 -0.48718473 0.32540524
-0.47916248 0.5504532 0.47829825 0.2310468 -0.41246682 -0.23603554 -0.069254994 -0.41756037
0.44551075 -0.030163744 -0.4357721 -0.3042043 -0.042393837 0.06908967 0.53328234 -0.43310866
0.34078422 -0.262625 0.44120374 0.070676215 -0.52573115 -0.40869159 -0.6357315 -0.4681953
-0.47764936 -0.1704246 -0.16879575 -0.4532025 -0.1118657 0.20874922 0.40059394 0.04304753
0.39470065 -0.15253307 -0.2497761 0.24626255 0.42280325 -0.33369845 0.22047302 0.45093074
-0.3116015 0.28785223 -0.26243237 -0.3241764 0.0948908 0.31281027 0.23810601 0.18421647
0.4048058 0.2350071 -0.62312037 -0.00895348 -0.19737351 0.35783538 -0.0056217937 0.46058092
-0.017567161 -0.40132868 0.15610828 0.49140197 -0.20315205 0.031624705 0.20338275 0.14719974
0.06299641 -0.31712893 0.06825994 0.37453634 0.4134381 -0.23382072 -0.24011305 -0.47924444
-0.4545847 -0.21110725 -0.42862096 -0.53285456 0.016027687 -0.023150371 0.29623717 -0.21755761

weight f4 [128, 1024]
00000000: 877d 453d 976e 133e 543a 5a3d 7075 1abf
00000010: 470e 87bd 4649 9b3b 0817 5c3d 85ac 513d
00000020: e7c8 a5bd 37df d93b 9329 abbd 3370 2a3e
00000030: 349f 95bd 71f0 d83d 38f3 7c3b 9398 cfba
00000040: 0e9b 993e 0209 d53c 1ccf debd b611 f83c
00000050: eabf 4b3e 40e4 00bf 91d9 203d 3820 ce3c
00000060: b622 a63c 7fb2 9f3d 38c4 683d 0f18 d03c
00000070: 93d9 ca3c b429 52be 036a 67bd b7ff c93e
00000080: 89d5 8a3c 0445 543c 12de 0b3e 2a38 173d
00000090: 199c 49bc 9198 80bd 08f4 a6bc b941 6abd
000000a0: 962a f93b 8d77 153d 916a cbbc 8536 98bc
000000b0: ea59 183d d54f ce3c 1a63 bd3d be0a f13d
000000c0: 001e 233c bc3c feba 60a1 823d ca8c 193d
000000d0: c71d 77bc 42dc 243e 8aae f4bd c1b9 f2bb
000000e0: 1b92 4bbb a09c 933d fec4 74bc d315 b23c
000000f0: 9fce 753d 91e9 b9be 8953 3dbf 3cb1 b6bc
00000100: 155f 813c f687 09bd 0a19 073e 7487 443e
00000110: d1d8 48bc 3888 b13e d8f3 573d eeea 1b3c
00000120: 608b b83a d191 013e 8ff6 c2bd fe05 db3c
00000130: 4d08 723c 02c2 8d3c 1020 b23c 493b c23d
00000140: 6329 263b 6022 bcbe e3d0 babd e10c 1b3d
00000150: b33c f13a d036 863d a689 983e 902c e0bc
00000160: 0510 9f3c 4a45 843c e4cd ba3c 9c20 abbe
00000170: e8ac 3c3d 674b 103e 4b82 d5bd 7d38 983e
00000180: ca7f 36bc 04e3 ca3d 9296 ee3c 1af8 063d
00000190: 876e 10be 1fc7 f8ba c3f3 b7bc 62e7 06bd
000001a0: 1961 253e ca06 173c e0f9 683d 1b68 733e
000001b0: 7b51 283e 2ea9 63bd 7261 bf3c ef27 0a3d
000001c0: e924 8fbe efa2 903e 6a51 57be 2a5e 73be
000001d0: 06ca fabc 4c60 9fbd bbe8 2c3d 05e3 bb3d
000001e0: 2c1d 5f3d 5bdd 283c c980 9ebe 26a2 91bb
000001f0: 0218 123d 7113 3cbe cee2 023d 59fd f03d
00000200: 4e48 46be ec32 153d a6e2 8f3d a5f6 313e
00000210: ad4e abbc 95bd 0c3c d843 e03b 7598 96bd
00000220: 8eed 143d bc15 76be 7fae 5f3c 3ec6 24bd
00000230: b8a2 7e3e 60ca ab3d 5915 d1bd f48a 293e
00000240: b88b cebe e58c d23d 149e 4e3e 5ce3 303d
00000250: ca10 05bd eecb 2fbc aadc 0d3d 6f98 ad3e
00000260: 51fc 37bd c2cc dc3d 5a1c 943d 5676 1a3e
00000270: 4fcf 51be c17d cabd b9b5 ea3d 4bf6 253d
00000280: 861d 3d3d 2ad4 183e fc47 f83c 630f 5cbe
00000290: 53b3 4a3e e958 1abe 0985 3ebb e853 79be
000002a0: ea27 153e 8feb 693d e610 eabe d630 63bb
000002b0: 8985 5fbc ba44 003d 00bb 6b3d 7c6f 393e
000002c0: ddc6 03bd c07d 24bc 223c d23c 8eb4 c7bc
000002d0: 1c9c 6d3d f6b5 9cbd e5d7 b8bb 115a edbe
000002e0: 68df 953d 54dd 31ba 4ac5 c13c b7e1 9dbe
000002f0: 8dad fbbc 45c1 323d eee3 893e 1947 5d3c
00000300: 927e 9e3b ffed 053e 4762 243e a4d6 5e3d
00000310: 2681 893d 891f 89bd 0201 0f3c ba1d b43e
00000320: f96a f5bd 3313 243c 7784 ad3d 2c2f 72be
00000330: 6cbb 9e3d 31e9 c2bd 0b95 293c 05c4 863c
00000340: 4b0f 903e c8bb e2bc 3e2b afbd 7aa5 c53c
00000350: e10d 47bc a99a 11be 4516 073e 88df d43b
00000360: 6b65 113c 395f e53e 6c9d a4be b3b8 01bd
00000370: 5f99 933d ac32 413d a0b4 863c 7454 e13c
00000380: 4d89 8c3d f8d1 e33c 6bdc 8f3c b1f1 92be
00000390: 8f2f dfbc ec64 6f3b b927 b7be a5c1 87bc
000003a0: 97c0 13be 61ea de3b a337 c73d 5f55 1e3e
000003b0: fb2a a43d e18b 55be 5232 91bc 6a9f a73e
000003c0: b22b 26be 84fd 18be ef53 b83c dec3 963c
000003d0: 2dbe 3f3d b993 6ebd 89c8 9d3c 4a4b 49bd
000003e0: 3749 96bb 5bac 0c3d b293 2abe 3058 533d
000003f0: 12fa 5cbd 52ca d4bd 823c d73b 9897 12be
0.048215415 0.14397655 0.053278282 -0.60335445 -0.0659452 0.0047389595 0.0537329 0.051189918
-0.0809496 0.0066489237 -0.08357539 0.16644363 -0.07305756 0.105927356 0.0038597118 -0.0015838317
0.3000111 0.026005272 -0.10879347 0.030281883 0.19897428 -0.5034828 0.039269987 0.025161847
0.020280223 0.07797717 0.056827754 0.025402097 0.02476195 -0.20523721 -0.056497585 0.39452907
0.016947525 0.012955908 0.13658932 0.036918797 -0.012305283 -0.062791 -0.020380035 -0.057191584
0.0076039536 0.036490966 -0.024831088 -0.018580684 0.037195124 0.025184551 0.09247418 0.11769627
0.009955883 -0.0019396762 0.06378436 0.037487783 -0.015082783 0.16099647 -0.11947353 -0.0074073975
-0.0031062427 0.07207608 -0.014939545 0.021738922 0.060011502 -0.3631101 -0.7395559 -0.022301309
0.015792409 -0.033576928 0.13193145 0.19192296 -0.012258724 0.3467424 0.052722782 0.009516461
0.0014079623 0.12653281 -0.095196836 0.026736256 0.014772487 0.017304424 0.021743804 0.09483964
0.0025354258 -0.36744976 -0.09121873 0.03785408 0.0018404931 0.065534234 0.29792517 -0.027364999
0.019416818 0.01614632 0.022803254 -0.33423316 0.046063334 0.14091264 -0.10425242 0.29730597
-0.011138866 0.09906581 0.029124532 0.03295145 -0.14104663 -0.0018980241 -0.022455102 -0.032935508
0.16150321 0.009217927 0.056878924 0.23770182 0.16437332 -0.055581264 0.023361895 0.03372949
-0.27957848 0.28249308 -0.21027151 -0.2376639 -0.03061391 -0.07782039 0.042214137 0.0917416
0.05447118 0.0103066815 -0.3095763 -0.0044443784 0.035667427 -0.18366791 0.03195458 0.11767072
-0.1936352 0.036425516 0.07025652 0.17379244 -0.020911539 0.008590122 0.006844025 -0.073532976
0.036359362 -0.24031729 0.013652443 -0.04022812 0.2486676 0.08388209 -0.1020915 0.16556913
-0.40340972 0.1028078 0.2017749 0.043185577 -0.032486714 -0.010729773 0.03463427 0.3390536
-0.044918362 0.10781242 0.0723197 0.15084204 -0.20489238 -0.09887267 0.11460442 0.040518086
0.046170734 0.14924684 0.030307762 -0.21490245 0.1979497 -0.15072979 -0.0029070994 -0.24348414
0.14566007 0.05710941 -0.45716017 -0.003466656 -0.013642677 0.031315543 0.057551384 0.18108934
-0.032172073 -0.010039747 0.02566344 -0.024378087 0.058010206 -0.07651894 -0.005640971 -0.46357778
0.07318002 -0.00067849946 0.023653645 -0.3083627 -0.030722404 0.043641347 0.2693171 0.0135057205
0.0048368657 0.1307907 0.16053115 0.054403916 0.06714086 -0.06695468 0.008728268 0.3517893
-0.11983294 0.010014343 0.08472531 -0.23650807 0.07750592 -0.09517134 0.010350476 0.016450891
0.28136668 -0.027677432 -0.0855317 0.024126757 -0.012149305 -0.14219154 0.13192089 0.0064963736
0.008874278 0.44799212 -0.32151353 -0.031670284 0.072069876 0.047167465 0.01644355 0.02750609
0.068621255 0.027810082 0.017561158 -0.2870002 -0.027244357 0.003652866 -0.35772493 -0.01657183
-0.14428936 0.0068028425 0.09727409 0.15462254 0.080160104 -0.20854141 -0.01772419 0.3273881
-0.16227606 -0.14940459 0.02250096 0.018403944 0.046812225 -0.058246348 0.019260662 -0.049144067
-0.0045863646 0.03434406 -0.16657904 0.051597774 -0.053949423 -0.10390152 0.0065684924 -0.14315641

bias f4 [128]
00000000: 708a b93c 4eb6 23bc 7b60 303c 3d32 01bc
00000010: 192c 583a 8d97 9a3c acd7 a63c 56f3 303d
00000020: b9e4 c63c 50a1 033e eb6d 903b de40 ce3c
00000030: be9b bb3c 7710 21bd 376f af3c 1f7d 99bc
00000040: cc9f 913d df8a ae3c 5782 ecbc fa19 0fbd
00000050: ebc3 4b3d 71ac 9abc e893 fcbc b18d 0dba
00000060: 773e ddbc 02aa 033e b3c8 b53b 31da 92bc
00000070: 9d14 8abc 9d0b e1bc 57b1 873c 005c d53c
00000080: 10cd 543c aeba 19bb 488d 6cbc 8acf a5bc
00000090: d3f3 c7bc bfaf 783b f58c 56bd 4e2c 423d
000000a0: 521b 983c c441 783b feed eebc 6740 1a3c
000000b0: 51d4 013d bc8d 0f3d 671c 9b3d 2197 c93c
000000c0: dbe6 1d3e 0951 9e3d b6cd 68bc 0793 63bb
000000d0: 9dc8 9cbb 6d38 443d b264 433d 03af b8bc
000000e0: 9ebc 083c 26e1 91bd a8ec 6abc 276c b6bc
000000f0: 4a24 47bc 8273 60bd 4d54 d33c bafc b5bc
00000100: 357b a63c 8b7b df3b f2e4 7cbc 6ce5 533c
00000110: c692 b4bb 7d88 a2bc c5e6 a03b 5ffa e23d
00000120: 1de8 c63b 4f05 e93d 850a 153e cae7 d53b
00000130: 27ad 4c3c e600 813c fe16 763d 7177 99bd
00000140: 4aa8 cabb 280e a9ba 844f 893d ae3c b13c
00000150: 4761 453c 2770 433d 9a44 96bc 28e6 30bc
00000160: 16e9 513c 2414 583d 8bf3 573c 27b9 dd3b
00000170: 943f 5cbb 962d 6f3c cc46 3cbd 4dad 533b
00000180: 8259 233e 79cf 5cbc 7488 3e3d 15f0 b6bc
00000190: da56 393c d74a 4c3c 37e5 47bc 2b2c ecbc
000001a0: cea9 f3bc 1865 9cbc deeb d63c da04 ac3c
000001b0: cc59 01bd addf ff3b 4861 b33c 9d3e a7bc
000001c0: 2ea8 083e 1e04 64bc 6311 57ba db1f a63d
000001d0: bd7e b73c 577f 123d 5ce8 6d3b e7d6 bb3c
000001e0: 7868 f9bb bd9f 883a b76a 9abc b320 0ebd
000001f0: 6647 8e3c 4d44 9e3a 3552 9f3d 3a6a be39
0.02264902 -0.009992195 0.01076519 -0.007885513 0.0008246317 0.018871093 0.020366512 0.043200813
0.024278985 0.12854505 0.0044076345 0.025177415 0.022901412 -0.039322343 0.021415336 -0.01873642
0.07110557 0.021306453 -0.028870745 -0.034936883 0.04974739 -0.018881055 -0.030832246 -0.0005399837
-0.027007325 0.12857822 0.005547607 -0.017926307 -0.016855532 -0.027471358 0.016564054 0.026044846
0.012988344 -0.0023457217 -0.014437981 -0.020240564 -0.024408257 0.003794655 -0.05238052 0.047405533
0.018567715 0.0037880996 -0.029166218 0.009414769 0.03169662 0.035047278 0.07573777 0.024608197
0.15420096 0.077303 -0.014209202 -0.0034725086 -0.004784657 0.047905374 0.047703452 -0.02254439
0.008345751 -0.07123022 -0.01433865 -0.022268368 -0.012154648 -0.054797657 0.025797034 -0.022215236
0.020322422 0.0068201474 -0.015435444 0.012933116 -0.005510661 -0.019840473 0.0049103224 0.11082911
0.0060701505 0.11377966 0.14554794 0.0065278756 0.012492455 0.015747499 0.06008052 -0.07493485
-0.0061846124 -0.0012897896 0.067046195 0.02163538 0.0120471185 0.04771438 -0.018343259 -0.010797061
0.01281192 0.052753583 0.013180624 0.0067664566 -0.0033607231 0.014598271 -0.045965955 0.003229934
0.15952113 -0.0134772 0.04651685 -0.022331277 0.011312211 0.012469015 -0.012200645 -0.028829655
-0.029744055 -0.019091174 0.026235517 0.020998407 -0.031579778 0.0078086467 0.021896973 -0.020415599
0.13345405 -0.013916997 -0.000820419 0.08111545 0.0223993 0.035765972 0.0036301827 0.022929622
-0.0076113306 0.0010423582 -0.018849714 -0.034699153 0.01736803 0.0012074799 0.077793516 0.0003631877

weight f4 [3, 128]
00000000: a77b a93e 8137 82bd edd2 aebc 37b9 03bd
00000010: 17d8 debc b452 9ebd 1a48 a9bd 8349 0e3f
00000020: 6def 81bd f127 0a3e 0056 2f3e 2caa 193e
00000030: 35b6 9ebd 9674 d83e 42fc 823d 3160 ad3a
00000040: aa76 0b3d 456d 94be ef19 30bd 996c c63e
00000050: 732d c23d 5724 243d dd9d ddbc c264 18bd
00000060: e245 11bc fcf5 a13c 3645 aa3d 8426 863c
00000070: 4a07 44bd 45f1 2ebd f7af 823c b335 85bd
00000080: 5318 03bd 7500 483c f64a 70bd f3e2 a1bd
00000090: ccf5 b73d 0dbe 00bd d05d a13e f0b2 633e
000000a0: 7c09 89bd 37e6 a0bd d3e9 a9bc 8858 58bc
000000b0: 2eec 173f d802 203c c61a f8bd 8f2f b3bc
000000c0: 80e8 0cbf da8a 6ebe 7a82 633e 59f8 eb3c
000000d0: 3ed4 89bd d748 dd3e 5a01 52bd 2c54 10bd
000000e0: 91ea a03d baf2 a43d c396 893e 6e54 08bd
000000f0: b4d8 a9bd bca3 ba3c b810 90bd a064 33bd
00000100: cd38 e13e bf79 a63b 7c13 ed3c c2b6 6ebd
00000110: 957f 35bc a869 5d3d 5c9f 833c e3ab b03d
00000120: 3586 273e 638c a33e 2174 073f 4440 26bd
00000130: 4c3f 7ebc f79f 79bd 834a 8a3e afb4 993c
00000140: d270 26bd 18d7 edba 82be 183e 8560 843e
00000150: 1186 17bb c9c5 c4bc 5449 aabd bc2b 37bc
00000160: 11b9 063e e257 f93e 12ab a1bc 2547 fb3d
00000170: d0cf bb3e e6ad 90bd 2bc1 efbb c22d 19bc
00000180: ed0b babd 824c 54bc 009c 1abc 7a97 2cbd
00000190: d0eb 97bd 9fc0 b63d 3ecb babc fb85 31bd
000001a0: 5a3e 45bd b4cc c93e dd9f ae3e 725e 733d
000001b0: 7eb4 3fbd e4e5 afbc 4227 25bd 7e22 283d
000001c0: 046c 50be 2a54 91bd c562 79bd 25ee 8c3d
000001d0: 23d0 933e c686 853e 857d b83e 332f 0f3e
000001e0: a231 973d 3b0c c23c 47ad d3bc 0d22 503d
000001f0: a852 bf3e d727 eb3e 4d50 6d3e 103a 863d
00000200: 384d 803e 02ee 0abd c87c 0abc 176d d0bc
00000210: 0e58 b83d b488 c2bc 16dd 9fbc 0eee 77be
00000220: 8cd9 98bd 6c2f eb3e fa27 db3e adf5 7bbd
00000230: 61d5 4b3d b7c0 c83e 2eb0 eb3e cf28 98bd
00000240: 9f50 963e d33e 6abe b042 87bd 0067 2b3c
00000250: c769 ff3e 589e 02bd c086 bfbc 73fa a4bc
00000260: 81bb 5dbd b27c 9e3e e02f 2cbd cad6 4bbd
00000270: 8a64 61bd 62cc 3f3d 2f67 54bd eb6f af3d
00000280: 5703 c33d b783 9abc d04b 3a3d 04c9 893c
00000290: 28c5 f13d 96f2 bcbc 36ae be3e 0766 113e
000002a0: 8b9b abbc 9c88 083d 225c c8bc 70ee fa3c
000002b0: 4d07 8dbd c1f9 9d3d d2ed 4a3e ecd1 1f3e
000002c0: 00ed 7d3e b465 57be 4b2b 52be 91c8 a7bd
000002d0: 44f6 e0bc c061 743e 98ad ef3d 10e1 a9bd
000002e0: 6dbe 9abd 90dc 953e eb3e 943d 071e 04bd
000002f0: 9a10 0cbd 0176 89be 9535 6ebb 7282 76bc
00000300: 09fb ecbc 0dca 9bbd 23fe 1cbb 506e 5ebd
00000310: ed02 84bd 3a25 15bd 96a7 c0be 325a 663e
00000320: 2dfa 243e e2b7 c23d f6e0 8e3e 1814 d73c
00000330: 5200 783d 82c0 1dbd d0d1 d73e ef0c c5bd
00000340: be56 853d 7457 69bd c585 23be f468 393e
00000350: 1b97 a8bc c476 943e 5173 363d 97da 6ebd
00000360: fc44 e83d d82a 603e 1c6c 4fbd dc11 2e3e
00000370: 34dd 2abf 0d13 1fbd d118 6e3d ff9b 3cbd
00000380: be10 143f 4d5a c13b d9f3 2f3e b3db ef3c
00000390: f479 94bb 5aeb a5bd 8f11 043d ba67 ddbc
000003a0: 472b 50bc bb20 893e f70c 48be f3f9 ec3d
000003b0: 51f9 a73d c0a6 8bbd e9b0 c5bb bd85 8cbd
000003c0: e4e0 653e 2843 3ebd dda4 99bd 8401 003f
000003d0: 0f2c be3e 0213 b53e 78e9 2cbe d239 b23d
000003e0: 6e2f 6abc e840 a5bc 74d1 0bbd 3fac 62bd
000003f0: 0267 323c 27dd 1ebd c004 b63e b89c 273d
0.33102152 -0.06358243 -0.021340812 -0.032159057 -0.027202649 -0.07730618 -0.082657054 0.5558092
-0.06344495 0.13491799 0.1712265 0.15006322 -0.07749597 0.42276448 0.063957706 0.001322752
0.034048714 -0.28989616 -0.042993482 0.38754728 0.09481325 0.04007372 -0.027052814 -0.037205465
-0.008866759 0.019770615 0.08313982 0.016375788 -0.047858514 -0.04271056 0.015953047 -0.06504383
-0.03200562 0.01220714 -0.05866524 -0.07904615 0.08982429 -0.031431247 0.31516886 0.22236228
-0.06691262 -0.0785641 -0.020741379 -0.013204701 0.59344757 0.009766303 -0.12114482 -0.021873264
-0.55042267 -0.23295155 0.22217742 0.028804945 -0.06729935 0.43219635 -0.05127082 -0.035236523
0.0785724 0.08054109 0.26872835 -0.033283643 -0.08293286 0.022783153 -0.07034439 -0.043797135
0.43988648 0.0050804312 0.028939955 -0.05827976 -0.011077781 0.05405584 0.0160672 0.08626535
0.1635979 0.31943044 0.52911574 -0.040588632 -0.015518021 -0.06094357 0.27009973 0.018762914
-0.040634938 -0.0018145768 0.14916423 0.2585489 -0.0023120681 -0.024020093 -0.083147675 -0.011179861
0.13156535 0.48699862 -0.019734893 0.12269429 0.36681986 -0.070644185 -0.0073167286 -0.009349288
-0.09084306 -0.012957694 -0.009436607 -0.042136647 -0.074180245 0.08923458 -0.022801992 -0.043340664
-0.048155166 0.3941399 0.3410634 0.059416242 -0.04680299 -0.021471925 -0.040320642 0.04104852
-0.20353705 -0.07096131 -0.06088521 0.0688136 0.28869733 0.26079386 0.36033264 0.13982849
0.073825136 0.023687473 -0.025839461 0.050813723 0.3736775 0.45928833 0.23175164 0.06554043
0.25058913 -0.03391839 -0.008452602 -0.025442643 0.0900117 -0.023746826 -0.019514602 -0.24211904
-0.07463369 0.45934618 0.42803937 -0.06151359 0.04976404 0.3920953 0.46032852 -0.074296586
0.29358384 -0.22875528 -0.066045165 0.010461569 0.4988539 -0.03188929 -0.023379683 -0.020138955
-0.054133896 0.3095451 -0.042037845 -0.049765386 -0.055027522 0.046825774 -0.051856216 0.085662685
0.095221214 -0.018861635 0.045482457 0.016819485 0.11805183 -0.023064893 0.37242287 0.14199077
-0.020948192 0.033333406 -0.024457995 0.030631274 -0.06886158 0.077136524 0.19817284 0.15607423
0.2479744 -0.2103489 -0.20524327 -0.08192552 -0.027461179 0.23865414 0.11703032 -0.082948804
-0.07555852 0.29269838 0.07238563 -0.0322552 -0.03419552 -0.26847842 -0.0036347855 -0.015045749
-0.028928297 -0.076068975 -0.0023955188 -0.05430442 -0.064458705 -0.036412455 -0.37627858 0.22495344
0.1611106 0.09507729 0.27906007 0.026254699 0.06054718 -0.038513668 0.42152262 -0.096216075
0.065106854 -0.056968167 -0.15968998 0.18106443 -0.020579865 0.2899686 0.044543568 -0.058313932
0.11341283 0.21891344 -0.05064021 0.16999 -0.6674378 -0.038836528 0.058129136 -0.046047207
0.57838047 0.0059006573 0.17182864 0.029279565 -0.0045311395 -0.081015304 0.032243308 -0.027027
-0.012705631 0.26782784 -0.19536196 0.115711115 0.0820185 -0.068189144 -0.006033052 -0.06861446
0.2244907 -0.046450764 -0.07502148 0.5000231 0.3714299 0.35366064 -0.16885936 0.087024346
-0.014293535 -0.020172551 -0.034135297 -0.055340048 0.010888817 -0.038785126 0.355505 0.040920943

bias f4 [3]
00000000: d435 85bd bcf3 f0bb 2a72 0ebc
-0.065044075 -0.007353274 -0.008694211
