saved_models/run6/model_11000.pth (torch, 550896 bytes, 6 tensors)

weight f4 [1024, 4]
-0.58036566 -0.4951176 -0.21959072 -0.921961 0.31979364 -0.39320427 -2.5236866 -0.31224754
0.21438144 -0.1649489 -1.866089 -0.46218777 0.44804752 -0.32948512 -0.05315427 -0.8050533
-0.015234097 -0.08921596 -0.19095045 -0.7271662 -0.5518104 -0.15457065 0.3481982 0.36140105
-0.32003677 0.32421273 -0.0028899699 0.24604875 -0.06197408 0.35201654 0.5268688 0.9670616
0.34057727 -0.26495865 0.110138915 -0.89205414 0.26344112 -0.19388841 0.030662823 -0.008642409
0.006482816 -0.2871768 -0.10230316 -0.77359325 -0.26969004 -0.45023027 -0.09701405 -0.3871693
0.78963953 -0.27141753 -0.13874455 -0.5818928 0.15145543 0.034945596 -2.6733108 -0.52673405
1.1895965 0.5792553 -0.07942755 -0.33730835 -0.1242046 0.4448015 0.2861004 0.4784065
-0.09776381 -0.04181063 -2.7744 -0.22751017 -0.7322136 0.015907133 0.17009206 0.21525091
-0.1979443 0.0026036154 -0.1663708 -0.8925368 -0.60734856 -0.17021522 0.3846841 -0.45510334
0.03149582 -0.01930391 -2.2109826 0.0024125637 -0.17864755 -0.0019236254 -0.020812256 0.3200865
0.029144512 -0.42862132 0.07257676 -0.39976248 -0.25964227 0.36020985 0.26482666 0.8462644
-0.32476568 0.58503747 -0.075994395 0.84341 -0.81617695 -0.40421727 0.10584936 0.026488598
-0.5643988 0.6059255 0.43943363 0.8881006 -0.072031364 -0.29626164 0.06586366 -0.7645952
-0.3787407 0.00028385752 0.14637198 -0.26973325 0.34414458 0.5207182 0.02488345 0.8612841
0.48022425 -0.36154693 -0.029707955 -0.43750942 -0.87451077 -0.12434286 0.0131705245 -0.04846807
-0.07187092 -0.034967717 -3.0986886 -0.41190192 -0.09702814 -0.7630976 0.10626796 -0.62502307
-0.26068935 -0.3402579 -2.634714 -0.11953988 0.049434237 0.32982334 0.26774985 -0.5879626
-0.19634794 -0.37881908 0.011758901 -0.64815336 1.4960568 -0.3605533 0.044284157 -0.4289977
-0.2666153 0.47804448 -0.33497375 0.13182169 0.5475105 0.37919325 -0.3335098 -0.8585064
-0.007594709 0.20210436 0.09506879 0.6297951 0.0016892701 0.5486363 0.473263 0.30557725
0.06468764 -0.30664203 0.24284908 -0.74895936 -0.47274876 0.4254795 -0.30991837 0.15673338
-0.026521968 0.27430564 0.26154527 -0.21612544 -0.35240307 0.33087543 0.46201074 0.80554193
-0.6790234 0.28893408 0.04290982 -0.38767225 -0.9250058 -0.5350339 0.06116934 -0.12792073
0.23403876 0.29050982 -2.695126 -0.30020764 -0.6883655 0.29573292 0.10877029 0.1929229
0.4031874 0.586119 -0.023125395 0.43023625 -0.6926691 0.4794205 0.34456137 0.3350685
0.22453368 -0.5275849 -1.6334524 -0.2597396 -0.30032668 0.07880256 -2.4372623 -0.026484827
-0.025388623 0.15365294 -0.087512225 0.6581477 -0.16829035 -0.22926718 0.08408174 -0.36504588
0.974629 0.17459972 0.24217875 -0.7962203 -0.7923741 0.3773221 0.33346847 1.0042211
0.6237151 0.22920036 -0.23722766 -0.39722595 0.17422546 -0.2288275 0.3145055 -0.9781489
-0.9421505 -0.009665926 0.23793228 -0.2854824 0.6815207 -0.26878724 0.061312694 -0.8528146
0.26527894 -0.37745884 -0.022505835 -0.94881713 0.5523477 -0.24860406 0.1589835 -0.8436127
00000000: d892 14bf 0e80 fdbe 64dc 60be a305 6cbf
00000010: febb a33e 1252 c9be 1584 21c0 e9de 9fbe
00000020: cf86 5b3e 5de8 28be 01dc eebf e0a3 ecbe
00000030: 7c66 e53e 46b2 a8be 4bb8 59bd f917 4ebf
00000040: 6f98 79bc dbb6 b6bd 8488 43be 9027 3abf
00000050: 7243 0dbf c547 1ebe 0947 b23e 8f09 b93e
00000060: dcdb a3be 36ff a53e a665 3dbb 34f4 7b3e
00000070: 88d8 7dbd 833b b43e e0e0 063f 5991 773f
00000080: 2560 ae3e a9a8 87be 8390 e13d a95d 64bf
00000090: c1e1 863e af8a 46be 9a30 fb3c e498 0dbc
000000a0: cd6d d43b d608 93be 5284 d1bd 350a 46bf
000000b0: d014 8abe 9584 e6be 4daf c6bd 0e3b c6be
000000c0: d125 4a3f 3df7 8abe 0d13 0ebe edf6 14bf
000000d0: 2217 1b3e 1d23 0f3d 8617 2bc0 0bd8 06bf
000000e0: b344 983f 134a 143f e9aa a2bd aeb3 acbe
000000f0: fb5e febd 06bd e33e c07b 923e b2f1 f43e
00000100: 6438 c8bd a041 2bbd c58f 31c0 6df8 68be
00000110: 5a72 3bbf ad4f 823c 9d2c 2e3e bc6a 5c3e
00000120: e9b1 4abe 6ba1 2a3b 1b5d 2abe 4b7d 64bf
00000130: 327b 1bbf e64c 2ebe 50f5 c43e 4e03 e9be
00000140: c301 013d 3c23 9ebc bd80 0dc0 1a1c 1e3b
00000150: 62ef 36be 2822 fcba 777e aabc 61e2 a33e
00000160: 79c0 ee3c 4174 dbbe 20a3 943d abad ccbe
00000170: d5ef 84be 6d6d b83e 5c97 873e c9a4 583f
00000180: b047 a6be 04c5 153f f3a2 9bbd b8e9 573f
00000190: f9f0 50bf 91f5 cebe 8dc7 d83d 9efe d83c
000001a0: 717c 10bf ef1d 1b3f 72fd e03e 905a 633f
000001b0: 2e85 93bd 9baf 97be 87e3 863d 83bc 43bf
000001c0: 4dea c1be b6d2 9439 89e2 153e 7a1a 8abe
000001d0: b833 b03e ca4d 053f 60d8 cb3c 1d7d 5c3f
000001e0: f4df f53e ae1c b9be 195e f3bc 3c01 e0be
000001f0: f0df 5fbf 78a7 febd 2fc9 573c 7486 46bd
00000200: 1031 93bd 4f3a 0fbd ea50 46c0 cfe4 d2be
00000210: b1b6 c6bd 5d5a 43bf 04a3 d93d 8301 20bf
00000220: 1379 85be 4936 aebe 279f 28c0 53d1 f4bd
00000230: 8e7b 4a3d 9bde a83e 8216 893e b884 16bf
00000240: 6f0f 49be 93f4 c1be 68a8 403c 61ed 25bf
00000250: ca7e bf3f 719a b8be 4e63 353d 96a5 dbbe
00000260: cd81 88be 3fc2 f43e ae81 abbe 44fc 063e
00000270: a629 0c3f 9e25 c23e ccc1 aabe 13c7 5bbf
00000280: 09dd f8bb 72f4 4e3e 6db3 c23d 403a 213f
00000290: 806a dd3a 6e73 0c3f 874f f23e 9f74 9c3e
000002a0: f47a 843d 2f00 9dbe 6ead 783e cdbb 3fbf
000002b0: 200c f2be 73d8 d93e 9fad 9ebe b77e 203e
000002c0: 9944 d9bc ca71 8c3e 43e9 853e fd4f 5dbe
000002d0: 2d6e b4be 8168 a93e ac8c ec3e ff37 4e3f
000002e0: 7ad4 2dbf 2bef 933e 35c2 2f3d fa7c c6be
000002f0: 2ecd 6cbf fbf7 08bf b48c 7a3d a7fd 02be
00000300: dba7 6f3e b4bd 943e f27c 2cc0 d1b4 99be
00000310: b938 30bf 4e6a 973e f5c2 de3d 958d 453e
00000320: 946e ce3e e50b 163f 7871 bdbc ed47 dc3e
00000330: c352 31bf 9b76 f53e 596a b03e 198e ab3e
00000340: 28ec 653e ce0f 07bf f814 d1bf 97fc 84be
00000350: 6bc4 99be 3d63 a13d 1bfc 1bc0 b5f6 d8bc
00000360: cdfb cfbc 3257 1d3e 9c39 b3bd 5e7c 283f
00000370: 4e54 2cbe 04c5 6abe 0c33 ac3d 4be7 babe
00000380: 4981 793f 45ca 323e b5fd 773e 18d5 4bbf
00000390: 07d9 4abf 5d30 c13e 61bc aa3e 518a 803f
000003a0: cbab 1f3f 80b3 6a3e cfeb 72be 3361 cbbe
000003b0: 2968 323e c251 6abe dd06 a13e f767 7abf
000003c0: c630 71bf d55d 1ebc 85a4 733e c02a 92be
000003d0: 2478 2e3f 7b9e 89be 0523 7b3d 0f52 5abf
000003e0: a4d2 873e 4942 c1be 285e b8bc aee5 72bf
000003f0: a966 0d3f 1092 7ebe 92cc 223e 00f7 57bf

bias f4 [1024]
-0.12591444 0.44780055 0.5778547 -0.12131541 -0.5520393 -0.29175174 0.4502252 -0.31570888
-0.33069435 0.5099083 0.2948976 0.10075062 0.5952788 -0.20171009 0.66263866 0.08092707
0.48946333 0.31480193 -0.20416215 -0.5942965 0.42493957 -0.6135264 -0.33101594 0.062848285
0.7587478 -0.56468153 -0.2230446 0.05671392 0.026459046 -0.043341927 0.6716501 0.05130796
0.090232395 -0.47846484 0.58683175 -0.49929577 0.06572067 0.22575898 -0.1537668 0.2294519
0.47791862 0.079836205 -0.124849185 -0.013246526 -0.62299824 0.073790714 0.044049982 -0.2434107
-0.50216734 0.40801394 -0.056296464 -0.21317746 -0.06574063 0.5304526 0.39714777 0.27162594
-0.090067066 -0.34259778 0.49686372 -0.5099843 -0.33244663 -0.14174011 -0.3700312 -0.24834707
0.020126672 0.077859044 -0.29837212 -0.043647584 -0.24452838 0.3521148 -0.1502966 0.6644275
-0.3989216 0.23441574 -0.0010248368 -0.34505185 0.42606097 -0.104378685 0.09372914 0.34615216
0.19813281 -0.4648673 -0.13659006 0.050841168 -0.36397994 0.6619033 0.50858074 -0.2462698
0.06639824 0.061288647 -0.30813384 -0.07490086 0.3475154 0.53305316 -0.24503 0.25829113
0.45678002 -0.48897868 0.36621052 -0.10179315 -0.08680144 -0.099003114 0.05964898 0.09451989
0.32927534 -0.37227204 -0.2790198 0.60232204 0.10633392 -0.26786786 -0.09859203 -0.07068278
-0.1975529 0.54449993 0.3567742 0.67200345 0.46957588 -0.4096123 -0.33148116 0.7442816
0.79364663 0.17403747 -0.3350492 0.5502001 -0.5103622 -0.035303228 0.62408316 0.09929301
-0.31929868 -0.43596467 -0.43134817 0.08597439 0.50503474 0.40512472 -0.085874096 0.3553692
0.011006836 0.3775365 -0.37298685 0.37854218 0.118016526 -0.31706953 0.39463657 0.7166958
-0.50781196 -0.05321906 -0.040852062 0.32551113 -0.037694402 0.19592725 0.15587972 0.48594856
-0.4480941 0.495532 -0.41414914 0.14909834 -0.52990353 0.64615107 -0.3656257 -0.021412993
0.26381153 0.34150556 0.046966333 0.19960746 0.3196876 0.38200095 -0.26863173 -0.16995491
0.50237983 -0.63398176 -0.42806986 0.3692375 -0.46612528 0.2417783 -0.607627 0.39246634
-0.44555354 0.61962277 0.37754738 0.26152155 -0.5298328 -0.3499984 -0.043120947 -0.46450523
0.43116432 0.0956976 -0.4505701 -0.41221115 -0.19106062 -0.00023885263 0.51181304 -0.4941628
0.38042408 -0.2417763 0.26898757 0.09201854 -0.62411785 -0.40773776 -0.7314752 -0.56266975
-0.40083495 -0.12626493 -0.1890506 -0.38160858 -0.087167494 0.39528254 0.3168942 -0.021741245
0.46640706 -0.17411749 -0.32178983 0.17628586 0.40000468 -0.24070932 0.3459483 0.3548473
-0.52784944 0.41879776 -0.3074389 -0.42512703 0.03076516 0.23483954 0.12410875 0.05554299
0.30833828 0.102948666 -0.6867832 0.25062433 -0.22827041 0.34589982 -0.08175745 0.49506474
0.20723727 -0.44739568 0.04613654 0.5834223 -0.18493736 0.20700102 0.1685396 0.20233314
0.29022524 -0.42587397 0.121724375 0.3874513 0.35697743 -0.23909453 -0.38648194 -0.45160025
-0.5478894 -0.18788613 -0.34280235 -0.61795616 0.2183337 -0.0981714 0.13154425 -0.1582754
00000000: b7ef 00be 1d46 e53e 49ee 133f 3774 f8bd
00000010: 7352 0dbf 7c60 95be eb83 e63e 98a4 a1be
00000020: c550 a9be 5a89 023f d1fc 963e 5756 ce3d
00000030: 3164 183f 178d 4ebe b0a2 293f 17bd a53d
00000040: f09a fa3e b82d a13e e20f 51be d123 18bf
00000050: ae91 d93e 1110 1dbf ec7a a9be 9ab6 803d
00000060: 4c3d 423f f88e 10bf ce65 64be db4c 683d
00000070: a4c0 d83c 4e87 31bd 43f1 2b3f 4c28 523d
00000080: c3cb b83d 58f9 f4be 9b3a 163f b2a3 ffbe
00000090: 8f98 863d 5d2d 673e 0b75 1dbe 70f5 6a3e
000000a0: c0b1 f43e 2a81 a33d eeb0 ffbd f507 59bc
000000b0: d07c 1fbf 961f 973d c16d 343d a840 79be
000000c0: 0a8e 00bf 34e7 d03e 1f97 66bd 314b 5abe
000000d0: 06a3 86bd becb 073f f456 cb3e 8e12 8b3e
000000e0: 1575 b8bd fa68 afbe ec64 fe3e 558e 02bf
000000f0: 7236 aabe 5224 11be bb74 bdbe b24e 7ebe
00000100: b1e0 a43c 9074 9f3d 3bc4 98be cfc7 32bd
00000110: a665 7abe 6448 b43e 5ae7 19be ec17 2a3f
00000120: 743f ccbe ae0a 703e d153 86ba a3aa b0be
00000130: aa24 da3e 7ec4 d5bd 10f5 bf3d db3a b13e
00000140: 54e3 4a3e 1603 eebe 44de 0bbe d43e 503d
00000150: 945b babe 7f72 293f 5932 023f 272e 7cbe
00000160: cdfb 873d ce09 7b3d b8c3 9dbe 9f65 99bd
00000170: 8aed b13e 2c76 083f 25e9 7abe bc3e 843e
00000180: 12df e93e 6a5b fabe f27f bb3e ed78 d0bd
00000190: f4c4 b1bd 25c2 cabd 7d52 743d a593 c13d
000001a0: c796 a83e 719a bebe afdb 8ebe c731 1a3f
000001b0: 99c5 d93d fa25 89be 9eea c9bd 22c2 90bd
000001c0: 4f4b 4abe 5964 0b3f 1cab b63e 6b08 2c3f
000001d0: 406c f03e b4b8 d1be e6b7 a9be 3d89 3e3f
000001e0: 6d2c 4b3f e136 323e 928b abbe ead9 0c3f
000001f0: 19a7 02bf 1e9a 10bd eac3 1f3f 225a cb3d
00000200: 1e7b a3be c336 dfbe abd9 dcbe 5713 b03d
00000210: f549 013f 826c cf3e c2de afbd f4f2 b53e
00000220: 0456 343c 774c c13e 22f8 bebe 48d0 c13e
00000230: a6b2 f13d f056 a2be ce0d ca3e 6079 373f
00000240: f7ff 01bf 3bfc 59bd 7e54 27bd 65a9 a63e
00000250: 7265 1abd 27a1 483e ef9e 1f3e 40ce f83e
00000260: 976c e5be 5fb6 fd3e 5b0b d4be 3cad 183e
00000270: c2a7 07bf 286a 253f 4b33 bbbe 4d6a afbc
00000280: 4e12 873e d1d9 ae3e c55f 403d e665 4c3e
00000290: 18ae a33e a195 c33e 198a 89be a908 2ebe
000002a0: f79b 003f a14c 22bf f92b dbbe b30c bd3e
000002b0: f9a7 eebe bb94 773e 718d 1bbf 59f1 c83e
000002c0: 981f e4be 999f 1e3f e44d c13e 27e6 853e
000002d0: 1fa3 07bf fe32 b3be 979f 30bd a1d3 edbe
000002e0: 92c1 dc3e 1afd c33d 20b1 e6be 570d d3be
000002f0: 65a5 43be 8474 7ab9 2e06 033f e802 fdbe
00000300: f2c6 c23e 3594 77be bdb8 893e 3774 bc3d
00000310: 30c6 1fbf 01c3 d0be f541 3bbf 200b 10bf
00000320: 3d3a cdbe 984b 01be 7b96 41be 3362 c3be
00000330: df84 b2bd 7962 ca3e f53f a23e b21a b2bc
00000340: e8cc ee3e db4b 32be a3c1 a4be 4884 343e
00000350: 6acd cc3e 817c 76be 2320 b13e 8cae b53e
00000360: 2421 07bf a96c d63e a268 9dbe 40aa d9be
00000370: 3807 fc3c c779 703e ba2c fe3d 0c81 633d
00000380: 84de 9d3e c0d6 d23d 06d1 2fbf d551 803e
00000390: b8bf 69be c819 b13e 7370 a7bd 2079 fd3e
000003a0: 0236 543e 0c11 e5be abf9 3c3d 2a5b 153f
000003b0: 3860 3dbe 13f8 533e a595 2c3e 6b30 4f3e
000003c0: 6798 943e 270c dabe a14a f93d 0460 c63e
000003d0: bfc5 b63e 32d5 74be f6e0 c5be 2638 e7be
000003e0: 7b42 0cbf 3965 40be ca83 afbe 6032 1ebf
000003f0: df92 5f3e 160e c9bd 89b3 063e f212 22be

weight f4 [128, 1024]
-0.27622157 0.2978199 0.20756423 -0.88295263 -0.41557252 0.01915662 0.024694718 0.11526357
-0.11058928 0.0054845805 -0.35591295 0.062709115 -0.21294837 -0.046098705 -0.17745157 0.034772128
0.59957135 0.0021604532 -0.32315323 0.055273812 0.47991666 -0.88008 -0.011281543 0.08927685
-0.123581916 0.03496935 0.11005226 0.010675438 0.021670017 -0.72367305 -0.07624772 0.34446356
-0.08180629 -0.03552695 0.23128508 0.12990794 -0.09028561 -0.064287014 -0.12671155 -0.1015404
-0.021323971 0.06746533 0.0043883896 -0.07570058 0.13150887 0.07059265 0.042239044 0.06718583
-0.06880375 -0.03221943 -0.22312953 0.058486912 0.049918536 0.33851027 -0.3414293 -0.021141784
0.07879579 0.11574833 -0.081536815 0.033266425 0.062052395 -0.3780751 -1.1970853 0.0013348276
0.011295334 -0.04454556 0.107721955 0.12561221 -0.025268776 0.58185345 0.106499635 -0.021058403
0.0014079623 0.16663972 -0.10206062 0.048948046 0.035750564 -0.53893626 0.004649902 0.2379607
-0.021118745 -0.8896042 0.060379695 0.023010293 -0.23420632 -0.030719806 0.53685826 -0.0045251003
0.08139237 0.041464746 0.040672567 -0.7453208 -0.12626566 -0.002985015 -0.11439833 0.45474115
-0.22514057 0.14495787 0.029653458 0.056697953 -0.13954149 0.072585166 0.0001511087 0.03595501
0.52020633 0.038458697 0.09413376 0.4511432 0.1966724 0.123503074 0.07442799 0.031565238
-0.4530275 0.48853523 -0.45403484 -0.40867656 -0.019165907 -0.10234868 0.063857086 0.21005936
-0.050203115 -0.011276921 -0.49755847 0.06647789 0.071792714 -0.36213243 -0.4274428 -0.06235123
-0.08955573 0.08674912 0.094162636 0.14045142 -0.11822396 0.012647264 0.0029539838 -0.24661928
0.014569626 -0.4967231 0.10607738 -0.09876249 0.5907032 0.17678887 -0.32439053 0.28639305
-0.62443376 0.11636436 0.14780067 0.06794666 0.04012007 0.014020613 0.012100982 0.6172899
-0.27150875 0.39938942 -0.023558268 0.03757315 -0.34120086 -0.25327408 0.13276371 0.08226813
0.063604966 0.46298409 0.029172042 -0.35741735 0.48535588 -0.43049467 0.04467995 -0.2623239
0.1680854 0.10228352 -1.0523158 0.012627903 0.026142728 0.027588882 0.1640994 0.44975907
-0.112097755 0.016587615 0.030679649 0.0012298354 0.08343695 -0.12638707 0.06939868 -1.1387188
0.09370853 -0.15366355 0.08715184 -0.7163975 -0.035344634 0.06530882 0.47094166 0.044628713
-0.11657313 0.093071714 0.598327 0.09201795 0.10939362 -0.36223048 0.053052846 0.33619025
-0.12289385 -0.53761154 0.051398 -0.63320976 0.077193245 -0.296099 0.0072595156 0.044658728
0.552562 -0.18843882 -0.11095262 -0.008691873 0.010480864 -0.10917544 0.40325198 -0.009744386
0.03350611 0.8258659 -0.7367133 -0.06543357 0.12914295 0.058263328 0.04259439 0.05708647
0.36782956 0.03514026 -0.016565472 -0.47849098 -0.30378023 -0.0016098086 -0.37947288 -0.25315416
-0.29811707 0.031312104 0.25499442 0.30404103 0.020049192 -0.3592385 0.062260054 0.7050448
-0.41865066 -0.35115585 0.042400084 -0.032364924 0.046328407 -0.12965122 0.049822643 -0.050149262
0.020178651 0.088650055 -0.19442211 0.09465954 -0.36755842 -0.16781205 0.0076315384 -0.44084007
00000000: ea6c 8dbe da7b 983e b88b 543e 2f09 62bf
00000010: ecc5 d4be 58ee 9c3c 944c ca3c 4e0f ec3d
00000020: a27c e2bd ffb7 b33b 393a b6be a36d 803d
00000030: 230f 5abe ffd1 3cbd ddb5 35be 386d 0e3d
00000040: 827d 193f 6496 0d3b 5774 a5be cb66 623d
00000050: a3b7 f53e ec4c 61bf 39d6 38bc c8d6 b63d
00000060: 8418 fdbd 053c 0f3d 1463 e13d 08e8 2e3c
00000070: 5285 b13c a342 39bf c427 9cbd 875d b03e
00000080: 0e8a a7bd b584 11bd ffd5 6c3e 9606 053e
00000090: a9e7 b8bd e9a8 83bd acc0 01be 6af4 cfbd
000000a0: 9caf aebc 432b 8a3d 7bcc 8f3b e808 9bbd
000000b0: 43aa 063e e192 903d d902 2d3d b998 893d
000000c0: fbe8 8cbd 85f8 03bd 117c 64be f98f 6f3d
000000d0: 6177 4c3d 3851 ad3e d2cf aebe 8931 adbc
000000e0: b05f a13d 760d ed3d c6fc a6bd 6042 083d
000000f0: a72a 7e3d 0f93 c1be 173a 99bf 62f5 ae3a
00000100: 1110 393c 6875 36bd 549d dc3d 7da0 003e
00000110: 7700 cfbc 59f4 143f 7b1c da3d ac82 acbc
00000120: 608b b83a 9aa3 2a3e 2905 d1bd bf7d 483d
00000130: 2f6f 123d baf7 09bf 355e 983b f8ab 733e
00000140: 3801 adbc 1abd 63bf b350 773d 1580 bc3c
00000150: c8d3 6fbe 1aa8 fbbc 8b6f 093f 4b47 94bb
00000160: 0bb1 a63d f0d6 293d 4798 263d 58cd 3ebf
00000170: c94b 01be 3ea0 43bb ac49 eabd d5d3 e83e
00000180: 408b 66be d66f 143e cfeb f23c 1d3c 683d
00000190: f7e3 0ebe 88a7 943d ef72 1e39 9045 133d
000001a0: 3e2c 053f de86 1d3d 33c9 c03d 3efc e63e
000001b0: 7d64 493e 2eef fc3d b46d 983d 8d4a 013d
000001c0: 38f3 e7be 4a21 fa3e 4177 e8be 0e3e d1be
000001d0: d201 9dbc 2f9c d1bd 81c7 823d cd19 573e
000001e0: c8a1 4dbd d6c2 38bc fcbf febe 8f25 883d
000001f0: 0f08 933d 6c69 b9be c8d9 dabe 0164 7fbd
00000200: ff68 b7bd 86a9 b13d 57d8 c03d 7fd2 0f3e
00000210: 671f f2bd 7836 4f3c a097 413b c489 7cbe
00000220: 71b5 6e3c 7d52 febe 193f d93d fd43 cabd
00000230: 5338 173f 2408 353e 8416 a6be 1ca2 923e
00000240: e4da 1fbf 7050 ee3d 0f59 173e 9e27 8b3d
00000250: f154 243d b7b6 653c 3243 463c b606 1e3f
00000260: 3203 8bbe c57c cc3e 45fd c0bc 4ee6 193d
00000270: e1b1 aebe 24ad 81be 36f3 073e 317c a83d
00000280: 5243 823d 400c ed3e 35fa ee3c 68ff b6be
00000290: 9180 f83e cc69 dcbe 5302 373d 514f 86be
000002a0: 941e 2c3e 067a d13d 49b2 86bf 44e5 4e3c
000002b0: 4629 d63c 1402 e23c ac09 283e d246 e63e
000002c0: 8293 e5bd c0e2 873c e353 fb3c 6e32 a13a
000002d0: fee0 aa3d 9d6b 01be e520 8e3d 8ac1 91bf
000002e0: 42ea bf3d fa59 1dbe aa7c b23d d465 37bf
000002f0: 89c5 10bd a1c0 853d 441f f13e 99cc 363d
00000300: e5bd eebd 629c be3d f52b 193f e873 bc3d
00000310: c309 e03d 4676 b9be f14d 593d 2121 ac3e
00000320: c5af fbbd e9a0 09bf b686 523d 091a 22bf
00000330: 7e17 9e3d 4a9a 97be 3be1 ed3b 12ec 363d
00000340: b474 0d3f 1bf6 40be 213b e3bd 5c68 0ebc
00000350: eeb7 2b3c 6097 dfbd 0b77 ce3e eba6 1fbc
00000360: b43d 093d f36b 533f 3e99 3cbf 0902 86bd
00000370: 0d3e 043e 87a5 6e3d 7577 2e3d 81d3 693d
00000380: 2854 bc3e 3cef 0f3d 50b4 87bc c5fc f4be
00000390: 1589 9bbe 3700 d3ba 454a c2be 6c9d 81be
000003a0: cda2 98be 1f41 003d a18e 823e 44ab 9b3e
000003b0: 343e a43c 1cee b7be 6604 7f3d d17d 343f
000003c0: 6159 d6be b3ca b3be b6ab 2d3d 1591 04bd
000003d0: dbc2 3d3d 4ac3 04be d412 4c3d 5069 4dbd
000003e0: b34d a53c 298e b53d 9716 47be dcdc c13d
000003f0: 9e30 bcbe ecd6 2bbe fc11 fa3b cab5 e1be

bias f4 [128]
-0.029124599 -0.009992195 0.01076519 -0.007885513 0.0008246317 0.018871093 0.020366512 0.033433396
0.024278985 0.079854846 -0.10560247 0.06915937 0.022901412 -0.088598244 -0.045366164 -0.01873642
0.033042476 -0.029085636 -0.028870745 -0.07188768 -0.042765956 -0.0016853432 -0.030832246 -0.0005399837
-0.027007325 0.14791426 0.005547607 -0.017926307 -0.016855532 -0.027471358 0.016564054 0.0397129
0.012988344 -0.0023457217 -0.014437981 -0.020240564 -0.050528307 0.003794655 -0.030862762 0.065049514
0.013568391 0.0037880996 -0.029166218 0.009414769 0.008016786 0.0649785 0.04506727 0.0071326797
0.17067148 0.26388037 -0.038146604 -0.0034725086 -0.004784657 0.028923636 0.0763819 -0.02254439
0.008345751 -0.080775216 -0.0048874337 -0.022268368 -0.012154648 -0.081853606 0.025797034 -0.022215236
0.05631026 0.0068201474 -0.015435444 0.012933116 -0.005510661 -0.019840473 -0.014489035 0.11211946
-0.033945803 0.09672025 0.124793485 0.0065278756 0.012492455 0.015747499 0.02612275 -0.11018339
-0.0061846124 -0.0012897896 0.14413643 0.04068796 0.0120471185 0.030542329 -0.018343259 -0.010797061
0.0067791822 -0.0034526528 0.013180624 -0.027838776 -0.021963404 0.014598271 -0.045965955 0.003229934
0.13498454 -0.0134772 0.025777703 -0.022331277 0.011312211 0.012469015 -0.012200645 -0.028829655
-0.04868133 -0.096012376 0.09321441 0.01031031 -0.07593243 0.0078086467 0.021896973 -0.020415599
0.073928215 -0.013916997 -0.000820419 0.0324595 -0.071871154 0.11514071 0.1318436 -0.031890526
-0.012607403 0.0010423582 -0.018849714 -0.034699153 0.08360916 -0.034290034 0.10955785 0.0003631877
00000000: b696 eebc 4eb6 23bc 7b60 303c 3d32 01bc
00000010: 192c 583a 8d97 9a3c acd7 a63c 75f1 083d
00000020: b9e4 c63c f08a a33d 1c46 d8bd 6ea3 8d3d
00000030: be9b bb3c ff72 b5bd dfd1 39bd 1f7d 99bc
00000040: 8c57 073d 0045 eebc 5782 ecbc d939 93bd
00000050: 5b2b 2fbd bce6 dcba e893 fcbc b18d 0dba
00000060: 773e ddbc d676 173e b3c8 b53b 31da 92bc
00000070: 9d14 8abc 9d0b e1bc 57b1 873c fea9 223d
00000080: 10cd 543c aeba 19bb 488d 6cbc 8acf a5bc
00000090: c5f6 4ebd bfaf 783b e7d3 fcbc ae38 853d
000000a0: f54d 5e3c c441 783b feed eebc 6740 1a3c
000000b0: d658 033c 7313 853d 7598 383d 41b9 e93b
000000c0: 81c4 2e3e 541b 873e 9d3f 1cbd 0793 63bb
000000d0: 9dc8 9cbb 43f1 ec3c 1d6e 9c3d 03af b8bc
000000e0: 9ebc 083c 7a6d a5bd c426 a0bb 276c b6bc
000000f0: 4a24 47bc dda2 a7bd 4d54 d33c bafc b5bc
00000100: 96a5 663d 8b7b df3b f2e4 7cbc 6ce5 533c
00000110: c692 b4bb 7d88 a2bc 6b63 6dbc e39e e53d
00000120: c10a 0bbd 4415 c63d ba93 ff3d cae7 d53b
00000130: 27ad 4c3c e600 813c 61ff d53c d4a7 e1bd
00000140: 4aa8 cabb 280e a9ba 8098 133e 6ba8 263d
00000150: 4761 453c e833 fa3c 9a44 96bc 28e6 30bc
00000160: e723 de3b e745 62bb 8bf3 573c 250e e4bc
00000170: 99ec b3bc 962d 6f3c cc46 3cbd 4dad 533b
00000180: 6339 0a3e 79cf 5cbc c32b d33c 15f0 b6bc
00000190: da56 393c d74a 4c3c 37e5 47bc 2b2c ecbc
000001a0: 1366 47bd 23a2 c4bd 32e7 be3d 93ec 283c
000001b0: 7682 9bbd addf ff3b 4861 b33c 9d3e a7bc
000001c0: ad67 973d 1e04 64bc 6311 57ba 41f4 043d
000001d0: 2f31 93bd e4ce eb3d 0202 073e a49f 02bd
000001e0: 488f 4ebc bd9f 883a b76a 9abc b320 0ebd
000001f0: 473b ab3d b573 0cbd de5f e03d 3a6a be39

weight f4 [3, 128]
0.66030234 -0.06358243 -0.021340812 -0.032159057 -0.027202649 -0.07730618 -0.082657054 0.9561834
-0.06344495 0.37628043 0.39244786 0.1203308 -0.07749597 1.0044422 0.28555736 0.001322752
0.11695415 -0.681413 -0.042993482 0.99320555 0.40735376 0.054079965 -0.027052814 -0.037205465
-0.008866759 0.18228084 0.08313982 0.016375788 -0.047858514 -0.04271056 0.015953047 -0.08597194
-0.03200562 0.01220714 -0.05866524 -0.07904615 0.17467 -0.031431247 0.574099 0.3355424
-0.061915845 -0.0785641 -0.020741379 -0.013204701 1.3479263 0.030487075 -0.24987438 -0.011887287
-0.9850901 -0.6010657 0.2442671 0.028804945 -0.06729935 1.0715258 -0.113999315 -0.035236523
0.0785724 0.2793176 0.7763811 -0.033283643 -0.08293286 -0.10066942 -0.07034439 -0.043797135
0.6936303 0.0050804312 0.028939955 -0.05827976 -0.011077781 0.05405584 -0.25105125 0.21514803
0.2618346 0.6745519 0.8765829 -0.040588632 -0.015518021 -0.06094357 0.50284326 -0.060372405
-0.040634938 -0.0018145768 0.20981431 0.5863037 -0.0023120681 -0.3009798 -0.083147675 -0.011179861
0.19078809 0.8377793 -0.019734893 0.2738933 0.41669473 -0.070644185 -0.0073167286 -0.009349288
0.06387512 -0.012957694 -0.013139282 -0.042136647 -0.074180245 0.08923458 -0.022801992 -0.043340664
-0.055313673 0.9414466 0.67978764 0.09829183 -0.52371675 -0.021471925 -0.040320642 0.04104852
-0.2616482 -0.07096131 -0.06088521 0.14053321 0.71756077 0.5142649 0.4440315 0.2699247
0.073825136 0.023687473 -0.025839461 0.050813723 0.8209258 1.0168875 0.46924785 0.06554043
0.37797368 -0.03391839 -0.008452602 -0.025442643 0.0900117 -0.023746826 -0.019514602 0.016287036
-0.07463369 0.89645106 1.1234176 -0.12406554 0.04976404 0.97836417 0.95336235 -0.074296586
0.6298229 -0.40644094 -0.066045165 0.008720054 1.0845664 -0.16629234 -0.023379683 -0.020138955
-0.054133896 0.60758203 -0.042037845 -0.049765386 -0.055027522 0.046825774 -0.051856216 0.102503896
0.095221214 -0.018861635 0.045482457 0.016819485 0.20365363 -0.023064893 0.7323535 0.17174228
-0.020948192 0.033333406 -0.024457995 0.030631274 -0.11492389 0.113949135 0.22423176 0.24486208
0.38065326 -0.35776827 -0.35744497 -0.08192552 -0.027461179 0.8130711 0.0986893 -0.082948804
-0.07555852 0.30570188 0.123435125 -0.0322552 -0.03419552 -0.54718083 -0.0036347855 -0.015045749
0.100580335 -0.076068975 -0.0023955188 -0.05430442 -0.064458705 -0.036412455 -0.80928224 0.48080635
0.2210342 -0.00069336314 0.6187079 0.026254699 0.06054718 -0.038513668 0.9414421 -0.23679431
0.065106854 -0.056968167 -0.21962701 0.25345945 -0.020579865 0.5873921 0.044543568 -0.058313932
0.16184749 0.5220408 -0.05064021 0.27459916 -1.2985293 -0.038836528 0.058129136 -0.046047207
1.0524598 0.0059006573 0.24520236 0.029279565 -0.0045311395 -0.081015304 0.032243308 -0.027027
-0.02359915 0.43702924 -0.3287531 0.17441416 0.30736366 -0.068189144 -0.006033052 -0.06861446
0.28295434 -0.046450764 -0.07502148 0.94030297 0.97448605 0.6835132 -0.28177541 0.1631308
-0.014293535 -0.020172551 -0.034135297 -0.055340048 -0.067671984 -0.059552446 0.6703994 0.040920943
00000000: 9309 293f 8137 82bd edd2 aebc 37b9 03bd
00000010: 17d8 debc b452 9ebd 1a48 a9bd 6fc8 743f
00000020: 6def 81bd d4a7 c03e edee c83e ff6f f63d
00000030: 35b6 9ebd 9091 803f 9334 923e 3160 ad3a
00000040: a885 ef3d 1571 2ebf ef19 30bd b842 7e3f
00000050: ac90 d03e f482 5d3d dd9d ddbc c264 18bd
00000060: e245 11bc d4a7 3a3e 3645 aa3d 8426 863c
00000070: 4a07 44bd 45f1 2ebd f7af 823c 0e12 b0bd
00000080: 5318 03bd 7500 483c f64a 70bd f3e2 a1bd
00000090: b1dc 323e 0dbe 00bd 27f8 123f 37cc ab3e
000000a0: 789b 7dbd 37e6 a0bd d3e9 a9bc 8858 58bc
000000b0: d988 ac3f 08c0 f93c 12df 7fbe e5c2 42bc
000000c0: dd2e 7cbf 71df 19bf 2821 7a3e 59f8 eb3c
000000d0: 3ed4 89bd c227 893f 7978 e9bd 2c54 10bd
000000e0: 91ea a03d b702 8f3e e9c0 463f 6e54 08bd
000000f0: b4d8 a9bd c52b cebd b810 90bd a064 33bd
00000100: c191 313f bf79 a63b 7c13 ed3c c2b6 6ebd
00000110: 957f 35bc a869 5d3d ca89 80be c44f 5c3e
00000120: 2f0f 863e 6faf 2c3f bd67 603f 4440 26bd
00000130: 4c3f 7ebc f79f 79bd 56ba 003f 0e49 77bd
00000140: d270 26bd 18d7 edba 90d9 563e 0018 163f
00000150: 1186 17bb 061a 9abe 5449 aabd bc2b 37bc
00000160: f45d 433e b478 563f 12ab a1bc be3b 8c3e
00000170: 0359 d53e e6ad 90bd 2bc1 efbb c22d 19bc
00000180: f5d0 823d 824c 54bc 2546 57bc 7a97 2cbd
00000190: d0eb 97bd 9fc0 b63d 3ecb babc fb85 31bd
000001a0: 9790 62bd a502 713f 9006 2e3f 3a4d c93d
000001b0: 4d12 06bf e4e5 afbc 4227 25bd 7e22 283d
000001c0: c1f6 85be 2a54 91bd c562 79bd f0e7 0f3e
000001d0: 10b2 373f dda6 033f 1958 e33e 9233 8a3e
000001e0: a231 973d 3b0c c23c 47ad d3bc 0d22 503d
000001f0: 3128 523f 5f29 823f 4141 f03e 103a 863d
00000200: c485 c13e 02ee 0abd c87c 0abc 176d d0bc
00000210: 0e58 b83d b488 c2bc 16dd 9fbc 646c 853c
00000220: 8cd9 98bd d17d 653f 26cc 8f3f 1316 febd
00000230: 61d5 4b3d 1376 7a3f 8e0f 743f cf28 98bd
00000240: 133c 213f 0719 d0be b042 87bd 8fde 0e3c
00000250: 12d3 8a3f 8a48 2abe c086 bfbc 73fa a4bc
00000260: 81bb 5dbd 7f8a 1b3f e02f 2cbd cad6 4bbd
00000270: 8a64 61bd 62cc 3f3d 2f67 54bd 90ed d13d
00000280: 5703 c33d b783 9abc d04b 3a3d 04c9 893c
00000290: 948a 503e 96f2 bcbc 857b 3b3f 35dd 2f3e
000002a0: 8b9b abbc 9c88 083d 225c c8bc 70ee fa3c
000002b0: 375d ebbd 2a5e e93d 039d 653e 20bd 7a3e
000002c0: fce4 c23e 672d b7be 0703 b7be 91c8 a7bd
000002d0: 44f6 e0bc 6d25 503f 9e1d ca3d 10e1 a9bd
000002e0: 6dbe 9abd f584 9c3e 8ecb fc3d 071e 04bd
000002f0: 9a10 0cbd 0b14 0cbf 9535 6ebb 7282 76bc
00000300: 10fd cd3d 0dca 9bbd 23fe 1cbb 506e 5ebd
00000310: ed02 84bd 3a25 15bd 1f2d 4fbf 402c f63e
00000320: ca56 623e d0c2 35ba a463 1e3f 1814 d73c
00000330: 5200 783d 82c0 1dbd 5902 713f 357a 72be
00000340: be56 853d 7457 69bd e7e5 60be 70c5 813e
00000350: 1b97 a8bc 545f 163f 5173 363d 97da 6ebd
00000360: 59bb 253e 77a4 053f 1c6c 4fbd 4398 8c3e
00000370: 3536 a6bf 0d13 1fbd d118 6e3d ff9b 3cbd
00000380: 01b7 863f 4d5a c13b 5416 7b3e b3db ef3c
00000390: f479 94bb 5aeb a5bd 8f11 043d ba67 ddbc
000003a0: 0153 c1bc 4cc2 df3e 5452 a8be a099 323e
000003b0: c55e 9d3e c0a6 8bbd e9b0 c5bb bd85 8cbd
000003c0: 64df 903e 2843 3ebd dda4 99bd b2b7 703f
000003d0: eb77 793f b9fa 2e3f de44 90be c30b 273e
000003e0: 6e2f 6abc e840 a5bc 74d1 0bbd 3fac 62bd
000003f0: 9c97 8abd 44ed 73bd 4c9f 2b3f b89c 273d

bias f4 [3]
-0.033167843 -0.06693838 0.07710285
00000000: 01db 07bd fd16 89bd 19e8 9d3d
