saved_models/run6/model_2000.pth (torch, 550886 bytes, 6 tensors)

weight f4 [1024, 4]
00000000: c078 d4be 2a7f dfbe aeb8 4cbe 8360 03bf
00000010: dd85 153f 1590 d2be cf69 62bf 5435 7cbe
00000020: 049b da3e beb1 e1bd aa3b 87be b6b7 b4be
00000030: 64c4 3b3e d866 25be 3601 87bd 3ba0 06bf
00000040: f42f 653e 30b6 4bbe 24a6 02be 678b 97be
00000050: eddf d2be 03bf 41be e999 b53e 4631 723e
00000060: f704 9abd 329d 5d3e ed36 ce3c 18ac 423e
00000070: db4b 943d 488a 8c3e 3811 003f bd44 2c3f
00000080: 449e bc3e 153e fabc 2934 f73d 28da d8be
00000090: 6e13 a43e 392d 49be 9a53 083e 27ca b23d
000000a0: 9ce0 053e 43af e3bc 3c05 09be df6e 09bf
000000b0: 31dd 04ba 97b8 acbe 0d82 e9bd 801b 80be
000000c0: 2bc5 f63e 3c1c 55bc b0c1 13be 6a45 d3be
000000d0: 7aca 853e 2d3d 043e bde7 66bf 98cb d9be
000000e0: dd36 153f 3c17 e53e f91f bdbd bc49 cfbe
000000f0: aa99 bf3d 3c9e 953e 9341 8d3e 8f6d a83e
00000100: 4b51 543d 0411 ffbc b72b 72bf 86a7 a0bd
00000110: ff6e 11bf e1eb 8ebd fe66 4a3e 2533 123e
00000120: 70f7 613c c028 153e 447b 28be da60 27bf
00000130: d2a4 dfbe 0f1b 55be f0e2 c53e 3ead 80be
00000140: 6656 c13e 336b 4a3d bed5 59bf 5ac1 3cbe
00000150: aed6 bbbd 56c7 2dbd 054d c6bb a154 843e
00000160: 6ea4 3e3e c762 aabe e384 913d c586 8abd
00000170: 3da9 0dbe e0ab 003e 28f6 803e 7619 223f
00000180: 96f7 81be a176 103f 02c3 dbbd 9cfc eb3e
00000190: 05f1 00bf 6cd3 dbbe 8cc2 043e 3bc0 9a3d
000001a0: 4f41 c1be 9045 003f 0a13 d23e 4f5e 243f
000001b0: f414 9fbd 93d3 98be 4676 643e cb71 00bf
000001c0: c3a0 69be 379f af3b 990e 113e 3419 98bd
000001d0: 86bc 69bd 993a 9c3e 44f0 2cbd 7945 1b3f
000001e0: 46f7 7d3e 1284 b8be 267b 1a3d 969b 86be
000001f0: af3b 08bf dcd5 c4bd b54f 0cbd f10c 17be
00000200: 963c 523e 5748 1c3e e507 17bf a790 8ebe
00000210: d787 40bd 01d2 20bf 8c62 383e 43a3 c0be
00000220: ed9e c5bd 98f9 c0be bdb9 6bbf 367d 4ebd
00000230: 462a 2c3e de42 af3e 76d8 733e 77b3 a0be
00000240: ff23 71be b1b5 84be 0ac6 e23c 798a b9be
00000250: 12a5 393f e1b7 ddbe 21e3 393e fc31 d4be
00000260: 3b59 88be 057e cd3e 440c 5dbe 4ca2 853d
00000270: cc46 083f 33dc e63e c106 9ebe e3db 1cbf
00000280: 40ba 503e f237 0b3e 4ee3 f83d e2d0 043f
00000290: 9fd7 ef3d 9254 de3e b489 fb3e a365 0b3e
000002a0: 7eaa 09be b3c2 36be 9b07 a03e 4036 0bbf
000002b0: a32f 97be f1ca cc3e 26f9 66be c5c4 583d
000002c0: 4e90 803e 664c 953e c661 813e 0116 3fbd
000002d0: e928 9abe f1ca 943e 7291 d83e 2ba1 0f3f
000002e0: ff78 38be 6768 b73e 71f7 b83b 36ce 16be
000002f0: e6fa 18bf 8796 05bf e9b6 1b3d b993 a5bd
00000300: a7a9 913e 514e a13e 5ec6 5bbf 1235 84be
00000310: 9443 debe 4a75 783e dcd3 113e fab9 c83d
00000320: 2346 9d3e 4325 d63e f4fd 993b a316 623e
00000330: 910a 0abf 8ae0 c23e b6ca af3e 7d98 0d3e
00000340: b317 c03e ee78 e3be 1772 2ebf 3068 47be
00000350: ccde 39be f953 ed3d 0211 46bf 792f 903d
00000360: b916 de3d d13c 7f3d ac5a 95bd e956 e43e
00000370: 59ed acbd 4d7a 8dbe db0f 9a3e 2bbc 89be
00000380: ada3 133f 3ba9 5c3e 9179 863e 2025 06bf
00000390: bbd5 28bf ff09 a43e c9a3 a53e dfef 3b3f
000003a0: 3af1 1a3f 754d 7f3e 70f1 5abe a6ba 8ebe
000003b0: b075 8d3e c0b8 bdbd 3fd5 d93e 768d 24bf
000003c0: a38d 11bf 0372 2b3e ac7d 6e3e 7487 0cbe
000003d0: b1a4 c93e b11a 54be 8c9b 0e3d 2e6c 0bbf
000003e0: 8b5d d83d 6fa2 edbd c622 96bd eede 36bf
000003f0: eae0 9b3e 553c 1fbe 6f5a 8d3e 3af4 09bf
-0.41498375 -0.43651706 -0.19992325 -0.5131914 0.58407384 -0.4112555 -0.884427 -0.24629718
0.42696393 -0.1102023 -0.26412708 -0.3529641 0.18336636 -0.16152513 -0.06592028 -0.5258824
0.22381574 -0.19893718 -0.1275869 -0.29598543 -0.41186467 -0.18920521 0.35468987 0.23651609
-0.07520478 0.21641997 0.025172675 0.19010961 0.07241031 0.2744925 0.50026274 0.67292386
0.36839497 -0.030547181 0.12070496 -0.4235394 0.32046074 -0.19646157 0.13313141 0.08729964
0.13073963 -0.027793532 -0.13380903 -0.536848 -0.00050683605 -0.3373458 -0.11401758 -0.2502098
0.48197302 -0.01300722 -0.14429355 -0.41263896 0.2613104 0.12913962 -0.90197355 -0.42538142
0.5828684 0.4474429 -0.09234614 -0.40485942 0.09355481 0.29222286 0.27589092 0.32896087
0.05183534 -0.031136043 -0.94597954 -0.078444526 -0.5680999 -0.06978584 0.19765851 0.14277323
0.013791904 0.14566326 -0.16453272 -0.6538216 -0.43680435 -0.20811103 0.38649702 -0.25132173
0.3776123 0.04941864 -0.8509177 -0.18433133 -0.09171806 -0.04242643 -0.006051662 0.25845817
0.18617412 -0.33278486 0.07105424 -0.067639865 -0.1383409 0.12565565 0.25187802 0.633201
-0.25384206 0.56431013 -0.10730554 0.46091163 -0.50367767 -0.4293474 0.12964839 0.07556196
-0.3774514 0.50106144 0.4103015 0.64206403 -0.07767668 -0.29848918 0.22310743 -0.50173634
-0.22815232 0.005359556 0.14165725 -0.07426682 -0.057064556 0.30513456 -0.042221323 0.6065288
0.24801359 -0.36038262 0.0377151 -0.26290578 -0.5321607 -0.09611103 -0.034255702 -0.1475103
0.20530924 0.1526197 -0.5899642 -0.27844736 -0.047004547 -0.6282044 0.18006343 -0.3762456
-0.09649453 -0.37690425 -0.9208029 -0.05041238 0.16813001 0.34230703 0.23813042 -0.3138692
-0.23548888 -0.2591987 0.027682323 -0.3623846 0.725175 -0.4330435 0.18153049 -0.41444385
-0.26630577 0.40135208 -0.2158671 0.06525096 0.5323303 0.45089874 -0.30864528 -0.6127302
0.20383549 0.1359556 0.1215273 0.5188123 0.11711048 0.43423897 0.49128497 0.1361299
-0.13443944 -0.1784771 0.31255803 -0.54379654 -0.2952853 0.39998582 -0.2255598 0.05292203
0.25110096 0.2915985 0.25269908 -0.046651844 -0.30109337 0.29061082 0.42298466 0.561053
-0.18014906 0.3582184 0.0056447317 -0.147271 -0.5975784 -0.5218281 0.038016234 -0.080848165
0.28449747 0.31505063 -0.8584956 -0.2582174 -0.43410933 0.24263492 0.14240974 0.09801097
0.30717573 0.41825303 0.004699463 0.22078948 -0.53922373 0.38061935 0.34334344 0.13827701
0.3751808 -0.444282 -0.6814284 -0.19473338 -0.18151397 0.11588282 -0.773697 0.07040305
0.10844178 0.06231386 -0.07292685 0.44597557 -0.08443708 -0.2763237 0.30090222 -0.26901373
0.57671624 0.21548931 0.26264623 -0.524004 -0.65951127 0.32038876 0.3235152 0.7341289
0.6052433 0.24931891 -0.21381164 -0.27876776 0.2762885 -0.09263754 0.42545506 -0.6427835
-0.56856745 0.16742711 0.23290128 -0.13723546 0.39383462 -0.20713307 0.03481631 -0.54461944
0.10564717 -0.116032474 -0.07330851 -0.71433914 0.30445033 -0.15550359 0.27608058 -0.53888285

bias f4 [1024]
00000000: d575 46be e92c d03e 1df7 113f dc68 47bc
00000010: 68d0 dcbe 14cb 2ebe 01e2 b23e e0e7 c0be
00000020: 0cf1 98be 4f3e 053f fb3f 463e 128d 513e
00000030: fe3e 053f 353c 46be f595 143f 0cca b63d
00000040: b937 133f 0566 be3e f0a2 8abd 5b2b ffbe
00000050: 3482 813e 7aee debe f5bb 9ebe 1e54 00be
00000060: 6fd4 1f3f f6c9 d9be 0ce6 64be 1a07 a43e
00000070: b917 1f3d ffad 1dbd a24b 1a3f d232 d03d
00000080: 3acc 6e3e 4100 c6be e91a 263f 08c2 febe
00000090: 3302 5ebd 764f 713e a5f6 acbd 75c1 983e
000000a0: ff66 043f 0aae 5a3e c84f 7bbd 09b6 35bd
000000b0: 38e8 03bf 7961 2abe 034c 68bd ed3f 6ebe
000000c0: bbaa e4be 7318 ea3e 7f9b 023c ccb9 01be
000000d0: bf73 acbd f07b 0f3f 94f6 723c ed81 ec3e
000000e0: eda3 a2bd 7149 afbe f305 ff3e af12 8ebe
000000f0: d8f4 bebe 9d41 d33c af29 8dbe 42b1 a9bd
00000100: 3c56 993e f7d8 8a3d 8268 c4be 10cb 2e3d
00000110: 709d dbbc 40ba 9f3e 84d9 32be 6db7 da3e
00000120: 4332 c9be 0563 f23e 846b 02be 6fec 93be
00000130: 259b ec3e 187f d6bd a688 6a3e d6e3 703e
00000140: 9fba 703e cc4c bdbe 2c49 11be 8b11 ca3d
00000150: 30b7 73be 7e62 033f a584 0b3f 859f d8bd
00000160: c68e 80bd 287a b43d 873b 27be 9baf 50be
00000170: c3c0 9f3e e97f 0e3f 5643 a0be ed0c a33e
00000180: 33b4 873e 398e bcbe 1948 d93e de43 dabd
00000190: 8423 56bd 604b a2bd ab7d 313e 9060 593d
000001a0: 6c13 e33e 73ca 97be 9756 5bbe 302d 293f
000001b0: a695 333e b945 58be 7a6a babd 4515 6b3d
000001c0: dc36 76be b41b d83e 553e 033c e44a 033f
000001d0: 476c e03e 73bf cdbe 8dc6 43be 6251 2b3f
000001e0: 1e40 0d3f 8174 b13e e68b c0be 74b2 0c3f
000001f0: 16fd dabe ddaf 31be db84 a83e 9a71 db3d
00000200: 28a4 c6be aca0 acbe 0603 c3be 2931 2a3e
00000210: af14 f33e 406e ff3e 1f0f eb3d f1cf 6d3e
00000220: 74bb a93d b0ec 043e 2a17 c2be de49 e53e
00000230: 0cac 2a3e 505b 95be bf84 263e 5a14 1c3f
00000240: d7c7 b7be e30e 9bbd ac3f f4bd 9f17 d53e
00000250: 7f16 4abd 7bbf d13e db6e 723e 7b77 e63e
00000260: af7c eebe 2dd8 fe3e 12c1 b7be 850f 363e
00000270: 0f6e e8be 6db0 063f 4ca9 d1be 856e ce3d
00000280: 4435 bc3e a5ef c43e 9a9f 1d3e f940 2bbb
00000290: c019 c73e f352 133e 411f 55be 683b 0d3c
000002a0: 70cb a13e cc27 01bf f2e0 83be 6870 e33e
000002b0: 60b5 aabe 405b 883e 44e0 d0be 896f 8e3e
000002c0: 8c20 c7be dca9 0b3f 7a35 fd3e 4ee8 813e
000002d0: e366 dfbe 9e6b 73be 2bad 13bd bdbd bdbe
000002e0: e77a dd3e 0190 babd 4e27 ebbe a078 99be
000002f0: 220f a0bc 5b6a 653d 102e 0b3f 0e47 dbbe
00000300: 0b73 b83e 9392 93be b1d4 eb3e e9e1 853d
00000310: 3601 f3be 4cd1 cdbe 77c7 17bf 78d1 e5be
00000320: 9256 f7be afd0 6cbe 1907 23be 4d6f dbbe
00000330: cdc4 bebd 2662 193e 8459 ce3e d4dd 2f3d
00000340: c51e d23e 0350 12be 5a4b 81be 9ec9 803e
00000350: 0689 f43e e3d5 99be e21d 573e ba2d f63e
00000360: d090 a9be b580 8b3e ae1f 93be 02db 87be
00000370: 311d d83d 11db ac3e 227c 8c3e ab3e 853e
00000380: f154 ca3e b999 8c3e ee22 0ebf 73de b0bd
00000390: ed22 2bbe 7d73 bd3e 522a fb3c d97f f43e
000003a0: 4011 42bd 1c76 c1be 3a1a 223e 07f4 f63e
000003b0: e882 3ebe de71 3bbd 564c 4a3e 3730 173e
000003c0: 6258 e83b bd21 8cbe afa4 3d3d 921f b53e
000003d0: 5cbf d83e e416 87be 5d9b 81be 2e71 f2be
000003e0: 78b6 c8be 980c 80be cee5 d3be 743a 02bf
000003f0: 9634 96bb cab2 923b 5735 9c3e f7e2 8fbe
-0.19380887 0.40659264 0.5701769 -0.0121709965 -0.4312775 -0.17069656 0.34938052 -0.37676907
-0.29871404 0.520482 0.19360344 0.2046397 0.52049243 -0.19358905 0.58041316 0.08925256
0.575069 0.3718721 -0.06769359 -0.49837765 0.2529465 -0.43541318 -0.31002775 -0.12532088
0.6243352 -0.42536896 -0.22353381 0.32036668 0.038840983 -0.038496014 0.60271657 0.10165943
0.23320094 -0.3867207 0.6488481 -0.4975741 -0.054201316 0.23565468 -0.08445481 0.29835096
0.5171966 0.21355453 -0.061355382 -0.044363055 -0.5152621 -0.16638745 -0.056713115 -0.23266573
-0.44661507 0.45721778 0.0079716435 -0.12668532 -0.08420514 0.5604849 0.014829297 0.46192876
-0.079414226 -0.3423572 0.49809226 -0.2774863 -0.37296176 0.025788123 -0.27570865 -0.08285762
0.29948604 0.06779664 -0.38360983 0.042674124 -0.02680847 0.31196785 -0.17465788 0.42718068
-0.3929616 0.4734117 -0.12736326 -0.28891322 0.46212116 -0.1047346 0.2290369 0.23524413
0.2350869 -0.36972654 -0.14188069 0.09866627 -0.23800349 0.5132216 0.54499274 -0.10577301
-0.06277232 0.08812362 -0.16331302 -0.20379488 0.31201753 0.55663925 -0.31301373 0.318458
0.2650467 -0.36827257 0.4243782 -0.10657476 -0.052279964 -0.07924533 0.17333095 0.053070605
0.44350755 -0.29646644 -0.2141975 0.66084576 0.17537555 -0.21120347 -0.0910234 0.05739333
-0.24044365 0.42208636 0.008010467 0.5128615 0.4383261 -0.40185127 -0.1911871 0.66921055
0.5517596 0.34659198 -0.37606734 0.549598 -0.42771214 -0.17352243 0.3291386 0.10715027
-0.38797116 -0.33716333 -0.38088244 0.16620316 0.47476718 0.49888802 0.114774935 0.23223855
0.08287707 0.12980914 -0.37908298 0.4478292 0.16667193 -0.29171228 0.16261576 0.60968554
-0.35894653 -0.07571199 -0.11926207 0.41619584 -0.04933786 0.409664 0.236751 0.4501303
-0.465795 0.49774304 -0.35889488 0.17779358 -0.45396468 0.52612954 -0.40949476 0.10079674
0.36759388 0.38464084 0.15392914 -0.0026131256 0.38886833 0.14387111 -0.20812704 0.008620121
0.31600523 -0.5045135 -0.25757557 0.44421697 -0.33341503 0.26632118 -0.407961 0.2781947
-0.3889202 0.5455606 0.49454862 0.25372547 -0.43633184 -0.23771521 -0.036053818 -0.3705882
0.4325783 -0.09109498 -0.45928425 -0.29974842 -0.019538466 0.05600963 0.5436716 -0.42827648
0.3602527 -0.28822765 0.46060708 0.065372296 -0.4746186 -0.40198743 -0.59288734 -0.44886374
-0.48308235 -0.23126481 -0.15920676 -0.42858353 -0.093148805 0.14978847 0.4030267 0.04293616
0.410391 -0.14288335 -0.252528 0.25153822 0.4776079 -0.30045995 0.21007493 0.48081762
-0.33118296 0.27246633 -0.28735107 -0.26534277 0.10552443 0.33760884 0.27438456 0.26024374
0.3951793 0.2746103 -0.5552205 -0.08636179 -0.16712542 0.37002173 0.030659828 0.4775379
-0.047379732 -0.37785423 0.15830317 0.48233053 -0.18604624 -0.04576289 0.19755682 0.14764486
0.007090614 -0.2736949 0.046299633 0.3537565 0.42333496 -0.26384652 -0.25313845 -0.47351974
-0.39201713 -0.25009608 -0.41386265 -0.5087044 -0.0045839055 0.0044768797 0.30509445 -0.28102848

weight f4 [128, 1024]
00000000: f9e6 2cbd eb8e 033e 5dfe 123d 7b15 b2be
00000010: 4bac d8bc 7fbf 32bc 36ce 943d 19e5 323d
00000020: 2218 7dbd 78e5 0c3d 46c3 56bd 65d4 ce3d
00000030: 78bd b2bc 82b6 853d 2d47 9d3c 0963 243b
00000040: f19c 4a3e 77f1 ac3c 9e5d 9cbd ba48 cfbb
00000050: e213 b93d 40a5 a1be d628 ef3b 1b6a b13c
00000060: 33ef e83c 0f6c 6e3c cc98 443d 7edd 2c3c
00000070: fb55 0339 c260 18be fddb b4bc 47f3 153e
00000080: ef29 ed39 4478 12bc 18b6 f33d 705f 3f3c
00000090: 76be 32bd f66b 2fbd d5f5 13bc c0e2 debc
000000a0: 806a 283d 2062 223d 6930 0ebd 649d 32bc
000000b0: 67be a43c 17ef ac3c f0bb 4a3d 60c2 273d
000000c0: 37ac 44bc bbef 5938 0c66 4c3d 7240 be3c
000000d0: 16d0 4d3c 97b5 b23d 0c42 83bd 30f2 a9bb
000000e0: c5ce 18bb 17ba 673d 42fb 253c a2b8 953c
000000f0: 4262 163c 1a4d 9abe ce20 e3be 4e5f 96bc
00000100: d904 1c3c 0a30 e1bc 29c8 4d3d 09f6 bd3b
00000110: c1be 2fbc ddaf 543e 0a73 4a3d 083b b93c
00000120: 608b b83a 682c a53d 5693 80bd 5712 153c
00000130: 99a4 ad3c 1ba0 ad3b 813f 893b 3b7d 853d
00000140: 1f2d 1e3c 8e81 83be 93ce a7bd 9a5c da3c
00000150: b983 75bc bb43 623d 0607 453e c3ba a8bc
00000160: 8786 5f3c a287 eb3c 8a85 173c 3db0 90be
00000170: 59b7 633d b601 dc3d 2326 9abd dbfd 3d3e
00000180: 7947 233c 0951 8f3c a2dc c93c 2a19 ea3c
00000190: a4ef 13be 9410 7739 88a2 08bc fae7 fbbc
000001a0: d6b7 a03d f32c 4e3a ed9f 353d 4b30 123e
000001b0: e458 b63d d7ad 2fbd fcc4 8a3c 591c b73c
000001c0: 3749 67be d69f 323e 077e 0bbe 7e33 22be
000001d0: 5b7e c9bc 89ce 15bd 4371 dc3c e775 573d
000001e0: 2dd0 953d e4a3 3ebc 66dd 4cbe 3e54 89bb
000001f0: 4abd cf3c 7de8 0cbe 7c12 163d b6ee 8d3d
00000200: 9678 25be a102 d73c 1607 1c3d 1f74 f73d
00000210: 157c febb a6ab 4f3c 1f55 a7bc f06b 4dbd
00000220: a4d0 9dbb d3e0 1cbe 346d 46bc e347 cabc
00000230: 9823 8e3d 4269 163d 67a8 5abd a9de e03d
00000240: 03f6 6bbe eb82 a03d d863 e73d bb67 473d
00000250: 1427 0ebd 4bb7 f73a 2775 363d 04e6 713e
00000260: 706a 93bd 8a75 483d 7988 2d3d 7145 8a3d
00000270: f7ab ddbd 9413 43bd 14d5 ab3d 1c69 2a3d
00000280: f04a 4f3d 973c 8b3d 2663 943c 027f 26be
00000290: e54f b93d d2dd 76bd fe8d 00bc f8e1 3abe
000002a0: d268 8e3d bfb7 273d 0ce7 72be 355d 36bb
000002b0: df8c 89bc 97a4 563c 3051 a43c 3f10 be3d
000002c0: f28c d0bc 326d 973c 6ab6 063d b594 7cbc
000002d0: 86e6 223d a77e 38bd 1f3a 48bc 1a5b 90be
000002e0: e1ef 783d 4dac 823b 8b00 963c 2957 63be
000002f0: 1e9c 05bd dfb9 183d baa0 293e eb35 8639
00000300: 5013 b23c 8f56 8b3d 13a2 9e3d 9067 8e3c
00000310: 568c b33c 3400 d1bd 3d91 06bb 8002 f13d
00000320: fe4f a8bd 8d90 69ba 8402 bf3c 0c9e fbbd
00000330: deaf 533d baeb d3bc 34c0 f93b aef1 403c
00000340: 966f 333e 2348 9fbc 5c31 5fbd 9335 d63c
00000350: 8bac 43bb db5a ebbd 4a58 0f3d 20be 373b
00000360: 841c 45bc 782b 4b3e 49f5 7cbe a355 27bd
00000370: 14f4 4b3d a2b4 553d 1dbd 9f3c c372 133d
00000380: a721 2a3d 3da2 6a3c ec88 463c f2ae 58be
00000390: dce1 6cbd f81d e53c 83c8 99be 71e5 5c3c
000003a0: f08c b5bd 8e20 05b9 6dcb 703c 7e95 c13d
000003b0: 382c 5d3b 2e1f 0ebe 042c 9bbc 187b 0e3e
000003c0: 7952 8dbd 86a7 ccbd b501 443a c1cd f03c
000003d0: 095c 6a3d 937d 97bd 4fe1 e33b 21de 06bd
000003e0: 2cff bebc dfce e23c 2ec1 13be 3c4b 0f3d
000003f0: e1dd b0bc 10ad 8cbd 6407 a73b 22a6 1bbe
-0.04221246 0.12847488 0.03588711 -0.34782013 -0.026449343 -0.010909914 0.07265894 0.043675516
-0.061790593 0.034398526 -0.05243232 0.10099105 -0.021818861 0.06528951 0.019198978 0.0025083444
0.19786431 0.021111233 -0.076350436 -0.0063258084 0.090369955 -0.31571388 0.007298569 0.02165704
0.028434372 0.01455213 0.04799728 0.010550855 0.00012525164 -0.1488066 -0.022077555 0.14643584
0.00045235406 -0.008939806 0.11899966 0.011680469 -0.04363867 -0.04282757 -0.009030779 -0.027207732
0.04111719 0.03964436 -0.034714136 -0.010901783 0.020110322 0.0211101 0.049495637 0.040956855
-0.01200395 5.1960098e-05 0.049902007 0.02322409 0.012561819 0.08726042 -0.06409082 -0.0051863417
-0.0023316604 0.056573953 0.010130705 0.018276516 0.0091787 -0.3013695 -0.44360965 -0.018355992
0.00952264 -0.027488727 0.050239716 0.005797152 -0.010726632 0.20770212 0.049426116 0.022611156
0.0014079623 0.080651104 -0.06278102 0.009098611 0.02119665 0.005298627 0.0041884785 0.065180264
0.009654312 -0.2568478 -0.08193698 0.026655484 -0.014985018 0.055240374 0.1924096 -0.020596867
0.013642914 0.028751198 0.009248147 -0.2825946 0.055594776 0.10742514 -0.07526805 0.1855387
0.009965771 0.017494695 0.024641339 0.028576452 -0.14446884 0.00023561931 -0.008339532 -0.030750263
0.07847564 0.00078649743 0.04434197 0.14276235 0.08903673 -0.042890396 0.016939633 0.022352384
-0.22586523 0.17443785 -0.13622294 -0.15839955 -0.024596384 -0.03657392 0.026909476 0.052602675
0.07315097 -0.011635754 -0.20006332 -0.0041909507 0.025358815 -0.13760562 0.03663872 0.06930296
-0.16159281 0.02624637 0.038092695 0.12082695 -0.0077662566 0.0126752015 -0.020426331 -0.050151765
-0.0048161317 -0.15320139 -0.012110997 -0.024692481 0.06940383 0.036721475 -0.053383257 0.10979969
-0.23043065 0.078374706 0.112983406 0.04868291 -0.034705237 0.001889923 0.04454532 0.236229
-0.07198036 0.04894022 0.04236648 0.06751526 -0.10823815 -0.047626093 0.08390251 0.041604146
0.050608575 0.06798666 0.018113684 -0.16259387 0.09048442 -0.060270138 -0.007846354 -0.18250263
0.06953587 0.04094672 -0.2372095 -0.0027826552 -0.016790805 0.013100765 0.020058244 0.092804424
-0.025457833 0.018484686 0.032888807 -0.015416314 0.039770626 -0.04504266 -0.012220888 -0.28194505
0.06077564 0.003987825 0.018310806 -0.22201218 -0.032619588 0.037286635 0.16565219 0.00025598644
0.021737725 0.06803619 0.07745757 0.017383367 0.021917503 -0.10205117 -0.0020533346 0.11768055
-0.08218382 -0.00089097844 0.02331663 -0.122860044 0.051681392 -0.02586924 0.0076217894 0.011776371
0.17523035 -0.019443577 -0.054490432 0.026148593 -0.0029857482 -0.11491939 0.03499631 0.0028036907
-0.012030724 0.19840801 -0.24702944 -0.040853154 0.049793318 0.052174218 0.019499356 0.035998117
0.041536 0.014320907 0.012117606 -0.21160486 -0.057832584 0.027968392 -0.3003579 0.0134824375
-0.08864772 -0.00012695996 0.014696938 0.094523415 0.003374828 -0.13879082 -0.018941887 0.13914144
-0.06900496 -0.0999289 0.0007477061 0.029394986 0.057216678 -0.07396998 0.006954349 -0.032926682
-0.023315035 0.027686534 -0.14429161 0.03498386 -0.021590175 -0.068689466 0.0050973166 -0.15200093

bias f4 [128]
00000000: 8fcb 6b3d 4eb6 23bc 7b60 303c 3d32 01bc
00000010: 192c 583a 8d97 9a3c acd7 a63c a5cd 823d
00000020: b9e4 c63c 41c6 fc3d 748f f13c 37ab 063d
00000030: be9b bb3c f0f3 e1bc 48be 023d 1f7d 99bc
00000040: 85aa a73d 3274 aa3c 5782 ecbc 9f9f 38bc
00000050: 5035 7e3d 71ac 9abc e893 fcbc b18d 0dba
00000060: 773e ddbc 2a95 d83d b3c8 b53b 31da 92bc
00000070: 9d14 8abc 3716 b8bc 57b1 873c cc49 6f3c
00000080: 10cd 543c aeba 19bb 488d 6cbc 72bf 79bc
00000090: 83ee b338 bfaf 783b 54de 0ebd 6856 803d
000000a0: 521b 983c c441 783b feed eebc 6740 1a3c
000000b0: 9219 423d 7197 213d bcc6 8a3d a541 f33c
000000c0: 900d e13d 119d ce3b a019 433b 0793 63bb
000000d0: 9dc8 9cbb db97 183d 1499 333d 0ace 8fbc
000000e0: 9ebc 083c a552 62bd 98a0 033c 276c b6bc
000000f0: 4a24 47bc c46b a9bc 4d54 d33c bafc b5bc
00000100: d779 313d 8b7b df3b f2e4 7cbc 6ce5 533c
00000110: c692 b4bb 7d88 a2bc d4c5 37bd 9ac9 c13d
00000120: b6b4 0e3d e1b8 e03d 3079 0e3e cae7 d53b
00000130: 27ad 4c3c e600 813c f71d 313d 38ce 07bd
00000140: 4aa8 cabb 280e a9ba 9425 f93c 4175 023d
00000150: 4761 453c 53ab 633d 9a44 96bc 28e6 30bc
00000160: 3e9d 073d 6cf5 623d 8bf3 573c e224 0f3d
00000170: a1e9 cc3b 962d 6f3c cc46 3cbd 4dad 533b
00000180: 538c 0f3e 79cf 5cbc e18b 623d 15f0 b6bc
00000190: da56 393c d74a 4c3c 37e5 47bc 2b2c ecbc
000001a0: cea9 f3bc 4fa3 263c fb87 9abb afba 253d
000001b0: cc59 01bd addf ff3b 4861 b33c 9d3e a7bc
000001c0: 4cf8 ab3d 1e04 64bc 6311 57ba 7164 b33d
000001d0: 1106 543d 28fb 233d b886 a43c 5e50 3c3d
000001e0: 7868 f9bb bd9f 883a b76a 9abc b320 0ebd
000001f0: 273c 103d ae05 d13c f378 a73d 3a6a be39
0.057567175 -0.009992195 0.01076519 -0.007885513 0.0008246317 0.018871093 0.020366512 0.0638688
0.024278985 0.123425014 0.02948735 0.032878127 0.022901412 -0.027582139 0.031919748 -0.01873642
0.08186821 0.02080736 -0.028870745 -0.011268525 0.06206256 -0.018881055 -0.030832246 -0.0005399837
-0.027007325 0.10575326 0.005547607 -0.017926307 -0.016855532 -0.02247153 0.016564054 0.014604997
0.012988344 -0.0023457217 -0.014437981 -0.015243398 8.5798114e-05 0.003794655 -0.034879997 0.06266481
0.018567715 0.0037880996 -0.029166218 0.009414769 0.047387667 0.039451066 0.06776187 0.029694388
0.10988915 0.006305345 0.0029769912 -0.0034725086 -0.004784657 0.037254196 0.04384716 -0.017554302
0.008345751 -0.055254597 0.008033894 -0.022268368 -0.012154648 -0.02068127 0.025797034 -0.022215236
0.043329086 0.0068201474 -0.015435444 0.012933116 -0.005510661 -0.019840473 -0.044866398 0.094622806
0.034840308 0.10972763 0.13913417 0.0065278756 0.012492455 0.015747499 0.043241467 -0.03315565
-0.0061846124 -0.0012897896 0.030413426 0.031850103 0.0120471185 0.05558331 -0.018343259 -0.010797061
0.033108942 0.055409834 0.013180624 0.034947284 0.0062534367 0.014598271 -0.045965955 0.003229934
0.14018373 -0.0134772 0.05530918 -0.022331277 0.011312211 0.012469015 -0.012200645 -0.028829655
-0.029744055 0.010170772 -0.004715917 0.04046124 -0.031579778 0.0078086467 0.021896973 -0.020415599
0.08396968 -0.013916997 -0.000820419 0.08759392 0.051763598 0.040034443 0.02008377 0.04597508
-0.0076113306 0.0010423582 -0.018849714 -0.034699153 0.035213616 0.025515404 0.08177366 0.0003631877

weight f4 [3, 128]
00000000: a0e2 4f3e 8137 82bd edd2 aebc 37b9 03bd
00000010: 17d8 debc b452 9ebd 1a48 a9bd dbfd a93e
00000020: 6def 81bd 8086 e23d 57ce d43d 1737 ea3d
00000030: 35b6 9ebd 13ba 7c3e ac51 673d 3160 ad3a
00000040: b1e4 883c 85c1 3abe ef19 30bd 9461 603e
00000050: 1f83 ab3d 5724 243d dd9d ddbc c264 18bd
00000060: e245 11bc 8486 fb3c 3645 aa3d 8426 863c
00000070: 4a07 44bd 45f1 2ebd f7af 823c 63c9 26bd
00000080: 5318 03bd 7500 483c f64a 70bd f3e2 a1bd
00000090: 5f53 853d 0dbe 00bd 7646 523e 67a5 1e3e
000000a0: 7c09 89bd 37e6 a0bd d3e9 a9bc 8858 58bc
000000b0: 6e63 9c3e 37c3 3b3c aabb afbd 331b 4dbc
000000c0: 3f6b b1be 609c 0bbe 3f0d 343e 59f8 eb3c
000000d0: 3ed4 89bd 556e 783e 9472 30bd 2c54 10bd
000000e0: 91ea a03d ee2b 813d e36b 243e 6e54 08bd
000000f0: b4d8 a9bd 48a2 4a3d b810 90bd a064 33bd
00000100: 2806 8a3e bf79 a63b 7c13 ed3c c2b6 6ebd
00000110: 957f 35bc a869 5d3d 4401 873c ab64 753d
00000120: e44f f83d 2fde 433e 3f7a 9f3e 4440 26bd
00000130: 4c3f 7ebc f79f 79bd 6d88 b53d 3e4a 443d
00000140: d270 26bd 18d7 edba f856 f63d 3bf6 213e
00000150: 1186 17bb bc65 293c 5449 aabd bc2b 37bc
00000160: dbbf ba3d 813c 893e 12ab a1bc 8a5f 923d
00000170: 5231 2d3e e6ad 90bd 2bc1 efbb c22d 19bc
00000180: cabb 27bb 824c 54bc e111 ebbb 7a97 2cbd
00000190: d0eb 97bd 9fc0 b63d 3ecb babc fb85 31bd
000001a0: 5a3e 45bd edcb 613e 1166 593e f8dd 1e3d
000001b0: 7eb4 3fbd e4e5 afbc 4227 25bd 7e22 283d
000001c0: b832 06be 2a54 91bd c562 79bd 42f9 9e3d
000001d0: c0df 3b3e fae2 063e 4633 873e 2c13 ff3d
000001e0: a231 973d 3b0c c23c 47ad d3bc 0d22 503d
000001f0: d32b 493e 2bb8 703e 2255 223e 103a 863d
00000200: dad2 3b3e 02ee 0abd c87c 0abc 176d d0bc
00000210: 0e58 b83d b488 c2bc 16dd 9fbc 4f28 34be
00000220: 8cd9 98bd a4ac 9c3e 779c 833e d2ac 91bd
00000230: 61d5 4b3d b0d3 493e cbb6 7f3e cf28 98bd
00000240: 1e3e 533e 6dbf 19be b042 87bd 0969 0dbc
00000250: edce b13e 589e 02bd c086 bfbc 73fa a4bc
00000260: 81bb 5dbd abaf 483e e02f 2cbd cad6 4bbd
00000270: 8a64 61bd a945 543d 2f67 54bd e0bb 9a3d
00000280: 5703 c33d b783 9abc d04b 3a3d 3cba b13c
00000290: a717 9e3d 96f2 bcbc b804 6c3e 391a dd3d
000002a0: 8b9b abbc 9c88 083d 225c c8bc 70ee fa3c
000002b0: 1852 93bc 5c5d 633d 110c 2a3e 1940 f53d
000002c0: 6471 3b3e b50f 21be 3c51 e8bd 91c8 a7bd
000002d0: 44f6 e0bc d5d5 113e 1cb8 ce3d 10e1 a9bd
000002e0: 6dbe 9abd 77e1 453e d850 9f3d 071e 04bd
000002f0: 9a10 0cbd e24c 1cbe 9535 6ebb 7282 76bc
00000300: 87ad a4bb 0dca 9bbd 23fe 1cbb 506e 5ebd
00000310: ed02 84bd 3a25 15bd e0fa 4dbe 3c6d 263e
00000320: 7a95 ed3d cd41 fd3d be6f 4f3e 1814 d73c
00000330: 5200 783d 82c0 1dbd 5f16 ef3d 2066 16bd
00000340: be56 853d 7457 69bd 9dfd dcbd b25a 0c3e
00000350: 1b97 a8bc 6229 3b3e 5173 363d 97da 6ebd
00000360: 3e01 993d 144d 263e 1c6c 4fbd 8818 d93d
00000370: 1b0b a8be 0d13 1fbd d118 6e3d ff9b 3cbd
00000380: cb6c d23e 4d5a c13b 27fa f73d b3db ef3c
00000390: f479 94bb 5aeb a5bd 8f11 043d ba67 ddbc
000003a0: 472b 50bc 8474 4c3e 5a23 eabd c2c9 903d
000003b0: 51f9 a73d c0a6 8bbd e9b0 c5bb bd85 8cbd
000003c0: d899 1b3e 2843 3ebd dda4 99bd 57cd 933e
000003d0: 015e 663e 53dd 353e bce6 b1bd 4968 813d
000003e0: 6e2f 6abc e840 a5bc 74d1 0bbd 3fac 62bd
000003f0: 3b92 cbbb 7122 02bc 15ec 523e b89c 273d
0.20301294 -0.06358243 -0.021340812 -0.032159057 -0.027202649 -0.07730618 -0.082657054 0.3320149
-0.06344495 0.1106081 0.10390919 0.11436289 -0.07749597 0.24680357 0.056474373 0.001322752
0.016710611 -0.18237884 -0.042993482 0.21912223 0.08374619 0.04007372 -0.027052814 -0.037205465
-0.008866759 0.03070379 0.08313982 0.016375788 -0.047858514 -0.04271056 0.015953047 -0.0407194
-0.03200562 0.01220714 -0.05866524 -0.07904615 0.065100424 -0.031431247 0.20534691 0.15492783
-0.06691262 -0.0785641 -0.020741379 -0.013204701 0.3054461 0.011460117 -0.08580716 -0.012518692
-0.34652135 -0.13633871 0.17583178 0.028804945 -0.06729935 0.24260838 -0.04307802 -0.035236523
0.0785724 0.06307207 0.1605678 -0.033283643 -0.08293286 0.04947117 -0.07034439 -0.043797135
0.26957822 0.0050804312 0.028939955 -0.05827976 -0.011077781 0.05405584 0.016480096 0.059910458
0.12124613 0.19127725 0.31147954 -0.040588632 -0.015518021 -0.06094357 0.08863912 0.047922365
-0.040634938 -0.0018145768 0.12028307 0.15816586 -0.0023120681 0.010339197 -0.083147675 -0.011179861
0.09118625 0.26803973 -0.019734893 0.07147129 0.16913345 -0.070644185 -0.0073167286 -0.009349288
-0.0025594109 -0.012957694 -0.007173762 -0.042136647 -0.074180245 0.08923458 -0.022801992 -0.043340664
-0.048155166 0.22050448 0.21230341 0.038785905 -0.04680299 -0.021471925 -0.040320642 0.04104852
-0.13105285 -0.07096131 -0.06088521 0.07762386 0.18347073 0.13172522 0.26406306 0.124548286
0.073825136 0.023687473 -0.025839461 0.050813723 0.19645624 0.23507755 0.15852788 0.06554043
0.18342152 -0.03391839 -0.008452602 -0.025442643 0.0900117 -0.023746826 -0.019514602 -0.17593502
-0.07463369 0.30600464 0.2570531 -0.07113041 0.04976404 0.19709659 0.24972074 -0.074296586
0.20629165 -0.1501443 -0.066045165 -0.008630999 0.34728184 -0.03188929 -0.023379683 -0.020138955
-0.054133896 0.19598262 -0.042037845 -0.049765386 -0.055027522 0.051824246 -0.051856216 0.075553656
0.095221214 -0.018861635 0.045482457 0.021695249 0.07719355 -0.023064893 0.23048675 0.10796017
-0.020948192 0.033333406 -0.024457995 0.030631274 -0.017983481 0.055508956 0.16606165 0.11975116
0.18304974 -0.15728648 -0.11343619 -0.08192552 -0.027461179 0.14241727 0.1009371 -0.082948804
-0.07555852 0.1932429 0.077790916 -0.0322552 -0.03419552 -0.15263703 -0.0036347855 -0.015045749
-0.005025569 -0.076068975 -0.0023955188 -0.05430442 -0.064458705 -0.036412455 -0.20115232 0.16252607
0.11600776 0.12366066 0.2025747 0.026254699 0.06054718 -0.038513668 0.11674189 -0.036718488
0.065106854 -0.056968167 -0.107905604 0.13706473 -0.020579865 0.18277505 0.044543568 -0.058313932
0.0747094 0.1624034 -0.05064021 0.10600382 -0.32820973 -0.038836528 0.058129136 -0.046047207
0.41098627 0.0059006573 0.1210826 0.029279565 -0.0045311395 -0.081015304 0.032243308 -0.027027
-0.012705631 0.19966322 -0.11432524 0.07069732 0.0820185 -0.068189144 -0.006033052 -0.06861446
0.15195405 -0.046450764 -0.07502148 0.288676 0.22496797 0.1776021 -0.08686587 0.06318719
-0.014293535 -0.020172551 -0.034135297 -0.055340048 -0.0062125004 -0.007942782 0.2059787 0.040920943

bias f4 [3]
00000000: edd7 05bd 6b4d 423c a43c dfbc
-0.032676626 0.011859278 -0.027250595
