saved_models/run8/model_15000.pth (torch, 550384 bytes, 6 tensors)

weight f4 [1024, 4]
0	0x3f1c1393	0.6096737
1	0xbd16fc5f	-0.036861774
2	0xbec5467a	-0.38530332
3	0x3e8c59c4	0.27412236
4	0x3ee6e365	0.45095363
5	0xbd871c94	-0.06597248
6	0xbed3eac4	-0.4139005
7	0xbe4ad9a5	-0.19809587
8	0xbe5f3dea	-0.21800962
9	0xbe690855	-0.22757085
10	0x3e611b8d	0.21983166
11	0xbe56041e	-0.20900008
12	0xbb19dbcc	-0.0023476956
13	0x3e809807	0.25115988
14	0x3ea86d99	0.32896116
15	0x3f128270	0.5723028
16	0x3e376e98	0.17913282
17	0x3e8a68df	0.27033135
18	0xbea1af6b	-0.31579146
19	0xbe5a30b5	-0.21307643
20	0xbe63f4d4	-0.22261363
21	0xbdb6a80a	-0.0891877
22	0xbee43cc0	-0.445776
23	0x3dc83ea5	0.097775735
24	0x3e9488c1	0.29010585
25	0x3c1dab70	0.009623393
26	0x3e276e75	0.1635073
27	0xbe8c1757	-0.27361557
28	0x3ef00e20	0.46885777
29	0x3e79d246	0.24396619
30	0x3d9557b6	0.0729212
31	0xbcb4cd78	-0.022070631
32	0xbe25a990	-0.16177964
33	0xbe4cf586	-0.20015535
34	0x3d3a117e	0.045426838
35	0x3ee1798e	0.4403805
36	0x3ef287fd	0.47369376
37	0xbe90077b	-0.28130707
38	0xbcb78419	-0.022401856
39	0xbf18009a	-0.5937592
40	0x3ef1b60f	0.47209212
41	0xbde876c9	-0.113507815
42	0x3e37488b	0.17898767
43	0xbe0841a9	-0.13306297
44	0x3ef509f2	0.4785915
45	0x3c907896	0.017635625
46	0xbfaa7bc9	-1.3319026
47	0xbe973a2f	-0.29536578
48	0x3f098e53	0.53732795
49	0xbe4783b8	-0.1948384
50	0x3e1ac63c	0.15114683
51	0xbf2575c4	-0.6463282
52	0xbeb984ef	-0.36234233
53	0xbe282bee	-0.16423008
54	0xbe929267	-0.2862732
55	0x3eba4d80	0.36387253
56	0x3f01ea46	0.507481
57	0xb9a89f5a	-0.00032162183
58	0x3e7e86fe	0.24856183
59	0xbeebc15f	-0.46045968
60	0xbec40bf8	-0.3829038
61	0xbe123f91	-0.14282061
62	0xbe3c05c1	-0.1836157
63	0xbf4cf6a8	-0.8006387
64	0x3e7b26c6	0.2452651
65	0xbcce4884	-0.025181063
66	0x3d3faacd	0.046793748
67	0xbe650aa9	-0.22367348
68	0x3ef02115	0.4690024
69	0xbea7a1fd	-0.32740775
70	0xbf8fd58d	-1.1237046
71	0xbedeb7ea	-0.4349969
72	0xbebf9c26	-0.3742382
73	0x3eb689ec	0.356521
74	0xbf8c632c	-1.0967765
75	0xbdc5c446	-0.09656577
76	0xbec0aa52	-0.37629944
77	0x3e32ddb5	0.17467387
78	0xbd29f1e3	-0.041490447
79	0x3e69c185	0.22827728
80	0x3ee013a5	0.43764988
81	0x3db3c272	0.08777322
82	0x3eb65bd2	0.35616928
83	0x3b87087d	0.004120885
84	0xbf079b1e	-0.52971065
85	0xbd744f9e	-0.05964624
86	0xbe01a57a	-0.1266078
87	0x3ed3f00a	0.41394073
88	0xbef6d04e	-0.482058
89	0xbeca4687	-0.39506933
90	0x3c23dc07	0.010001189
91	0x3dac7e07	0.08422475
92	0x3ee7511f	0.45179078
93	0xbd8ca8b6	-0.068681166
94	0xbf338d66	-0.7013763
95	0xbeb658b5	-0.35614553
96	0x3e061866	0.13095245
97	0x3d7f7c0c	0.06237416
98	0x3e105a88	0.14097035
99	0x3eb96aed	0.3621439
100	0x3edaaddb	0.42710766
101	0x3da5398a	0.08067615
102	0x3e513307	0.20429622
103	0xbe4f0aaf	-0.20218919
104	0x3e9d9a4d	0.30781785
105	0xbd4e0e99	-0.05030689
106	0x3e2bc5fd	0.16774745
107	0xbe9a6f1f	-0.30162904
108	0x3e39e905	0.18155296
109	0xbdf11187	-0.11770921
110	0xbd39346e	-0.045216016
111	0xbe44bf63	-0.19213633
112	0x3e36156a	0.17781606
113	0xbe92ee6b	-0.28697523
114	0x3d2a4494	0.041569307
115	0xbdfb2c46	-0.12264304
116	0x3e844272	0.25831944
117	0x3de1b81d	0.11021445
118	0x3e54580e	0.20736715
119	0x3f58eb06	0.8473362
120	0xbefda32a	-0.49538547
121	0x3cea882a	0.028629381
122	0xbe65c761	-0.22439338
123	0x3f17ce55	0.5929921
124	0x3e8b96fd	0.27263632
125	0x3cd34c03	0.025793081
126	0xbc03065c	-0.007997122
127	0x3e0fc957	0.14041649
128	0x3eb1918d	0.3468136
129	0xbe3efb47	-0.18650542
130	0x3df96fed	0.12179551
131	0x3e9e2800	0.30889893
132	0x3ddda0ab	0.108216606
133	0xbe671bbe	-0.22569177
134	0xbc5f61e8	-0.0136341825
135	0xbf53bafa	-0.8270718
136	0xbf07e7dc	-0.53088164
137	0x3e468f51	0.19390608
138	0x3e5e87c0	0.21731472
139	0xbebf05dd	-0.3730916
140	0x3d6fd998	0.058557123
141	0x3ebbe9d7	0.36701843
142	0x3e951ed4	0.29125082
143	0xbed13a15	-0.40864626
144	0x3eabbf2e	0.33544296
145	0xbead9e8b	-0.3391002
146	0xbc90804a	-0.017639298
147	0x3d14f19d	0.036363233
148	0x3e681800	0.22665405
149	0xbe94aaf8	-0.2903669
150	0xbd9e0bb0	-0.07717073
151	0x3e88ad19	0.26694563
152	0xbe912fe5	-0.28356853
153	0xbee544e2	-0.44779116
154	0xbd0ebef0	-0.03485006
155	0xbf36ffff	-0.7148437
156	0xbe876890	-0.26446962
157	0x3e6e7b49	0.23289217
158	0x3d852210	0.065006375
159	0x3f0e4c25	0.5558494
160	0x3eaadf9d	0.33373728
161	0x3e5facc5	0.2184325
162	0xbb4a7468	-0.0030892137
163	0xbe3596d6	-0.1773332
164	0x3e8cdebc	0.27513683
165	0x3bfc53c8	0.007700417
166	0xbd6a427c	-0.05719231
167	0xbf5fb998	-0.8739257
168	0xbee33f53	-0.4438425
169	0x3ebd893d	0.37018767
170	0xbe8c6470	-0.27420378
171	0xbede4491	-0.43411687
172	0xbe8b2dc6	-0.2718336
173	0xbc98167c	-0.018565409
174	0xbcf45d0d	-0.029829526
175	0x3eca0724	0.39458573
176	0x3f16b447	0.5886883
177	0xbe61d3ff	-0.22053526
178	0xbea9f0da	-0.33191568
179	0xbe1c3fb0	-0.1525867
180	0xbe898e4b	-0.26866373
181	0x3e0c479b	0.1369919
182	0xbe6ec606	-0.23317727
183	0xbf3fa3c2	-0.7485925
184	0xbeec9cbe	-0.46213335
185	0xbe8cb21f	-0.27479646
186	0xbd3291f7	-0.043596234
187	0xbf2a2f16	-0.664781
188	0xbec079a0	-0.37592793
189	0x3eff6bb8	0.4988687
190	0x3e5f9687	0.21834765
191	0x3e504a53	0.20340852
192	0xbed8e281	-0.4236031
193	0x3deac4ab	0.11463293
194	0x3d92600d	0.071472265
195	0xbf758f3c	-0.95921683
196	0xbe85bbe0	-0.261199
197	0x3e82bf62	0.25536638
198	0x3cea49e3	0.028599685
199	0xbeeb63bf	-0.45974538
200	0xbe350c3d	-0.1768045
201	0xbe81b7c8	-0.25335526
202	0x3e84861d	0.2588357
203	0xbf3093dd	-0.6897562
204	0xbea20193	-0.31641826
205	0xbed5fb8b	-0.41793475
206	0xbcc8223a	-0.024430383
207	0xbf55f140	-0.83571243
208	0x3eb37953	0.350535
209	0x3e6dd159	0.23224391
210	0xbe765ff4	-0.2406004
211	0xbf1e808e	-0.6191491
212	0xbec6e999	-0.38850096
213	0xbd3fb104	-0.046799675
214	0x3dafc0f3	0.08581724
215	0x3eb5da77	0.35518238
216	0x3f1945be	0.59872043
217	0x3efc7823	0.49310407
218	0xbf082cee	-0.5319356
219	0xbec08359	-0.3760021
220	0xbef9be7a	-0.48778135
221	0xbe26ca71	-0.16288163
222	0x3d866ecb	0.06564101
223	0xbf04fc7f	-0.5194778
224	0x3ebb5fdf	0.3659658
225	0xbd0291ff	-0.031877514
226	0xbd09aaaa	-0.033610024
227	0xbf33b8ca	-0.7020384
228	0xbee51d6a	-0.44749004
229	0x3e15dfc0	0.14636135
230	0x3de93ba8	0.11388332
231	0xbef736c5	-0.48283973
232	0x3eb86e59	0.3602169
233	0x3e4ea894	0.20181495
234	0xbde36f5a	-0.11105223
235	0xbf2a4f73	-0.6652748
236	0x3c38343f	0.011242925
237	0xbdd74454	-0.105110794
238	0xbd2b51a6	-0.041825913
239	0x3e4d11ff	0.20026396
240	0x3e7b36f5	0.24532683
241	0x3dd051e6	0.10171871
242	0xbe802bb1	-0.25033334
243	0xbea1c51b	-0.31595692
244	0xbe1831c2	-0.14862731
245	0xbda7220b	-0.0816079
246	0xbf7ee686	-0.995705
247	0xbe0e688b	-0.13907067
248	0xbe288515	-0.16457017
249	0xbd5e8071	-0.05432171
250	0x3e979b73	0.29610786
251	0x3f0619c2	0.52383053
252	0x3e9f3af1	0.31099656
253	0xbe927d9d	-0.2861146
254	0xbd7f261b	-0.0622922
255	0xbf4f4eb6	-0.8097948

bias f4 [1024]
0	0xbedc9404	-0.43081677
1	0xbf25ad8a	-0.64717925
2	0xbd29d8b6	-0.041466437
3	0xbe674a64	-0.22586972
4	0xbe56b6bc	-0.20968145
5	0xbf23d09e	-0.639902
6	0xbf01cc8a	-0.50702727
7	0xbe8c8698	-0.27446437
8	0xbf027367	-0.5095734
9	0x3ec695f8	0.38786292
10	0x3ea0b9c7	0.31391737
11	0x3ed68596	0.41898793
12	0xbd17162f	-0.03688639
13	0xbd9cd3ae	-0.07657562
14	0xbe68f0c1	-0.2274809
15	0xbedf2701	-0.43584445
16	0x3d8848d9	0.066545196
17	0xbbbc2991	-0.00574226
18	0x3de1f288	0.11032587
19	0x3ea8f431	0.32998803
20	0xbef030b9	-0.46912172
21	0x3ea44798	0.32085872
22	0xbe4d9852	-0.20077637
23	0xbf081aca	-0.53165877
24	0x3e9ae923	0.30255994
25	0x3d75eb90	0.060039103
26	0x3e02378c	0.12716502
27	0x3e3f04f7	0.18654238
28	0x3c8334f4	0.016016461
29	0xbf4a8e6a	-0.79123557
30	0x3ed746bf	0.42046162
31	0x3ed283f9	0.41116312
32	0x3e92c02d	0.28662243
33	0x3e6b2d3b	0.22966473
34	0xbf0e1891	-0.55506235
35	0xbf304957	-0.6886191
36	0x3e29dbcc	0.16587752
37	0x3e4d85bd	0.20070548
38	0xbef5f2cb	-0.480368
39	0x3e15a1cc	0.14612502
40	0x3d3816a7	0.044943478
41	0xbe524867	-0.20535432
42	0x3f0e1f8e	0.555169
43	0xbef98303	-0.48732767
44	0xbebd0039	-0.36914232
45	0x3f1907ed	0.5977772
46	0xbedede24	-0.43528855
47	0xbe4a6445	-0.19764812
48	0xbeeef02c	-0.46667612
49	0x3d5cddf9	0.053922627
50	0xbe897654	-0.2684809
51	0xbf0f0fc7	-0.5588345
52	0xbe55fb9b	-0.20896761
53	0x3ef261f5	0.4734036
54	0x3ec6e87c	0.38849247
55	0xbeee4bb6	-0.46542138
56	0x3ef1e2a5	0.4724323
57	0xbe130543	-0.14357476
58	0x3e1925be	0.14955804
59	0x3ea2c7f7	0.31793186
60	0xbe793fbe	-0.24340722
61	0x3f34aa9c	0.7057283
62	0xbed62b1d	-0.41829768
63	0x3f1407e0	0.57824516
64	0x3e973ac3	0.2953702
65	0x3d2505f9	0.0402889
66	0xbf4b4666	-0.79404294
67	0x3e8dba3c	0.27681148
68	0x3dd9dae6	0.10637455
69	0xbebfdddb	-0.3747395
70	0x3e8e79da	0.2782734
71	0xbf2f7743	-0.68541354
72	0xbf699eaf	-0.91257757
73	0xbeecc4f2	-0.46244007
74	0x3ea49893	0.32147655
75	0x3ea60ec7	0.3243315
76	0x3e72e435	0.23719867
77	0xbf1f11cb	-0.62136525
78	0x3ed2e101	0.4118729
79	0xbeeb1c44	-0.45920002
80	0xbe6d42c6	-0.23170003
81	0x3e948afd	0.2901229
82	0xbdd1f11c	-0.10251066
83	0xbe838617	-0.2568824
84	0x3e74bdbb	0.23900501
85	0xbe900174	-0.2812611
86	0xbf05c1b5	-0.522487
87	0xbea616b8	-0.32439208
88	0xbed806fc	-0.4219283
89	0xbf2de2bf	-0.6792411
90	0x3e4b69ad	0.19864531
91	0x3ea9a241	0.33131602
92	0xbef117ae	-0.4708838
93	0x3e99c8b6	0.30035943
94	0xbf070121	-0.527361
95	0x3e8020c0	0.25024986
96	0xbef2ec3f	-0.47445866
97	0xbee64527	-0.44974634
98	0xbf14ef4d	-0.58177644
99	0x3c16b211	0.009197728
100	0x3edf4453	0.43606815
101	0xbd8500d5	-0.06494299
102	0xbf3304c2	-0.69929135
103	0xbf435ca3	-0.7631323
104	0xbe83e3dc	-0.2575978
105	0x3ed71244	0.42006123
106	0x3d91aeae	0.07113396
107	0x3e09b1ad	0.13446684
108	0x3ea3c82d	0.3198866
109	0xbf14791b	-0.5799729
110	0xbf1253a7	-0.57158893
111	0xbf55ecc6	-0.8356441
112	0x3f10d879	0.5658031
113	0x3dffb584	0.12485793
114	0x3e826262	0.25465685
115	0xbe99bb3d	-0.30025664
116	0xbf28c608	-0.6592717
117	0x3f22074c	0.63292384
118	0xbe7ceb31	-0.24699093
119	0x3e259b30	0.1617248
120	0xbeefb72e	-0.46819443
121	0x3e6d4376	0.23170266
122	0x3b099db8	0.0020998549
123	0xbdfa5bd6	-0.122245476
124	0x3ed94f29	0.42443207
125	0x3ec5e277	0.3864934
126	0xbe8f2681	-0.27959064
127	0xbef30264	-0.4746276
128	0x3f0aa790	0.5416193
129	0xbf4b57ef	-0.7943105
130	0x3eb3b992	0.35102516
131	0x3f1305e0	0.5743084
132	0xbeb0cba5	-0.34530368
133	0xbee278d3	-0.44232807
134	0xbea4ad30	-0.32163382
135	0xbf047224	-0.51736665
136	0x3eafa6f2	0.34307057
137	0x3e74ea80	0.2391758
138	0x3ea5824f	0.3232598
139	0xbf092177	-0.5356669
140	0x3ec7a6c1	0.3899441
141	0xbf5f752f	-0.8728818
142	0xbead8121	-0.3388758
143	0x3e8328d4	0.25617087
144	0x3eb385c4	0.35062993
145	0xbd697ba3	-0.057002675
146	0xbda812ef	-0.08206736
147	0xbe94b7e7	-0.29046556
148	0x3eab5c78	0.33468986
149	0x3e595f0f	0.21227668
150	0xbf115811	-0.56775004
151	0xbf0f8b76	-0.56072176
152	0xbf0ca466	-0.5493835
153	0x3efdf6c7	0.4960234
154	0xbd0e5e7e	-0.034758084
155	0xbf7a035e	-0.9766139
156	0xbf4e8cea	-0.8068377
157	0xbe9595b2	-0.2921577
158	0x3ea56b8e	0.3230862
159	0xbe8758d6	-0.26434964
160	0x3ee8f42b	0.45498785
161	0xbe82ab68	-0.25521398
162	0x3dbabdc0	0.09118223
163	0x3ea93675	0.3304936
164	0xbe939f5e	-0.28832525
165	0xbf3b9891	-0.7327967
166	0xbeee4be7	-0.46542284
167	0x3f108e3a	0.5646702
168	0x3dfb9838	0.12284893
169	0xbe7ee014	-0.24890167
170	0xbedf924e	-0.4366631
171	0x3d62c62c	0.055364773
172	0xbf10705b	-0.5642144
173	0xbe530d53	-0.20610552
174	0x3d4e4a0e	0.050363593
175	0xbd19158f	-0.037374076
176	0xbf032ed7	-0.51243347
177	0xbebc406b	-0.36767897
178	0xbe8932ba	-0.26796514
179	0x3ea8963d	0.32927123
180	0xbed9316e	-0.42420524
181	0x3e11f383	0.14253049
182	0x3e4ffef7	0.20312105
183	0xbe1f0493	-0.15529089
184	0xbeb6db12	-0.35714012
185	0x3e835f98	0.2565887
186	0x3ec10da3	0.37705716
187	0xbebd0984	-0.36921322
188	0x3e1e7f32	0.15478209
189	0xbda9889b	-0.082780086
190	0x3f415857	0.7552542
191	0x3e4928de	0.19644496
192	0xbbeb72cc	-0.0071853157
193	0x3f013e8a	0.5048605
194	0xbe5c305c	-0.21502823
195	0x3e8787e8	0.26470876
196	0xbd8a337c	-0.06748101
197	0x3f26ac59	0.6510673
198	0xbc177a52	-0.009245472
199	0x3e59e883	0.21280102
200	0xbf4afd2a	-0.7929255
201	0x3e90370f	0.28167006
202	0x3e3520d4	0.17688304
203	0x3ee274f4	0.44229853
204	0xbcfbcecc	-0.030738257
205	0xbf0bcc80	-0.5460892
206	0xbf178041	-0.59180075
207	0x3e62c151	0.22144057
208	0xbe5b383f	-0.21408175
209	0x3f3709b5	0.71499187
210	0x3e29b3bd	0.16572471
211	0x3ea469f8	0.32112098
212	0x3f040242	0.51565945
213	0x3f266f44	0.6501353
214	0xbe8a958c	-0.2706722
215	0xbe9089b1	-0.2823005
216	0xbede9536	-0.43473214
217	0x3e5eb1c8	0.21747506
218	0xbf087039	-0.5329624
219	0x3e250ed1	0.16118933
220	0xbebc9d6d	-0.36838856
221	0xbe0cf5ed	-0.13765688
222	0x3f2c7cca	0.67377913
223	0x3ec874bb	0.39151558
224	0xbf0671de	-0.525175
225	0x3ee07bc4	0.43844426
226	0xbe229a74	-0.15879232
227	0xbea69cd3	-0.32541522
228	0xbef2d588	-0.47428536
229	0x3dc90867	0.09816056
230	0xbef03baa	-0.4692052
231	0xbef044cd	-0.4692749
232	0xbec439d3	-0.38325366
233	0x3f081704	0.5316012
234	0xbe933e97	-0.2875869
235	0xbde519f9	-0.111865945
236	0xbe6c9359	-0.23103084
237	0x3e0ef4df	0.13960598
238	0x3e28a0d5	0.16467603
239	0xbcce79db	-0.02520459
240	0x3e9c068b	0.30473742
241	0xbf45e4a9	-0.7730203
242	0xbf03775e	-0.51354015
243	0xbf0d3bd2	-0.55169404
244	0x3e42806f	0.18994306
245	0xbea5cbf4	-0.32382166
246	0x3e282d2c	0.16423482
247	0xbefcc72d	-0.4937071
248	0x3ed0d662	0.4078856
249	0x3e077ab0	0.13230395
250	0x3e85e09c	0.26147926
251	0xbe683ac7	-0.22678672
252	0xbef9ea0c	-0.48811376
253	0x3e003c6f	0.12523054
254	0xbec5418e	-0.38526577
255	0xbe6f1915	-0.23349412

weight f4 [128, 1024]
0	0xbc3fa8bf	-0.011697947
1	0x3ab52e80	0.0013823062
2	0x3bdcf65f	0.006743237
3	0xbcf2cf4e	-0.029639866
4	0x3ccd59da	0.025067259
5	0x3bd7247c	0.0065656286
6	0xbca95f5a	-0.02067535
7	0x3c3bc100	0.011459589
8	0x3c69c45d	0.014268008
9	0x3bbf6ad1	0.005841591
10	0x3c642efa	0.013927216
11	0xba9478f5	-0.0011327552
12	0x3c0eb4b0	0.008710071
13	0xbaaa16eb	-0.0012976801
14	0x3a85a380	0.0010195822
15	0xbcac1947	-0.021008147
16	0x3cc9080b	0.024539968
17	0x3c5ea60f	0.013589396
18	0xbcf8ccf2	-0.030371163
19	0x3c4c7a95	0.012480398
20	0xbc0c8e2b	-0.008578817
21	0x3b434b96	0.0029799691
22	0x3c16ce6d	0.009204489
23	0xbcbbb460	-0.022913158
24	0x3c95c963	0.018284505
25	0xbb851ee0	-0.0040625185
26	0x3cbd19f7	0.02308367
27	0x3cd5dd62	0.02610654
28	0x3cb54255	0.022126356
29	0xbd012aff	-0.031535145
30	0xbccb0c57	-0.024786158
31	0x3c225e02	0.0099101085
32	0x3a6cb0b5	0.0009029017
33	0xbcded407	-0.027200712
34	0x3c8471bd	0.016167516
35	0xbcfdf259	-0.03099935
36	0xbb88685f	-0.0041628326
37	0xbc30fffb	-0.010803218
38	0xbccda51f	-0.02510315
39	0xbcd9492c	-0.026524149
40	0xbcd9491a	-0.026524115
41	0xbce53128	-0.027977541
42	0x3ba9cd2c	0.005181929
43	0x3bf0adde	0.0073449453
44	0x3c2e4c67	0.010638333
45	0xbccad7f3	-0.024761176
46	0x3c3f14f6	0.011662712
47	0xba2a107f	-0.00064874435
48	0x3c868f80	0.016425848
49	0xbd04e1d5	-0.032441933
50	0xba68e139	-0.00088836584
51	0xbd0c6f0d	-0.034285594
52	0xbcd6b402	-0.026208881
53	0xbca35751	-0.019939097
54	0xbcf3561f	-0.029704152
55	0xbc06d202	-0.008228781
56	0x3cd0ba4a	0.025479455
57	0xbc08eba8	-0.008356966
58	0xbb8ba05b	-0.004261059
59	0x3c3bf220	0.011471301
60	0x3cb34f2b	0.021888336
61	0x3c82027f	0.01587033
62	0x3c9ca339	0.0191208
63	0xbc6447d7	-0.013933144
64	0xbd11a55f	-0.0355581
65	0xbc6cd6d2	-0.014455514
66	0x3cac9e64	0.02107162
67	0xbd080f8e	-0.03321796
68	0x3cb28d93	0.021796023
69	0x3c428632	0.011872815
70	0x3b892262	0.004185007
71	0xbc790c42	-0.015200676
72	0xbb7d8fde	-0.0038690488
73	0xbc1698df	-0.009191721
74	0x3c3a16b8	0.011357956
75	0x3cb03739	0.021510707
76	0xbce2ca7b	-0.02768444
77	0x3c5b97f2	0.013402926
78	0x3afc17d0	0.0019233171
79	0xbcaca158	-0.021073028
80	0xbcb14804	-0.021640785
81	0x3c539cdf	0.012915819
82	0xbc43df01	-0.011955024
83	0xbc1c7ddc	-0.009551492
84	0xbc295548	-0.010335274
85	0xbd124899	-0.035713766
86	0x3b23a07a	0.0024967478
87	0x3abf8821	0.0014612713
88	0xbcf2852d	-0.029604519
89	0x3a8c715e	0.0010714938
90	0xbbb7e2c3	-0.005611749
91	0xbcbb4993	-0.022862231
92	0x3c998cb3	0.018743848
93	0xbcda72b8	-0.02666603
94	0xbc865dd4	-0.016402163
95	0xbd012df1	-0.031537954
96	0x3cbbb7e4	0.022914834
97	0x3c7e5538	0.015523247
98	0x3b92304d	0.0044613243
99	0xbc387bc0	-0.011259973
100	0x3c3c6e27	0.011500872
101	0xbcc09f09	-0.023513334
102	0x3cc4c044	0.02401746
103	0xbcd1fae8	-0.025632337
104	0xbd081c92	-0.03323037
105	0xbc9fe284	-0.01951719
106	0xbc0902d5	-0.008362492
107	0xbcb5d947	-0.022198332
108	0xbbbb55c9	-0.0057170135
109	0xbc7989b8	-0.015230589
110	0xbacd33b3	-0.0015655666
111	0xbcce1e34	-0.025160886
112	0x3c83c500	0.016085148
113	0xbc60f933	-0.013731289
114	0xbc1d2151	-0.009590463
115	0x3c8b8673	0.017031884
116	0xbd0d1aad	-0.034449268
117	0xbcab7a4b	-0.020932337
118	0x3c307ca8	0.010771908
119	0xbce2653b	-0.027636161
120	0x3c074316	0.008255741
121	0x3c516040	0.012779295
122	0x3c41694e	0.011804892
123	0xbd0d02a6	-0.034426354
124	0xbd127474	-0.03575559
125	0xb9edc665	-0.00045351978
126	0xbb2b7813	-0.00261641
127	0xbcd68d00	-0.02619028
128	0x3ba2e104	0.0049706716
129	0x3c4df5c2	0.0125708
130	0x3c841c38	0.016126737
131	0xbcd33def	-0.025786368
132	0xbb94b653	-0.0045383363
133	0x3b6165db	0.0034392986
134	0xbcc22724	-0.023700304
135	0x3c11e0d8	0.008903705
136	0xbc41080d	-0.011781705
137	0xbbb4cd9a	-0.0055176737
138	0x3c4bbb5d	0.012434808
139	0x3cd615e5	0.026133487
140	0xbc96c463	-0.018404191
141	0x3cd1454e	0.025545742
142	0x3cbb8d27	0.022894455
143	0x3ad5108d	0.0016255543
144	0xbd0f4db1	-0.0349862
145	0x3c9841e3	0.018586105
146	0xbd0f6d47	-0.035016324
147	0x3bc003e0	0.005859837
148	0xbc3ef998	-0.0116561875
149	0xbce6825f	-0.028138338
150	0xbcf37ed0	-0.029723555
151	0xbb7768eb	-0.0037751745
152	0xbb806a66	-0.0039189337
153	0xbcb5780d	-0.022151971
154	0xbccf5766	-0.02531023
155	0x3cb447fc	0.022006981
156	0xbca0f914	-0.01965002
157	0x3c21a497	0.009865901
158	0xbc430803	-0.011903766
159	0xbc62dcf0	-0.013846621
160	0xbbd183b8	-0.006393876
161	0xba1346c0	-0.00056181476
162	0x3ccd962a	0.025096018
163	0x3c0e69db	0.00869223
164	0x3cd5ebb9	0.026113378
165	0x3cbb9043	0.022895938
166	0x3cac87e9	0.0210609
167	0xbd12f595	-0.035878737
168	0xbcd8bd94	-0.026457585
169	0xbc98ffa2	-0.018676583
170	0xbc57c776	-0.013170114
171	0x3c23f2c4	0.01000661
172	0xbc754e8e	-0.014972342
173	0xbcff72b5	-0.031182626
174	0x3ca44535	0.020052532
175	0x3c2e2ba8	0.010630526
176	0xbbddb345	-0.0067657554
177	0xbce9b76a	-0.028529841
178	0xbcb5872e	-0.022159185
179	0x3cbb2e1b	0.022849133
180	0x3c94aab0	0.018147796
181	0x3b27c736	0.0025600917
182	0xbc4b1b04	-0.012396578
183	0x3cc4ce26	0.02402408
184	0xbbe11d6d	-0.006869963
185	0x3c020004	0.007934574
186	0x3c211d39	0.009833627
187	0xbc7e4eea	-0.015521744
188	0x3c15ec73	0.009150612
189	0x3b17a956	0.0023141704
190	0xbce8b82b	-0.02840813
191	0x3c337c7b	0.010954971
192	0xbcc2e46a	-0.023790557
193	0xbccafdb9	-0.024779188
194	0xbadb7339	-0.0016742713
195	0xbc9b5b70	-0.0189645
196	0xbcf3a55f	-0.029741941
197	0xbb596cad	-0.0033176348
198	0x3b1b180b	0.0023665454
199	0x3bbb7612	0.005720862
200	0x3c72cd87	0.014819509
201	0x3cc35331	0.02384338
202	0xbc52009d	-0.012817529
203	0x3b85a49a	0.00407846
204	0xbd0a6247	-0.03378513
205	0xbcbefcd6	-0.023313921
206	0xbc99457d	-0.018709892
207	0xbc09a655	-0.008401473
208	0xbce97eb1	-0.028502794
209	0xbc203666	-0.009778595
210	0xbd0409c3	-0.032235872
211	0x3c9778fd	0.018490309
212	0xbb556ccd	-0.003256607
213	0xba1bc12d	-0.0005941566
214	0x3c93bf05	0.018035421
215	0xbc0ffbcf	-0.008788063
216	0xbcc0d6e1	-0.023539962
217	0x3c30fc24	0.0108023025
218	0x3bb1840f	0.005417354
219	0xbbcb7412	-0.006208905
220	0x3be5f0f6	0.00701725
221	0x3c9fb7af	0.019496767
222	0x3c8de615	0.017321626
223	0xbcda6e6c	-0.026663981
224	0xbcdc75ce	-0.026911642
225	0xbca3da00	-0.020001411
226	0xbb3a9473	-0.002846983
227	0xbc4b82e3	-0.012421343
228	0xbc84cf2d	-0.01621207
229	0x3bf0b8b7	0.0073462385
230	0x3ac636d2	0.0015122539
231	0x3cc765e8	0.024340585
232	0xbc8a0229	-0.016846733
233	0x3cab303a	0.02089702
234	0xbcb20818	-0.021732375
235	0x3c564458	0.013077818
236	0x3cd4c8d5	0.02597467
237	0x3c66e9b5	0.014093806
238	0x3c88035f	0.01660317
239	0x3cbce3c7	0.023057831
240	0x3c31bdda	0.010848487
241	0xbbbd4346	-0.005775842
242	0xbcf1ec39	-0.029531585
243	0xbcfda74c	-0.030963562
244	0xbc77f863	-0.015134904
245	0x3c68a76a	0.014200071
246	0xbcc8d5cc	-0.024516009
247	0x3c6123e6	0.013741469
248	0x3ca9a3ef	0.020708052
249	0xbcf6ce02	-0.030127529
250	0xbd076ff3	-0.033065747
251	0x3c96a44f	0.018388895
252	0x3c584702	0.013200523
253	0x3cc34874	0.02383826
254	0xbc89857e	-0.016787287
255	0x3c9ea087	0.019363655

bias f4 [128]
0	0x3cb3f56f	0.021967618
1	0x3d2e4af5	0.042551953
2	0x3d7b8884	0.06140949
3	0x3dc0fe9d	0.09423564
4	0xbca9f144	-0.020744927
5	0x3d5a3f33	0.053282928
6	0x3cce47ff	0.025180815
7	0x3d157c96	0.036495768
8	0xbceb12a9	-0.028695421
9	0xbcdea468	-0.027178004
10	0x3b344463	0.0027506582
11	0x3caa0f02	0.02075911
12	0xbdb11389	-0.08646304
13	0x3d0621e7	0.032747176
14	0xbcd10f5d	-0.025520021
15	0xbcaf02f7	-0.021363718
16	0xbce3e87e	-0.027820822
17	0x3df52050	0.11969054
18	0x3befdd4f	0.007320083
19	0xbcfc3200	-0.03078556
20	0xbc2b10da	-0.010441029
21	0xbcd1910c	-0.025581859
22	0x3c996465	0.01872463
23	0xbd17d3d9	-0.037067268
24	0x3c679781	0.014135242
25	0xbc7146fc	-0.014726397
26	0x3c603080	0.013683438
27	0xb9a16600	-0.0003078431
28	0x3e39e45a	0.18153515
29	0x3c80486e	0.015659537
30	0xbd0b3f74	-0.03399606
31	0x3bea6f84	0.007154407
32	0x3c9977f2	0.018733952
33	0x3cb52b14	0.022115268
34	0x3c54d433	0.012990045
35	0xbd07da0c	-0.03316693
36	0xbcd9d073	-0.026588654
37	0xbc9bae76	-0.019004088
38	0x3d8cd02b	0.068756424
39	0xbcd00740	-0.025394082
40	0x3cef46fa	0.029208649
41	0x3c903d2e	0.017607298
42	0x3ccf6df4	0.025320984
43	0xbc673de2	-0.014113875
44	0xbcdec84e	-0.027195122
45	0xbc9a20c0	-0.018814445
46	0xbbf4841a	-0.007462037
47	0xbccf5ef4	-0.025313832
48	0x3c188047	0.009307927
49	0xbcaa9c04	-0.020826347
50	0xbda38fd1	-0.07986415
51	0xbc94b36f	-0.018151967
52	0x3cb646fd	0.022250647
53	0xbb88ba4a	-0.004172598
54	0xbcdaf5e9	-0.026728587
55	0x3b345ce8	0.0027521197
56	0x3da59af9	0.08086199
57	0xbd4601b4	-0.048341468
58	0x3d4b626b	0.049654406
59	0x3c00eae9	0.007868507
60	0xbd5b478c	-0.05353503
61	0xbcb3fb36	-0.021970373
62	0x3caf22b4	0.021378852
63	0x3bae78aa	0.005324443
64	0xbcf656f9	-0.030070769
65	0xbc2c9a9d	-0.01053491
66	0xbb29da1e	-0.0025917361
67	0x3d57af16	0.05265721
68	0xbc7522d9	-0.014961922
69	0x3c9e404a	0.019317765
70	0xbae61d3a	-0.0017556318
71	0xba3d6e31	-0.00072261976
72	0x3d7d79c4	0.061883703
73	0x3c1d08e0	0.0095846355
74	0x3cbb5e93	0.022872245
75	0xbd1e2ac2	-0.038614996
76	0xbc01323f	-0.007885515
77	0x3dcee5c9	0.10102422
78	0xbc5c9aa4	-0.013464604
79	0xbcd33968	-0.02578421
80	0x3bf3f5c2	0.007445068
81	0xbc9e81cf	-0.019349007
82	0xbcea7327	-0.028619362
83	0xbbfee3e0	-0.0077786297
84	0xbcc9d176	-0.024636012
85	0x3d160498	0.036625475
86	0xbcae2b91	-0.021261008
87	0x3c7bcb17	0.015368245
88	0xbd6e6224	-0.058199063
89	0xbe6174d1	-0.22017218
90	0xbc811536	-0.015757184
91	0x3c3a9032	0.011386918
92	0x3bef7f7a	0.0073088976
93	0xbb21a01f	-0.002466209
94	0xbce0dcb9	-0.027448999
95	0x3be91fd3	0.0071143894
96	0xbca8a1f2	-0.020585034
97	0x3c41bfc8	0.011825509
98	0xbb5c1317	-0.0033580714
99	0x3e1563c2	0.14588836
100	0xbc24b72c	-0.010053437
101	0x3b7c1d65	0.003846967
102	0xbd88d9d7	-0.06682175
103	0x3d060371	0.032718126
104	0xbb1ddd38	-0.0024088155
105	0xbd8a8627	-0.06763869
106	0xbdb9654d	-0.09052525
107	0xbc97a380	-0.01851058
108	0x3d89e233	0.06732597
109	0xbd4bff21	-0.049803857
110	0xbbff3d86	-0.0077893166
111	0x3cbc2572	0.022967074
112	0xbcf208b2	-0.029545162
113	0x3badd409	0.0053048176
114	0xbc95a52d	-0.018267239
115	0xbdb716b4	-0.08939877
116	0x3b690ffa	0.0035562501
117	0xbd028c37	-0.031872
118	0x3c7937d6	0.015211066
119	0xbdd51585	-0.10404495
120	0x3cc2e6bd	0.023791665
121	0xbcb784a0	-0.022402108
122	0x3b0ff018	0.0021963175
123	0xbcb3f013	-0.021965062
124	0x3b38bdc8	0.002818929
125	0xbcf7ecfb	-0.030264368
126	0xbba85490	-0.0051370338
127	0x3cc20fc5	0.02368916

weight f4 [2, 128]
0	0xbcddf18d	-0.02709272
1	0x3d4d6b8a	0.050151385
2	0xbe7884b3	-0.2426937
3	0xbe3a73f8	-0.18208301
4	0x3baa9541	0.0052057807
5	0xbe7e5c74	-0.24839956
6	0xbc0b3181	-0.008495689
7	0xbcb55269	-0.022134023
8	0xbd4a2348	-0.049350053
9	0xbaf99f7f	-0.0019044726
10	0x3e3730e4	0.17889744
11	0xbda6b658	-0.08140248
12	0x3ed94be8	0.42440724
13	0xbe469a92	-0.19394901
14	0xbd18eb40	-0.037333727
15	0xbe03a11f	-0.12854432
16	0x3e258a1d	0.16165967
17	0xbd644b09	-0.05573562
18	0xbd289a1b	-0.04116259
19	0xbd283e17	-0.04107484
20	0xbd2d0986	-0.04224541
21	0xbda9b6c4	-0.08286813
22	0xbce32096	-0.0277255
23	0x3c7e1546	0.015508002
24	0xbd3ee3a6	-0.04660382
25	0x3e11f98d	0.14255352
26	0xbd3c558e	-0.04598003
27	0x3d933014	0.071869045
28	0xbe49a975	-0.19693549
29	0xbc5c5e2a	-0.013450185
30	0xbd22fd4f	-0.039792355
31	0x3e22dcc8	0.15904534
32	0x3e0a6ca2	0.13518003
33	0xbca31f42	-0.019912366
34	0x3d06da0a	0.032922782
35	0xbd00de5d	-0.031462062
36	0xbd374595	-0.044744093
37	0x3e520b8a	0.20512214
38	0x3dd3e628	0.10346633
39	0x3e3293cc	0.17439193
40	0xbddab1f6	-0.106784746
41	0x3e0fff66	0.1406227
42	0x3daf62d2	0.0856377
43	0xbd5e895d	-0.05433022
44	0xbd93e120	-0.072206736
45	0xbd39a063	-0.045318972
46	0x3d942d52	0.07235207
47	0x3ca25838	0.019817457
48	0xbcdf58a6	-0.02726395
49	0xbd2cf999	-0.042230222
50	0x3fa17c63	1.2616085
51	0xbc418a92	-0.011812823
52	0xbd3b0c24	-0.045665875
53	0xbd961e17	-0.07329958
54	0x3e96914e	0.29407734
55	0x3cf8b9e9	0.030362086
56	0xbd635e18	-0.055509657
57	0x3ed2053c	0.4101962
58	0xbeb81344	-0.35952199
59	0xbc8d7641	-0.017268302
60	0x3ef23cf3	0.47312126
61	0x3e39e13e	0.1815233
62	0x3c9c8270	0.019105166
63	0xbd8ab5b6	-0.0677294
64	0xbc5a2d40	-0.0133164525
65	0xbd70720f	-0.058702525
66	0x3d3a901b	0.045547586
67	0x3f2b9bc5	0.6703456
68	0xbd38e363	-0.045138728
69	0x3e21789a	0.15768662
70	0x3ec2bac1	0.38033107
71	0xbc08115e	-0.008304922
72	0xbe86ec31	-0.26352075
73	0xbb97fcba	-0.0046382817
74	0xbc6d5c54	-0.014487345
75	0x3b38db2b	0.0028206806
76	0x3d9677a7	0.073470406
77	0xbe76d0e3	-0.24103121
78	0xbd1df5fc	-0.038564667
79	0xbd88a927	-0.06672888
80	0xbd6c8893	-0.057747435
81	0x3d9f549a	0.07779808
82	0xbd220b7a	-0.039561726
83	0xbcf8b59e	-0.03036004
84	0x3e44d9a6	0.19223651
85	0x3d3fb332	0.046801753
86	0x3d332cee	0.04374402
87	0x3c9fad47	0.019491805
88	0x3d9f86e7	0.077894025
89	0xbecd05cb	-0.40043482
90	0x3e963f83	0.2934533
91	0xbcdd8eec	-0.02704569
92	0x3d57a03e	0.052643053
93	0xbd9fc781	-0.07801724
94	0x3df88107	0.12133985
95	0x3cbe2e5a	0.023215462
96	0x3ea74662	0.32670885
97	0x3cbb1f78	0.022842154
98	0xbe840e28	-0.2579205
99	0x3db38b08	0.087667525
100	0xbd9792f2	-0.074010745
101	0x3c751b27	0.014960087
102	0x3e269114	0.1626628
103	0xbe5c7816	-0.21530184
104	0xbc594fde	-0.013263671
105	0x3ddb2754	0.107008606
106	0x3f2f6abe	0.6852225
107	0xbd78c91f	-0.06073868
108	0xbd51f52a	-0.051259197
109	0x3e94f805	0.29095474
110	0xbcf53ca7	-0.029936148
111	0x3db95987	0.09050279
112	0xbcc43bbb	-0.023954263
113	0xbd785ce9	-0.06063548
114	0x3cc9ca3f	0.024632571
115	0x3edc74aa	0.43057758
116	0xbd015354	-0.03157361
117	0x3e48e526	0.19618663
118	0xbced9c8a	-0.029005308
119	0x3e929606	0.28630084
120	0xbda451e5	-0.08023433
121	0xbd7c8eed	-0.061659742
122	0xbd03d527	-0.0321857
123	0x3e3660ed	0.17810412
124	0x3d91d947	0.071215205
125	0x3b2d865e	0.0026477794
126	0xbd2b9aba	-0.041895606
127	0x3d345ecc	0.044035718
128	0x3c7af96e	0.015318258
129	0xbdf18833	-0.11793556
130	0xbe9756be	-0.29558367
131	0x3d8b1b1d	0.06792281
132	0xbd65e7fc	-0.05612944
133	0x3df40569	0.119150944
134	0xbce4f73d	-0.027949924
135	0xbdccf045	-0.10006765
136	0xbd86a48a	-0.06574352
137	0xbcd96fe4	-0.026542611
138	0x3d8bcb3d	0.06825874
139	0xbd4bee24	-0.049787655
140	0xbd303863	-0.043022525
141	0x3d3ab2dc	0.04558073
142	0xbd0d24e9	-0.03445903
143	0xbec6ae55	-0.3880488
144	0x3e0bde75	0.1365908
145	0xbe12b4e5	-0.14326818
146	0x3e72efba	0.23724261
147	0x3d2d20ff	0.042267796
148	0x3d865cfb	0.06560703
149	0xbd7d5d62	-0.061856635
150	0x3c86c132	0.016449545
151	0x3df0cc41	0.11757708
152	0xbd13b555	-0.036061604
153	0x3e4a9b4c	0.19785804
154	0xbca0ee9c	-0.019645028
155	0x3e5fc0d5	0.21850903
156	0x3ed7b056	0.4212672
157	0xbd399237	-0.045305457
158	0x3d17c38a	0.037051715
159	0x3e2ecd6d	0.17070551
160	0x3d6fa879	0.058510277
161	0xbd4bae93	-0.049727034
162	0xbcdf429b	-0.02725344
163	0xbd49a274	-0.049227193
164	0xbd19ea2a	-0.037576832
165	0x3e2267b7	0.15859877
166	0x3e90449e	0.2817735
167	0x3e117d7c	0.14208025
168	0x3e21b8ad	0.15793104
169	0x3e052946	0.13004026
170	0x3c8c49c7	0.017125024
171	0x3d9c9b85	0.076468505
172	0xbcc8196c	-0.024426185
173	0xbc91308b	-0.017723342
174	0x3e5ff090	0.21869111
175	0xbce4113d	-0.027840251
176	0xbd8e4071	-0.06945885
177	0x3ade52bd	0.0016961914
178	0x3f2d38db	0.6766488
179	0xbd76c6cd	-0.060248185
180	0xbd6404a3	-0.055668484
181	0x3d0a7c4f	0.033809956
182	0x3e3feae3	0.18741946
183	0xbd901291	-0.07034791
184	0xbe01c6d7	-0.12673508
185	0x3d118f5f	0.03553712
186	0xbeb43f85	-0.35204712
187	0x3e378da0	0.1792512
188	0x3f71d1e7	0.9446091
189	0x3e040242	0.12891486
190	0xbd9443ac	-0.0723947
191	0xbd6bca15	-0.057565767
192	0xbd66457b	-0.056218605
193	0x3bdcb9cb	0.0067360154
194	0xbd9287a4	-0.07154778
195	0xbdf2c07a	-0.11853118
196	0xbc4820cb	-0.01221485
197	0x3e11f452	0.14253357
198	0xbdf22005	-0.118225135
199	0xbc82ce7e	-0.015967604
200	0xbe95c76c	-0.2925371
201	0xbd0d831d	-0.034548867
202	0xbd9362b0	-0.071965575
203	0x3e0b7898	0.13620222
204	0x3b8fc4fb	0.0043874956
205	0x3e27d439	0.1638955
206	0x3cafad99	0.021445083
207	0x3d2ab7b3	0.041679095
208	0xbd3a30d7	-0.045456734
209	0xbd91838b	-0.07105168
210	0x3dae16f9	0.085004754
211	0x3da5a78c	0.08088598
212	0x3e0dd5f4	0.13851148
213	0xbe03aeab	-0.128596
214	0xbd43f776	-0.04784342
215	0x3d8e0403	0.06934359
216	0x3e176f3a	0.14788523
217	0xbe971450	-0.29507685
218	0xbe83f959	-0.25776175
219	0xbc11300f	-0.008861556
220	0xbd6d8be7	-0.05799475
221	0x3dbb1e5a	0.091366485
222	0x3d9b0f64	0.07571295
223	0xbd4645db	-0.048406463
224	0xbccdc0dd	-0.025116378
225	0x3e23d0a8	0.15997565
226	0x3cbddc8f	0.02317646
227	0xbe82aff1	-0.25524858
228	0x3dabf42e	0.08396183
229	0xbda14cdc	-0.07875988
230	0x3e1d3b1b	0.15354578
231	0xbe22d164	-0.15900189
232	0xbc81fd97	-0.015867991
233	0x3e2c46f5	0.16823943
234	0x3f419406	0.7561649
235	0xba690ef6	-0.0008890474
236	0xbdc271d9	-0.09494371
237	0xbd9ac478	-0.07557005
238	0xbcc7c051	-0.024383696
239	0x3e2c0aba	0.16800967
240	0x3d806a28	0.06270248
241	0xbd2cc6be	-0.042181723
242	0xbd91210f	-0.070863836
243	0x3e576fe3	0.21038775
244	0xbd0f59ad	-0.03499763
245	0x3f06ce91	0.52658945
246	0xbd030ac6	-0.031992696
247	0x3ddf9622	0.109173074
248	0x3ca0d795	0.019634048
249	0xbcf7c8d2	-0.030247126
250	0x3dbaabae	0.091147766
251	0x3f24c181	0.64357764
252	0xbd62a33a	-0.055331446
253	0xbb1655e5	-0.002293938
254	0xbd06ccc3	-0.03291012
255	0x3e67f3f5	0.22651656

bias f4 [2]
0	0xbe012724	-0.12612587
1	0x3cc785d3	0.024355805
