saved_models/run8/model_8000.pth (torch, 550374 bytes, 6 tensors)

weight f4 [1024, 4]
0.66261256 0.21195215 -0.18638362 0.4350418 0.446868 -0.03476123 -0.45641643 -0.19234166
-0.2462894 -0.25679445 0.28470477 -0.35566774 0.13952161 0.32310185 0.34717444 0.6341667
0.17846087 0.35212612 -0.24909373 -0.16713366 -0.19270617 -0.058922537 -0.46434614 0.067908585
0.2982253 0.0054944456 0.20921096 -0.32601997 0.46886176 0.2737351 0.12911971 -0.014882065
-0.20351383 -0.22717611 0.05301715 0.18032534 0.46266398 -0.2794248 0.003084947 -0.53814924
0.4319108 -0.12235994 0.224687 -0.14025764 0.5240097 0.095129095 -1.2825763 -0.2444077
0.5788419 -0.13239671 0.17886169 -0.6089279 -0.41851056 -0.21870641 -0.18944599 0.37679586
0.5294578 0.026341308 0.29978648 -0.5006567 -0.4142674 -0.21606436 -0.19013678 -0.7617756
0.24275513 0.011399047 0.10832984 -0.25022998 0.49565098 -0.3141401 -1.0235888 -0.45550853
-0.37725103 0.37667903 -1.0281172 -0.081388436 -0.4036698 0.19432443 0.011429543 0.26499557
0.43768108 0.10725676 0.39092103 -0.016144548 -0.51260555 -0.05953964 -0.15692113 0.414865
-0.37417287 -0.39672533 0.0083602965 0.19138502 0.46386877 -0.035040513 -0.6935415 -0.27788997
0.17919399 0.06605155 0.33548084 0.44954917 0.4441485 0.1083724 0.28242186 -0.2279858
0.23682159 -0.089781836 0.31180692 -0.29199982 0.11130325 -0.1676472 0.05202286 -0.20924535
0.17240997 -0.3131449 0.2598102 -0.14350866 0.39472914 0.1590985 0.20695595 0.7567329
-0.51676923 0.038651034 -0.15179446 0.5577246 0.25924787 0.044281725 -0.0039783716 0.158532
0.42174998 -0.16603012 0.14761285 0.37956923 0.100108236 -0.16144425 0.0075611616 -0.794544
-0.51657754 0.16052252 0.2467592 -0.39843592 0.119321816 0.40390462 0.33462775 -0.47876823
0.3771507 -0.35747665 0.040071256 0.099683724 0.2002854 -0.2812319 -0.10208899 0.15642917
-0.22153494 -0.4274893 -0.015180221 -0.66164577 -0.24870253 0.29912022 0.1656112 0.5464079
0.33236757 0.22829604 0.0033514185 -0.21013996 0.3782981 -0.0006165433 -0.05778828 -0.8111282
-0.44752392 0.41330126 -0.33805212 -0.3430478 -0.2853351 -0.0037075563 0.018155672 0.3987918
0.5770221 -0.15948631 -0.38621032 -0.22258236 -0.23967518 0.2129272 -0.23629698 -0.65745986
-0.38618904 -0.2620544 -0.09053269 -0.6565178 -0.40510407 0.5138949 0.32975772 0.25403625
-0.4115093 0.13527775 0.0689756 -0.8713548 -0.21692115 0.27998185 0.04728268 -0.43482617
-0.21818501 -0.29945824 0.330426 -0.75801885 -0.22205645 -0.3959006 -0.09901338 -0.77282447
0.44568598 0.40486428 -0.25533986 -0.5692603 -0.3454889 -0.023273401 0.25469798 0.428488
0.60566634 0.547939 -0.42475998 -0.31205305 -0.32174733 -0.10805719 0.0656296 -0.48027956
0.37085935 -0.038761314 -0.0307035 -0.6138462 -0.43345895 0.22502059 0.25771844 -0.48168242
0.46183205 0.20328912 -0.10437673 -0.64539945 0.033810493 -0.047707908 -0.0022368815 0.24476486
0.21567391 0.25025466 -0.2267224 -0.26519337 -0.052623406 -0.08942812 -1.032753 -0.14291844
-0.08237266 -0.031017503 0.31605366 0.52995217 0.2458967 -0.31944376 -0.06602184 -0.7544676
00000000: faa0 293f fc09 593e 59db 3ebe ccbd de3e
00000010: e2cb e43e cb61 0ebd 6aaf e9be 36f5 44be
00000020: 4a33 7cbe 907a 83be d3c4 913e 151a b6be
00000030: c1de 0e3e 9b6d a53e d9c0 b13e c058 223f
00000040: 72be 363e e049 b43e 6d12 7fbe 1625 2bbe
00000050: c454 45be c258 71bd c7be edbe a813 8b3d
00000060: fdb0 983e c00a b43b 663b 563e 17ec a6be
00000070: a60e f03e 0227 8c3e f537 043e e8d3 73bc
00000080: ee65 50be dba0 68be 8328 593d 35a7 383e
00000090: 4be2 ec3e c410 8fbe d22c 4a3b 26c4 09bf
000000a0: 6a23 dd3e d997 fabd 5914 663e b39f 0fbe
000000b0: 8025 063f 0bd3 c23d 762b a4bf 0346 7abe
000000c0: fc2e 143f 0193 07be 8527 373e b3e2 1bbf
000000d0: 0447 d6be 93f4 5fbe 21fe 41be 63eb c03e
000000e0: 8c8a 073f bac9 d73c 9d7d 993e 0a2b 00bf
000000f0: db1a d4be fa3f 5dbe 37b3 42be ba03 43bf
00000100: cd94 783e 12c3 3a3c 09dc dd3d 251e 80be
00000110: f7c5 fd3e f9d6 a0be f504 83bf 6a38 e9be
00000120: 0c27 c1be 13dc c03e 5899 83bf fbae a6bd
00000130: cfad cebe fcfc 463e fa42 3b3c 80ad 873e
00000140: bc17 e03e 6fa9 db3d cd26 c83e 9241 84bc
00000150: 1e3a 03bf d6df 73bd efaf 20be 2f69 d43e
00000160: 9693 bfbe 951f cbbe a0f9 083c 6ffa 433e
00000170: 3580 ed3e a486 0fbd f08b 31bf 9847 8ebe
00000180: a17e 373e 0946 873d 25c4 ab3e 4f2b e63e
00000190: 6f67 e33e 59f2 dd3d 9999 903e 1c75 69be
000001a0: 5c81 723e 8adf b7bd 28a5 9f3e 0081 95be
000001b0: f5f2 e33d b5ab 2bbe ec15 553d 6a44 56be
000001c0: 3d8c 303e 8754 a0be d805 853e eff3 12be
000001d0: f019 ca3e b8ea 223e 43ec 533e 3fb9 413f
000001e0: fd4a 04bf 8c50 1e3d 0270 1bbe 0ac7 0e3f
000001f0: 23bc 843e c160 353d 005d 82bb 3656 223e
00000200: 9def d73e cd03 2abe d327 173e e656 c23e
00000210: 8c05 cd3d a451 25be 9fc3 f73b 3c67 4bbf
00000220: 6d3e 04bf 0460 243e 72ae 7c3e cbff cbbe
00000230: ff5e f43d 96cc ce3e 5454 ab3e 1c21 f5be
00000240: e619 c13e 2e07 b7be c221 243d fb26 cc3d
00000250: 9e17 4d3e a1fd 8fbe 0814 d1bd f82e 203e
00000260: 0eda 62be e1df dabe 76b6 78bc 9e61 29bf
00000270: e0ab 7ebe 4926 993e fb95 293e 63e1 0b3f
00000280: 152c aa3e 70c6 693e 79a3 5b3b ee2e 57be
00000290: 4ab0 c13e 859f 21ba 67b3 6cbd 19a6 4fbf
000002a0: db21 e5be 399c d33e 2b15 adbe f6a3 afbe
000002b0: 7117 92be 79fa 72bb 34bb 943c 702e cc3e
000002c0: b8b7 133f 6150 23be 5cbd c5be a1ec 63be
000002d0: 696d 75be 9709 5a3e d6f7 71be 4a4f 28bf
000002e0: 92ba c5be ff2b 86be 3469 b9bd 8d11 28bf
000002f0: cd69 cfbe 9e8e 033f 01d6 a83e 0a11 823e
00000300: 59b1 d2be 4086 0a3e 1443 8d3d 1c11 5fbf
00000310: 9420 5ebe c859 8f3e 7cab 413d 89a1 debe
00000320: e46b 5fbe 9752 99be 992d a93e 860d 42bf
00000330: c462 63be 7cb3 cabe 87c7 cabd d3d7 45bf
00000340: f430 e43e 5f4a cf3e e8bb 82be 0bbb 11bf
00000350: ece3 b0be dca7 bebc c667 823e c762 db3e
00000360: f30c 1b3f bb45 0c3f 247a d9be 6bc5 9fbe
00000370: 11bc a4be 174d ddbd d068 863d 34e7 f5be
00000380: 47e1 bd3e 2fc4 1ebd e885 fbbc 0625 1dbf
00000390: 55ee ddbe cc6b 663e acf3 833e 149f f6be
000003a0: 4075 ec3e 062b 503e 78c3 d5bd e638 25bf
000003b0: df7c 0a3d 5e69 43bd a598 12bb a4a3 7a3e
000003c0: 9fd9 5c3e 6121 803e eb29 68be 6dc7 87be
000003d0: a48b 57bd 1726 b7bd 4031 84bf 3659 12be
000003e0: ffb2 a8bd 6b18 febc c9d1 a13e f2aa 073f
000003f0: 58cc 7b3e 228e a3be 7536 87bd ca24 41bf

bias f4 [1024]
-0.21228029 -0.5706635 0.071402885 -0.13883595 -0.14898619 -0.66860336 -0.40910974 -0.24902882
-0.44044793 0.37765244 0.3383805 0.3851945 -0.03908764 0.03536886 -0.15227884 -0.3679073
0.108947404 -0.014273986 0.13974127 0.3775843 -0.38816482 0.33020577 -0.18483052 -0.4681142
0.37833077 0.1266112 0.14887477 0.18151481 0.07478173 -0.65350676 0.44244733 0.3917063
0.29063782 0.19653538 -0.4639869 -0.59882295 0.21933958 0.20831718 -0.5015418 0.3007264
0.05485238 -0.22294971 0.5044561 -0.47100523 -0.40367487 0.64767975 -0.42083925 0.051847655
-0.40809387 0.10342848 -0.15502962 -0.6089176 -0.05810091 0.5201975 0.41650158 -0.3964056
0.45838097 -0.0067525227 0.17059483 0.36967078 -0.147395 0.6739659 -0.34569597 0.52158546
0.4074162 0.049305283 -0.7608235 0.2852153 0.12209325 -0.30542403 0.26728028 -0.5563911
-0.8580725 -0.40417868 0.34725016 0.37257066 0.2225933 -0.52459085 0.44177413 -0.34278658
-0.13677044 0.29928628 -0.09741121 -0.27974164 0.25145468 -0.1954709 -0.42727822 -0.31111678
-0.4089936 -0.7182142 0.20601189 0.3641282 -0.44237804 0.3836925 -0.5432622 0.2784881
-0.4067459 -0.33586672 -0.50086117 0.027198108 0.42803967 -0.0704366 -0.71144235 -0.8073986
-0.13608058 0.37123913 0.23544905 0.14313504 0.36701158 -0.6179955 -0.49318102 -0.8248395
0.5428133 0.12654437 0.29246214 -0.29573104 -0.58533365 0.60487497 -0.14439194 0.21827243
-0.4288515 0.28092173 0.0034391233 -0.07386131 0.38617817 0.36737293 -0.17368051 -0.47180757
0.5624011 -0.78490835 0.34596786 0.6060864 -0.26039642 -0.3934475 -0.23482232 -0.46237165
0.2933087 0.22991171 0.4166422 -0.44209835 0.38268864 -0.7717041 -0.22830455 0.24269316
0.3687446 -0.02963001 0.074176334 -0.27332938 0.4093908 0.21896869 -0.56589115 -0.59665036
-0.4536895 0.45893824 -0.04007768 -0.96955013 -0.82746905 -0.28758028 0.3246084 -0.256673
0.4759382 -0.26619485 0.112996876 0.3137599 -0.29826832 -0.56609696 -0.44872743 0.55607843
0.15182121 -0.2536647 -0.37330896 0.09934491 -0.44822255 -0.24279442 0.06823561 -0.036867347
-0.42879385 -0.33240813 -0.25895467 0.40931195 -0.4403582 0.1543602 0.23082376 -0.05965058
-0.32962173 0.28549737 0.33112326 -0.35972014 0.21940215 -0.104071945 0.73771995 0.21462187
0.0013479203 0.4972857 -0.14106989 0.37850574 0.038016036 0.6372229 0.06865286 0.17898214
-0.7136072 0.270504 0.16365269 0.4269411 -0.0011372964 -0.46311364 -0.49741158 0.2676017
-0.2866602 0.7078534 0.14302811 0.45568654 0.5079678 0.64656 -0.19609979 -0.30037144
-0.41879097 0.2324239 -0.4771654 0.18149652 -0.27114803 -0.00060884847 0.65593326 0.47290292
-0.39756447 0.45115593 -0.14214124 -0.22311105 -0.46056077 0.10086159 -0.41632006 -0.40635395
-0.3434904 0.49600175 -0.19161525 -0.06867097 -0.14425135 0.14361489 0.15364744 0.14218555
0.36913785 -0.67140245 -0.4560539 -0.49087304 0.33388987 -0.31763867 0.2220291 -0.47900236
0.41546997 0.1641451 0.30211556 -0.11268488 -0.37397575 0.17312437 -0.35907555 -0.21061279
00000000: 0160 59be 0117 12bf ad3b 923d 032b 0ebe
00000010: d68f 18be 9729 2bbf d576 d1be 6901 7fbe
00000020: 6482 e1be a95b c13e 3540 ad3e 3738 c53e
00000030: 5c1a 20bd f0de 103d fcee 1bbe 585e bcbe
00000040: d11f df3d 70dd 69bc 5618 0f3e bb52 c13e
00000050: 8abd c6be bb10 a93e 3644 3dbe aaac efbe
00000060: 92b4 c13e 5ea6 013e a172 183e 05df 393e
00000070: 2a27 993d 384c 27bf 7588 e23e ba8d c83e
00000080: 7bce 943e 9240 493e b18f edbe 764c 19bf
00000090: 8e9a 603e 1951 553e 0b65 00bf d0f8 993e
000000a0: e4ac 603d ee4c 64be 0924 013f 9927 f1be
000000b0: 79ae cebe 57ce 253f 3e78 d7be 355e 543d
000000c0: aef1 d0be 50d2 d33d 16c0 1ebe 06e2 1bbf
000000d0: 38fb 6dbd aa2b 053f b23f d53e adf5 cabe
000000e0: e9b0 ea3e 4444 ddbb 69b0 2e3e 7d45 bd3e
000000f0: b7ee 16be 0789 2c3f 10ff b0be a086 053f
00000100: db98 d03e 56f4 493d 54c5 42bf bd07 923e
00000110: 070c fa3d 8a60 9cbe f6d8 883e a66f 0ebf
00000120: a4aa 5bbf 82f0 cebe c6ca b13e 95c1 be3e
00000130: 7fef 633e 964b 06bf 3830 e23e b981 afbe
00000140: 8d0d 0cbe 0d3c 993e 877f c7bd 4c3a 8fbe
00000150: abbe 803e 8629 48be 36c4 dabe b34a 9fbe
00000160: 9c67 d1be e3dc 37bf c8f4 523e 036f ba3e
00000170: 607f e2be 5873 c43e 3b13 0bbf fe95 8e3e
00000180: 0041 d0be b9f6 abbe 7038 00bf 91ce de3c
00000190: 0428 db3e 1041 90bd 1621 36bf adb1 4ebf
000001a0: b558 0bbe 0e13 be3e 8e19 713e fe91 123e
000001b0: f1e8 bb3e f434 1ebf 3982 fcbe ae28 53bf
000001c0: d0f5 0a3f d994 013e 99bd 953e 0f6a 97be
000001d0: 6dd8 15bf 16d9 1a3f 7bdb 13be cf82 5f3e
000001e0: 6c92 dbbe f9d4 8f3e ea62 613b 9944 97bd
000001f0: 25b9 c53e 4e18 bc3e 4ed9 31be c390 f1be
00000200: 85f9 0f3f c1ef 48bf b322 b13e 7a28 1b3f
00000210: ae52 85be f371 c9be 4375 70be fabb ecbe
00000220: 8f2c 963e fa6d 6b3e 2052 d53e b75a e2be
00000230: c4ef c33e 668e 45bf abc8 69be 8e84 783e
00000240: 18cc bc3e a2ba f2bc c3e9 973d d4f1 8bbe
00000250: ac9b d13e 5439 603e 3ede 10bf 14be 18bf
00000260: fd49 e8be f4f9 ea3e 7e28 24bd 7034 78bf
00000270: 03d5 53bf b93d 93be 1233 a63e a56a 83be
00000280: 2cae f33e b14a 88be e86a e73d 23a5 a03e
00000290: a0b6 98be bbeb 10bf 9abf e5be 285b 0e3f
000002a0: 0577 1b3e 57e0 81be 5a22 bfbe 5875 cb3d
000002b0: 6d7d e5be 1a9f 78be 1dbf 8b3d 3702 17bd
000002c0: de8a dbbe 6631 aabe b595 84be 5691 d13e
000002d0: a176 e1be 9a10 1e3e 105d 6c3e 2b54 74bd
000002e0: 2ec4 a8be b62c 923e fd88 a93e 3d2d b8be
000002f0: f5aa 603e ac23 d5bd 37db 3c3f d6c5 5b3e
00000300: b3ac b03a 3b9c fe3e a074 10be 81cb c13e
00000310: b4b6 1b3d 0a21 233f df99 8c3d 1847 373e
00000320: f6ae 36bf 807f 8a3e 9294 273e 0698 da3e
00000330: 5611 95ba 3b1d edbe bbac febe 1703 893e
00000340: 20c5 92be e135 353f f675 123e bf4f e93e
00000350: 2e0a 023f f584 253f 62ce 48be 49ca 99be
00000360: c56b d6be 8800 6e3e 064f f4be 39da 393e
00000370: ead3 8abe 219b 1fba 3eeb 273f 5520 f23e
00000380: 928d cbbe e9fd e63e 798d 11be 3977 64be
00000390: 9fce ebbe 8590 ce3d e727 d5be a00d d0be
000003a0: f9dd afbe f1f3 fd3e ca36 44be 5ea3 8cbd
000003b0: a0b6 13be c80f 133e c155 1d3e 1799 113e
000003c0: a3ff bc3e 08e1 2bbf e67f e9be b653 fbbe
000003d0: 9df3 aa3e 89a1 a2be 995b 633e cc3f f5be
000003e0: 7bb8 d43e a715 283e e4ae 9a3e 55c7 e6bd
000003f0: c079 bfbe 8447 313e c0d8 b7be e1aa 57be

weight f4 [128, 1024]
-0.011697947 0.0013823062 0.006743237 -0.029639866 0.025067259 0.0065656286 -0.02067535 0.011459589
0.014268008 0.005841591 0.013927216 -0.0011327552 0.008710071 -0.0012976801 0.0010195822 -0.021008147
0.024539968 0.013589396 -0.030371163 0.012480398 -0.008578817 0.0029799691 0.009204489 -0.022913158
0.018284505 -0.0040625185 0.02308367 0.02610654 0.022126356 -0.031535145 -0.024786158 0.0099101085
0.0009029017 -0.027200712 0.016167516 -0.03099935 -0.0041628326 -0.010803218 -0.02510315 -0.026524149
-0.026524115 -0.027977541 0.005181929 0.0073449453 0.010638333 -0.024761176 0.011662712 -0.00064874435
0.016425848 -0.032441933 -0.00088836584 -0.034285594 -0.026208881 -0.019939097 -0.029704152 -0.008228781
0.025479455 -0.008356966 -0.004261059 0.011471301 0.021888336 0.01587033 0.0191208 -0.013933144
-0.0355581 -0.014455514 0.02107162 -0.03321796 0.021796023 0.011872815 0.004185007 -0.015200676
-0.0038690488 -0.009191721 0.011357956 0.021510707 -0.02768444 0.013402926 0.0019233171 -0.021073028
-0.021640785 0.012915819 -0.011955024 -0.009551492 -0.010335274 -0.035713766 0.0024967478 0.0014612713
-0.029604519 0.0010714938 -0.005611749 -0.022862231 0.018743848 -0.02666603 -0.016402163 -0.031537954
0.022914834 0.015523247 0.0044613243 -0.011259973 0.011500872 -0.023513334 0.02401746 -0.025632337
-0.03323037 -0.01951719 -0.008362492 -0.022198332 -0.0057170135 -0.015230589 -0.0015655666 -0.025160886
0.016085148 -0.013731289 -0.009590463 0.017031884 -0.034449268 -0.020932337 0.010771908 -0.027636161
0.008255741 0.012779295 0.011804892 -0.034426354 -0.03575559 -0.00045351978 -0.00261641 -0.02619028
0.0049706716 0.0125708 0.016126737 -0.025786368 -0.0045383363 0.0034392986 -0.023700304 0.008903705
-0.011781705 -0.0055176737 0.012434808 0.026133487 -0.018404191 0.025545742 0.022894455 0.0016255543
-0.0349862 0.018586105 -0.035016324 0.005859837 -0.0116561875 -0.028138338 -0.029723555 -0.0037751745
-0.0039189337 -0.022151971 -0.02531023 0.022006981 -0.01965002 0.009865901 -0.011903766 -0.013846621
-0.006393876 -0.00056181476 0.025096018 0.00869223 0.026113378 0.022895938 0.0210609 -0.035878737
-0.026457585 -0.018676583 -0.013170114 0.01000661 -0.014972342 -0.031182626 0.020052532 0.010630526
-0.0067657554 -0.028529841 -0.022159185 0.022849133 0.018147796 0.0025600917 -0.012396578 0.02402408
-0.006869963 0.007934574 0.009833627 -0.015521744 0.009150612 0.0023141704 -0.02840813 0.010954971
-0.023790557 -0.024779188 -0.0016742713 -0.0189645 -0.029741941 -0.0033176348 0.0023665454 0.005720862
0.014819509 0.02384338 -0.012817529 0.00407846 -0.03378513 -0.023313921 -0.018709892 -0.008401473
-0.028502794 -0.009778595 -0.032235872 0.018490309 -0.003256607 -0.0005941566 0.018035421 -0.008788063
-0.023539962 0.0108023025 0.005417354 -0.006208905 0.00701725 0.019496767 0.017321626 -0.026663981
-0.026911642 -0.020001411 -0.002846983 -0.012421343 -0.01621207 0.0073462385 0.0015122539 0.024340585
-0.016846733 0.02089702 -0.021732375 0.013077818 0.02597467 0.014093806 0.01660317 0.023057831
0.010848487 -0.005775842 -0.029531585 -0.030963562 -0.015134904 0.014200071 -0.024516009 0.013741469
0.020708052 -0.030127529 -0.033065747 0.018388895 0.013200523 0.02383826 -0.016787287 0.019363655
00000000: bfa8 3fbc 802e b53a 5ff6 dc3b 4ecf f2bc
00000010: da59 cd3c 7c24 d73b 5a5f a9bc 00c1 3b3c
00000020: 5dc4 693c d16a bf3b fa2e 643c f578 94ba
00000030: b0b4 0e3c eb16 aaba 80a3 853a 4719 acbc
00000040: 0b08 c93c 0fa6 5e3c f2cc f8bc 957a 4c3c
00000050: 2b8e 0cbc 964b 433b 6dce 163c 60b4 bbbc
00000060: 63c9 953c e01e 85bb f719 bd3c 62dd d53c
00000070: 5542 b53c ff2a 01bd 570c cbbc 025e 223c
00000080: b5b0 6c3a 07d4 debc bd71 843c 59f2 fdbc
00000090: 5f68 88bb fbff 30bc 1fa5 cdbc 2c49 d9bc
000000a0: 1a49 d9bc 2831 e5bc 2ccd a93b dead f03b
000000b0: 674c 2e3c f3d7 cabc f614 3f3c 7f10 2aba
000000c0: 808f 863c d5e1 04bd 39e1 68ba 0d6f 0cbd
000000d0: 02b4 d6bc 5157 a3bc 1f56 f3bc 02d2 06bc
000000e0: 4aba d03c a8eb 08bc 5ba0 8bbb 20f2 3b3c
000000f0: 2b4f b33c 7f02 823c 39a3 9c3c d747 64bc
00000100: 5fa5 11bd d2d6 6cbc 649e ac3c 8e0f 08bd
00000110: 938d b23c 3286 423c 6222 893b 420c 79bc
00000120: de8f 7dbb df98 16bc b816 3a3c 3937 b03c
00000130: 7bca e2bc f297 5b3c d017 fc3a 58a1 acbc
00000140: 0448 b1bc df9c 533c 01df 43bc dc7d 1cbc
00000150: 4855 29bc 9948 12bd 7aa0 233b 2188 bf3a
00000160: 2d85 f2bc 5e71 8c3a c3e2 b7bb 9349 bbbc
00000170: b38c 993c b872 dabc d45d 86bc f12d 01bd
00000180: e4b7 bb3c 3855 7e3c 4d30 923b c07b 38bc
00000190: 276e 3c3c 099f c0bc 44c0 c43c e8fa d1bc
000001a0: 921c 08bd 84e2 9fbc d502 09bc 47d9 b5bc
000001b0: c955 bbbb b889 79bc b333 cdba 341e cebc
000001c0: 00c5 833c 33f9 60bc 5121 1dbc 7386 8b3c
000001d0: ad1a 0dbd 4b7a abbc a87c 303c 3b65 e2bc
000001e0: 1643 073c 4060 513c 4e69 413c a602 0dbd
000001f0: 7474 12bd 65c6 edb9 1378 2bbb 008d d6bc
00000200: 04e1 a23b c2f5 4d3c 381c 843c ef3d d3bc
00000210: 53b6 94bb db65 613b 2427 c2bc d8e0 113c
00000220: 0d08 41bc 9acd b4bb 5dbb 4b3c e515 d63c
00000230: 63c4 96bc 4e45 d13c 278d bb3c 8d10 d53a
00000240: b14d 0fbd e341 983c 476d 0fbd e003 c03b
00000250: 98f9 3ebc 5f82 e6bc d07e f3bc eb68 77bb
00000260: 666a 80bb 0d78 b5bc 6657 cfbc fc47 b43c
00000270: 14f9 a0bc 97a4 213c 0308 43bc f0dc 62bc
00000280: b883 d1bb c046 13ba 2a96 cd3c db69 0e3c
00000290: b9eb d53c 4390 bb3c e987 ac3c 95f5 12bd
000002a0: 94bd d8bc a2ff 98bc 76c7 57bc c4f2 233c
000002b0: 8e4e 75bc b572 ffbc 3545 a43c a82b 2e3c
000002c0: 45b3 ddbb 6ab7 e9bc 2e87 b5bc 1b2e bb3c
000002d0: b0aa 943c 36c7 273b 041b 4bbc 26ce c43c
000002e0: 6d1d e1bb 0400 023c 391d 213c ea4e 7ebc
000002f0: 73ec 153c 56a9 173b 2bb8 e8bc 7b7c 333c
00000300: 6ae4 c2bc b9fd cabc 3973 dbba 705b 9bbc
00000310: 5fa5 f3bc ad6c 59bb 0b18 1b3b 1276 bb3b
00000320: 87cd 723c 3153 c33c 9d00 52bc 9aa4 853b
00000330: 4762 0abd d6fc bebc 7d45 99bc 55a6 09bc
00000340: b17e e9bc 6636 20bc c309 04bd fd78 973c
00000350: cd6c 55bb 2dc1 1bba 05bf 933c cffb 0fbc
00000360: e1d6 c0bc 24fc 303c 0f84 b13b 1274 cbbb
00000370: f6f0 e53b afb7 9f3c 15e6 8d3c 6c6e dabc
00000380: ce75 dcbc 00da a3bc 7394 3abb e382 4bbc
00000390: 2dcf 84bc b7b8 f03b d236 c63a e865 c73c
000003a0: 2902 8abc 3a30 ab3c 1808 b2bc 5844 563c
000003b0: d5c8 d43c b5e9 663c 5f03 883c c7e3 bc3c
000003c0: dabd 313c 4643 bdbb 39ec f1bc 4ca7 fdbc
000003d0: 63f8 77bc 6aa7 683c ccd5 c8bc e623 613c
000003e0: efa3 a93c 02ce f6bc f36f 07bd 4fa4 963c
000003f0: 0247 583c 7448 c33c 7e85 89bc 87a0 9e3c

bias f4 [128]
0.021967618 0.039160803 0.06759907 0.08008396 -0.020744927 0.053129807 0.025180815 0.021933831
-0.028695421 -0.027178004 0.02502722 0.02075911 -0.050240304 0.027625574 -0.025520021 -0.046101008
0.0340803 0.108427994 0.024395596 -0.03078556 -0.010441029 -0.025581859 0.01872463 0.010588767
0.014135242 0.017661965 0.013683438 0.009641785 0.16796042 0.015659537 -0.03399606 0.016200632
0.040967263 0.022115268 0.012990045 -0.03316693 -0.026588654 0.00095821935 0.07785468 -0.010997645
0.054127388 0.024758963 0.026226874 -0.009114608 -0.027195122 -0.018814445 0.0076812995 -0.025313832
0.009307927 -0.020826347 -0.039877217 -0.018151967 0.022250647 -0.004172598 0.050457977 0.0027521197
0.06983551 -0.014331305 0.026313623 0.028285267 -0.025295688 -0.00066093926 0.021378852 0.005324443
-0.030070769 -0.01053491 -0.0025917361 0.04440572 -0.014961922 0.034023874 0.0009108862 -0.00072261976
0.07113682 0.0095846355 0.022872245 0.01225489 -0.007885515 0.061206397 -0.013464604 -0.02578421
0.007445068 -0.019349007 -0.028619362 -0.0077786297 -0.00078395463 0.031679366 -0.016262325 0.020365663
-0.0008788368 -0.22260287 -0.00014642451 0.011386918 0.0073088976 -0.002466209 -0.006297668 0.0071143894
0.012876098 0.065184996 -0.050831668 0.14019243 -0.010053437 0.003846967 0.0018851209 0.05237898
-0.0024088155 -0.008150666 -0.055494346 -0.01851058 0.056689262 -0.039666794 -0.0077893166 0.039533716
-0.029545162 0.0053048176 -0.018267239 -0.013916662 0.0035562501 -0.013413438 0.015211066 -0.029276496
0.023791665 -0.022402108 0.015478903 0.005075885 0.002818929 -0.030264368 -0.0051370338 0.037218075
00000000: 6ff5 b33c 1467 203d 6271 8a3d 0f03 a43d
00000010: 44f1 a9bc a49e 593d ff47 ce3c 94ae b33c
00000020: a912 ebbc 68a4 debc e205 cd3c 020f aa3c
00000030: c7c8 4dbd 074f e23c 5d0f d1bc 69d4 3cbd
00000040: c997 0b3d 7f0f de3d 46d9 c73c 0032 fcbc
00000050: da10 2bbc 0c91 d1bc 6564 993c 827c 2d3c
00000060: 8197 673c d3af 903c 8030 603c 94f8 1d3c
00000070: d1fd 2b3e 6e48 803c 743f 0bbd 30b7 843c
00000080: 4acd 273d 142b b53c 33d4 543c 0cda 07bd
00000090: 73d0 d9bc 0331 7b3a 4672 9f3d 772f 34bc
000000a0: aeb4 5d3d 4fd3 ca3c bed9 d63c 7055 15bc
000000b0: 4ec8 debc c020 9abc 69b3 fb3b f45e cfbc
000000c0: 4780 183c 049c aabc 4b56 23bd 6fb3 94bc
000000d0: fd46 b63c 4aba 88bb 06ad 4e3d e85c 343b
000000e0: eb05 8f3d dacd 6abc ab8f d73c 81b6 e73c
000000f0: e738 cfbc e242 2dba b422 af3c aa78 ae3b
00000100: f956 f6bc 9d9a 2cbc 1eda 29bb c6e2 353d
00000110: d922 75bc 9e5c 0b3d 8ac8 6e3a 316e 3dba
00000120: 2eb0 913d e008 1d3c 935e bb3c bcc8 483c
00000130: 3f32 01bc 8fb3 7a3d a49a 5cbc 6839 d3bc
00000140: c2f5 f33b cf81 9ebc 2773 eabc e0e3 febb
00000150: 4e82 4dba 39c2 013d 9138 85bc e4d5 a63c
00000160: bd61 66ba 02f2 63be 8889 19b9 3290 3a3c
00000170: 7a7f ef3b 1fa0 21bb ab5c cebb d31f e93b
00000180: 45f6 523c b67f 853d de34 50bd 9b8e 0f3e
00000190: 2cb7 24bc 651d 7c3b 2916 f73a 578b 563d
000001a0: 38dd 1dbb 5f8a 05bc 0a4e 63bd 80a3 97bc
000001b0: 0033 683d a679 22bd 863d ffbb 1bee 213d
000001c0: b208 f2bc 09d4 ad3b 2da5 95bc b602 64bc
000001d0: fa0f 693b 09c4 5bbc d637 793c 43d5 efbc
000001e0: bde6 c23c a084 b7bc 3a9b 7d3c 9c53 a63b
000001f0: c8bd 383b fbec f7bc 9054 a8bb fb71 183d

weight f4 [2, 128]
-0.02709272 0.007962546 -0.2540701 -0.18230745 0.0052057807 -0.24398522 -0.008495689 -0.041294213
-0.049350053 -0.0019044726 0.18400902 -0.08140248 0.42017767 -0.22379684 -0.037333727 -0.14356087
0.1612408 -0.06246385 -0.002422629 -0.04107484 -0.04224541 -0.08286813 -0.0277255 0.057869446
-0.04660382 0.13324194 -0.04598003 0.08526505 -0.20764083 -0.013450185 -0.039792355 0.14672853
0.1422553 -0.019912366 0.032922782 -0.031462062 -0.044744093 0.16982354 0.119075745 0.1815055
-0.069217965 0.11880443 0.0859412 -0.05433022 -0.072206736 -0.045318972 0.089895345 0.019817457
-0.02726395 -0.042230222 0.9170557 -0.011812823 -0.045665875 -0.07329958 0.104604274 0.030362086
-0.0699932 0.4179097 -0.3272253 0.012976843 0.486957 0.19029412 0.019105166 -0.0677294
-0.0133164525 -0.058702525 0.045547586 0.6629153 -0.045138728 0.15446153 0.32434365 -0.008304922
-0.2555181 -0.0046382817 -0.014487345 0.04791536 0.073470406 -0.24180263 -0.038564667 -0.06672888
-0.057747435 0.07779808 -0.039561726 -0.03036004 0.2005706 0.0104113575 0.04374402 0.019491805
0.10524101 -0.5682591 0.19120733 -0.02704569 0.052643053 -0.07801724 0.13002373 0.023215462
0.25835392 0.0644739 -0.24817392 0.040417884 -0.074010745 0.014960087 0.16146564 -0.20113273
-0.013263671 0.12691787 0.6108543 -0.06073868 -0.07147004 0.228805 -0.029936148 0.09768409
-0.023954263 -0.06063548 0.024632571 0.24241987 -0.03157361 0.24484545 -0.029005308 0.20642611
-0.08023433 -0.061659742 0.011654055 0.24710864 0.071215205 0.0026477794 -0.041895606 0.066148095
0.015318258 -0.1365778 -0.28935397 0.062204253 -0.05612944 0.11472103 -0.027949924 -0.13279995
-0.06574352 -0.026542611 0.07374344 -0.049787655 0.083685555 0.015381076 -0.03445903 -0.34913465
0.1168673 -0.15565062 0.24480088 0.042267796 0.06560703 -0.061856635 0.016449545 0.12755015
-0.036061604 0.2001785 -0.019645028 0.22696199 0.38009778 -0.045305457 0.037051715 0.18098776
0.06444338 -0.049727034 -0.02725344 -0.049227193 -0.037576832 0.1591307 0.2817813 0.15211508
0.16613157 0.13508978 0.014245206 0.08145618 -0.024426185 -0.017723342 0.22297846 -0.027840251
-0.06945885 0.0016961914 0.48878902 -0.060248185 -0.055668484 0.033809956 0.08734484 -0.07034791
-0.15313262 0.04773352 -0.29820442 0.18335526 0.72571343 0.13478766 -0.0723947 -0.057565767
-0.056218605 0.0067360154 -0.07154778 -0.15115324 -0.01221485 0.15405859 -0.11853285 -0.015967604
-0.2946044 -0.034548867 -0.071965575 0.1423725 0.0043874956 0.15496077 0.021445083 0.041679095
-0.045456734 -0.07105168 0.085004754 0.08088598 0.14783293 -0.14615665 -0.05283603 0.0742447
0.1281647 -0.2807156 -0.2179161 -0.008861556 -0.05799475 0.091366485 0.08458991 -0.048406463
-0.06498664 0.16530406 -0.014135631 -0.25922757 0.08396183 -0.07875988 0.12618218 -0.17592786
-0.015867991 0.14187232 0.75972944 -0.0008890474 -0.12622993 -0.06622087 -0.024383696 0.1739241
0.06270248 -0.042181723 -0.070863836 0.041682094 -0.03499763 0.5049424 -0.031992696 0.05957621
0.019634048 -0.030247126 0.119688675 0.5931236 -0.055331446 -0.002293938 -0.03291012 0.23361394
00000000: 8df1 ddbc 5775 023c 7a15 82be ceae 3abe
00000010: 4195 aa3b 43d7 79be 8131 0bbc 1f24 29bd
00000020: 4823 4abd 7f9f f9ba dc6c 3c3e 58b6 a6bd
00000030: 8721 d73e 002b 65be 40eb 18bd 9f01 13be
00000040: 4f1c 253e 18da 7fbd f8c4 1ebb 173e 28bd
00000050: 8609 2dbd c4b6 a9bd 9620 e3bc 8308 6d3d
00000060: a6e3 3ebd 9370 083e 8e55 3cbd 719f ae3d
00000070: cc9f 54be 2a5e 5cbc 4ffd 22bd 0140 163e
00000080: 60ab 113e 421f a3bc 0ada 063d 5dde 00bd
00000090: 9545 37bd 39e6 2d3e fcdd f33d 94dc 393e
000000a0: 26c2 8dbd bd4f f33d f101 b03d 5d89 5ebd
000000b0: 20e1 93bd 63a0 39bd 0d1b b83d 3858 a23c
000000c0: a658 dfbc 99f9 2cbd 2ac4 6a3f 928a 41bc
000000d0: 240c 3bbd 171e 96bd c43a d63d e9b9 f83c
000000e0: 9858 8fbd 43f8 d53e 138a a7be d39c 543c
000000f0: 6e52 f93e 76dc 423e 7082 9c3c b6b5 8abd
00000100: 402d 5abc 0f72 70bd 1b90 3a3d d1b4 293f
00000110: 63e3 38bd 2a2b 1e3e 5f10 a63e 5e11 08bc
00000120: 45d3 82be bafc 97bb 545c 6dbc e642 443d
00000130: a777 963d 1c9b 77be fcf5 1dbd 27a9 88bd
00000140: 9388 6cbd 9a54 9f3d 7a0b 22bd 9eb5 f8bc
00000150: 6162 4d3e 6694 2a3c ee2c 333d 47ad 9f3c
00000160: 9988 d73d 6e79 11bf dbcb 433e ec8e ddbc
00000170: 3ea0 573d 81c7 9fbd f124 053e 5a2e be3c
00000180: f746 843e e40a 843d 4e21 7ebe 398d 253d
00000190: f292 97bd 271b 753c 4057 253e bdf5 4dbe
000001a0: de4f 59bc c2f6 013e f360 1c3f 1fc9 78bd
000001b0: e25e 92bd dc4b 6a3e a73c f5bc 990e c83d
000001c0: bb3b c4bc e95c 78bd 3fca c93c ea3c 783e
000001d0: 5453 01bd c4b8 7a3e 8a9c edbc 5e61 533e
000001e0: e551 a4bd ed8e 7cbd a6f0 3e3c 0c0a 7d3e
000001f0: 47d9 913d 5e86 2d3b ba9a 2bbd a778 873d
00000200: 6ef9 7a3c 0ddb 0bbe 3426 94be e3c9 7e3d
00000210: fce7 65bd dcf2 ea3d 3df7 e4bc b6fc 07be
00000220: 8aa4 86bd e46f d9bc cd06 973d 24ee 4bbd
00000230: 5563 ab3d e900 7c3c e924 0dbd c7c1 b2be
00000240: 1f58 ef3d e062 1fbe 15ad 7a3e ff20 2d3d
00000250: fb5c 863d 625d 7dbd 32c1 863c 829c 023e
00000260: 55b5 13bd 98fb 4c3e 9cee a0bc b968 683e
00000270: 2d9c c23e 3792 39bd 8ac3 173d db54 393e
00000280: e4fa 833d 93ae 4bbd 9b42 dfbc 74a2 49bd
00000290: 2aea 19bd 29f3 223e a345 903e 0ec4 1b3e
000002a0: 651e 2a3e fa54 0a3e b964 693c 7fd2 a63d
000002b0: 6c19 c8bc 8b30 91bc 7754 643e 3d11 e4bc
000002c0: 7140 8ebd bd52 de3a 8e42 fa3e cdc6 76bd
000002d0: a304 64bd 4f7c 0a3d dae1 b23d 9112 90bd
000002e0: ccce 1cbe 3984 433d 40ae 98be 7bc1 3b3e
000002f0: 5bc8 393f c705 0a3e ac43 94bd 15ca 6bbd
00000300: 7b45 66bd cbb9 dc3b a487 92bd eac7 1abe
00000310: cb20 48bc 89c1 1d3e 5ac1 f2bd 7ece 82bc
00000320: 63d6 96be 1d83 0dbd b062 93bd 19ca 113e
00000330: fbc4 8f3b 09ae 1e3e 99ad af3c b3b7 2a3d
00000340: d730 3abd 8b83 91bd f916 ae3d 8ca7 a53d
00000350: 8461 173e 17aa 15be 986a 58bd 9b0d 983d
00000360: 9b3d 033e f5b9 8fbe 6625 5fbe 0f30 11bc
00000370: e78b 6dbd 5a1e bb3d 7a3d ad3d db45 46bd
00000380: b717 85bd 7845 293e 2299 67bc 7ab9 84be
00000390: 2ef4 ab3d dc4c a1bd e735 013e 6f26 34be
000003a0: 97fd 81bc fa46 113e a17d 423f f60e 69ba
000003b0: 6b42 01be cf9e 87bd 51c0 c7bc 2919 323e
000003c0: 286a 803d bec6 2cbd 0f21 91bd d8ba 2a3d
000003d0: ad59 0fbd e843 013f c60a 03bd 2f06 743d
000003e0: 95d7 a03c d2c8 f7bc 561f f53d f3d6 173f
000003f0: 3aa3 62bd e555 16bb c3cc 06bd 7e38 6f3e

bias f4 [2]
-0.0987337 0.035456154
00000000: e534 cabd 793a 113d
