saved_models/run8/model_1000.pth (torch, 550374 bytes, 6 tensors)

weight f4 [1024, 4]
00000000: 85be 0d3f b6df 0b3e 0a26 80be 2c87 063f
00000010: 2ec1 bf3e 7d45 a33b d0c5 b0be 0510 0fbe
00000020: b1ee a1be b317 b0be 695b 9a3e a920 55be
00000030: 61c9 373e d96c af3e 9337 cd3e 9e53 e03e
00000040: 2e41 c53c 520c 8c3e 4459 cbbe 2702 2fbc
00000050: 2d63 55be 10ce e8bd aa2e 7abe 5f85 563e
00000060: 3c63 243e 8121 893b 8ab7 963e 67e5 57be
00000070: c432 da3e 7492 9e3e b7df 083e eba4 63bc
00000080: be80 30be 065f 7dbe 6520 2e3d e982 3d3e
00000090: 0a82 923e 6107 adbe e371 ef3d ea75 bebe
000000a0: 917a a23e 9574 c0bd 3db2 9d3e 89e0 23bd
000000b0: a872 e83e 31f6 d53d 328d 10bf 1579 93be
000000c0: 5594 c03e e50f d8bd 7c7f 623e 801b f3be
000000d0: e636 b3be 438f 87be 5d67 3fbe d91f ab3e
000000e0: 95c5 b93e fb8b a43d 8d4a bf3e b400 babe
000000f0: 951a c6be f002 86be 40df 84be d0e6 15bf
00000100: db57 393e a65f 213e e90a 5f3e 5007 10be
00000110: 1983 f73e 2324 bfbe a15b bebe e4ce 85be
00000120: bd46 a6be 177b cd3e 9688 f4be 145c 87bd
00000130: a32d a3be 0843 103e 8c4a 5f3d 8439 363e
00000140: 94b2 b43e e186 1e3e 6a0b d13e 55fc 353e
00000150: dc29 d7be 0e43 09be 02c7 c6bd 1c26 d63e
00000160: a952 a8be 006c ccbe de7a ba3c 8604 733e
00000170: 642f d93e 885a a43d 280e 03bf 9da3 1bbe
00000180: 9daa 073e fb65 a83c 3b07 f83e 6164 dc3e
00000190: 0950 a63e 721e 633e da0a b43e c27c 80bd
000001a0: 8505 083e 6cb9 f9bd 0761 b63e 1dee 5abe
000001b0: 3694 623d 2123 6abe e2a9 693e 3ea7 0bbe
000001c0: 2552 223e 99c4 a3be 2446 c93e caed 16bd
000001d0: 4e7f f13e a03d 9c3e 43a9 ba3e eec2 073f
000001e0: 1889 c6be b2e1 a2bd 9e06 2dbe 8fec 0e3f
000001f0: fb38 a23e 20e6 583d ed87 a6bd 018f a53d
00000200: aabd d43e 6370 d5bc 989f 6d3e 2ba4 c63e
00000210: 8418 66bd 52be dbbd b385 a13d 4cd7 13bf
00000220: 3a37 f9be b36a 493e a262 883e fa57 b0be
00000230: bbd2 333e bc75 f73e b465 d73e 2ea3 abbe
00000240: 4cd2 9b3e 0175 e9be 0539 913e 02cc 073e
00000250: db6f 3c3e 803a 8bbe 1a89 92bd 7c84 a53d
00000260: 97f0 94be 1b69 c9be 27a2 b13c f6af 0dbf
00000270: 47a1 22be addd 9e3e ba65 4d3e b96d bc3e
00000280: 343e 9c3e d3b4 6d3e 5564 bebb 2a58 50be
00000290: 52eb 963e 694e e7bd ca4b aebc e18a 26bf
000002a0: ec4a a7be 9ff1 f83e 3c19 8ebe a472 83be
000002b0: ae3b 97be 4a47 6ebc 55bf 48be 5cc3 c33e
000002c0: fa32 053f 079d 19be 4818 50be 50ef 5abd
000002d0: 0afb 47be 39aa c73e 985c 4bbe 9e8d 05bf
000002e0: 29cc d1be c05e 90be cb66 d5bd 0d64 fcbe
000002f0: fadc a0be 320e fb3e d226 de3e dcc7 be3c
00000300: 3330 55be b450 9c3e 837e 8b3d 3c93 02bf
00000310: fede 58be 0efc 883e 5aa3 993d 2162 a5be
00000320: 4177 93be f7ba 90be 0607 d83e b564 21bf
00000330: 9038 1bbe 265f d0be 972d 67be bbf9 0ebf
00000340: 9af8 cb3e f628 e23e c58f 8bbe 7596 f4be
00000350: ebbf 9dbe c731 cbbd 5246 b73e af76 be3e
00000360: 39c9 c73e 80e1 043f 293f d3be 05f5 87be
00000370: 893d c5be 98af debd 4703 9c3d bba3 bebe
00000380: b6fd ab3e 24fc 253d 3843 56bd 7835 03bf
00000390: dc49 ecbe b99b 863e b927 9e3e e77e f4be
000003a0: 7964 fb3e 096e 643e 7523 b1bd 64eb 03bf
000003b0: 635d dc3c 7b27 61be af15 0d3d c0bb 933e
000003c0: 01c2 b13d bb07 533e 26bb 85be 8420 b9bd
000003d0: 97ec 8b3c 6ded bcbd 1642 e9be a383 18be
000003e0: e87b 0fbd 3fd2 d9bd 2965 a63e 9700 d53e
000003f0: d3f5 013e 1dc0 adbe 8691 93bd f704 f1be
0.55368835 0.13659558 -0.25029022 0.52550006 0.37452072 0.004982649 -0.3452592 -0.13970955
-0.3162742 -0.3439308 0.30147865 -0.2081324 0.17947914 0.34262732 0.40081462 0.43813795
0.024078932 0.2735315 -0.39716542 -0.0106816655 -0.20838614 -0.11367428 -0.24431863 0.20949315
0.1605348 0.004184902 0.29436904 -0.21083604 0.42616856 0.3097111 0.1336659 -0.0138943
-0.17236611 -0.2474328 0.042511363 0.1850697 0.28614837 -0.33794692 0.11691644 -0.37199336
0.31734136 -0.09397236 0.30800048 -0.040009055 0.45399976 0.10447348 -0.56465447 -0.28803316
0.37613168 -0.10549907 0.22118944 -0.47481918 -0.35002822 -0.26476488 -0.18691774 0.33422735
0.36283556 0.08034512 0.37361565 -0.3632866 -0.38692155 -0.26174116 -0.25951576 -0.58555317
0.1809992 0.15759143 0.21781506 -0.1406529 0.48342207 -0.37332258 -0.37179282 -0.26134408
-0.32475844 0.40132973 -0.47760457 -0.066093594 -0.31870756 0.1408807 0.054514453 0.17795378
0.35292494 0.1548114 0.4082902 0.17772038 -0.42024124 -0.13404486 -0.097059265 0.4182595
-0.32875565 -0.39926147 0.022763666 0.23732194 0.4241897 0.0802508 -0.51193476 -0.15199132
0.13248678 0.02055644 0.48443016 0.43045333 0.32482937 0.22179583 0.3516453 -0.06273796
0.13283356 -0.121935695 0.356209 -0.21379896 0.055317126 -0.22864963 0.22818711 -0.13638017
0.15851648 -0.3198593 0.39311326 -0.036847867 0.47167438 0.30515766 0.3645726 0.53031814
-0.3877647 -0.07953204 -0.16897056 0.5582971 0.31684098 0.05295384 -0.081313945 0.080839165
0.41550952 -0.026054567 0.23205411 0.38797125 -0.056175724 -0.1072966 0.07886829 -0.5775039
-0.48674947 0.19669609 0.2663775 -0.3444212 0.17560856 0.48332012 0.4206978 -0.33522934
0.3043388 -0.4559708 0.28363815 0.13261417 0.18402044 -0.2719307 -0.07155056 0.0808191
-0.29089805 -0.39338002 0.021683766 -0.5534662 -0.15881835 0.310285 0.20058337 0.36802462
0.30516207 0.2321351 -0.0058103004 -0.20346132 0.2947641 -0.112942524 -0.021276373 -0.6505566
-0.32674348 0.48621842 -0.27753627 -0.256734 -0.2953772 -0.014543364 -0.19604237 0.38234985
0.5203091 -0.15001307 -0.20321763 -0.053450882 -0.19529358 0.38997057 -0.1985954 -0.52169216
-0.40976074 -0.2819729 -0.10419997 -0.49295083 -0.31418592 0.49034268 0.43388993 0.02328866
-0.20819168 0.30530322 0.068112396 -0.5100591 -0.21178815 0.26754802 0.0750186 -0.3230143
-0.2880192 -0.28267643 0.42192858 -0.6304429 -0.15158296 -0.40697592 -0.22575985 -0.5584981
0.39838105 0.44171876 -0.27258125 -0.4777104 -0.30810484 -0.09921604 0.35795838 0.37199923
0.39020708 0.51906586 -0.41259125 -0.26554123 -0.3852351 -0.108733356 0.076178126 -0.3723429
0.33592004 0.040523663 -0.0523102 -0.5125346 -0.461501 0.26290682 0.3088968 -0.4775307
0.49100092 0.223076 -0.08649341 -0.5153105 0.026899999 -0.21987717 0.034444507 0.2885418
0.086795814 0.20608418 -0.26119345 -0.09039405 0.017080588 -0.09224973 -0.45558232 -0.14893965
-0.035030276 -0.106358044 0.32499054 0.41602013 0.12691431 -0.33935633 -0.07205491 -0.470741

bias f4 [1024]
00000000: e9b7 14bd aa93 c2be d96b 3e3e c073 38b9
00000010: b6b2 e7bd 2a37 e1be 718c 79be d640 6abe
00000020: bb25 9dbe fd9e 053f 7fa0 c33e 436c f43e
00000030: e130 363b 3dc8 9a3d 2f89 113d 3639 c0bd
00000040: d2a6 893e c557 0dbe ce63 6c3d 923c db3e
00000050: 868a 7bbe f945 803e 4784 b0bd 112f 44be
00000060: f53c d53e d38e b33e f930 ef3d ab16 863e
00000070: 83fb 4d3e 34a3 b2be ebf7 793e f8aa 803e
00000080: 4dc4 9b3e c720 fe3d 9ff4 c3be 56c8 cfbe
00000090: 7b2b ab3e f804 8a3e 08e3 a9be 9b4c b93e
000000a0: a7ed 763d 0956 6dbe 513a f03e 970f a7be
000000b0: 9df2 60be cc8f 133f 2320 35be 2d0b e53d
000000c0: b598 bcbe d958 233e 1988 85bc a5f8 e4be
000000d0: 56d6 093b 24a8 e93e ee34 f03e 41c2 4cbe
000000e0: a1a2 b53e 3009 aa3d 3496 333e f907 ce3e
000000f0: ae8a c5bd 545e 2d3f 74df 92be 36cf c33e
00000100: 4376 ef3e 0007 dd3d c636 0cbf bbac c33e
00000110: e474 e23d 447b 6ebe a0c9 733e f829 c4be
00000120: e778 d0be 5d71 9dbe 641f aa3e da88 e13e
00000130: 9a14 303e 9982 cbbe f8b9 0d3f 3b17 e9bd
00000140: 8de7 b13c 85d0 7e3e e1cb dbbd 6633 d9be
00000150: bea1 2f3e f2fa b9bd ee67 adbe 6a15 9abe
00000160: 9eb0 bfbe 1193 c7be 6ebc 293e 2d33 8d3e
00000170: f1b0 11be 1e39 de3e ae79 32be 180c 923e
00000180: 973d 17be 5437 22be 2066 7dbe eaf9 dc3c
00000190: 4d0f ef3e 319b 96bd 579b 0cbf 992f e4be
000001a0: c95c 133d efe7 923e 2ada 043f d5cb e5bc
000001b0: cac7 ab3e 24eb b0be a857 ebbe 4afc eebe
000001c0: 3316 213f dc35 143e ffcf 9d3e 98c1 82be
000001d0: fbf2 b3be f112 d13e 666a 9bbd 75a6 313e
000001e0: 38dd f5be 3228 293e d2ae 363b 83ee 9cbd
000001f0: 087e d43e e889 eb3e 4a48 afbd 0465 efbe
00000200: fa4a 0e3f 45a2 02bf 6653 893e 3ffa d33e
00000210: bce0 edbd 0206 80be f6d4 71be b32b d1be
00000220: e869 a53e c9dc 753e 5689 e93e 2e1b adbe
00000230: 4f5d dc3e 5f04 00bf 6703 f9bd 37a3 a13e
00000240: ebda 9e3e f474 55bd 8457 383e ed45 8fbe
00000250: 2f9c a33e 7c88 fa3d 578a f0be 7899 c6be
00000260: 0bc6 b5be a047 fe3e 9c06 c0bc 9047 01bf
00000270: d6b6 03bf 08dc 9fbe 6b48 c23e 2790 a0be
00000280: 65d5 e43e 6bc4 adbe 13b3 9ebd 2e33 cf3e
00000290: 9e45 9abe 8839 cebe c0b2 e0be d6c4 033f
000002a0: ee70 183e ac8e 90be 25e7 a8be 9693 7c3c
000002b0: 43ad cebd b0c3 85be 946d 34bc 8430 e1bd
000002c0: d2d4 b6be 1134 45be 453b 8dbe 3ad0 f73e
000002d0: cd8b 93be a404 383e ce53 8c3e 6f46 653d
000002e0: 24ba 4fbe 4438 853e 2aa1 c23e 73b1 08bf
000002f0: 5408 8d3e ceb0 4dbe 48f0 353f 55ab 283e
00000300: 4440 623c e156 0e3f ea75 8e3e 4e80 ea3e
00000310: 7604 3a3e e847 1b3f affc 8b3e 0791 1a3e
00000320: 77a5 0cbf 0967 603e b535 983e 3f13 f93e
00000330: bbff 13bc dbf6 c5be 5982 c4be 0961 483e
00000340: ac6f 6cbe 998e 143f 165f 0bbd 35ee 063f
00000350: f945 ed3e 9c50 213f 6b4a 8dbd ae33 8ebe
00000360: 78ff bcbe dcf8 8d3e d459 a3be 463f b63d
00000370: 012b 4dbe 9fbd 03be ff5f 113f 1d70 003f
00000380: 1f54 79be 2d65 c33e 8901 c7bd 00f5 a2bd
00000390: c35a dabe 062a 1f3e 1800 f4bd f7b3 a8be
000003a0: d426 9ebe 406e d33e 623b a6bd 976f cebd
000003b0: fe0d db3d 2a8d a73d 6bf2 203d 9efe 983e
000003c0: 64f6 843e a762 febe 6a78 abbe 89c5 b2be
000003d0: 94e1 e63e a04e 8fbe e50d 6f3e b53c d2be
000003e0: 8ee1 dd3e 6362 623c 8c9c f33e 61c3 e03d
000003f0: da7f 70be 131c 623e ea2c 7dbe e82f 4bbe
-0.036308203 -0.38003284 0.18595828 -0.00017590728 -0.11313383 -0.439874 -0.2436998 -0.22876295
-0.3069285 0.5219572 0.38208386 0.47738847 0.002780013 0.07557724 0.03553122 -0.09385912
0.26885086 -0.13803013 0.05771237 0.4281965 -0.24564561 0.25053385 -0.0861898 -0.1915858
0.4164807 0.35069904 0.11679263 0.2618917 0.20115475 -0.3489014 0.2441098 0.2513044
0.30423203 0.124085955 -0.3827257 -0.40582532 0.3343161 0.26956916 -0.33181024 0.36191258
0.060285237 -0.23177351 0.46919492 -0.32629082 -0.2196755 0.5764129 -0.1768804 0.11183772
-0.36835256 0.15951861 -0.016300248 -0.4472095 0.0021032295 0.45636094 0.46915382 -0.19995977
0.35475639 0.083025336 0.17537767 0.40240458 -0.09645592 0.6772206 -0.28686106 0.38244027
0.46769914 0.10792351 -0.5477108 0.3821772 0.11057451 -0.2328921 0.23807383 -0.3831327
-0.4071724 -0.30750552 0.33227074 0.44049722 0.17195359 -0.39748076 0.5536189 -0.11381384
0.021716857 0.24884231 -0.10732246 -0.42422026 0.17151543 -0.09081067 -0.33868355 -0.30094463
-0.37439436 -0.3897939 0.16575786 0.27578107 -0.14227654 0.43402952 -0.1742923 0.28524852
-0.14769588 -0.15841419 -0.24745989 0.026974637 0.4669136 -0.07353819 -0.5492453 -0.44567564
0.03597716 0.28692576 0.5189539 -0.028051296 0.33550864 -0.34554398 -0.45965314 -0.46676856
0.629245 0.1447367 0.3082275 -0.25538325 -0.35146317 0.40834764 -0.07588653 0.17348655
-0.4802034 0.1651924 0.0027875197 -0.0766268 0.41502404 0.46003652 -0.0855871 -0.46756756
0.55583155 -0.51028854 0.2682144 0.4140186 -0.1161513 -0.25004584 -0.23616394 -0.40853652
0.32307363 0.24010004 0.45612592 -0.338098 0.4303994 -0.5000667 -0.12158852 0.31569836
0.31026396 -0.05211349 0.18002135 -0.27983037 0.31955096 0.122330636 -0.46980545 -0.38788962
-0.35502657 0.4966402 -0.023440652 -0.5049982 -0.5145086 -0.31222558 0.37945876 -0.3135998
0.44694057 -0.33938918 -0.077489994 0.40468735 -0.3013124 -0.40278268 -0.43886375 0.5147222
0.1488683 -0.2823385 -0.3298885 0.015416047 -0.10091641 -0.2612586 -0.011012454 -0.10995582
-0.35709244 -0.19258143 -0.27584282 0.48401052 -0.28817597 0.1797052 0.27407688 0.055975374
-0.20285851 0.2601949 0.38013583 -0.53395766 0.27545416 -0.20086977 0.71069765 0.16471608
0.013809267 0.55601317 0.27824336 0.45801014 0.18165764 0.60656595 0.2734122 0.15094386
-0.5493998 0.21914305 0.29728475 0.48647496 -0.009033139 -0.38664898 -0.38380697 0.19568266
-0.23089474 0.58030087 -0.034026228 0.52707225 0.46342447 0.63013625 -0.0689896 -0.27773803
-0.36913657 0.27728927 -0.3190447 0.08898787 -0.20035936 -0.12865303 0.56787103 0.5017107
-0.24348496 0.38163128 -0.0971709 -0.07956886 -0.4264737 0.15543374 -0.119140804 -0.32949802
-0.30888999 0.41295052 -0.08116795 -0.10079878 0.10696028 0.08181222 0.039293688 0.29881757
0.2596923 -0.4968464 -0.33490306 -0.34916332 0.45093977 -0.27989674 0.23345144 -0.4106194
0.43336147 0.0138174025 0.47580373 0.109747656 -0.23486272 0.22081022 -0.24724165 -0.19842494

weight f4 [128, 1024]
00000000: bfa8 3fbc 802e b53a 5ff6 dc3b 4ecf f2bc
00000010: da59 cd3c 7c24 d73b 5a5f a9bc 00c1 3b3c
00000020: 5dc4 693c d16a bf3b fa2e 643c f578 94ba
00000030: b0b4 0e3c eb16 aaba 80a3 853a 4719 acbc
00000040: 0b08 c93c 0fa6 5e3c f2cc f8bc 957a 4c3c
00000050: 2b8e 0cbc 964b 433b 6dce 163c 60b4 bbbc
00000060: 63c9 953c e01e 85bb f719 bd3c 62dd d53c
00000070: 5542 b53c ff2a 01bd 570c cbbc 025e 223c
00000080: b5b0 6c3a 07d4 debc bd71 843c 59f2 fdbc
00000090: 5f68 88bb fbff 30bc 1fa5 cdbc 2c49 d9bc
000000a0: 1a49 d9bc 2831 e5bc 2ccd a93b dead f03b
000000b0: 674c 2e3c f3d7 cabc f614 3f3c 7f10 2aba
000000c0: 808f 863c d5e1 04bd 39e1 68ba 0d6f 0cbd
000000d0: 02b4 d6bc 5157 a3bc 1f56 f3bc 02d2 06bc
000000e0: 4aba d03c a8eb 08bc 5ba0 8bbb 20f2 3b3c
000000f0: 2b4f b33c 7f02 823c 39a3 9c3c d747 64bc
00000100: 5fa5 11bd d2d6 6cbc 649e ac3c 8e0f 08bd
00000110: 938d b23c 3286 423c 6222 893b 420c 79bc
00000120: de8f 7dbb df98 16bc b816 3a3c 3937 b03c
00000130: 7bca e2bc f297 5b3c d017 fc3a 58a1 acbc
00000140: 0448 b1bc df9c 533c 01df 43bc dc7d 1cbc
00000150: 4855 29bc 9948 12bd 7aa0 233b 2188 bf3a
00000160: 2d85 f2bc 5e71 8c3a c3e2 b7bb 9349 bbbc
00000170: b38c 993c b872 dabc d45d 86bc f12d 01bd
00000180: e4b7 bb3c 3855 7e3c 4d30 923b c07b 38bc
00000190: 276e 3c3c 099f c0bc 44c0 c43c e8fa d1bc
000001a0: 921c 08bd 84e2 9fbc d502 09bc 47d9 b5bc
000001b0: c955 bbbb b889 79bc b333 cdba 341e cebc
000001c0: 00c5 833c 33f9 60bc 5121 1dbc 7386 8b3c
000001d0: ad1a 0dbd 4b7a abbc a87c 303c 3b65 e2bc
000001e0: 1643 073c 4060 513c 4e69 413c a602 0dbd
000001f0: 7474 12bd 65c6 edb9 1378 2bbb 008d d6bc
00000200: 04e1 a23b c2f5 4d3c 381c 843c ef3d d3bc
00000210: 53b6 94bb db65 613b 2427 c2bc d8e0 113c
00000220: 0d08 41bc 9acd b4bb 5dbb 4b3c e515 d63c
00000230: 63c4 96bc 4e45 d13c 278d bb3c 8d10 d53a
00000240: b14d 0fbd e341 983c 476d 0fbd e003 c03b
00000250: 98f9 3ebc 5f82 e6bc d07e f3bc eb68 77bb
00000260: 666a 80bb 0d78 b5bc 6657 cfbc fc47 b43c
00000270: 14f9 a0bc 97a4 213c 0308 43bc f0dc 62bc
00000280: b883 d1bb c046 13ba 2a96 cd3c db69 0e3c
00000290: b9eb d53c 4390 bb3c e987 ac3c 95f5 12bd
000002a0: 94bd d8bc a2ff 98bc 76c7 57bc c4f2 233c
000002b0: 8e4e 75bc b572 ffbc 3545 a43c a82b 2e3c
000002c0: 45b3 ddbb 6ab7 e9bc 2e87 b5bc 1b2e bb3c
000002d0: b0aa 943c 36c7 273b 041b 4bbc 26ce c43c
000002e0: 6d1d e1bb 0400 023c 391d 213c ea4e 7ebc
000002f0: 73ec 153c 56a9 173b 2bb8 e8bc 7b7c 333c
00000300: 6ae4 c2bc b9fd cabc 3973 dbba 705b 9bbc
00000310: 5fa5 f3bc ad6c 59bb 0b18 1b3b 1276 bb3b
00000320: 87cd 723c 3153 c33c 9d00 52bc 9aa4 853b
00000330: 4762 0abd d6fc bebc 7d45 99bc 55a6 09bc
00000340: b17e e9bc 6636 20bc c309 04bd fd78 973c
00000350: cd6c 55bb 2dc1 1bba 05bf 933c cffb 0fbc
00000360: e1d6 c0bc 24fc 303c 0f84 b13b 1274 cbbb
00000370: f6f0 e53b afb7 9f3c 15e6 8d3c 6c6e dabc
00000380: ce75 dcbc 00da a3bc 7394 3abb e382 4bbc
00000390: 2dcf 84bc b7b8 f03b d236 c63a e865 c73c
000003a0: 2902 8abc 3a30 ab3c 1808 b2bc 5844 563c
000003b0: d5c8 d43c b5e9 663c 5f03 883c c7e3 bc3c
000003c0: dabd 313c 4643 bdbb 39ec f1bc 4ca7 fdbc
000003d0: 63f8 77bc 6aa7 683c ccd5 c8bc e623 613c
000003e0: efa3 a93c 02ce f6bc f36f 07bd 4fa4 963c
000003f0: 0247 583c 7448 c33c 7e85 89bc 87a0 9e3c
-0.011697947 0.0013823062 0.006743237 -0.029639866 0.025067259 0.0065656286 -0.02067535 0.011459589
0.014268008 0.005841591 0.013927216 -0.0011327552 0.008710071 -0.0012976801 0.0010195822 -0.021008147
0.024539968 0.013589396 -0.030371163 0.012480398 -0.008578817 0.0029799691 0.009204489 -0.022913158
0.018284505 -0.0040625185 0.02308367 0.02610654 0.022126356 -0.031535145 -0.024786158 0.0099101085
0.0009029017 -0.027200712 0.016167516 -0.03099935 -0.0041628326 -0.010803218 -0.02510315 -0.026524149
-0.026524115 -0.027977541 0.005181929 0.0073449453 0.010638333 -0.024761176 0.011662712 -0.00064874435
0.016425848 -0.032441933 -0.00088836584 -0.034285594 -0.026208881 -0.019939097 -0.029704152 -0.008228781
0.025479455 -0.008356966 -0.004261059 0.011471301 0.021888336 0.01587033 0.0191208 -0.013933144
-0.0355581 -0.014455514 0.02107162 -0.03321796 0.021796023 0.011872815 0.004185007 -0.015200676
-0.0038690488 -0.009191721 0.011357956 0.021510707 -0.02768444 0.013402926 0.0019233171 -0.021073028
-0.021640785 0.012915819 -0.011955024 -0.009551492 -0.010335274 -0.035713766 0.0024967478 0.0014612713
-0.029604519 0.0010714938 -0.005611749 -0.022862231 0.018743848 -0.02666603 -0.016402163 -0.031537954
0.022914834 0.015523247 0.0044613243 -0.011259973 0.011500872 -0.023513334 0.02401746 -0.025632337
-0.03323037 -0.01951719 -0.008362492 -0.022198332 -0.0057170135 -0.015230589 -0.0015655666 -0.025160886
0.016085148 -0.013731289 -0.009590463 0.017031884 -0.034449268 -0.020932337 0.010771908 -0.027636161
0.008255741 0.012779295 0.011804892 -0.034426354 -0.03575559 -0.00045351978 -0.00261641 -0.02619028
0.0049706716 0.0125708 0.016126737 -0.025786368 -0.0045383363 0.0034392986 -0.023700304 0.008903705
-0.011781705 -0.0055176737 0.012434808 0.026133487 -0.018404191 0.025545742 0.022894455 0.0016255543
-0.0349862 0.018586105 -0.035016324 0.005859837 -0.0116561875 -0.028138338 -0.029723555 -0.0037751745
-0.0039189337 -0.022151971 -0.02531023 0.022006981 -0.01965002 0.009865901 -0.011903766 -0.013846621
-0.006393876 -0.00056181476 0.025096018 0.00869223 0.026113378 0.022895938 0.0210609 -0.035878737
-0.026457585 -0.018676583 -0.013170114 0.01000661 -0.014972342 -0.031182626 0.020052532 0.010630526
-0.0067657554 -0.028529841 -0.022159185 0.022849133 0.018147796 0.0025600917 -0.012396578 0.02402408
-0.006869963 0.007934574 0.009833627 -0.015521744 0.009150612 0.0023141704 -0.02840813 0.010954971
-0.023790557 -0.024779188 -0.0016742713 -0.0189645 -0.029741941 -0.0033176348 0.0023665454 0.005720862
0.014819509 0.02384338 -0.012817529 0.00407846 -0.03378513 -0.023313921 -0.018709892 -0.008401473
-0.028502794 -0.009778595 -0.032235872 0.018490309 -0.003256607 -0.0005941566 0.018035421 -0.008788063
-0.023539962 0.0108023025 0.005417354 -0.006208905 0.00701725 0.019496767 0.017321626 -0.026663981
-0.026911642 -0.020001411 -0.002846983 -0.012421343 -0.01621207 0.0073462385 0.0015122539 0.024340585
-0.016846733 0.02089702 -0.021732375 0.013077818 0.02597467 0.014093806 0.01660317 0.023057831
0.010848487 -0.005775842 -0.029531585 -0.030963562 -0.015134904 0.014200071 -0.024516009 0.013741469
0.020708052 -0.030127529 -0.033065747 0.018388895 0.013200523 0.02383826 -0.016787287 0.019363655

bias f4 [128]
00000000: 6ff5 b33c c388 603c ef30 36bd 8244 a83c
00000010: 44f1 a9bc 1672 823d ff47 ce3c 872c a0bc
00000020: a912 ebbc 68a4 debc f5b5 493d 020f aa3c
00000030: 9abd 803d a32e 3dbc 5d0f d1bc 3293 923c
00000040: 5469 863d 13c6 a93c fa1c 633d 0032 fcbc
00000050: 1454 b2bb 0c91 d1bc 6564 993c 8763 ce3c
00000060: 8197 673c b4e8 0a3d 8030 603c 5332 263d
00000070: 2352 bc3d 6e48 803c 743f 0bbd 2c25 483d
00000080: c52c 8c3d 142b b53c 33d4 543c 0cda 07bd
00000090: 73d0 d9bc ef72 ad3c b96f e03d 6804 b13c
000000a0: 16b1 b13d 402b 6c3d bed9 d63c 7055 15bc
000000b0: 4ec8 debc c020 9abc eb9e 223d f45e cfbc
000000c0: 4780 183c 049c aabc dd94 f23c 6fb3 94bc
000000d0: fd46 b63c 4aba 88bb 6853 a03d e85c 343b
000000e0: 6ff6 b33c 796a 1b3d 5b58 733c be40 6f3d
000000f0: 26d3 a33d c4e9 ed3c b422 af3c aa78 ae3b
00000100: f956 f6bc 9d9a 2cbc 74c7 383a c809 a73d
00000110: d922 75bc 7477 8a3d 44f7 4c3b 316e 3dba
00000120: 9d41 0cbd e008 1d3c 935e bb3c b311 b53c
00000130: 3f32 01bc 7412 be3b a49a 5cbc 6839 d3bc
00000140: c2f5 f33b cf81 9ebc 2773 eabc e0e3 febb
00000150: f8ae db3c baf4 453c 9138 85bc e4d5 a63c
00000160: 01b1 113d 5f3f 3bbd aeda 76bb 3290 3a3c
00000170: 7a7f ef3b 1fa0 21bb 24bf b33c d31f e93b
00000180: 26c9 983d 1289 9b3d 6433 03bd c5e2 063d
00000190: 2cb7 24bc 651d 7c3b 5886 2f3d ec8d 013d
000001a0: 38dd 1dbb 5246 133d 8bb3 823d 80a3 97bc
000001b0: 3c53 093c 5704 b6bc 863d ffbb c706 953d
000001c0: b208 f2bc 09d4 ad3b 2da5 95bc f161 883d
000001d0: fa0f 693b 59f1 443d d637 793c df3c ad3b
000001e0: bde6 c23c a084 b7bc 551e 413d d81e e03d
000001f0: c8bd 383b fbec f7bc 9054 a8bb 73dc 8a3d
0.021967618 0.013704482 -0.04448026 0.02054048 -0.020744927 0.063694164 0.025180815 -0.019552482
-0.028695421 -0.027178004 0.049245793 0.02075911 0.06286164 -0.011546764 -0.025520021 0.017892454
0.065630585 0.020724332 0.055447556 -0.03078556 -0.005442152 -0.025581859 0.01872463 0.025193943
0.014135242 0.03391333 0.013683438 0.040575337 0.09195354 0.015659537 -0.03399606 0.048863575
0.068444766 0.022115268 0.012990045 -0.03316693 -0.026588654 0.021172969 0.109588094 0.021608546
0.086763546 0.057658434 0.026226874 -0.009114608 -0.027195122 -0.018814445 0.039702337 -0.025313832
0.009307927 -0.020826347 0.029612 -0.018151967 0.022250647 -0.004172598 0.078284085 0.0027521197
0.021968095 0.037943337 0.014852609 0.058411352 0.07999258 0.029042132 0.021378852 0.005324443
-0.030070769 -0.01053491 0.0007048764 0.081561625 -0.014961922 0.06761065 0.0031275311 -0.00072261976
-0.03424226 0.0095846355 0.022872245 0.022103166 -0.007885515 0.0058005396 -0.013464604 -0.02578421
0.007445068 -0.019349007 -0.028619362 -0.0077786297 0.02681683 0.012082273 -0.016262325 0.020365663
0.035569195 -0.045714732 -0.0037666964 0.011386918 0.0073088976 -0.002466209 0.021941729 0.0071143894
0.07460241 0.075945035 -0.03203143 0.032931108 -0.010053437 0.003846967 0.04285273 0.031629488
-0.0024088155 0.035955735 0.06381901 -0.01851058 0.008381661 -0.022218866 -0.0077893166 0.07276683
-0.029545162 0.0053048176 -0.018267239 0.06659306 0.0035562501 0.04808173 0.015211066 0.0052867974
0.023791665 -0.022402108 0.047148068 0.10943383 0.002818929 -0.030264368 -0.0051370338 0.067803286

weight f4 [2, 128]
00000000: 8df1 ddbc 911b 723d 01eb aebd 0672 e5bd
00000010: 4195 aa3b 278d febd 8131 0bbc e130 8c3c
00000020: 4823 4abd 7f9f f9ba 2caf ee3d 58b6 a6bd
00000030: e4cd 5c3e dddb efbc 40eb 18bd 0dd3 203d
00000040: 5b7e 133e 8764 63bc b7f1 3a3d 173e 28bd
00000050: 8609 2dbd c4b6 a9bd 9620 e3bc 83bd 993d
00000060: a6e3 3ebd b300 cd3d 8e55 3cbd fd9e 703d
00000070: f99f b6bd 2a5e 5cbc 4ffd 22bd c782 e03d
00000080: eca0 803d 421f a3bc 0ada 063d 5dde 00bd
00000090: 9545 37bd 46f3 ba3d 3f9c b93d 52fe d93d
000000a0: ffc7 27bc f7f6 633d f101 b03d 5d89 5ebd
000000b0: 20e1 93bd 63a0 39bd d97b 5a3d 3858 a23c
000000c0: a658 dfbc 99f9 2cbd c3bb 733e 928a 41bc
000000d0: 240c 3bbd 171e 96bd cadd a53d e9b9 f83c
000000e0: ef19 a0bb 8d77 623e 45b4 893d d9d5 573c
000000f0: 5071 233e 32cc e93d 7082 9c3c b6b5 8abd
00000100: 402d 5abc 0f72 70bd b49d 333d 392d 813e
00000110: 63e3 38bd d8fd b93d 3ccf ef3d 5e11 08bc
00000120: 21da b3bd bafc 97bb 545c 6dbc d60a 8e3d
00000130: a777 963d d053 2abe fcf5 1dbd 27a9 88bd
00000140: 9388 6cbd 9a54 9f3d 7a0b 22bd 9eb5 f8bc
00000150: e7cd 003e a26c 3e3d ee2c 333d 47ad 9f3c
00000160: b13d d73d 1b08 60bd 92fd 8f3d ec8e ddbc
00000170: 3ea0 573d 81c7 9fbd 71ab 813d 5a2e be3c
00000180: cf4e 013e fd26 b73d 9735 05be 0980 3f3d
00000190: f292 97bd 271b 753c f7d6 183e df77 f6bd
000001a0: de4f 59bc 81af ff3d 1ad2 403e 1fc9 78bd
000001b0: 08e0 5cbb 53de a53d a73c f5bc 293b 493d
000001c0: bb3b c4bc e95c 78bd 3fca c93c 2c78 1b3e
000001d0: 5453 01bd b379 cc3d 8a9c edbc 3e2a b13d
000001e0: e551 a4bd ed8e 7cbd 8b66 cabc 14d3 b73d
000001f0: 47d9 913d 5e86 2d3b ba9a 2bbd 95f7 3e3d
00000200: 6ef9 7a3c f61c c1bd 76e5 33be 43a7 8b3d
00000210: fce7 65bd 16f7 bd3d 3df7 e4bc 69d3 d4bd
00000220: 8aa4 86bd e46f d9bc b3d5 8e3d 24ee 4bbd
00000230: b0c7 933d f456 983c e924 0dbd 794a 8ebd
00000240: c928 c23d 9bf4 dcbd 6e61 333e ff20 2d3d
00000250: 3693 903d 625d 7dbd 32c1 863c 639a d13d
00000260: 55b5 13bd 488b ef3d 9cee a0bc f7d9 1d3e
00000270: 832b 453e 3792 39bd 8ac3 173d fc3d 1a3e
00000280: 92e3 583d 93ae 4bbd 9b42 dfbc 74a2 49bd
00000290: 2aea 19bd b30f c63d 920a 633e c23e 013e
000002a0: 55b2 d93d 5243 b43d b964 693c 7fd2 a63d
000002b0: 6c19 c8bc 8b30 91bc 9381 143e 3d11 e4bc
000002c0: 7140 8ebd bd52 de3a d77a 56bd cdc6 76bd
000002d0: a304 64bd 4f7c 0a3d cd03 723d 9112 90bd
000002e0: f8f0 fabd e0ba ce3c 650a cbbd 34ce ca3d
000002f0: d876 283e 03cd f33d ac43 94bd 15ca 6bbd
00000300: 7b45 66bd cbb9 dc3b 7d65 92bd 144e c2bd
00000310: cb20 48bc 4afa fa3d 3b9b aabd 7ece 82bc
00000320: 33cc 34be 1d83 0dbd b062 93bd ca61 ec3d
00000330: fbc4 8f3b ba12 f53d 99ad af3c b3b7 2a3d
00000340: d730 3abd 8b83 91bd f916 ae3d 8ca7 a53d
00000350: 2e24 0a3e 3d1d 9abd 986a 58bd 9b0d 983d
00000360: 823b c23d 53fb debd 8d28 80bd 0f30 11bc
00000370: e78b 6dbd 5a1e bb3d bffc 923d db45 46bd
00000380: 15dd 1c3a cd2d 063e 28f9 a93b b321 eabd
00000390: 2ef4 ab3d dc4c a1bd 7163 c73d 221f d4bd
000003a0: 97fd 81bc 64e8 e43d 9fd3 2a3e f60e 69ba
000003b0: 3a3b c5bd 5d8e 14bd 51c0 c7bc c9fe d53d
000003c0: 286a 803d bec6 2cbd 0f21 91bd 2524 723d
000003d0: ad59 0fbd 5c9f 513e c60a 03bd 9f06 013d
000003e0: 95d7 a03c d2c8 f7bc f445 ee3d 5a2d 3b3e
000003f0: 3aa3 62bd e555 16bb c3cc 06bd 2124 1e3e
-0.02709272 0.05910832 -0.08540917 -0.11203389 0.0052057807 -0.124292664 -0.008495689 0.017113151
-0.049350053 -0.0019044726 0.11654505 -0.08140248 0.21562916 -0.029279644 -0.037333727 0.039263774
0.1440367 -0.013878948 0.045640673 -0.04107484 -0.04224541 -0.08286813 -0.0277255 0.075068496
-0.04660382 0.10009899 -0.04598003 0.058745373 -0.08917231 -0.013450185 -0.039792355 0.10962444
0.062806934 -0.019912366 0.032922782 -0.031462062 -0.044744093 0.09128432 0.09063005 0.10644211
-0.010240554 0.055655446 0.0859412 -0.05433022 -0.072206736 -0.045318972 0.053340767 0.019817457
-0.02726395 -0.042230222 0.23802094 -0.011812823 -0.045665875 -0.07329958 0.080989435 0.030362086
-0.004885904 0.22115918 0.06723837 0.013173544 0.15961194 0.114159 0.019105166 -0.0677294
-0.0133164525 -0.058702525 0.04385157 0.25229815 -0.045138728 0.0908162 0.11709449 -0.008304922
-0.08781839 -0.0046382817 -0.014487345 0.069356605 0.073470406 -0.16633534 -0.038564667 -0.06672888
-0.057747435 0.07779808 -0.039561726 -0.03036004 0.12578546 0.04649032 0.04374402 0.019491805
0.105098136 -0.05469523 0.070307866 -0.02704569 0.052643053 -0.07801724 0.06331528 0.023215462
0.1262772 0.08942983 -0.13008724 0.046752963 -0.074010745 0.014960087 0.14925753 -0.12034582
-0.013263671 0.124846466 0.18830147 -0.06073868 -0.003370287 0.080990456 -0.029936148 0.049128685
-0.023954263 -0.06063548 0.024632571 0.1518256 -0.03157361 0.0998415 -0.029005308 0.08650635
-0.08023433 -0.061659742 -0.0247071 0.08975807 0.071215205 0.0026477794 -0.041895606 0.04662283
0.015318258 -0.09429352 -0.17568001 0.06819012 -0.05612944 0.092756435 -0.027949924 -0.10391886
-0.06574352 -0.026542611 0.06974354 -0.049787655 0.07215822 0.01859615 -0.03445903 -0.06947798
0.094804354 -0.10788842 0.17517635 0.042267796 0.07059328 -0.061856635 0.016449545 0.10234525
-0.036061604 0.11696488 -0.019645028 0.15415178 0.1925488 -0.045305457 0.037051715 0.15062708
0.052951403 -0.049727034 -0.02725344 -0.049227193 -0.037576832 0.09670963 0.22172001 0.12621596
0.10629717 0.08801903 0.014245206 0.08145618 -0.024426185 -0.017723342 0.14502554 -0.027840251
-0.06945885 0.0016961914 -0.052363243 -0.060248185 -0.055668484 0.033809956 0.059085656 -0.07034791
-0.122529924 0.025235593 -0.09914092 0.099026114 0.16451585 0.11904337 -0.0723947 -0.057565767
-0.056218605 0.0067360154 -0.071482636 -0.094875485 -0.01221485 0.1225477 -0.08330389 -0.015967604
-0.17656021 -0.034548867 -0.071965575 0.11542089 0.0043874956 0.119664624 0.021445083 0.041679095
-0.045456734 -0.07105168 0.085004754 0.08088598 0.13490364 -0.07525108 -0.05283603 0.0742447
0.094840065 -0.1088778 -0.062577344 -0.008861556 -0.05799475 0.091366485 0.07177114 -0.048406463
0.00059838715 0.13103409 0.0051871724 -0.11432209 0.08396183 -0.07875988 0.09735764 -0.103575006
-0.015867991 0.111771375 0.1668229 -0.0008890474 -0.09630437 -0.03626858 -0.024383696 0.10448987
0.06270248 -0.042181723 -0.070863836 0.0591165 -0.03499763 0.20470947 -0.031992696 0.031500455
0.019634048 -0.030247126 0.11634436 0.18279019 -0.055331446 -0.002293938 -0.03291012 0.1544347

bias f4 [2]
00000000: 925d a3bc dc2c a63d
-0.019942079 0.08114025
