saved_models/run8/model_5000.pth (torch, 550374 bytes, 6 tensors)

weight f4 [1024, 4]
0.63409954 0.21718834 -0.13766602 0.52510005 0.43493435 -0.026819974 -0.4435086 -0.19950843
-0.33902502 -0.26433167 0.30215007 -0.3469389 0.1924777 0.352709 0.35645118 0.6571233
0.08794617 0.3189277 -0.2971968 -0.1353315 -0.23871507 -0.09856363 -0.288318 0.15635946
0.26425257 -0.018512692 0.24057434 -0.32262492 0.4710516 0.29580587 0.1255782 -0.020765226
-0.20368251 -0.23186864 0.053940073 0.17546144 0.40476808 -0.31051 0.030680083 -0.51659745
0.4170545 -0.13105643 0.250617 -0.10854129 0.54647976 0.11458234 -1.2956232 -0.21100779
0.5574712 -0.1391979 0.18489613 -0.5471592 -0.43111303 -0.22965613 -0.17121746 0.37815967
0.5116287 0.03490279 0.3241967 -0.47441068 -0.4116325 -0.24450323 -0.18151751 -0.766331
0.25435024 0.029913332 0.13026066 -0.22288032 0.49954617 -0.33367032 -0.8211332 -0.42576677
-0.36759678 0.38752317 -0.95627123 -0.042653885 -0.38973597 0.1867779 0.029777195 0.26068628
0.44430026 0.12280822 0.4088883 0.064879104 -0.5257233 -0.06636621 -0.10702513 0.39763907
-0.38000777 -0.39650738 0.014601461 0.20220926 0.46041498 -0.010626667 -0.6493023 -0.271697
0.19611168 0.07676143 0.4183701 0.5003217 0.45885578 0.12270552 0.30080196 -0.17587054
0.22700268 -0.10139768 0.33567545 -0.29987985 0.10474381 -0.18807644 0.17128314 -0.19366664
0.18073052 -0.30894366 0.32840797 -0.09225577 0.4689352 0.29777914 0.26622242 0.7224077
-0.489617 0.037650615 -0.11769275 0.55346113 0.30508956 0.06382903 -0.012019022 0.17980482
0.43529686 -0.14944756 0.18219224 0.435331 0.051280964 -0.1296741 0.050953276 -0.78167146
-0.48119536 0.17772661 0.25821868 -0.4256785 0.20122233 0.4593302 0.3377526 -0.43138483
0.38472012 -0.39188942 0.13499665 0.1347882 0.19056116 -0.2700556 -0.10380305 0.10198637
-0.2745591 -0.40232685 -0.009239795 -0.6808744 -0.239254 0.31180695 0.18632588 0.5621224
0.3391801 0.2335714 -0.0084070135 -0.21585235 0.41023618 -0.023624595 -0.04586055 -0.7744421
-0.41223833 0.4452098 -0.32997262 -0.27555192 -0.2969914 -0.018023884 0.011338285 0.38096878
0.5701613 -0.15295704 -0.3472981 -0.20307928 -0.22874586 0.25306147 -0.20315549 -0.62361515
-0.4157614 -0.27323556 -0.07568366 -0.65428704 -0.36038437 0.5350301 0.3906738 0.19915646
-0.3295101 0.17349444 0.080410756 -0.80093807 -0.22455308 0.2916253 0.047998134 -0.3983685
-0.24763136 -0.28573278 0.35235673 -0.7894482 -0.23585197 -0.39523727 -0.11831274 -0.7329016
0.45656684 0.44857952 -0.18148945 -0.56959397 -0.32596955 -0.012828735 0.33251557 0.45443583
0.5562882 0.5468577 -0.46472922 -0.26227996 -0.3388004 -0.13717411 0.027920108 -0.46224472
0.4006879 -0.019266533 -0.028047139 -0.5560373 -0.41278768 0.27019045 0.28648692 -0.51100653
0.50259095 0.21619855 -0.09620033 -0.6056076 0.0128476145 -0.123997144 0.017745994 0.28551096
0.12478287 0.23090059 -0.26624894 -0.23582338 -0.045617383 -0.09232485 -1.0550151 -0.1502861
-0.07869294 -0.03448995 0.31982 0.55566096 0.20073807 -0.34665293 -0.06360734 -0.7235774
00000000: 5954 223f 9f66 5e3e 52f8 0cbe f56c 063f
00000010: b7af de3e 90b5 dbbc 8f13 e3be f04b 4cbe
00000020: b094 adbe 7b56 87be 6ab3 9a3e faa1 b1be
00000030: e018 453e 4696 b43e c580 b63e 3c39 283f
00000040: 1f1d b43d 7e4a a33e 2e2a 98be 5794 0abe
00000050: b971 74be badb c9bd 6b9e 93be b21c 203e
00000060: 1d4c 873e eea7 97bc 1f59 763e 182f a5be
00000070: ad2d f13e de73 973e 9297 003e d61b aabc
00000080: 2692 50be f96e 6dbe 44f0 5c3d 2aac 333e
00000090: c33d cf3e 2bfb 9ebe cc54 fb3c bb3f 04bf
000000a0: 2b88 d53e a833 06be df50 803e e54a debd
000000b0: 19e6 0b3f 25aa ea3d fbd6 a5bf 6d12 58be
000000c0: 6fb6 0e3f e589 0ebe 6955 3d3e a012 0cbf
000000d0: d9ba dcbe fa2a 6bbe a153 2fbe 259e c13e
000000e0: 19fa 023f 3af6 0e3d 1cfd a53e f5e5 f2be
000000f0: 7fc1 d2be 0e5f 7abe badf 39be 452e 44bf
00000100: 323a 823e ce0c f53c 0d63 053e bd3a 64be
00000110: 84c4 ff3e d6d6 aabe c935 52bf 1afe d9be
00000120: a535 bcbe 7069 c63e 31ce 74bf d7b5 2ebd
00000130: 798b c7be b542 3f3e 4eef f33c ac78 853e
00000140: 537b e33e e082 fb3d cf59 d13e 56df 843d
00000150: cd95 06bf 02eb 87bd fe2f dbbd 5997 cb3e
00000160: 6190 c2be 0403 cbbe f73a 6f3c f20f 4f3e
00000170: 83bb eb3e 791b 2ebc ad38 26bf df1b 8bbe
00000180: 80d1 483e 1935 9d3d 9b34 d63e 1515 003f
00000190: 25ef ea3e 084d fb3d b702 9a3e 6817 34be
000001a0: 6473 683e 96a9 cfbd a7dd ab3e da89 99be
000001b0: ec83 d63d 1c97 40be d964 2f3e 8c50 46be
000001c0: 6c11 393e dd2d 9ebe 1725 a83e 98f0 bcbd
000001d0: 4618 f03e 8276 983e 4e4e 883e b6ef 383f
000001e0: 14af fabe 8837 1a3d e608 f1bd a1af 0d3f
000001f0: b334 9c3e cbb8 823d 6feb 44bc c11e 383e
00000200: 3bdf de3e c808 19be 9a90 3a3e b4e3 de3e
00000210: fd0b 523d 4ac9 04be 62b4 503d 9f1b 48bf
00000220: 3d5f f6be f7fd 353e 3d35 843e 88f2 d9be
00000230: 3a0d 4e3e 542d eb3e e9ed ac3e 79de dcbe
00000240: 09fa c43e bba5 c8be 903c 0a3e eb05 0a3e
00000250: 7722 433e ba44 8abe b296 d4bd 3bde d03d
00000260: 0393 8cbe c9fd cdbe 8262 17bc c94d 2ebf
00000270: 00ff 74be 29a5 9f3e 36cc 3e3e 41e7 0f3f
00000280: 04a9 ad3e 572d 6f3e 92bd 09bc 6608 5dbe
00000290: 7a0a d23e 5e88 c1bc 46d8 3bbd d641 46bf
000002a0: e710 d3be 8af2 e33e 2cf2 a8be 2415 8dbe
000002b0: 420f 98be d3a6 93bc 37c4 393c 570e c33e
000002c0: 17f6 113f c5a0 1cbe 0ed1 b1be 04f4 4fbe
000002d0: 5b3c 6abe 4691 813e fe07 50be 3ea5 1fbf
000002e0: aede d4be 88e5 8bbe 0900 9bbd 5b7f 27bf
000002f0: 4d84 b8be bcf7 083f 6506 c83e acef 4b3e
00000300: 8cb5 a8be 87a8 313e 65ae a43d 470a 4dbf
00000310: 3ef1 65be e94f 953e b199 443d f5f6 cbbe
00000320: 1393 7dbe 914b 92be 1a68 b43e 4719 4abf
00000330: 2e83 71be 8a5c cabe f34d f2bd 709f 3bbf
00000340: 21c3 e93e 37ac e53e 5fd8 39be e9d0 11bf
00000350: 7be5 a6be 9d2f 52bc 7b3f aa3e d0ab e83e
00000360: e768 0e3f defe 0b3f fdf0 edbe 8f49 86be
00000370: 3f77 adbe 5f77 0cbe b6b8 e43c 57ab ecbe
00000380: f726 cd3e d9d4 9dbc 1dc3 e5bc 7658 0ebf
00000390: e858 d3be 6756 8a3e 6aae 923e 53d1 02bf
000003a0: cda9 003f 2763 5d3e ae04 c5bd 1a09 1bbf
000003b0: cd7e 523c 37f2 fdbd 0c60 913c 7e2e 923e
000003c0: 298e ff3d 3471 6c3e c851 88be af7b 71be
000003d0: 4bd9 3abd d014 bdbd bc0a 87bf 99e4 19be
000003e0: c429 a1bd 5545 0dbd 72bf a33e cc3f 0e3f
000003f0: 488e 4d3e 7e7c b1be 9144 82bd 5e3c 39bf

bias f4 [1024]
-0.097643815 -0.5245807 0.11323001 -0.107810505 -0.17997158 -0.5855012 -0.371062 -0.24443747
-0.3993369 0.36076805 0.33845335 0.34891647 -0.041303657 0.08671857 -0.09615278 -0.30064157
0.07842008 0.009809356 0.18623222 0.39858818 -0.3301476 0.3561115 -0.15438728 -0.41223335
0.38827333 0.11175112 0.09084798 0.19411263 0.13162035 -0.4762419 0.44847628 0.3710407
0.28575233 0.1644481 -0.4300873 -0.5643678 0.24690762 0.2153456 -0.49565285 0.35425994
0.0626177 -0.23338191 0.48990074 -0.43931195 -0.36473674 0.6441048 -0.3701948 0.12380782
-0.3832339 0.10508121 -0.09504845 -0.596319 0.0014994466 0.5494194 0.38698137 -0.3455196
0.4532196 0.03360887 0.1986996 0.38467437 -0.16305633 0.65458107 -0.30595374 0.50164706
0.44432226 0.051276054 -0.7166973 0.28580043 0.16811076 -0.26186416 0.23514278 -0.5099501
-0.76041764 -0.42121178 0.32834408 0.38177875 0.21013181 -0.4827609 0.45307255 -0.25220096
-0.11339016 0.28395936 -0.09227207 -0.3491637 0.20686887 -0.17079432 -0.39863107 -0.31192988
-0.40367246 -0.63044655 0.18582158 0.3932806 -0.3981572 0.41494593 -0.4699009 0.27455902
-0.34433255 -0.2990324 -0.40025172 0.03043212 0.4329685 -0.07560461 -0.62886953 -0.70822966
-0.027103577 0.35359368 0.29115185 0.14352573 0.4113361 -0.5261477 -0.47657076 -0.75664127
0.5080572 0.1444461 0.33111078 -0.28854623 -0.5031155 0.5758173 -0.112676576 0.20922253
-0.41292763 0.30333593 0.022958212 -0.06465267 0.39552948 0.40049002 -0.1237527 -0.47018737
0.5425108 -0.7137084 0.35419175 0.5444075 -0.1965086 -0.36288545 -0.26021478 -0.439907
0.23959668 0.22133976 0.46935272 -0.3849757 0.3617858 -0.71233356 -0.19185673 0.24511777
0.39621222 -0.03656818 0.13762912 -0.27915072 0.44461566 0.20643833 -0.52710027 -0.5392229
-0.39254603 0.4416089 -0.032265954 -0.8700641 -0.7425706 -0.28265896 0.32943955 -0.28474572
0.47149467 -0.25731048 0.1225757 0.31702822 -0.29459563 -0.5171567 -0.4490009 0.53520536
0.18437265 -0.2529251 -0.35630804 0.1505807 -0.2596855 -0.25668675 0.06460714 -0.01773467
-0.4039817 -0.27316147 -0.28129688 0.4552077 -0.38637757 0.16864905 0.25147566 -0.010799944
-0.30787674 0.27082446 0.32372802 -0.41746286 0.24033114 -0.12474784 0.7136267 0.2286984
0.03561489 0.4880271 0.0067588026 0.41937974 0.09304684 0.626172 0.11856979 0.18127368
-0.66208375 0.24861407 0.17299806 0.4241068 -0.012295594 -0.44693896 -0.45586133 0.30505785
-0.30465522 0.67104405 0.09531186 0.5039148 0.51176274 0.62482536 -0.14495552 -0.2901426
-0.40722206 0.24893452 -0.44531244 0.14486629 -0.23955017 0.08585388 0.63392866 0.5329919
-0.33923936 0.43457526 -0.12562472 -0.16444369 -0.44342965 0.09986134 -0.38349167 -0.41068554
-0.31335187 0.52239674 -0.15421928 -0.059644125 -0.11219009 0.1371692 0.14799936 0.20462297
0.40789837 -0.62289244 -0.41213545 -0.4595963 0.38578615 -0.30969435 0.23131885 -0.48047477
0.38609815 0.16028592 0.30830756 -0.09174593 -0.32688788 0.26334444 -0.3339695 -0.19186094
00000000: 7bf9 c7bd ec4a 06bf 23e5 e73d c1cb dcbd
00000010: 784a 38be 68e3 15bf d7fb bdbe d14d 7abe
00000020: e375 ccbe 97b6 b83e c249 ad3e 2ea5 b23e
00000030: 062e 29bd 8199 b13d c0eb c4bd b1ed 99be
00000040: b59a a03d 6cb7 203c a9b3 3e3e c013 cc3e
00000050: 1b09 a9be 3f54 b63e b317 1ebe 4010 d3be
00000060: c3cb c63e c5dd e43d 810e ba3d 76c5 463e
00000070: 7cc7 063e fad5 f3be af9e e53e 0cf9 bd3e
00000080: 214e 923e 1565 283e 6734 dcbe 687a 10bf
00000090: 5ad5 7c3e 8f83 5c3e 36c6 fdbe 8f61 b53e
000000a0: b53d 803d abfb 6ebe 45d4 fa3e 7fed e0be
000000b0: c6be babe 0de4 243f 2c8a bdbe f48e fd3d
000000c0: 3c37 c4be d134 d73d c3a8 c2bd 5da8 18bf
000000d0: 1489 c43a c0a6 0c3f 6c22 c63e f2e7 b0be
000000e0: 660c e83e 74a9 093d e877 4b3e 0af4 c43e
000000f0: 3df8 26be a092 273f f8a5 9cbe f16b 003f
00000100: 357e e33e d706 523d 7979 37bf 6f54 923e
00000110: 3a25 2c3e 0f13 86be 45c9 703e 178c 02bf
00000120: bbaa 42bf 12a9 d7be b71c a83e 8178 c33e
00000130: cb2c 573e 702c f7be 20f9 e73e 7c20 81be
00000140: 1a39 e8bd 1f63 913e 24f9 bcbd 96c5 b2be
00000150: 6fd5 533e b5e4 2ebe 5f19 ccbe 46b5 9fbe
00000160: 28ae cebe f264 21bf 0348 3e3e 135c c93e
00000170: 43db cbbe cb73 d43e da96 f0be 0093 8c3e
00000180: 5b4c b0be c61a 99be cbed ccbe c84c f93c
00000190: 0cae dd3e 97d6 9abd 98fd 20bf 8a4e 35bf
000001a0: 5208 debc 3b0a b53e db11 953e 69f8 123e
000001b0: a59a d23e 9eb1 06bf 1501 f4be 3eb3 41bf
000001c0: 0910 023f aee9 133e 5a87 a93e 55bc 93be
000001d0: 2dcc 00bf c368 133f fac2 e6bd 6e3e 563e
000001e0: 406b d3be d94e 9b3e dc12 bc3c 9e68 84bd
000001f0: d782 ca3e 070d cd3e 0e72 fdbd 66bc f0be
00000200: fde1 0a3f 98b5 36bf 9f58 b53e 4a5e 0b3f
00000210: 8d39 49be 1fcc b9be df3a 85be 7e3b e1be
00000220: d558 753e e4a6 623e 004f f03e 891b c5be
00000230: fd3b b93e 7e5b 36bf 1776 44be 2700 7b3e
00000240: 54dc ca3e 84c8 15bd a6ee 0c3e d8ec 8ebe
00000250: aaa4 e33e 9264 533e 0bf0 06bf 830a 0abf
00000260: cbfb c8be 901a e23e 4e29 04bd 85bc 5ebf
00000270: 1b19 3ebf adb8 90be 4dac a83e 31ca 91be
00000280: c067 f13e 33be 83be f808 fb3d 8651 a23e
00000290: 3dd5 96be 6264 04bf 72e3 e5be 3803 093f
000002a0: 2fcc 3c3e 667f 81be 026e b6be d431 1a3e
000002b0: 7ff5 84be 726c 83be c050 843d 4c48 91bc
000002c0: b0d6 cebe d2db 8bbe 2506 90be fc10 e93e
000002d0: 48d3 c5be 56b2 2c3e 6bc1 803e 40f2 30bc
000002e0: 05a2 9dbe 81a9 8a3e aebf a53e b1bd d5be
000002f0: 5e19 763e cc7b ffbd 3db0 363f ea2f 6a3e
00000300: ebe0 113d b0de f93e f278 dd3b f1b8 d63e
00000310: 578f be3d cf4c 203f b8d4 f23d cf9f 393e
00000320: 527e 29bf b094 7e3e 6726 313e 8724 d93e
00000330: 7673 49bc 2fd5 e4be a866 e9be 8b30 9c3e
00000340: c5fb 9bbe 8bc9 2b3f dd32 c33d 8f00 013f
00000350: e202 033f 8ef4 1f3f 386f 14be 928d 94be
00000360: 697f d0be b1e8 7e3e feff e3be d457 143e
00000370: a44c 75be 29d4 af3d 2649 223f 2872 083f
00000380: c8b0 adbe a680 de3e c4a3 00be ed63 28be
00000390: 3609 e3be 1a84 cc3d 0559 c4be 6045 d2be
000003a0: a86f a0be cbbb 053f a9eb 1dbe 664d 74bd
000003b0: ebc3 e5bd 1576 0c3e 258d 173e af88 513e
000003c0: 0ed8 d03e e175 1fbf 6b03 d3be 3550 ebbe
000003d0: c385 c53e 4290 9ebe d9de 6c3e ca00 f6be
000003e0: a8ae c53e fe21 243e 7dda 9d3e 4ae5 bbbd
000003f0: d95d a7be 15d5 863e 0dfe aabe 3277 44be

weight f4 [128, 1024]
-0.011697947 0.0013823062 0.006743237 -0.029639866 0.025067259 0.0065656286 -0.02067535 0.011459589
0.014268008 0.005841591 0.013927216 -0.0011327552 0.008710071 -0.0012976801 0.0010195822 -0.021008147
0.024539968 0.013589396 -0.030371163 0.012480398 -0.008578817 0.0029799691 0.009204489 -0.022913158
0.018284505 -0.0040625185 0.02308367 0.02610654 0.022126356 -0.031535145 -0.024786158 0.0099101085
0.0009029017 -0.027200712 0.016167516 -0.03099935 -0.0041628326 -0.010803218 -0.02510315 -0.026524149
-0.026524115 -0.027977541 0.005181929 0.0073449453 0.010638333 -0.024761176 0.011662712 -0.00064874435
0.016425848 -0.032441933 -0.00088836584 -0.034285594 -0.026208881 -0.019939097 -0.029704152 -0.008228781
0.025479455 -0.008356966 -0.004261059 0.011471301 0.021888336 0.01587033 0.0191208 -0.013933144
-0.0355581 -0.014455514 0.02107162 -0.03321796 0.021796023 0.011872815 0.004185007 -0.015200676
-0.0038690488 -0.009191721 0.011357956 0.021510707 -0.02768444 0.013402926 0.0019233171 -0.021073028
-0.021640785 0.012915819 -0.011955024 -0.009551492 -0.010335274 -0.035713766 0.0024967478 0.0014612713
-0.029604519 0.0010714938 -0.005611749 -0.022862231 0.018743848 -0.02666603 -0.016402163 -0.031537954
0.022914834 0.015523247 0.0044613243 -0.011259973 0.011500872 -0.023513334 0.02401746 -0.025632337
-0.03323037 -0.01951719 -0.008362492 -0.022198332 -0.0057170135 -0.015230589 -0.0015655666 -0.025160886
0.016085148 -0.013731289 -0.009590463 0.017031884 -0.034449268 -0.020932337 0.010771908 -0.027636161
0.008255741 0.012779295 0.011804892 -0.034426354 -0.03575559 -0.00045351978 -0.00261641 -0.02619028
0.0049706716 0.0125708 0.016126737 -0.025786368 -0.0045383363 0.0034392986 -0.023700304 0.008903705
-0.011781705 -0.0055176737 0.012434808 0.026133487 -0.018404191 0.025545742 0.022894455 0.0016255543
-0.0349862 0.018586105 -0.035016324 0.005859837 -0.0116561875 -0.028138338 -0.029723555 -0.0037751745
-0.0039189337 -0.022151971 -0.02531023 0.022006981 -0.01965002 0.009865901 -0.011903766 -0.013846621
-0.006393876 -0.00056181476 0.025096018 0.00869223 0.026113378 0.022895938 0.0210609 -0.035878737
-0.026457585 -0.018676583 -0.013170114 0.01000661 -0.014972342 -0.031182626 0.020052532 0.010630526
-0.0067657554 -0.028529841 -0.022159185 0.022849133 0.018147796 0.0025600917 -0.012396578 0.02402408
-0.006869963 0.007934574 0.009833627 -0.015521744 0.009150612 0.0023141704 -0.02840813 0.010954971
-0.023790557 -0.024779188 -0.0016742713 -0.0189645 -0.029741941 -0.0033176348 0.0023665454 0.005720862
0.014819509 0.02384338 -0.012817529 0.00407846 -0.03378513 -0.023313921 -0.018709892 -0.008401473
-0.028502794 -0.009778595 -0.032235872 0.018490309 -0.003256607 -0.0005941566 0.018035421 -0.008788063
-0.023539962 0.0108023025 0.005417354 -0.006208905 0.00701725 0.019496767 0.017321626 -0.026663981
-0.026911642 -0.020001411 -0.002846983 -0.012421343 -0.01621207 0.0073462385 0.0015122539 0.024340585
-0.016846733 0.02089702 -0.021732375 0.013077818 0.02597467 0.014093806 0.01660317 0.023057831
0.010848487 -0.005775842 -0.029531585 -0.030963562 -0.015134904 0.014200071 -0.024516009 0.013741469
0.020708052 -0.030127529 -0.033065747 0.018388895 0.013200523 0.02383826 -0.016787287 0.019363655
00000000: bfa8 3fbc 802e b53a 5ff6 dc3b 4ecf f2bc
00000010: da59 cd3c 7c24 d73b 5a5f a9bc 00c1 3b3c
00000020: 5dc4 693c d16a bf3b fa2e 643c f578 94ba
00000030: b0b4 0e3c eb16 aaba 80a3 853a 4719 acbc
00000040: 0b08 c93c 0fa6 5e3c f2cc f8bc 957a 4c3c
00000050: 2b8e 0cbc 964b 433b 6dce 163c 60b4 bbbc
00000060: 63c9 953c e01e 85bb f719 bd3c 62dd d53c
00000070: 5542 b53c ff2a 01bd 570c cbbc 025e 223c
00000080: b5b0 6c3a 07d4 debc bd71 843c 59f2 fdbc
00000090: 5f68 88bb fbff 30bc 1fa5 cdbc 2c49 d9bc
000000a0: 1a49 d9bc 2831 e5bc 2ccd a93b dead f03b
000000b0: 674c 2e3c f3d7 cabc f614 3f3c 7f10 2aba
000000c0: 808f 863c d5e1 04bd 39e1 68ba 0d6f 0cbd
000000d0: 02b4 d6bc 5157 a3bc 1f56 f3bc 02d2 06bc
000000e0: 4aba d03c a8eb 08bc 5ba0 8bbb 20f2 3b3c
000000f0: 2b4f b33c 7f02 823c 39a3 9c3c d747 64bc
00000100: 5fa5 11bd d2d6 6cbc 649e ac3c 8e0f 08bd
00000110: 938d b23c 3286 423c 6222 893b 420c 79bc
00000120: de8f 7dbb df98 16bc b816 3a3c 3937 b03c
00000130: 7bca e2bc f297 5b3c d017 fc3a 58a1 acbc
00000140: 0448 b1bc df9c 533c 01df 43bc dc7d 1cbc
00000150: 4855 29bc 9948 12bd 7aa0 233b 2188 bf3a
00000160: 2d85 f2bc 5e71 8c3a c3e2 b7bb 9349 bbbc
00000170: b38c 993c b872 dabc d45d 86bc f12d 01bd
00000180: e4b7 bb3c 3855 7e3c 4d30 923b c07b 38bc
00000190: 276e 3c3c 099f c0bc 44c0 c43c e8fa d1bc
000001a0: 921c 08bd 84e2 9fbc d502 09bc 47d9 b5bc
000001b0: c955 bbbb b889 79bc b333 cdba 341e cebc
000001c0: 00c5 833c 33f9 60bc 5121 1dbc 7386 8b3c
000001d0: ad1a 0dbd 4b7a abbc a87c 303c 3b65 e2bc
000001e0: 1643 073c 4060 513c 4e69 413c a602 0dbd
000001f0: 7474 12bd 65c6 edb9 1378 2bbb 008d d6bc
00000200: 04e1 a23b c2f5 4d3c 381c 843c ef3d d3bc
00000210: 53b6 94bb db65 613b 2427 c2bc d8e0 113c
00000220: 0d08 41bc 9acd b4bb 5dbb 4b3c e515 d63c
00000230: 63c4 96bc 4e45 d13c 278d bb3c 8d10 d53a
00000240: b14d 0fbd e341 983c 476d 0fbd e003 c03b
00000250: 98f9 3ebc 5f82 e6bc d07e f3bc eb68 77bb
00000260: 666a 80bb 0d78 b5bc 6657 cfbc fc47 b43c
00000270: 14f9 a0bc 97a4 213c 0308 43bc f0dc 62bc
00000280: b883 d1bb c046 13ba 2a96 cd3c db69 0e3c
00000290: b9eb d53c 4390 bb3c e987 ac3c 95f5 12bd
000002a0: 94bd d8bc a2ff 98bc 76c7 57bc c4f2 233c
000002b0: 8e4e 75bc b572 ffbc 3545 a43c a82b 2e3c
000002c0: 45b3 ddbb 6ab7 e9bc 2e87 b5bc 1b2e bb3c
000002d0: b0aa 943c 36c7 273b 041b 4bbc 26ce c43c
000002e0: 6d1d e1bb 0400 023c 391d 213c ea4e 7ebc
000002f0: 73ec 153c 56a9 173b 2bb8 e8bc 7b7c 333c
00000300: 6ae4 c2bc b9fd cabc 3973 dbba 705b 9bbc
00000310: 5fa5 f3bc ad6c 59bb 0b18 1b3b 1276 bb3b
00000320: 87cd 723c 3153 c33c 9d00 52bc 9aa4 853b
00000330: 4762 0abd d6fc bebc 7d45 99bc 55a6 09bc
00000340: b17e e9bc 6636 20bc c309 04bd fd78 973c
00000350: cd6c 55bb 2dc1 1bba 05bf 933c cffb 0fbc
00000360: e1d6 c0bc 24fc 303c 0f84 b13b 1274 cbbb
00000370: f6f0 e53b afb7 9f3c 15e6 8d3c 6c6e dabc
00000380: ce75 dcbc 00da a3bc 7394 3abb e382 4bbc
00000390: 2dcf 84bc b7b8 f03b d236 c63a e865 c73c
000003a0: 2902 8abc 3a30 ab3c 1808 b2bc 5844 563c
000003b0: d5c8 d43c b5e9 663c 5f03 883c c7e3 bc3c
000003c0: dabd 313c 4643 bdbb 39ec f1bc 4ca7 fdbc
000003d0: 63f8 77bc 6aa7 683c ccd5 c8bc e623 613c
000003e0: efa3 a93c 02ce f6bc f36f 07bd 4fa4 963c
000003f0: 0247 583c 7448 c33c 7e85 89bc 87a0 9e3c

bias f4 [128]
0.021967618 0.04214697 0.067567125 0.07426567 -0.020744927 0.06189468 0.025180815 0.020424083
-0.028695421 -0.027178004 0.029784245 0.02075911 -0.018176736 0.04085707 -0.025520021 -0.037307832
0.04680523 0.09473196 0.029610328 -0.03078556 -0.005442152 -0.025581859 0.01872463 0.011389584
0.014135242 0.01643391 0.013683438 0.011571656 0.13977207 0.015659537 -0.03399606 0.020445084
0.044562686 0.022115268 0.012990045 -0.03316693 -0.026588654 0.0016856819 0.080457695 -0.0069100372
0.0632324 0.026699288 0.026226874 -0.009114608 -0.027195122 -0.018814445 0.0101401545 -0.025313832
0.009307927 -0.020826347 -0.01451314 -0.018151967 0.022250647 -0.004172598 0.056554627 0.0027521197
0.067266054 -0.012412618 0.040005714 0.031594474 -0.005676008 0.004459357 0.021378852 0.005324443
-0.030070769 -0.01053491 -0.0025917361 0.036746196 -0.014961922 0.038238004 0.006195829 -0.00072261976
0.075813465 0.0095846355 0.022872245 0.014783836 -0.007885515 0.043900993 -0.013464604 -0.02578421
0.007445068 -0.019349007 -0.028619362 -0.0077786297 0.003192079 0.030921591 -0.016262325 0.020365663
0.011485432 -0.17748041 -0.0017586027 0.011386918 0.0073088976 -0.002466209 -0.0021419572 0.0071143894
0.027922107 0.066191755 -0.067819715 0.13335927 -0.010053437 0.003846967 0.01429818 0.0739109
-0.0024088155 0.008391978 -0.03241492 -0.01851058 0.054235976 -0.03400619 -0.0077893166 0.041707117
-0.029545162 0.0053048176 -0.018267239 0.017867586 0.0035562501 0.015279958 0.015211066 -0.007408292
0.023791665 -0.022402108 0.017878504 0.027060987 0.002818929 -0.030264368 -0.0051370338 0.039757393
00000000: 6ff5 b33c 4da2 2c3d a260 8a3d 9918 983d
00000010: 44f1 a9bc 4785 7d3d ff47 ce3c 6850 a73c
00000020: a912 ebbc 68a4 debc 17fe f33c 020f aa3c
00000030: 61e7 94bc be59 273d 5d0f d1bc 19d0 18bd
00000040: d7b6 3f3d d402 c23d 5c91 f23c 0032 fcbc
00000050: 1454 b2bb 0c91 d1bc 6564 993c 619b 3a3c
00000060: 8197 673c 68a0 863c 8030 603c 0b97 3d3c
00000070: 6920 0f3e 6e48 803c 743f 0bbd 737c a73c
00000080: 5d87 363d 142b b53c 33d4 543c 0cda 07bd
00000090: 73d0 d9bc 19f2 dc3a 01c7 a43d 986d e2bb
000000a0: fd7f 813d 77b8 da3c bed9 d63c 7055 15bc
000000b0: 4ec8 debc c020 9abc e422 263c f45e cfbc
000000c0: 4780 183c 049c aabc 85c8 6dbc 6fb3 94bc
000000d0: fd46 b63c 4aba 88bb d3a5 673d e85c 343b
000000e0: c9c2 893d 4b5e 4bbc 08dd 233d 3569 013d
000000f0: cefd b9bb cc1f 923b b422 af3c aa78 ae3b
00000100: f956 f6bc 9d9a 2cbc 1eda 29bb 2e83 163d
00000110: d922 75bc 749f 1c3d 6106 cb3b 316e 3dba
00000120: 1744 9b3d e008 1d3c 935e bb3c e737 723c
00000130: 3f32 01bc 87d1 333d a49a 5cbc 6839 d3bc
00000140: c2f5 f33b cf81 9ebc 2773 eabc e0e3 febb
00000150: 3332 513b 474f fd3c 9138 85bc e4d5 a63c
00000160: 652d 3c3c 6dbd 35be ea80 e6ba 3290 3a3c
00000170: 7a7f ef3b 1fa0 21bb 1460 0cbb d31f e93b
00000180: e7bc e43c 8b8f 873d 10e5 8abd 558f 083e
00000190: 2cb7 24bc 651d 7c3b ea42 6a3c 995e 973d
000001a0: 38dd 1dbb 827e 093c 82c5 04bd 80a3 97bc
000001b0: 8b26 5e3d 134a 0bbd 863d ffbb 15d5 2a3d
000001c0: b208 f2bc 09d4 ad3b 2da5 95bc 0b5f 923c
000001d0: fa0f 693b ca58 7a3c d637 793c 42c1 f2bb
000001e0: bde6 c23c a084 b7bc f175 923c 01af dd3c
000001f0: c8bd 383b fbec f7bc 9054 a8bb a6d8 223d

weight f4 [2, 128]
-0.02709272 0.009077337 -0.22973779 -0.18368794 0.0052057807 -0.23185459 -0.008495689 -0.04428072
-0.049350053 -0.0019044726 0.1895491 -0.08140248 0.42168325 -0.18396065 -0.037333727 -0.13670641
0.17810267 -0.062451515 0.013668259 -0.04107484 -0.04224541 -0.08286813 -0.0277255 0.08043236
-0.04660382 0.10873342 -0.04598003 0.08334086 -0.18102589 -0.013450185 -0.039792355 0.15373525
0.14105548 -0.019912366 0.032922782 -0.031462062 -0.044744093 0.13209419 0.119451486 0.17991921
-0.05358001 0.10467821 0.0859412 -0.05433022 -0.072206736 -0.045318972 0.089529075 0.019817457
-0.02726395 -0.042230222 0.80707073 -0.011812823 -0.045665875 -0.07329958 0.114178054 0.030362086
-0.07145794 0.42100194 -0.21223362 0.02108478 0.41808435 0.19049764 0.019105166 -0.0677294
-0.0133164525 -0.058702525 0.045547586 0.6228736 -0.045138728 0.15087232 0.28478587 -0.008304922
-0.2310666 -0.0046382817 -0.014487345 0.0738949 0.073470406 -0.25363508 -0.038564667 -0.06672888
-0.057747435 0.07779808 -0.039561726 -0.03036004 0.19983469 0.012096386 0.04374402 0.019491805
0.12484695 -0.42095968 0.16888537 -0.02704569 0.052643053 -0.07801724 0.13175786 0.023215462
0.2319435 0.090138555 -0.23218869 0.016789677 -0.074010745 0.014960087 0.17696388 -0.20575672
-0.013263671 0.14548376 0.5089232 -0.06073868 -0.07385081 0.21140751 -0.029936148 0.089854896
-0.023954263 -0.06063548 0.024632571 0.22965828 -0.03157361 0.20858724 -0.029005308 0.19055027
-0.08023433 -0.061659742 0.013167415 0.23515952 0.071215205 0.0026477794 -0.041895606 0.06822544
0.015318258 -0.14264567 -0.2842945 0.057210013 -0.05612944 0.10654025 -0.027949924 -0.13867882
-0.06574352 -0.026542611 0.089729175 -0.049787655 0.10170739 -0.005778196 -0.03445903 -0.30289012
0.12763004 -0.15622038 0.25483724 0.042267796 0.07059328 -0.061856635 0.016449545 0.13433127
-0.036061604 0.1983406 -0.019645028 0.23545803 0.3310148 -0.045305457 0.037051715 0.18936026
0.073474236 -0.049727034 -0.02725344 -0.049227193 -0.037576832 0.16451901 0.2867974 0.16023734
0.17087536 0.14583586 0.014245206 0.08145618 -0.024426185 -0.017723342 0.22920153 -0.027840251
-0.06945885 0.0016961914 0.16113792 -0.060248185 -0.055668484 0.033809956 0.10228958 -0.07034791
-0.15705776 0.059517086 -0.27172822 0.1887854 0.5689829 0.14375514 -0.0723947 -0.057565767
-0.056218605 0.0067360154 -0.07154778 -0.07010624 -0.01221485 0.16323194 -0.13065948 -0.015967604
-0.28822175 -0.034548867 -0.071965575 0.1493136 0.0043874956 0.1548504 0.021445083 0.041679095
-0.045456734 -0.07105168 0.085004754 0.08088598 0.15767835 -0.14556004 -0.05283603 0.0742447
0.1329848 -0.3050882 -0.19909431 -0.008861556 -0.05799475 0.091366485 0.095395975 -0.048406463
-0.0349746 0.16931733 -0.014247893 -0.24324417 0.08396183 -0.07875988 0.13759795 -0.17266901
-0.015867991 0.14377539 0.596622 -0.0008890474 -0.13148823 -0.046011765 -0.024383696 0.18246393
0.06270248 -0.042181723 -0.070863836 0.05856908 -0.03499763 0.46731585 -0.031992696 0.055488136
0.019634048 -0.030247126 0.13826172 0.5057133 -0.055331446 -0.002293938 -0.03291012 0.24030143
00000000: 8df1 ddbc 1cb9 143c 6240 6bbe b118 3cbe
00000010: 4195 aa3b 4a6b 6dbe 8131 0bbc b35f 35bd
00000020: 4823 4abd 7f9f f9ba 2919 423e 58b6 a6bd
00000030: dee6 d73e 2e60 3cbe 40eb 18bd c4fc 0bbe
00000040: 8c60 363e 29cd 7fbd d5f0 5f3c 173e 28bd
00000050: 8609 2dbd c4b6 a9bd 9620 e3bc b9b9 a43d
00000060: a6e3 3ebd a1af de3d 8e55 3cbd 9dae aa3d
00000070: da5e 39be 2a5e 5cbc 4ffd 22bd c66c 1d3e
00000080: d970 103e 421f a3bc 0ada 063d 5dde 00bd
00000090: 9545 37bd b343 073e fba2 f43d be3c 383e
000000a0: b676 5bbd 8861 d63d f101 b03d 5d89 5ebd
000000b0: 20e1 93bd 63a0 39bd 055b b73d 3858 a23c
000000c0: a658 dfbc 99f9 2cbd 309c 4e3f 928a 41bc
000000d0: 240c 3bbd 171e 96bd 2fd6 e93d e9b9 f83c
000000e0: 8a58 92bd 918d d73e c553 59be fdb9 ac3c
000000f0: 270f d63e d011 433e 7082 9c3c b6b5 8abd
00000100: 402d 5abc 0f72 70bd 1b90 3a3d a574 1f3f
00000110: 63e3 38bd 467e 1a3e 74cf 913e 5e11 08bc
00000120: b99c 6cbe bafc 97bb 545c 6dbc 3656 973d
00000130: a777 963d 75dc 81be fcf5 1dbd 27a9 88bd
00000140: 9388 6cbd 9a54 9f3d 7a0b 22bd 9eb5 f8bc
00000150: 77a1 4c3e ec2f 463c ee2c 333d 47ad 9f3c
00000160: c2af ff3d 0788 d7be 49f0 2c3e ec8e ddbc
00000170: 3ea0 573d 81c7 9fbd 88eb 063e 5a2e be3c
00000180: 9982 6d3e 909a b83d dfc2 6dbe 818a 893c
00000190: f292 97bd 271b 753c 0536 353e e4b1 52be
000001a0: de4f 59bc b2f9 143e ca48 023f 1fc9 78bd
000001b0: 183f 97bd 367b 583e a73c f5bc d805 b83d
000001c0: bb3b c4bc e95c 78bd 3fca c93c 8a2b 6b3e
000001d0: 5453 01bd e597 553e 8a9c edbc 9c1f 433e
000001e0: e551 a4bd ed8e 7cbd 24bc 573c a8cd 703e
000001f0: 47d9 913d 5e86 2d3b ba9a 2bbd c8b9 8b3d
00000200: 6ef9 7a3c b511 12be 0c8f 91be 0c55 6a3d
00000210: fce7 65bd c631 da3d 3df7 e4bc d201 0ebe
00000220: 8aa4 86bd e46f d9bc eec3 b73d 24ee 4bbd
00000230: f74b d03d 0557 bdbb e924 0dbd 6a14 9bbe
00000240: 73b1 023e 3cf8 1fbe 077a 823e ff20 2d3d
00000250: 3693 903d 625d 7dbd 32c1 863c 238e 093e
00000260: 55b5 13bd cc19 4b3e 9cee a0bc e91b 713e
00000270: c67a a93e 3792 39bd 8ac3 173d a8e7 413e
00000280: a979 963d 93ae 4bbd 9b42 dfbc 74a2 49bd
00000290: 2aea 19bd ac77 283e 1cd7 923e 4215 243e
000002a0: f3f9 2e3e ff55 153e b964 693c 7fd2 a63d
000002b0: 6c19 c8bc 8b30 91bc ceb3 6a3e 3d11 e4bc
000002c0: 7140 8ebd bd52 de3a 5701 253e cdc6 76bd
000002d0: a304 64bd 4f7c 0a3d 337d d13d 9112 90bd
000002e0: c0d3 20be 30c8 733d f61f 8bbe f650 413e
000002f0: dda8 113f 8c34 133e ac43 94bd 15ca 6bbd
00000300: 7b45 66bd cbb9 dc3b a487 92bd dc93 8fbd
00000310: cb20 48bc 4626 273e 99cb 05be 7ece 82bc
00000320: cd91 93be 1d83 0dbd b062 93bd aae5 183e
00000330: fbc4 8f3b 1a91 1e3e 99ad af3c b3b7 2a3d
00000340: d730 3abd 8b83 91bd f916 ae3d 8ca7 a53d
00000350: 6f76 213e b10d 15be 986a 58bd 9b0d 983d
00000360: 2b2d 083e 8534 9cbe 61df 4bbe 0f30 11bc
00000370: e78b 6dbd 5a1e bb3d f75e c33d db45 46bd
00000380: 8741 0fbd 8661 2d3e ff6f 69bc 0015 79be
00000390: 2ef4 ab3d dc4c a1bd 7ae6 0c3e 25d0 30be
000003a0: 97fd 81bc db39 133e 38bc 183f f60e 69ba
000003b0: daa4 06be d576 3cbd 51c0 c7bc d3d7 3a3e
000003c0: 286a 803d bec6 2cbd 0f21 91bd 22e6 6f3d
000003d0: ad59 0fbd 0644 ef3e c60a 03bd 8747 633d
000003e0: 95d7 a03c d2c8 f7bc 7b94 0d3e 6d76 013f
000003f0: 3aa3 62bd e555 16bb c3cc 06bd 9411 763e

bias f4 [2]
-0.089195415 0.039249167
00000000: 16ac b6bd bcc3 203d
