saved_models/run8/model_4000.pth (torch, 550374 bytes, 6 tensors)

weight f4 [1024, 4]
000000 87 93 1f 3f b6 88 65 3e 56 bd e2 bd 7f 19 05 3f
       0.62334484 0.22415432 -0.11071269 0.5199203
000010 b1 45 db 3e 7e 75 9d bc 24 77 d6 be 13 21 42 be
       0.42826608 -0.019221064 -0.41887772 -0.1895793
000020 85 c5 b9 be 47 df 8b be 5b c9 9b 3e b2 b5 a7 be
       -0.36283508 -0.27318785 0.3042706 -0.3275581
000030 bb 30 41 3e 30 83 b4 3e af 11 ba 3e ab 76 23 3f
       0.18866245 0.35256338 0.36341617 0.6385295
000040 66 d2 93 3d f2 a3 a0 3e a2 30 98 be 4f 7a ef bd
       0.07217865 0.3137508 -0.29724604 -0.116932504
000050 43 20 74 be 95 da cc bd 1e 45 81 be 21 98 2b 3e
       -0.23840432 -0.10002629 -0.25248045 0.16757251
000060 e3 bd 80 3e ff 90 4a bc 73 bc 81 3e 61 47 9c be
       0.25144872 -0.012363671 0.25339088 -0.30523208
000070 cb 72 ee 3e 8b 09 9a 3e dc 09 04 3e 1c 2e c2 bc
       0.46571955 0.30085406 0.12894386 -0.023703627
000080 7e 48 4c be 66 94 6f be 36 01 4a 3d d4 e3 3c 3e
       -0.19949529 -0.23396453 0.04931756 0.18446285
000090 89 19 c2 3e 04 8b a5 be e7 03 37 3d a0 7f fd be
       0.37910107 -0.32332623 0.044681456 -0.49511433
0000a0 e5 45 c5 3e f2 63 1b be e7 0e 86 3e e7 dc ca bd
       0.38529888 -0.15174845 0.26183245 -0.09905415
0000b0 61 dd 0a 3f 62 08 e9 3d f8 75 9e bf 89 97 53 be
       0.5424405 0.11378552 -1.2379751 -0.20663275
0000c0 e1 d1 08 3f 11 6c 0c be f8 e1 45 3e de 67 06 bf
       0.5344525 -0.13713099 0.19324481 -0.5250224
0000d0 0a 6a d7 be e8 79 73 be 31 11 39 be d6 5f be 3e
       -0.4207309 -0.23776972 -0.18072964 0.37182492
0000e0 aa 61 fb 3e d5 48 f1 3c 85 5a ac 3e 51 55 eb be
       0.4909795 0.029453674 0.3366281 -0.4596353
0000f0 c4 9c d6 be 8b cd 84 be ac 9a 35 be 61 3d 42 bf
       -0.41916478 -0.25938067 -0.17734784 -0.75874907
000100 07 5c 7f 3e 59 e7 4e 3d 6f ca 0f 3e 21 b1 58 be
       0.2493745 0.0505136 0.14042066 -0.2116132
000110 32 4a 02 3f f4 ea af be ad 97 2f bf c5 8f c6 be
       0.50894463 -0.34358943 -0.68590814 -0.38781562
000120 66 ff bb be a4 14 c7 3e 97 b1 69 bf 9c f6 37 bd
       -0.3671829 0.38882935 -0.91286606 -0.04491292
000130 01 8c bf be d9 0e 35 3e f7 21 15 3d a9 d2 80 3e
       -0.37411502 0.17681445 0.036409345 0.2516072
000140 eb 5d e1 3e 65 32 f4 3d 91 19 d3 3e 0d 7d b4 3d
       0.44016966 0.119236745 0.41230443 0.08812914
000150 2b fc 02 bf 3e 7c 9a bd 38 3e db bd a3 0d ce 3e
       -0.5116603 -0.075432286 -0.10705227 0.4024478
000160 4d ec bd be 18 48 cb be 97 8f 85 3c a7 d4 5f 3e
       -0.37094346 -0.3970344 0.01630382 0.21858464
000170 5f 3c e9 3e d4 7a bb b7 8c de 1c bf 42 64 83 be
       0.45553872 -2.2349333e-05 -0.6127708 -0.25662428
000180 d3 b7 37 3e 39 38 6f 3d e8 9d e0 3e 08 b6 fe 3e
       0.17941217 0.058403227 0.43870473 0.49748254
000190 80 6c e6 3e 78 82 0c 3e b1 65 9e 3e b8 46 20 be
       0.45004654 0.13721645 0.3093696 -0.15651977
0001a0 b2 4a 62 3e 3e f5 c1 bd 7e 65 ae 3e 4c 89 99 be
       0.22098807 -0.09470604 0.34061807 -0.29987562
0001b0 0d be d6 3d 5a dc 40 be c6 78 45 3e 76 f6 46 be
       0.10485468 -0.18834057 0.19284353 -0.19429955
0001c0 25 4b 40 3e 2e 1c 97 be 12 d3 b2 3e 0a 80 ab bd
       0.18778665 -0.29513687 0.3492666 -0.08374031
0001d0 e0 31 f7 3e 68 28 a1 3e 0f 85 94 3e 0b c6 2d 3f
       0.4828024 0.3147614 0.29007766 0.67880315
0001e0 d7 42 f8 be 09 63 d4 3c d9 e2 e7 bd 8c c5 0d 3f
       -0.48488495 0.02592613 -0.11322565 0.5537956
0001f0 9c 75 a4 3e 1d c6 89 3d ee 95 80 bc db ae 3a 3e
       0.3212098 0.0672724 -0.015696492 0.18230765
000200 0e b5 d9 3e 23 76 15 be 2f 3b 49 3e 29 44 ee 3e
       0.42520946 -0.14595847 0.19651483 0.46536377
000210 50 be df 3c 9b 0b 00 be f3 df 6d 3d e3 2c 41 bf
       0.027312428 -0.12504427 0.058074903 -0.75459117
000220 28 1e 03 bf 4c ac 2e 3e 06 69 85 3e 2d f4 d9 be
       -0.5121789 0.17057914 0.2605669 -0.42569104
000230 8a d9 4d 3e 89 bb ed 3e b9 7d b1 3e 7a 54 dc be
       0.20102516 0.4643214 0.3466623 -0.430332
000240 bd 72 bf 3e 16 ac cc be c2 33 37 3e 87 d8 0d 3e
       0.37392226 -0.3997504 0.17890838 0.1385213
000250 48 42 3e 3e 21 5c 8a be 7d 91 d5 bd fe 3e c0 3d
       0.18579972 -0.27023414 -0.1042814 0.09387015
000260 58 56 94 be 95 bb c8 be 82 93 11 bc a5 51 2d bf
       -0.28972125 -0.39205614 -0.008885266 -0.67702705
000270 82 d3 6e be 5b 78 9d 3e eb a5 42 3e b3 6f 07 3f
       -0.23322871 0.30755886 0.19008605 0.52904814
000280 46 c6 ab 3e f2 4e 6f 3e ca 4e 26 bc 5d da 66 be
       0.33549708 0.23369959 -0.010150621 -0.22544236
000290 b9 80 cb 3e b2 48 51 bd 67 6a 1b bd f1 66 42 bf
       0.39746645 -0.05109472 -0.03794327 -0.75938326
0002a0 64 2f cd be 99 6a e6 3e 06 e2 ad be 99 7b 87 be
       -0.4007522 0.45003203 -0.33961505 -0.26461485
0002b0 11 c0 93 be 48 9b d7 bc cc 2c 40 bc ea 4b c6 3e
       -0.28857473 -0.026319161 -0.01172943 0.38729793
0002c0 8a ec 10 3f 07 da 16 be 3e 78 9e be 58 37 30 be
       0.5661093 -0.14731608 -0.30951113 -0.17208612
0002d0 9e 26 72 be 59 14 88 3e 01 d2 4e be 74 71 1b bf
       -0.23647544 0.26578024 -0.20197298 -0.6071999
0002e0 8f c2 d9 be 94 e7 89 be 23 52 a6 bd 66 09 25 bf
       -0.4253125 -0.26934493 -0.08121135 -0.64467466
0002f0 de 11 b1 be 1c 25 07 3f 77 48 cf 3e 9f 7c 2d 3e
       -0.34583944 0.52791 0.40484974 0.1694207
000300 24 e9 9e be de e8 4d 3e 34 da ac 3d b9 de 43 bf
       -0.31037247 0.20108363 0.084400564 -0.7651172
000310 52 11 65 be 3a ee 93 3e 05 b4 4b 3d 40 9b c6 be
       -0.22369888 0.2889269 0.049732227 -0.3879032
000320 f9 7b 83 be 7e af 8f be 04 2a b7 3e 80 05 4a bf
       -0.2568052 -0.28063577 0.35774243 -0.7891464
000330 c2 ed 6b be 5e 18 c4 be 7b 0e 2c be 98 e7 35 bf
       -0.23039916 -0.3829984 -0.16802399 -0.7105651
000340 4f 63 e9 3e 1a 6e e8 3e 14 25 3e be 03 b3 0e bf
       0.4558358 0.453965 -0.18568832 -0.557419
000350 c0 01 a5 be 81 42 8e bc 3f f8 af 3e 34 07 e7 3e
       -0.32227898 -0.017365696 0.34369084 0.45122683
000360 22 f9 04 3f 06 d1 0a 3f 54 22 f6 be 44 dc 82 be
       0.51942647 0.54225194 -0.48073065 -0.25558674
000370 0c 88 b3 be 47 96 04 be a0 5a d7 3c d6 70 e9 be
       -0.35064733 -0.12947951 0.02628833 -0.455939
000380 d0 67 c8 3e dd c7 12 bc 1d 62 e4 bc 93 1e 0c bf
       0.39141703 -0.008958784 -0.027878815 -0.5473415
000390 47 85 dd be a4 b4 88 3e e9 d7 95 3e 09 35 05 bf
       -0.43265745 0.26700318 0.2926629 -0.5203405
0003a0 53 18 02 3f e6 ca 60 3e 5e 6f c2 bd e1 ab 16 bf
       0.50818366 0.219524 -0.09493898 -0.58856016
0003b0 ef 9e 2e 3a 65 8b 23 be 40 97 00 3d ef de 93 3e
       0.0006661256 -0.15971144 0.031394243 0.28881022
0003c0 51 c4 e3 3d 9e ec 67 3e 6b 91 8a be a8 f2 59 be
       0.11121429 0.22648856 -0.2706407 -0.21283972
0003d0 d0 b6 40 bd 15 a2 bc bd aa 80 83 bf f6 be 1b be
       -0.047049344 -0.09210602 -1.027364 -0.15209565
0003e0 7e 7f 7b bd 4d b0 39 bd 6f 85 a5 3e 3a 98 0a 3f
       -0.061400883 -0.04533415 0.32328364 0.5413853
0003f0 d7 14 39 3e 2f 47 b0 be 99 3c 84 bd 71 57 36 bf
       0.18074356 -0.3442931 -0.064568706 -0.71227175

bias f4 [1024]
000000 ad 85 8c bd 83 83 00 bf 54 54 03 3e 89 77 c1 bd
       -0.06861434 -0.5020067 0.12825137 -0.09446628
000010 c4 3d 2a be c2 41 0f bf be ee ae be 12 94 74 be
       -0.16625124 -0.55959713 -0.3416652 -0.2388461
000020 14 a8 c2 be c6 46 c1 3e cf a5 ac 3e dd dc b7 3e
       -0.38018858 0.37749308 0.33720252 0.35910693
000030 b0 8b df bc 9e d9 da 3d 9f 3c a6 bd 25 cb 83 be
       -0.027288288 0.106860384 -0.08117031 -0.25740924
000040 14 41 c9 3d 2e 9a e2 3a dd 53 40 3e e2 c5 cf 3e
       0.09826866 0.0017288381 0.18781991 0.4058066
000050 cb 78 a3 be 90 07 b6 3e 8a 58 09 be ab 5d c7 be
       -0.31928095 0.35552645 -0.13412681 -0.3893865
000060 c7 d6 c4 3e 2d de ec 3d 20 7c 9e 3d ee f9 43 3e
       0.38445112 0.11565814 0.07738519 0.1913831
000070 14 74 0e 3e 8b 9e d6 be 44 f8 df 3e 1e 78 b7 3e
       0.13911468 -0.41917834 0.437441 0.3583383
000080 11 a5 8a 3e 23 cd 11 3e 39 5f d5 be 81 03 0a bf
       0.2707906 0.1423841 -0.41674212 -0.53911597
000090 77 68 84 3e dc 91 5a 3e c9 f2 f3 be ea 64 b9 3e
       0.2586095 0.21344703 -0.47646168 0.36209804
0000a0 e4 34 88 3d 41 37 6f be a3 3d f6 3e 02 72 d4 be
       0.06650713 -0.23360921 0.480939 -0.4149323
0000b0 ab 5e b1 be 8c b2 24 3f 96 4d af be 55 9d 0e 3e
       -0.34642538 0.6433494 -0.3423888 0.13927205
0000c0 d7 1b be be c3 30 e1 3d 3f 9a 93 bd fe 08 17 bf
       -0.37130615 0.10995629 -0.072071545 -0.58998096
0000d0 f7 58 cd 3a c7 5e 09 3f f4 59 c8 3e c7 56 a8 be
       0.0015666772 0.53660244 0.3913113 -0.32878706
0000e0 e6 90 e4 3e bb 5d 27 3d 50 01 4e 3e 92 cf c4 3e
       0.446418 0.040860873 0.20117688 0.38439614
0000f0 29 7d 1d be da 2c 26 3f 7e 2a 9b be 5a 18 fe 3e
       -0.15379776 0.6491219 -0.30305856 0.49627954
000100 4a e7 e1 3e 77 fe 45 3d 83 69 30 bf b3 bd 94 3e
       0.44121772 0.04833838 -0.68911 0.2905098
000110 d6 1c 45 3e 8d ee 7a be df df 6a 3e f1 24 f8 be
       0.19249281 -0.24505062 0.22936963 -0.48465684
000120 38 a1 31 bf a1 2a d2 be 1f 80 aa 3e c0 05 bc 3e
       -0.69386625 -0.41048148 0.33300874 0.36723137
000130 25 89 47 3e eb 94 ec be 76 47 eb 3e 5c 5f 58 be
       0.1948591 -0.46207365 0.45952958 -0.21130127
000140 4f 27 c9 bd b8 ce 90 3e c9 82 bd bd 77 86 c3 be
       -0.09821951 0.28282714 -0.09253461 -0.38188526
000150 60 ae 37 3e 26 ae 2d be b7 c8 c5 be 4b 4d 9e be
       0.17937613 -0.16960964 -0.38629696 -0.30918345
000160 ee c0 d0 be a5 60 15 bf ac ec 3b 3e 30 4a c8 3e
       -0.40772194 -0.5835059 0.18352002 0.391191
000170 db 04 be be d7 34 d2 3e dd c4 d9 be ef fa 89 3e
       -0.3711308 0.4105594 -0.42533007 0.2694926
000180 b4 42 a5 be b6 b6 8e be 13 91 b7 be 8f e0 e3 3c
       -0.32277453 -0.27873772 -0.3585287 0.027817039
000190 f6 aa da 3e 1b 7a 9b bd 4e 8d 1b bf 00 a7 28 bf
       0.42708558 -0.07591649 -0.6076249 -0.6587982
0001a0 1b 70 19 3c 00 15 b3 3e e4 34 ab 3e 14 e5 f9 3d
       0.009365107 0.3497696 0.3343879 0.12201896
0001b0 52 81 cf 3e 51 5a f9 be 26 ad f0 be a7 32 37 bf
       0.4052835 -0.48701718 -0.47007102 -0.71561664
0001c0 dd f0 04 3f f3 7f 20 3e 11 7d ab 3e ac 47 91 be
       0.5193003 0.15673809 0.33493856 -0.28374994
0001d0 bd eb ed be dc 11 0e 3f bb 32 c6 bd 2c 60 59 3e
       -0.46468917 0.55496 -0.09677645 0.21228093
0001e0 c6 76 d1 be 20 63 9f 3e 4e 5c 13 3d 0d 07 85 bd
       -0.4091093 0.31130314 0.0359767 -0.064954855
0001f0 be c2 c0 3e 11 e4 d6 3e 0a 87 e6 bd f0 8b ed be
       0.37648576 0.41970876 -0.112562254 -0.46395826
000200 a6 31 08 3f 59 a7 2e bf d3 a7 b1 3e f2 cd ff 3e
       0.5320076 -0.682241 0.34698352 0.4996181
000210 5b ce 32 be 3b 7b b2 be 42 64 89 be b3 b9 da be
       -0.17461531 -0.34859642 -0.26834303 -0.42719802
000220 ed 69 7b 3e 60 9c 6c 3e 62 92 ed 3e 64 fe bc be
       0.24552126 0.23106527 0.46400744 -0.36912835
000230 77 0a bf 3e 35 54 30 bf c3 e2 32 be b2 bb 8d 3e
       0.37312672 -0.6887849 -0.17469315 0.27682263
000240 b0 ee bc 3e 0d e2 2f bd bd 24 18 3e 22 f7 90 be
       0.36900854 -0.04294019 0.14857765 -0.28313547
000250 16 87 e3 3e 38 c8 4b 3e 98 3e 01 bf 23 fe 03 bf
       0.44439 0.19900596 -0.50486135 -0.51559657
000260 81 f3 bf be 5a 28 e3 3e 59 d3 07 bd fb 13 51 bf
       -0.37490466 0.44366723 -0.03316054 -0.8167111
000270 fe 82 34 bf cf 51 91 be 70 52 a7 3e cf b1 96 be
       -0.7051238 -0.28382728 0.32680082 -0.29432532
000280 31 1b ef 3e 8d 94 83 be f3 87 ca 3d 95 6a a6 3e
       0.46700433 -0.25699273 0.098892115 0.3250319
000290 0f 74 94 be 47 cc f8 be 27 f7 e3 be 21 af 05 3f
       -0.28994796 -0.4859335 -0.445245 0.5222035
0002a0 85 26 45 3e bd ae 81 be 4c 30 b3 be ff 79 1e 3e
       0.19252975 -0.25328627 -0.34997785 0.15476225
0002b0 ee 65 55 be 9b 99 85 be aa 31 36 3d 53 5c 11 bd
       -0.20839664 -0.26093754 0.044480957 -0.035488438
0002c0 6e df c9 be 0e 62 7e be ca ad 91 be 28 5c eb 3e
       -0.39428276 -0.24842092 -0.28452903 0.45968747
0002d0 ea 2c bf be 8f 6b 29 3e c4 bb 87 3e 95 49 c1 3b
       -0.37338954 0.16544937 0.2651044 0.0058986642
0002e0 90 b8 97 be d3 c8 8e 3e 5c 05 a5 3e 60 29 e5 be
       -0.29632998 0.27887592 0.3223065 -0.4475813
0002f0 e0 b1 65 3e d9 33 0f be 54 98 36 3f 3c a1 6a 3e
       0.22431135 -0.13984622 0.71326184 0.22913069
000300 40 5a 37 3d 33 cd 00 3f 0b 84 0e 3d 2b ca dc 3e
       0.044763803 0.5031311 0.034793895 0.43122992
000310 25 19 dd 3d 38 1f 1d 3f 8f 7b 19 3e 01 05 30 3e
       0.107958116 0.6137576 0.1498854 0.17189409
000320 95 12 23 bf bf 9e 77 3e 97 71 35 3e 1e 53 d9 3e
       -0.6370023 0.2418165 0.17719112 0.42446226
000330 71 6c e9 bb f1 4d de be 8e 7e e2 be ce 8a 95 3e
       -0.007123523 -0.4341884 -0.4423718 0.29207462
000340 72 b2 98 be f9 2f 26 3f 69 be 86 3d e5 6a 02 3f
       -0.29823643 0.6491695 0.065792866 0.5094436
000350 1a 9e 02 3f 3e df 1d 3f d3 fd f9 bd a9 04 94 be
       0.51022494 0.61668766 -0.12206616 -0.28909805
000360 dc 20 cc be a0 69 85 3e b4 74 dd be 70 5a e7 3d
       -0.3986882 0.26057148 -0.432531 0.112965465
000370 64 ec 67 be 6d 04 ba 3d 04 16 1c 3f a2 3b 07 3f
       -0.2264877 0.090828754 0.60971093 0.5282537
000380 95 9b a1 be 50 cb d5 3e f7 8c f4 bd 31 ba 10 be
       -0.31564012 0.41756678 -0.119409494 -0.14133526
000390 ea 52 df be e5 c3 d1 3d b0 3e b1 be 9d a1 cd be
       -0.43617946 0.10242442 -0.3461814 -0.40162364
0003a0 fc 58 9b be 4e bc 05 3f b9 e8 12 be 16 bc 57 bd
       -0.30341327 0.52240455 -0.14346589 -0.052669607
0003b0 0a c9 bf bd 99 b9 07 3e 6d 01 14 3e 6d 69 65 3e
       -0.09364517 0.13254394 0.14453669 0.22403498
0003c0 54 5f cf 3e 22 ba 1a bf 77 b5 c2 be 8a 50 e2 be
       0.40502417 -0.60440266 -0.38029072 -0.4420207
0003d0 62 53 cc 3e a4 57 9d be 12 ca 7b 3e 37 fc ef be
       0.39907366 -0.30730927 0.24588802 -0.46872112
0003e0 46 20 c1 3e 5a e4 0d 3e 85 9c a7 3e 50 11 77 bd
       0.37719935 0.1385664 0.32736602 -0.060319245
0003f0 1f f6 9e be 75 e6 92 3e db 4f a8 be d9 29 3e be
       -0.3104715 0.2869145 -0.32873425 -0.18570651

weight f4 [128, 1024]
000000 bf a8 3f bc 80 2e b5 3a 5f f6 dc 3b 4e cf f2 bc
       -0.011697947 0.0013823062 0.006743237 -0.029639866
000010 da 59 cd 3c 7c 24 d7 3b 5a 5f a9 bc 00 c1 3b 3c
       0.025067259 0.0065656286 -0.02067535 0.011459589
000020 5d c4 69 3c d1 6a bf 3b fa 2e 64 3c f5 78 94 ba
       0.014268008 0.005841591 0.013927216 -0.0011327552
000030 b0 b4 0e 3c eb 16 aa ba 80 a3 85 3a 47 19 ac bc
       0.008710071 -0.0012976801 0.0010195822 -0.021008147
000040 0b 08 c9 3c 0f a6 5e 3c f2 cc f8 bc 95 7a 4c 3c
       0.024539968 0.013589396 -0.030371163 0.012480398
000050 2b 8e 0c bc 96 4b 43 3b 6d ce 16 3c 60 b4 bb bc
       -0.008578817 0.0029799691 0.009204489 -0.022913158
000060 63 c9 95 3c e0 1e 85 bb f7 19 bd 3c 62 dd d5 3c
       0.018284505 -0.0040625185 0.02308367 0.02610654
000070 55 42 b5 3c ff 2a 01 bd 57 0c cb bc 02 5e 22 3c
       0.022126356 -0.031535145 -0.024786158 0.0099101085
000080 b5 b0 6c 3a 07 d4 de bc bd 71 84 3c 59 f2 fd bc
       0.0009029017 -0.027200712 0.016167516 -0.03099935
000090 5f 68 88 bb fb ff 30 bc 1f a5 cd bc 2c 49 d9 bc
       -0.0041628326 -0.010803218 -0.02510315 -0.026524149
0000a0 1a 49 d9 bc 28 31 e5 bc 2c cd a9 3b de ad f0 3b
       -0.026524115 -0.027977541 0.005181929 0.0073449453
0000b0 67 4c 2e 3c f3 d7 ca bc f6 14 3f 3c 7f 10 2a ba
       0.010638333 -0.024761176 0.011662712 -0.00064874435
0000c0 80 8f 86 3c d5 e1 04 bd 39 e1 68 ba 0d 6f 0c bd
       0.016425848 -0.032441933 -0.00088836584 -0.034285594
0000d0 02 b4 d6 bc 51 57 a3 bc 1f 56 f3 bc 02 d2 06 bc
       -0.026208881 -0.019939097 -0.029704152 -0.008228781
0000e0 4a ba d0 3c a8 eb 08 bc 5b a0 8b bb 20 f2 3b 3c
       0.025479455 -0.008356966 -0.004261059 0.011471301
0000f0 2b 4f b3 3c 7f 02 82 3c 39 a3 9c 3c d7 47 64 bc
       0.021888336 0.01587033 0.0191208 -0.013933144
000100 5f a5 11 bd d2 d6 6c bc 64 9e ac 3c 8e 0f 08 bd
       -0.0355581 -0.014455514 0.02107162 -0.03321796
000110 93 8d b2 3c 32 86 42 3c 62 22 89 3b 42 0c 79 bc
       0.021796023 0.011872815 0.004185007 -0.015200676
000120 de 8f 7d bb df 98 16 bc b8 16 3a 3c 39 37 b0 3c
       -0.0038690488 -0.009191721 0.011357956 0.021510707
000130 7b ca e2 bc f2 97 5b 3c d0 17 fc 3a 58 a1 ac bc
       -0.02768444 0.013402926 0.0019233171 -0.021073028
000140 04 48 b1 bc df 9c 53 3c 01 df 43 bc dc 7d 1c bc
       -0.021640785 0.012915819 -0.011955024 -0.009551492
000150 48 55 29 bc 99 48 12 bd 7a a0 23 3b 21 88 bf 3a
       -0.010335274 -0.035713766 0.0024967478 0.0014612713
000160 2d 85 f2 bc 5e 71 8c 3a c3 e2 b7 bb 93 49 bb bc
       -0.029604519 0.0010714938 -0.005611749 -0.022862231
000170 b3 8c 99 3c b8 72 da bc d4 5d 86 bc f1 2d 01 bd
       0.018743848 -0.02666603 -0.016402163 -0.031537954
000180 e4 b7 bb 3c 38 55 7e 3c 4d 30 92 3b c0 7b 38 bc
       0.022914834 0.015523247 0.0044613243 -0.011259973
000190 27 6e 3c 3c 09 9f c0 bc 44 c0 c4 3c e8 fa d1 bc
       0.011500872 -0.023513334 0.02401746 -0.025632337
0001a0 92 1c 08 bd 84 e2 9f bc d5 02 09 bc 47 d9 b5 bc
       -0.03323037 -0.01951719 -0.008362492 -0.022198332
0001b0 c9 55 bb bb b8 89 79 bc b3 33 cd ba 34 1e ce bc
       -0.0057170135 -0.015230589 -0.0015655666 -0.025160886
0001c0 00 c5 83 3c 33 f9 60 bc 51 21 1d bc 73 86 8b 3c
       0.016085148 -0.013731289 -0.009590463 0.017031884
0001d0 ad 1a 0d bd 4b 7a ab bc a8 7c 30 3c 3b 65 e2 bc
       -0.034449268 -0.020932337 0.010771908 -0.027636161
0001e0 16 43 07 3c 40 60 51 3c 4e 69 41 3c a6 02 0d bd
       0.008255741 0.012779295 0.011804892 -0.034426354
0001f0 74 74 12 bd 65 c6 ed b9 13 78 2b bb 00 8d d6 bc
       -0.03575559 -0.00045351978 -0.00261641 -0.02619028
000200 04 e1 a2 3b c2 f5 4d 3c 38 1c 84 3c ef 3d d3 bc
       0.0049706716 0.0125708 0.016126737 -0.025786368
000210 53 b6 94 bb db 65 61 3b 24 27 c2 bc d8 e0 11 3c
       -0.0045383363 0.0034392986 -0.023700304 0.008903705
000220 0d 08 41 bc 9a cd b4 bb 5d bb 4b 3c e5 15 d6 3c
       -0.011781705 -0.0055176737 0.012434808 0.026133487
000230 63 c4 96 bc 4e 45 d1 3c 27 8d bb 3c 8d 10 d5 3a
       -0.018404191 0.025545742 0.022894455 0.0016255543
000240 b1 4d 0f bd e3 41 98 3c 47 6d 0f bd e0 03 c0 3b
       -0.0349862 0.018586105 -0.035016324 0.005859837
000250 98 f9 3e bc 5f 82 e6 bc d0 7e f3 bc eb 68 77 bb
       -0.0116561875 -0.028138338 -0.029723555 -0.0037751745
000260 66 6a 80 bb 0d 78 b5 bc 66 57 cf bc fc 47 b4 3c
       -0.0039189337 -0.022151971 -0.02531023 0.022006981
000270 14 f9 a0 bc 97 a4 21 3c 03 08 43 bc f0 dc 62 bc
       -0.01965002 0.009865901 -0.011903766 -0.013846621
000280 b8 83 d1 bb c0 46 13 ba 2a 96 cd 3c db 69 0e 3c
       -0.006393876 -0.00056181476 0.025096018 0.00869223
000290 b9 eb d5 3c 43 90 bb 3c e9 87 ac 3c 95 f5 12 bd
       0.026113378 0.022895938 0.0210609 -0.035878737
0002a0 94 bd d8 bc a2 ff 98 bc 76 c7 57 bc c4 f2 23 3c
       -0.026457585 -0.018676583 -0.013170114 0.01000661
0002b0 8e 4e 75 bc b5 72 ff bc 35 45 a4 3c a8 2b 2e 3c
       -0.014972342 -0.031182626 0.020052532 0.010630526
0002c0 45 b3 dd bb 6a b7 e9 bc 2e 87 b5 bc 1b 2e bb 3c
       -0.0067657554 -0.028529841 -0.022159185 0.022849133
0002d0 b0 aa 94 3c 36 c7 27 3b 04 1b 4b bc 26 ce c4 3c
       0.018147796 0.0025600917 -0.012396578 0.02402408
0002e0 6d 1d e1 bb 04 00 02 3c 39 1d 21 3c ea 4e 7e bc
       -0.006869963 0.007934574 0.009833627 -0.015521744
0002f0 73 ec 15 3c 56 a9 17 3b 2b b8 e8 bc 7b 7c 33 3c
       0.009150612 0.0023141704 -0.02840813 0.010954971
000300 6a e4 c2 bc b9 fd ca bc 39 73 db ba 70 5b 9b bc
       -0.023790557 -0.024779188 -0.0016742713 -0.0189645
000310 5f a5 f3 bc ad 6c 59 bb 0b 18 1b 3b 12 76 bb 3b
       -0.029741941 -0.0033176348 0.0023665454 0.005720862
000320 87 cd 72 3c 31 53 c3 3c 9d 00 52 bc 9a a4 85 3b
       0.014819509 0.02384338 -0.012817529 0.00407846
000330 47 62 0a bd d6 fc be bc 7d 45 99 bc 55 a6 09 bc
       -0.03378513 -0.023313921 -0.018709892 -0.008401473
000340 b1 7e e9 bc 66 36 20 bc c3 09 04 bd fd 78 97 3c
       -0.028502794 -0.009778595 -0.032235872 0.018490309
000350 cd 6c 55 bb 2d c1 1b ba 05 bf 93 3c cf fb 0f bc
       -0.003256607 -0.0005941566 0.018035421 -0.008788063
000360 e1 d6 c0 bc 24 fc 30 3c 0f 84 b1 3b 12 74 cb bb
       -0.023539962 0.0108023025 0.005417354 -0.006208905
000370 f6 f0 e5 3b af b7 9f 3c 15 e6 8d 3c 6c 6e da bc
       0.00701725 0.019496767 0.017321626 -0.026663981
000380 ce 75 dc bc 00 da a3 bc 73 94 3a bb e3 82 4b bc
       -0.026911642 -0.020001411 -0.002846983 -0.012421343
000390 2d cf 84 bc b7 b8 f0 3b d2 36 c6 3a e8 65 c7 3c
       -0.01621207 0.0073462385 0.0015122539 0.024340585
0003a0 29 02 8a bc 3a 30 ab 3c 18 08 b2 bc 58 44 56 3c
       -0.016846733 0.02089702 -0.021732375 0.013077818
0003b0 d5 c8 d4 3c b5 e9 66 3c 5f 03 88 3c c7 e3 bc 3c
       0.02597467 0.014093806 0.01660317 0.023057831
0003c0 da bd 31 3c 46 43 bd bb 39 ec f1 bc 4c a7 fd bc
       0.010848487 -0.005775842 -0.029531585 -0.030963562
0003d0 63 f8 77 bc 6a a7 68 3c cc d5 c8 bc e6 23 61 3c
       -0.015134904 0.014200071 -0.024516009 0.013741469
0003e0 ef a3 a9 3c 02 ce f6 bc f3 6f 07 bd 4f a4 96 3c
       0.020708052 -0.030127529 -0.033065747 0.018388895
0003f0 02 47 58 3c 74 48 c3 3c 7e 85 89 bc 87 a0 9e 3c
       0.013200523 0.02383826 -0.016787287 0.019363655

bias f4 [128]
000000 6f f5 b3 3c e5 65 2b 3d 43 60 89 3d 16 81 8c 3d
       0.021967618 0.04184522 0.067078136 0.06860559
000010 44 f1 a9 bc 98 8e 8b 3d ff 47 ce 3c 70 26 99 3c
       -0.020744927 0.06814307 0.025180815 0.018695086
000020 a9 12 eb bc 68 a4 de bc 29 e7 03 3d 02 0f aa 3c
       -0.028695421 -0.027178004 0.032202873 0.02075911
000030 9f 9c 6e 3a f0 37 25 3d 5d 0f d1 bc 69 1c ed bc
       0.0009102318 0.04033655 -0.025520021 -0.028944211
000040 18 ef 4a 3d 91 c9 b0 3d 3c 05 00 3d 00 32 fc bc
       0.049544424 0.08632196 0.031254992 -0.03078556
000050 14 54 b2 bb 0c 91 d1 bc 65 64 99 3c 62 90 38 3c
       -0.005442152 -0.025581859 0.01872463 0.011264892
000060 81 97 67 3c 61 14 86 3c 80 30 60 3c 2b 86 4a 3c
       0.014135242 0.01636714 0.013683438 0.01236109
000070 49 08 ef 3d 6e 48 80 3c 74 3f 0b bd 59 25 bc 3c
       0.11671502 0.015659537 -0.03399606 0.022967028
000080 38 69 3e 3d 14 2b b5 3c 33 d4 54 3c 0c da 07 bd
       0.046487063 0.022115268 0.012990045 -0.03316693
000090 73 d0 d9 bc 74 89 28 3a e2 38 a8 3d fa ca 8e bb
       -0.026588654 0.00064291735 0.082139745 -0.004357693
0000a0 b0 44 89 3d e1 6d e8 3c be d9 d6 3c 70 55 15 bc
       0.06702554 0.028372707 0.026226874 -0.009114608
0000b0 4e c8 de bc c0 20 9a bc 57 67 30 3c f4 5e cf bc
       -0.027195122 -0.018814445 0.010766826 -0.025313832
0000c0 47 80 18 3c 04 9c aa bc 13 de 5d b7 6f b3 94 bc
       0.009307927 -0.020826347 -1.3224332e-05 -0.018151967
0000d0 fd 46 b6 3c 4a ba 88 bb f4 28 6f 3d e8 5c 34 3b
       0.022250647 -0.004172598 0.058388665 0.0027521197
0000e0 43 10 85 3d b3 7b d4 ba 33 01 68 3d de f2 06 3d
       0.06497242 -0.0016211182 0.05664177 0.03294646
0000f0 9f 9a 15 3c 87 70 cb 3b b4 22 af 3c aa 78 ae 3b
       0.009131103 0.0062084827 0.021378852 0.005324443
000100 f9 56 f6 bc 9d 9a 2c bc 1e da 29 bb 4b 12 65 3d
       -0.030070769 -0.01053491 -0.0025917361 0.05592565
000110 d9 22 75 bc bf 65 24 3d 7f 5e d0 3b 31 6e 3d ba
       -0.014961922 0.040136095 0.006358921 -0.00072261976
000120 9d fc 9a 3d e0 08 1d 3c 93 5e bb 3c 67 ae 78 3c
       0.075677134 0.0095846355 0.022872245 0.0151782995
000130 3f 32 01 bc 36 60 06 3d a4 9a 5c bc 68 39 d3 bc
       -0.007885515 0.032806598 -0.013464604 -0.02578421
000140 c2 f5 f3 3b cf 81 9e bc 27 73 ea bc e0 e3 fe bb
       0.007445068 -0.019349007 -0.028619362 -0.0077786297
000150 8a 61 96 3b 67 92 f0 3c 91 38 85 bc e4 d5 a6 3c
       0.0045892643 0.029366685 -0.016262325 0.020365663
000160 86 cc 72 3c a1 42 1f be 2f a6 4b ba 32 90 3a 3c
       0.01481927 -0.1555276 -0.0007768599 0.011386918
000170 7a 7f ef 3b 1f a0 21 bb b0 55 19 ba d3 1f e9 3b
       0.0073088976 -0.002466209 -0.0005849255 0.0071143894
000180 4d a2 30 3d 7a 57 88 3d 5c 89 70 bd 92 00 00 3e
       0.043123532 0.0665731 -0.058724746 0.12500218
000190 2c b7 24 bc 65 1d 7c 3b 13 f1 97 3c c7 28 a3 3d
       -0.010053437 0.003846967 0.01854757 0.07966762
0001a0 38 dd 1d bb 46 70 57 3c a7 08 6b bc 80 a3 97 bc
       -0.0024088155 0.013149327 -0.014345325 -0.01851058
0001b0 e1 7b 54 3d ee 45 08 bd 86 3d ff bb 0c d8 2e 3d
       0.051875953 -0.033269815 -0.0077893166 0.042686507
0001c0 b2 08 f2 bc 09 d4 ad 3b 2d a5 95 bc 4f 92 f6 3c
       -0.029545162 0.0053048176 -0.018267239 0.030099062
0001d0 fa 0f 69 3b 1f 9a f4 3c d6 37 79 3c 6a f2 5e b9
       0.0035562501 0.029858647 0.015211066 -0.00021261876
0001e0 bd e6 c2 3c a0 84 b7 bc d0 b6 94 3c 19 85 5a 3d
       0.023791665 -0.022402108 0.018153578 0.053349588
0001f0 c8 bd 38 3b fb ec f7 bc 90 54 a8 bb 31 09 25 3d
       0.002818929 -0.030264368 -0.0051370338 0.04029197

weight f4 [2, 128]
000000 8d f1 dd bc 4e 2a 81 3c 9e 8b 5e be 38 30 37 be
       -0.02709272 0.015767243 -0.21732947 -0.17889488
000010 41 95 aa 3b 05 53 5e be 81 31 0b bc 7c e1 20 bd
       0.0052057807 -0.21711357 -0.008495689 -0.03927754
000020 48 23 4a bd 7f 9f f9 ba 3b ce 3b 3e 58 b6 a6 bd
       -0.049350053 -0.0019044726 0.1834039 -0.08140248
000030 60 e2 cd 3e 3d 94 2b be 40 eb 18 bd c2 03 01 be
       0.40211773 -0.16755767 -0.037333727 -0.1259909
000040 89 9c 39 3e c2 1b 68 bd 5f db 6e 3c 17 3e 28 bd
       0.1812612 -0.056667097 0.014578669 -0.04107484
000050 86 09 2d bd c4 b6 a9 bd 96 20 e3 bc c3 8e b0 3d
       -0.04224541 -0.08286813 -0.0277255 0.0862098
000060 a6 e3 3e bd d8 c2 de 3d 8e 55 3c bd 2e e2 a3 3d
       -0.04660382 0.10877007 -0.04598003 0.08002125
000070 38 3d 2e be 2a 5e 5c bc 4f fd 22 bd 89 d4 1b 3e
       -0.1701554 -0.013450185 -0.039792355 0.15217794
000080 08 10 0a 3e 42 1f a3 bc 0a da 06 3d 5d de 00 bd
       0.13482678 -0.019912366 0.032922782 -0.031462062
000090 95 45 37 bd 2d 75 f6 3d ab cf ef 3d af 85 30 3e
       -0.044744093 0.12034068 0.117095314 0.17238496
0000a0 6f 04 42 bd 00 c0 ce 3d f1 01 b0 3d 5d 89 5e bd
       -0.04736751 0.10095215 0.0859412 -0.05433022
0000b0 20 e1 93 bd 63 a0 39 bd 24 22 b1 3d 38 58 a2 3c
       -0.072206736 -0.045318972 0.0864909 0.019817457
0000c0 a6 58 df bc 99 f9 2c bd 27 dd 29 3f 92 8a 41 bc
       -0.02726395 -0.042230222 0.66353077 -0.011812823
0000d0 24 0c 3b bd 17 1e 96 bd 03 77 e9 3d e9 b9 f8 3c
       -0.045665875 -0.07329958 0.11399653 0.030362086
0000e0 04 64 86 bd 7b 6b d3 3e e7 38 13 be 6e f9 b3 3c
       -0.06562045 0.4129294 -0.14377175 0.021969523
0000f0 4e 13 b3 3e ee f4 3c 3e 70 82 9c 3c b6 b5 8a bd
       0.34975666 0.18452808 0.019105166 -0.0677294
000100 40 2d 5a bc 0f 72 70 bd 1b 90 3a 3d 66 fd 0a 3f
       -0.0133164525 -0.058702525 0.045547586 0.54292905
000110 63 e3 38 bd 91 8b 14 3e ad 62 84 3e 5e 11 08 bc
       -0.045138728 0.14506365 0.25856534 -0.008304922
000120 bc 90 5e be ba fc 97 bb 54 5c 6d bc 63 78 a4 3d
       -0.217349 -0.0046382817 -0.014487345 0.080307744
000130 a7 77 96 3d e9 b9 80 be fc f5 1d bd 27 a9 88 bd
       0.073470406 -0.25141838 -0.038564667 -0.06672888
000140 93 88 6c bd 9a 54 9f 3d 7a 0b 22 bd 9e b5 f8 bc
       -0.057747435 0.07779808 -0.039561726 -0.03036004
000150 e7 88 46 3e 56 f1 a2 3c ee 2c 33 3d 47 ad 9f 3c
       0.19388162 0.019890469 0.04374402 0.019491805
000160 5f c6 03 3e d8 8d b3 be 2c 31 19 3e ec 8e dd bc
       0.12868641 -0.35069156 0.14960164 -0.02704569
000170 3e a0 57 3d 81 c7 9f bd 01 7a 01 3e 5a 2e be 3c
       0.052643053 -0.07801724 0.12644197 0.023215462
000180 f4 59 65 3e ad 84 c7 3d 79 35 68 be df 12 31 3c
       0.22397596 0.09742103 -0.22676648 0.010807722
000190 f2 92 97 bd 27 1b 75 3c 22 8f 39 3e a1 97 4a be
       -0.074010745 0.014960087 0.18121007 -0.19784404
0001a0 de 4f 59 bc 99 66 18 3e d4 a4 d5 3e 1f c9 78 bd
       -0.013263671 0.14882888 0.41727316 -0.06073868
0001b0 18 df 8a bd 13 5a 4f 3e a7 3c f5 bc 01 f6 ae 3d
       -0.06780833 0.20249204 -0.029936148 0.08543015
0001c0 bb 3b c4 bc e9 5c 78 bd 3f ca c9 3c 2c f5 63 3e
       -0.023954263 -0.06063548 0.024632571 0.22261494
0001d0 54 53 01 bd 64 f1 36 3e 8a 9c ed bc d8 9c 39 3e
       -0.03157361 0.1786552 -0.029005308 0.18126237
0001e0 e5 51 a4 bd ed 8e 7c bd d6 2c 23 3c da a8 3e 3e
       -0.08023433 -0.061659742 0.00995942 0.186191
0001f0 47 d9 91 3d 5e 86 2d 3b ba 9a 2b bd 0b 50 87 3d
       0.071215205 0.0026477794 -0.041895606 0.06607064
000200 6e f9 7a 3c 39 4d 0e be f7 75 8c be 92 52 65 3d
       0.015318258 -0.13896646 -0.2743375 0.05598695
000210 fc e7 65 bd ad d6 dd 3d 3d f7 e4 bc 16 88 0e be
       -0.05612944 0.10831962 -0.027949924 -0.139191
000220 8a a4 86 bd e4 6f d9 bc 0e bd bc 3d 24 ee 4b bd
       -0.06574352 -0.026542611 0.09215747 -0.049787655
000230 e9 c3 de 3d 18 79 50 bc e9 24 0d bd e5 70 87 be
       0.10877211 -0.0127241835 -0.03445903 -0.2645332
000240 57 8d 00 3e 1f 1f 1c be 3b 6a 80 3e ff 20 2d 3d
       0.12553917 -0.15246247 0.25081047 0.042267796
000250 36 93 90 3d 62 5d 7d bd 32 c1 86 3c a6 4e 06 3e
       0.07059328 -0.061856635 0.016449545 0.1311594
000260 55 b5 13 bd f0 c8 3c 3e 9c ee a0 bc c8 70 69 3e
       -0.036061604 0.18436027 -0.019645028 0.22796929
000270 47 0c 9c 3e 37 92 39 bd 8a c3 17 3d 7c 81 3e 3e
       0.30478117 -0.045305457 0.037051715 0.18604082
000280 00 de 96 3d 93 ae 4b bd 9b 42 df bc 74 a2 49 bd
       0.07366562 -0.049727034 -0.02725344 -0.049227193
000290 2a ea 19 bd 8f 28 19 3e c4 9f 8f 3e 15 66 22 3e
       -0.037576832 0.14956878 0.2805158 0.15859254
0002a0 4d 2d 2c 3e 0f 9e 0e 3e b9 64 69 3c 7f d2 a6 3d
       0.16814156 0.13927482 0.014245206 0.08145618
0002b0 6c 19 c8 bc 8b 30 91 bc 5c be 62 3e 3d 11 e4 bc
       -0.024426185 -0.017723342 0.22142929 -0.027840251
0002c0 71 40 8e bd bd 52 de 3a e2 4f db 3d cd c6 76 bd
       -0.06945885 0.0016961914 0.10708596 -0.060248185
0002d0 a3 04 64 bd 4f 7c 0a 3d d3 3b cf 3d 91 12 90 bd
       -0.055668484 0.033809956 0.101188324 -0.07034791
0002e0 b3 d1 20 be 3f 62 60 3d d9 b3 78 be 2d bf 39 3e
       -0.15704994 0.054781195 -0.24287356 0.18139334
0002f0 30 f1 f9 3e bb ed 12 3e ac 43 94 bd 15 ca 6b bd
       0.48816824 0.143485 -0.0723947 -0.057565767
000300 7b 45 66 bd cb b9 dc 3b a4 87 92 bd 91 0b 81 bd
       -0.056218605 0.0067360154 -0.07154778 -0.06301034
000310 cb 20 48 bc e9 ad 23 3e 7b 27 fc bd 7e ce 82 bc
       -0.01221485 0.1598431 -0.12312218 -0.015967604
000320 e6 19 8e be 1d 83 0d bd b0 62 93 bd 15 83 15 3e
       -0.27754134 -0.034548867 -0.071965575 0.14600785
000330 fb c4 8f 3b d6 f9 11 3e 99 ad af 3c b3 b7 2a 3d
       0.0043874956 0.14255461 0.021445083 0.041679095
000340 d7 30 3a bd 8b 83 91 bd f9 16 ae 3d 8c a7 a5 3d
       -0.045456734 -0.07105168 0.085004754 0.08088598
000350 67 6f 21 3e 85 ff 0d be 98 6a 58 bd 9b 0d 98 3d
       0.15765153 -0.13867004 -0.05283603 0.0742447
000360 16 cf 03 3e 98 dc 8c be 37 c9 37 be 0f 30 11 bc
       0.12871966 -0.2751205 -0.17947851 -0.008861556
000370 e7 8b 6d bd 5a 1e bb 3d 4f 08 c4 3d db 45 46 bd
       -0.05799475 0.091366485 0.09571897 -0.048406463
000380 79 ba d5 bc c8 6c 28 3e 30 26 53 bc df 06 62 be
       -0.026089894 0.16447747 -0.012887523 -0.22072934
000390 2e f4 ab 3d dc 4c a1 bd e4 25 09 3e 1f f4 2a be
       0.08396183 -0.07875988 0.1339336 -0.16694687
0003a0 97 fd 81 bc 9c c8 0f 3e 7f 5b 02 3f f6 0e 69 ba
       -0.015867991 0.1404137 0.5092086 -0.0008890474
0003b0 b6 ef 06 be 2d 06 27 bd 51 c0 c7 bc 39 f0 32 3e
       -0.1317738 -0.040777374 -0.024383696 0.1747445
0003c0 28 6a 80 3d be c6 2c bd 0f 21 91 bd 00 60 83 3d
       0.06270248 -0.042181723 -0.070863836 0.06414795
0003d0 ad 59 0f bd cc 38 dd 3e c6 0a 03 bd d3 59 55 3d
       -0.03499763 0.43207395 -0.031992696 0.052087616
0003e0 95 d7 a0 3c d2 c8 f7 bc 1c 31 0a 3e dc a3 e2 3e
       0.019634048 -0.030247126 0.13495296 0.4426564
0003f0 3a a3 62 bd e5 55 16 bb c3 cc 06 bd 2e 32 6e 3e
       -0.055331446 -0.002293938 -0.03291012 0.2326133

bias f4 [2]
000000 2d a6 a9 bd a7 16 29 3d
       -0.08283649 0.04128137
