saved_models/run9/model_1000.pth (torch, 141798 bytes, 6 tensors)

weight f4 [256, 4]
00000000: 954b b33e 15a1 0d3e ffdf 8a3e e8d4 8bbe
00000010: dd9b 20be cc76 a7be b473 f6be a1b5 343d
00000020: cee6 a2bc 55cf abbe 1643 ce3e ff79 083f
00000030: 311f a23e 5ff3 9bbe 1ca4 713e 14c8 c0be
00000040: 60d6 a23e b73f a0be 58dd a4bd 8092 033c
00000050: e557 4f3d da76 123f f643 62be b3e6 f63e
00000060: 0a2d d33e dc9f 74be f407 683e 3d8c d43e
00000070: 75bd cdbe 8f9a cdbe af43 6dbd a52d a33c
00000080: 82e3 0b3f 73fe 2b3e b887 65bd 6fa6 b73c
00000090: df2c 893e f531 cbbe 6b05 15bd 4dce 023f
000000a0: a701 453e bfe1 51bd d387 2e3e 5760 96be
000000b0: 26ad 7b3d d65e b2be 5046 3f3d 0ff4 1c3f
000000c0: 8580 a13e 50e8 623e d704 253e 5571 a93e
000000d0: 6837 a33e a319 cebe f27c f5be 8c0b d0be
000000e0: c053 f03c d26c babe f7f0 56be 63f2 f33e
000000f0: 83bc abbe aa46 8fbe 3480 f73e a3b9 a6be
00000100: 5417 773e 9072 103e f316 d9be c066 c0bd
00000110: e6c6 093d 7007 483e c2a4 13bd 9c50 e7be
00000120: 326d b83e 8cc5 e63e 7e5a e3be d83e 39be
00000130: 43b9 e9be bb2e c63d e419 0e3d 7464 3e3f
00000140: 9ec4 7dbc 6894 03bf 5f91 d03d 8b21 6abe
00000150: 5a3c ddbe 56cb 8e3e b363 e43e 9986 d63e
00000160: 1a5f e0bd 0820 be3e 65aa 01bf 3a34 73be
00000170: 0592 c63e 1477 99be 2853 96bd 6fee 68be
00000180: afab 00bf b868 f23e 58e0 e0be b435 afbd
00000190: 164f aebe bd82 47be 2770 fd3e af06 983e
000001a0: ec4e 86be 71c7 eb3e 198e 5ebe 0402 713e
000001b0: 213c d3bd dd04 48be 03f2 a83e b33d a8bd
000001c0: bfac 67be 1147 e13d 4b0e 94be ece4 99bd
000001d0: fdea 663e 694b 303e 9c3c 5bbe 09e8 4fbe
000001e0: c4ca 843e 389b af3e f2ea b9be 5a1f 5b3c
000001f0: e54b 1f3e 250e 76be 5cec 453e c472 1a3e
00000200: fe95 093f f608 003f 33bf c9be ac90 bd3e
00000210: 7fa4 c1bd b84d 803e 6025 093e fe0a a03d
00000220: a97b cebd b26b 8dbc 8b61 82be 45be 41be
00000230: f19b b23e 54e4 febd 51d1 2d3e 16b7 8f3e
00000240: c112 db3c 644a 86be 7938 e73e 53ea 093e
00000250: bb7d aabe 52ed 12be e26a eabe 4c4c cd3c
00000260: f0cf be3e 73c6 163e cd0f f4be daa7 5b3c
00000270: 35d0 f5be 6b5a d43e 2ae1 b83e 3943 de3d
00000280: f15a ed3e aa78 ddbe 4cd7 c03d 6ccf 53bf
00000290: e3b3 203d 6fa9 8ebe 0bf2 c1be 84e3 d8be
000002a0: 3a1d 4f3e 1354 003f ceb0 a7be c93b fa3e
000002b0: 02e9 8fbe 41e6 a9bd 7484 61be a9ca 04be
000002c0: 964b 85bd ca6f bb3e 689f ff3e af6e 18be
000002d0: 7b02 aabd 64e2 edbd 6255 f83e 542a a9be
000002e0: e5a9 dabd 4576 c83e 5ef8 a2be 82d9 a8be
000002f0: 8d8a a63e d3bc 45be a978 003e 21f5 703e
00000300: 8d75 46be 7f0b 2f3e 6ec2 4d3e a8bb 5a3e
00000310: 9e0d b33e d01f e8be 5d77 113e 17a8 f53e
00000320: e823 4fbe bb98 5f3e e6a2 d3be dd42 2abd
00000330: dbaa e53e b689 443d 3f00 0cbd 52a2 093f
00000340: ab56 e43e bf40 22be 8ee7 043e c0b1 9bbe
00000350: 65d9 873e f6d8 b53e fc02 6dbe 112c de3e
00000360: 64b6 7fbe 5dcd bf3e 00a7 ffbd 7cf4 7b3d
00000370: 34bd 8fbe 97b6 b63c 727a 84be 1ae1 c1bc
00000380: ab01 ae3b 1947 24be f0f4 f13e 47f6 aebe
00000390: da68 b03e e58d b9be add6 aebc 42e2 c1bd
000003a0: 5ba8 a5bd e7d6 683c 2349 df3d 614d efbd
000003b0: d777 0cbf 02df ef3e 7eca 07be ea3b a9be
000003c0: a387 113d 8d0c a6be d257 94be 75fe 0ebf
000003d0: a364 463e 6d31 f83e 4ea9 8cbe ff78 f03e
000003e0: 4332 85be 3c0c 55be f2b8 ac3d 1e95 29bf
000003f0: f49e 29be 8d19 a93e b1c9 453e b9c6 ba3e
0.35018602 0.13830979 0.2712402 -0.27310872 -0.15684457 -0.32707822 -0.4813515 0.044118527
-0.019885447 -0.3355662 0.40285558 0.5331115 0.31664422 -0.30459115 0.23597759 -0.37652647
0.3180418 -0.3129861 -0.080500305 0.008030534 0.050620932 0.57212603 -0.22096238 0.48222885
0.412453 -0.23889107 0.22659284 0.41513243 -0.40183607 -0.4015698 -0.057925876 0.019919226
0.54644024 0.16796283 -0.056037635 0.022418229 0.26792046 -0.39686552 -0.03638212 0.5109604
0.19238912 -0.05124068 0.17044 -0.29370376 0.061444424 -0.3483798 0.046697915 0.61309904
0.31543365 0.22158933 0.16115128 0.33094278 0.3187821 -0.40253934 -0.47946888 -0.4063381
0.02933681 -0.36411148 -0.20990358 0.47645864 -0.3354226 -0.279836 0.4834 -0.32563505
0.24129993 0.14106202 -0.4240032 -0.09394598 0.03363695 0.19534087 -0.036045797 -0.45178688
0.3602081 0.4507259 -0.44404978 -0.18090379 -0.45649156 0.09676882 0.03469266 0.7437203
-0.015488772 -0.51398325 0.10183977 -0.22864358 -0.43210107 0.27889508 0.44607314 0.41899565
-0.10955639 0.37133813 -0.50650626 -0.23750392 0.3878328 -0.29973662 -0.073400795 -0.22747205
-0.5026197 0.4734552 -0.4392116 -0.08555165 -0.34044713 -0.19483466 0.49499628 0.296926
-0.26232088 0.460506 -0.21733893 0.23535925 -0.10314203 -0.19533105 0.3299714 -0.08214893
-0.22624491 0.10999883 -0.28917155 -0.075143665 0.22550578 0.17216267 -0.2140984 -0.20303358
0.25935948 0.3429811 -0.36312062 0.013374174 0.15556295 -0.24028833 0.19328445 0.15082842
0.53744495 0.50013673 -0.39403686 0.37024438 -0.09455203 0.25059295 0.13393164 0.078145966
-0.1008218 -0.017263267 -0.25465044 -0.18920238 0.348846 -0.12445894 0.16974379 0.2806937
0.026742341 -0.2622863 0.45160273 0.13468294 -0.3329905 -0.14348343 -0.4578467 0.025060795
0.3726802 0.1472414 -0.47668305 0.013406718 -0.48010412 0.41475233 0.36109287 0.108526655
0.46358445 -0.43256122 0.094160646 -0.82738376 0.039234053 -0.27863643 -0.37879977 -0.4236108
0.20225993 0.5012829 -0.3275208 0.48873737 -0.28107458 -0.082958706 -0.22023183 -0.12967934
-0.065085575 0.36608726 0.49926305 -0.14885972 -0.08301254 -0.11615446 0.48502642 -0.33040106
-0.10676936 0.39152732 -0.31830114 -0.32978445 0.3252758 -0.19310312 0.12546028 0.2353101
-0.1938078 0.17094229 0.200937 0.21360648 0.34971327 -0.4533677 0.1420569 0.47979805
-0.20228541 0.21835606 -0.4133522 -0.041567672 0.44856915 0.047982894 -0.034179922 0.53763306
0.44597372 -0.15845011 0.12978956 -0.3040905 0.26533046 0.3551709 -0.2314567 0.43392995
-0.2497192 0.37461367 -0.124830246 0.061512455 -0.28074038 0.022303862 -0.25874668 -0.023666907
0.0053102574 -0.16042747 0.47257185 -0.3417227 0.34454995 -0.3624107 -0.0213426 -0.094669834
-0.08088752 0.014211393 0.109026216 -0.11684681 -0.5487036 0.4684983 -0.13260838 -0.33053523
0.035529744 -0.3243145 -0.28973252 -0.5585702 0.19374327 0.4847521 -0.2747292 0.46967313
-0.2601491 -0.20805448 0.08433713 -0.6624316 -0.16564542 0.33027306 0.1931522 0.36479738

bias f4 [256]
00000000: 7143 ccbe f6c9 bf3e 9a45 eabe b95f 813e
00000010: 77fc a93e 8367 abbe 7190 1f3f 6715 edbe
00000020: 6eee e53d 5cbe 71be c669 2a3f b4d5 303c
00000030: 55e9 d53e 12fb 273f d82b 99be 7b11 973e
00000040: 3da2 443e 7ab9 96be 3d7a d33e 2ddd 94be
00000050: d22a f3be feea 9b3d 8256 53bd ca33 143f
00000060: 39eb b0be 6e6e 7e3e 421b 173f 5bf5 3e3e
00000070: a13d 03be f342 ee3c 22d5 0c3e 8ba5 f73e
00000080: 695d 20be 68cd f03e 8b7b 4a3f b4b4 203f
00000090: 677d 2b3f e240 053f ec2c 2e3f 531d f9bd
000000a0: 8ae5 493d 4777 e93e 9dca b5bd 6982 d9be
000000b0: 7c8a 89be 240c 59bd deed 0b3f c7f3 983e
000000c0: cb96 08be 611f 9d3e 67c1 bfbe b3ed 4bbc
000000d0: 75a8 2c3f 945e 9cbb e9a9 e13e 3cbf 233f
000000e0: 4f09 253f b3e7 0ebe 648f 823e 6e73 873e
000000f0: e199 33bd 81cb abbe af0c c6be 6538 53bd
00000100: 5cc2 f43e af80 423f e1ce ffbd 2e34 e13c
00000110: 4530 213f 2e6d c9be 6094 843e 8b12 063f
00000120: b07c 263f f7e2 9cbd 815a edbe 90b7 93bd
00000130: 14c4 f4bd 5ab0 d4be 018b 06bf 7392 11bf
00000140: 8540 ea3e 51a4 c6bd afb4 41be c22a 213f
00000150: c394 213f 4001 71be 2b96 dc3e cd2f 133f
00000160: 6c6f 833d 8d0c 2f3e cdb8 ba3e c8f5 8a3e
00000170: e66a 85be 31e8 703e 3027 73be 0458 41be
00000180: c29c d4be bd52 6bbd 3e21 70bd 2cc9 14be
00000190: 08af 8f3d 45e1 26bf ee64 453f 89d5 63be
000001a0: ae2c b1be 544f b33e 4afa 4abe 8cf9 a1be
000001b0: 110f a9bd b6a4 783d a3c5 e03e c0fe bfbe
000001c0: 0f96 ff3e 7778 0c3f 7a46 ea3e 7017 0c3f
000001d0: 87a7 a83e a798 6bbe 379e 433d ebc8 d83e
000001e0: 7564 073f 2c85 92be d787 e13e eafe 9b3e
000001f0: 1e64 b9be 76a5 29be c2cf 413f bf6b 2e3f
00000200: 43b4 6abc 8241 c53e 60b0 93be d93d 103f
00000210: 66fd eabe 7816 383f b3b8 c2be cd0d 2c3f
00000220: 3108 303f 38bd e5be 50db 6dbd 9209 473f
00000230: 75e2 f93e 6455 83be ca48 cb3e 8206 083f
00000240: 5fc4 173f 4f75 38be eb82 e7bd ec72 8bbe
00000250: 680a e53c 5605 97be e52f d6be f8b8 183f
00000260: 5c6b cfbe 69e9 873e 7f10 1f3f 1b5e 86be
00000270: c971 29be 5f91 b83e e833 463f 5745 45be
00000280: 28b7 abbe 6841 ea3d 9047 c03e 2607 333f
00000290: 56d1 5abe 5080 87be 4d16 193f 591b 823e
000002a0: 62ec 493f 72ce 9d3e 75dc a5be c24a 18be
000002b0: a0dc 153f 79fd 273f b20b c93e 93af 82be
000002c0: 87e7 3fbe 6fba 9bbe ab0b 0f3d 8084 87be
000002d0: 9185 d03c 2790 debe bf92 273f bf2d 18be
000002e0: cd0c d6be 11ba 4fbe 81af 1e3f 9357 e1be
000002f0: ad4b 163f 71cb 273f 5f7f c33e fecb 283f
00000300: 30a1 72be e3ab ab3e 3ec0 043f 811e cdbd
00000310: 45c9 393f 303e 2e3e 01ab dfbe e142 49be
00000320: 3606 36bd 55a4 dbbe fa73 64be 1e73 dc3e
00000330: 6959 373f 29f5 f33e 9ac8 84be fed6 2a3f
00000340: 9df8 88be 992d a83e ae6b c4bd ac72 913e
00000350: 0760 04be 12a7 343f 0f36 e8bd 9f72 6bbe
00000360: 9328 f7be 4bc3 ee3e 76eb c2be 4c8e eebe
00000370: c401 abbd a542 cf3e c526 96be 6e00 8a3e
00000380: 90e9 7b3e e3c2 62be 417a 2a3f c08a 413f
00000390: 9571 9a3e d262 3f3e 6165 09bf 39d8 15be
000003a0: 2a2b 69be 489f 853e 9f51 5dbe a4bd f3bc
000003b0: 9ecf ba3c 66b5 eebd efac e2be a78c b53e
000003c0: ec6a 99bd 54c2 cabe ad62 4d3d d7e0 acbd
000003d0: e5e2 893d 7d0a ba3e b83b 8ebe 011f b4bc
000003e0: bb55 e0bd fc2e 403f 9002 3c3e 02b6 e83e
000003f0: 4cb5 7fbe f5ae 2b3f 8eb1 e73e e34e e73e
-0.39895204 0.3745877 -0.45756227 0.25268343 0.33200428 -0.3347741 0.62329775 -0.4630539
0.112271175 -0.23607773 0.6656765 0.010793138 0.4177958 0.6561748 -0.29916263 0.29505524
0.19202514 -0.29438382 0.41304198 -0.29074994 -0.47493607 0.076131806 -0.051596172 0.57891524
-0.3455446 0.24846813 0.5902597 0.18648283 -0.12816478 0.029084658 0.13753179 0.48368487
-0.15660633 0.47031713 0.7909476 0.6277573 0.66988224 0.5205213 0.68037295 -0.12163796
0.04929117 0.45598814 -0.08876536 -0.42482308 -0.26863468 -0.052990094 0.5465983 0.29873487
-0.13338773 0.30688003 -0.37452242 -0.012446809 0.67444545 -0.004772017 0.44074944 0.63963675
0.6446733 -0.13955574 0.25500023 0.26455253 -0.043847922 -0.335537 -0.38681552 -0.051567454
0.47804534 0.75977606 -0.12490631 0.027490702 0.6296428 -0.3934111 0.2589445 0.52372044
0.6503401 -0.076604776 -0.46358112 -0.07212746 -0.119514614 -0.41540796 -0.52555853 -0.5686409
0.4575235 -0.096993096 -0.18916582 0.6295587 0.6311762 -0.23535633 0.4308332 0.57494813
0.064177364 0.17094631 0.36469117 0.2714064 -0.2605812 0.23526074 -0.23745418 -0.18881232
-0.41525847 -0.057451952 -0.058625452 -0.14529866 0.070158064 -0.65187484 0.7710713 -0.22249426
-0.346044 0.3502146 -0.1982204 -0.31635702 -0.08254827 0.060703956 0.43900785 -0.37499046
0.49919173 0.54871315 0.45756894 0.5472326 0.32940313 -0.23007451 0.047758307 0.42340788
0.5288766 -0.28617227 0.4404895 0.30467921 -0.36209196 -0.16567025 0.7570764 0.6813316
-0.014325204 0.3852654 -0.288455 0.5634437 -0.45896453 0.71909285 -0.3803154 0.6720856
0.687625 -0.44870925 -0.05807048 0.7774898 0.48805586 -0.25651085 0.3970397 0.5313493
0.59284014 -0.180135 -0.113042675 -0.27236116 0.027959064 -0.29496258 -0.41833416 0.5965724
-0.40511596 0.26545265 0.62134546 -0.26243672 -0.16547312 0.3604841 0.7742295 -0.19264732
-0.33538175 0.114382565 0.37554598 0.6993278 -0.21368918 -0.26465082 0.59799653 0.2541149
0.78876317 0.30821568 -0.32394758 -0.14872268 0.5853977 0.65621144 0.39266735 -0.25524577
-0.18740664 -0.30415675 0.034923237 -0.26468277 0.025454314 -0.43469355 0.6545829 -0.14861201
-0.4180664 -0.20285822 0.6198655 -0.44012126 0.5870922 0.655448 0.38183114 0.6593627
-0.236943 0.33529577 0.5185584 -0.10015584 0.7257274 0.1701591 -0.43685153 -0.19654419
-0.044439517 -0.42898813 -0.22309867 0.43056577 0.71620804 0.4764798 -0.25934297 0.667343
-0.26752177 0.32847288 -0.09590851 0.284078 -0.12927257 0.7056743 -0.11338436 -0.22992943
-0.48273143 0.46633372 -0.38070267 -0.4659294 -0.08349946 0.40480533 -0.29326454 0.26953453
0.24600816 -0.22144656 0.66592795 0.7560234 0.3016478 0.1869004 -0.53670317 -0.14633264
-0.22770372 0.26098084 -0.21613167 -0.029753514 0.022804078 -0.11655693 -0.44272563 0.35458872
-0.07491097 -0.39601386 0.050142933 -0.08441322 0.0673273 0.36336127 -0.27779937 -0.02198744
-0.10953852 0.7507169 0.18360353 0.4545136 -0.24971503 0.6706384 0.4525265 0.45177373

weight f4 [128, 256]
00000000: dd3d 7b3b 802e 7ebd be21 56bd aefd 263d
00000010: 3573 643c ef71 64bd 7784 4fbd d021 f7bb
00000020: 0762 2c3d 30a6 68bd 018f 143d 3ff3 fcbb
00000030: b44c 1d3d 80a9 b53a 1865 20bc 389f 2f3d
00000040: dc1a af3c 20ce 52bb a653 d93c e355 413c
00000050: 1e58 6fbd 57f0 16bc 71fa 533d 9a73 f5bc
00000060: 5ae9 64bd 5c10 47bd 6369 373c 0a8a 1fbd
00000070: 34ea 8f3c d9bb 72bd 16df 0cbc 8e13 223d
00000080: 9e5a 173d 8fc7 e93c b7b1 093d 4257 3ebd
00000090: 39a7 893c c8e9 20bd 017d a5bc 7e5c e7bc
000000a0: 0032 363a 009e fa39 fef5 f0bc d8bd 213c
000000b0: 7d66 85bd e6f5 30bd d7e4 6fbd e684 1c3d
000000c0: 9155 b539 ef61 21bc b651 08bd c0c2 21bd
000000d0: 1c65 563c a473 053d 329f 59bd 7fa4 2d3d
000000e0: 58a4 053d 1082 4bbd 440a 75bd 4914 0ebd
000000f0: 9003 6c3c ddc3 8fbc 649d fb3c a150 58bc
00000100: 2f57 063d db81 4c3d 174f 293c 8020 783a
00000110: 9f9f 463d 684f 3fbd 8d49 2dbd b817 5b3d
00000120: 97bf 52bd eb7b 1f3d be6c 103c c085 f6ba
00000130: 624b c9bc ac62 1b3c d02d 9dbb 6a15 40bd
00000140: e472 993c c7b0 de3c c414 073c 82d7 1c3c
00000150: be8c 86bd a6cb 2cbd e296 20bd abd0 fdbb
00000160: c87d 89bd 7327 a9bb 3f17 4dbd 90f7 e3bb
00000170: c05b b8ba 277d 65bc b8e7 053d 6119 443d
00000180: 85a3 46bc 2c4a ac3c 46e8 f23c 3cc5 d63c
00000190: 7ee2 df3c a029 63bb 0d1d 3c3b d67b 043d
000001a0: a8e9 bdbc 7b74 24bd 035e 02bd 18db 0bbd
000001b0: d997 5abd 1e30 2abd 40c3 82bd d07f 5d3c
000001c0: d61a 54bc 54d6 313d 7b99 b83a 8433 ebbc
000001d0: 63fc c6bc 60d7 3bbb 2866 043c 6bbd fe3c
000001e0: ec2c babc 5027 863c 0cde 933c 1e74 74bb
000001f0: 40c9 483d c079 773c 8a9a 75bc b06e de3a
00000200: 6295 5c3d 88a7 dfbc a2a8 6e3d db8f 193c
00000210: 4e7c 14bd 2ffc 1abd d056 a13b c700 e0bc
00000220: 0084 7abd 18f2 353d ecd6 b73c c167 00bc
00000230: b0df 433c c0fa 1bbc e55d e6b9 f3d1 17bc
00000240: e10f 84bd 7a25 03bd fcf6 2f3d 00ce a4bc
00000250: 2375 c93c 40cd a5bc 28b7 9abc 688d 623c
00000260: d417 40bd 6934 0ebd 20f0 cabb 2a3f 64bd
00000270: e440 69bd 27f3 a0bc 0422 6b3d bc4e d1bc
00000280: 18a1 55bd 80c1 b9bc 4932 d33c f596 b5bc
00000290: 509c 9c3c b0de 473c 318b 49bd ea77 1bbd
000002a0: 0bef a03b 2573 86bd 44a3 d43c 0394 26bd
000002b0: ec22 c2bc af74 493d 1277 6f3d 2e3a 1d3d
000002c0: f87c c5bc 6eaa 763d 0a27 51bd e8cd adbc
000002d0: 81c0 263d 9f6e 6b3d 2531 bbbc ca03 573d
000002e0: be7c 4e3d 6839 343d 564e 373d 9336 e7bc
000002f0: 2162 45bd 32cd 9fbc 3f21 eb3c 3918 6abc
00000300: 5cfe 463c 56b2 503d fd91 2fbd 3cd6 af3c
00000310: c0f8 dc3c 9ffc bbba b06b 2c3d 388c 14bc
00000320: bca4 f1bc c0a8 7bbd 0ac6 2e3d c6ff 68bd
00000330: 8bc9 85bd be08 8a3b b872 70bd 3485 6dbb
00000340: 893e 66bd 76ea 12bb 4c87 c239 d81f 5a3c
00000350: 3cc5 0e3d a7c9 0fbc 7873 2ebc c6c4 0e3c
00000360: 3033 973c e8d0 9dbc 6519 8abd 58b1 323c
00000370: 1af2 6bbd e9c2 313c 67f4 5bbd 86a4 3d3c
00000380: a749 e8bc 4c45 493d c6ce ce3c 37c1 08bd
00000390: 6ca0 363d 3c6f 743d 4a19 2fbd 631b c63c
000003a0: 0f09 ae3c 90cd 09bd eb95 2a3d f8ad 70bd
000003b0: 48e0 713c 2026 53bb e08d 51bc be24 22bc
000003c0: 08ea 5a3c 0c98 fabc 4867 4ebd a606 04bb
000003d0: 301e 4b3c e66e 58bd e44f ae3c 7030 423c
000003e0: dabf 5ebd 1d50 6ebd e6af 31bd 3982 54bc
000003f0: 2698 3e3d 2c7b 2a3d de35 c53c 6e05 6ebd
0.0038336434 -0.062056065 -0.052278273 0.04076927 0.013943483 -0.055772718 -0.050663438 -0.0075418726
0.042085674 -0.056799114 0.03626919 -0.007719427 0.038403228 0.0013859719 -0.009789728 0.042876452
0.021375112 -0.0032166317 0.026529144 0.011800262 -0.058433644 -0.009212575 0.05175251 -0.02996235
-0.055886604 -0.048599586 0.01119456 -0.038950004 0.017567731 -0.059261177 -0.00859811 0.03956943
0.036951654 0.02853754 0.033616748 -0.046469934 0.01680337 -0.03928545 -0.020201208 -0.028242346
0.00069501996 0.00047801435 -0.029414173 0.009871922 -0.06513689 -0.043203257 -0.058567848 0.03821268
0.00034586762 -0.009850009 -0.03328105 -0.03949237 0.01308563 0.032580987 -0.053130336 0.042393204
0.032627434 -0.049684584 -0.059824243 -0.034687314 0.014405146 -0.01754945 0.030714698 -0.013202817
0.03279799 0.049928527 0.010333798 0.0009465292 0.04849207 -0.046706587 -0.04230647 0.053489417
-0.051452246 0.038936537 0.008814989 -0.0018808171 -0.024572078 0.009483974 -0.004796721 -0.046895422
0.018731542 0.027183903 0.008244697 0.009572865 -0.06569813 -0.0421864 -0.039206393 -0.0077458224
-0.06713444 -0.0051621734 -0.050070997 -0.006957002 -0.001406543 -0.014006889 0.032691687 0.047875766
-0.012123947 0.021031462 0.029651772 0.026217096 0.02732968 -0.0034662262 0.002870384 0.03234466
-0.023182705 -0.040150147 -0.031827938 -0.03414449 -0.05336747 -0.041549794 -0.06384897 0.013519242
-0.012945851 0.04341729 0.0014083827 -0.028711088 -0.02429027 -0.002866231 0.008080997 0.03109618
-0.022726499 0.016376168 0.018050216 -0.0037300657 0.049020052 0.015104711 -0.014990458 0.0016970243
0.0538534 -0.027301565 0.05826629 0.009372677 -0.03625136 -0.037838157 0.004923679 -0.02734412
-0.06116104 0.04442033 0.02244135 -0.007837237 0.011955187 -0.009520233 -0.00043938975 -0.009266364
-0.06448341 -0.032018162 0.042960152 -0.02011776 0.024591988 -0.020239472 -0.018886164 0.013827659
-0.046897724 -0.03471795 -0.006193176 -0.0557243 -0.05694665 -0.019647194 0.057405487 -0.025550239
-0.052155584 -0.022675276 0.025780814 -0.022166708 0.019117504 0.012199089 -0.04920501 -0.037956156
0.0049113086 -0.06564931 0.025956757 -0.0406685 -0.023698293 0.049183544 0.058463164 0.038385563
-0.024107441 0.06022113 -0.05106262 -0.021216348 0.04071093 0.057478543 -0.022850582 0.052493848
0.050411932 0.04400006 0.04475244 -0.028224265 -0.048189286 -0.019507024 0.028702376 -0.014288002
0.012145605 0.050951324 -0.042863835 0.02146446 0.026974082 -0.0014342255 0.042094886 -0.009066634
-0.029497497 -0.06144023 0.042669334 -0.05688455 -0.06532582 0.004212468 -0.058703154 -0.0036242725
-0.056211982 -0.0022417582 0.00037103368 0.013313256 0.034856066 -0.008776105 -0.010647647 0.008713907
0.018457025 -0.019264653 -0.06743125 0.01090654 -0.057603933 0.010849693 -0.053699877 0.01157487
-0.028355433 0.049138352 0.025245082 -0.03338739 0.044586584 0.059676394 -0.042748727 0.02418298
0.021244554 -0.033643305 0.04164688 -0.05875966 0.0147629455 -0.003221877 -0.012790173 -0.009896455
0.013361461 -0.03059008 -0.050391465 -0.0020145564 0.012397334 -0.052840136 0.02127833 0.011852369
-0.054382183 -0.05818187 -0.04338064 -0.012970501 0.04653182 0.041621372 0.024073537 -0.058110647

bias f4 [128]
00000000: f1cd 9aba 5e4e 213e 4109 3d3c a8a0 db3c
00000010: 6176 3b3e 985d 233d c26d b7bc 8a62 1e3d
00000020: 77fc acbc d6a9 723e 5022 483d 2aee 423c
00000030: fe7d 753c aa98 113d cceb 0fbd 47a9 b73d
00000040: 327f 553e 2f12 5c3e 0cc9 303e 422a 163e
00000050: e370 473e 69ad 503e d431 843c a02c da3b
00000060: b704 18bd 67f3 453e e5c7 213e 7846 e33c
00000070: 1227 fd3d 61cc 35bd c919 063e ad7c afba
00000080: 4031 2e3d 2361 343c a52f 64bd b429 94bc
00000090: 4fea a63d 73e2 663e 030a 67bd 9e12 383d
000000a0: e2de 143e b470 693d 86bc 773e 209c e03c
000000b0: 2d7d 3f3e f020 adbc 5b11 303e 30e9 543e
000000c0: df75 8ebc 745b 5a3e d932 613b 386c 943d
000000d0: 8702 bd3d 5a27 ec3d 2667 353e df0d 90bc
000000e0: 49e5 1139 4dc5 333e e8b2 a3bc c1e2 323d
000000f0: 0fe6 323e a94b e2bb 4cda 393e e74a 9c3d
00000100: 1031 123e 870b a73d 7431 453e ea2b 323e
00000110: db2a 513e 5555 593c bfe6 073e e146 4b3e
00000120: c42c 4abd 9a07 573e 3dc1 06bd ae12 543e
00000130: 8dd4 24bd 0069 dbba f04b 4d3e c503 2e3e
00000140: 4977 353e e2a2 d1bc d0ea 0f3e 8a75 7d3d
00000150: b3f7 1bbd 401e b53a e1fe 233e 9f73 3b3c
00000160: fa83 ebbc 0a9c 773e 22a5 3f3e ef67 35bd
00000170: 0467 07bd c12a 9d3d 63b7 693c 4d18 483e
00000180: 1bb0 3d3e b3f8 253e f88d 7fbc 5973 f03d
00000190: b56d e93b e350 00bd 284f 863c a6fb 2bbd
000001a0: 7716 ea3d 215b f33d 162a e8bb 4031 0b3d
000001b0: 655c e63d 4008 3fbd 855f 84bd e2cd 89bd
000001c0: 3d50 5c3e 43fb 0b3e 7f24 033e 22ed 043e
000001d0: c2c5 813a c63e 4dbd ea25 193d d9aa 80bd
000001e0: 4d8e 1d3e 3dde 983b 0062 4dbd 288b 4a3e
000001f0: 3892 aa3d 4505 373e a0fe 5d3e f259 5e3c
-0.0011810643 0.15752551 0.011537851 0.026810005 0.18306877 0.03988418 -0.022391204 0.038668193
-0.021116478 0.236976 0.048860848 0.011897603 0.014983652 0.035545982 -0.035136983 0.08967834
0.20849302 0.21491311 0.17264193 0.14664558 0.19476657 0.2037865 0.016137041 0.0066581517
-0.03711387 0.19331132 0.1579891 0.027743563 0.12360968 -0.044384364 0.13095774 -0.0013388597
0.042527437 0.011009487 -0.0557095 -0.018086292 0.081501596 0.22547321 -0.056406032 0.04493963
0.14538148 0.056992248 0.2419301 0.027418196 0.18700095 -0.02113387 0.1719412 0.20792079
-0.01739019 0.21323949 0.0034362583 0.072472036 0.09228998 0.11530943 0.1771513 -0.01758474
0.00013913693 0.17555733 -0.01998277 0.04367328 0.17470573 -0.006905992 0.1814968 0.07631474
0.14276528 0.081564955 0.19257146 0.17399564 0.20426504 0.013264974 0.13271616 0.19851257
-0.049359098 0.20998994 -0.03289913 0.2071025 -0.040241767 -0.0016739666 0.20048499 0.16993625
0.17721285 -0.025590364 0.14054418 0.061879672 -0.03807802 0.0013818219 0.16015197 0.01144114
-0.028749455 0.24180618 0.18715337 -0.044288572 -0.033057228 0.0767417 0.014264914 0.1954052
0.1852421 0.16208152 -0.015597813 0.11740751 0.007123674 -0.03132714 0.016395167 -0.041988038
0.11430066 0.11882616 -0.007085095 0.033982515 0.112480916 -0.046638727 -0.064635314 -0.06728722
0.21514983 0.13670067 0.12806891 0.12981084 0.0009900855 -0.050108694 0.037389673 -0.062825866
0.15386315 0.0046651647 -0.05014229 0.19779646 0.0832867 0.17873104 0.21679163 0.013571249

weight f4 [2, 128]
00000000: 2168 773d c4aa c03d 441f 46be 93d4 253c
00000010: de95 233e 4659 8bbc a90a 54bd 4e77 913b
00000020: 4d6f 273b 47db 0a3e 9b0d 94bd 93d4 a3bd
00000030: 1149 e83c 37f9 67be 0c4e 0d3d 874d 8a3c
00000040: e046 573e d3e7 5e3e f1e7 633e 222b 3d3e
00000050: 2f64 aa3d 46f5 1d3e 4dcf 84bd 7f02 2cbd
00000060: 1727 80bc b421 4f3e b590 333e 93b0 1c3b
00000070: b8b7 123e 0627 5dbc 77f3 ac3d 89e8 0fbe
00000080: f04a 4cbd 7984 4dbb 1f29 dbbb 0387 53be
00000090: d362 563e d66c 353e 9598 83bd ca75 a0bd
000000a0: 747f f43d 48ac 2bbd b71f 853e 327d 56bb
000000b0: c3b3 293e 9c85 5cbc 9d75 54bc a38b 243e
000000c0: 0ccb c93b 57f7 f03c ef3d 073d 917e 853e
000000d0: 9180 6f3e 382d 753e f592 783e ab7f 8dbd
000000e0: 91d1 203e ee5b 2a3e 69e7 823d 176b 97bd
000000f0: 6201 d03d 17d8 0b3d c84a 473e 4130 67be
00000100: 1b22 493e a484 28bb aa7d 7a3e 197d 713e
00000110: 9053 223e 2ea6 b3bc 99da 483e f72a 163e
00000120: 018f d9bc 66f2 913d f860 3cbc 3082 823e
00000130: 8620 453b a39f 77bd f382 903d bf5f 563e
00000140: 132a de3d d659 41bd 92d1 1b3e 8831 92bd
00000150: 89ae b9bd 59e9 913d b06a 263e 9ebb 45be
00000160: 9bcb 31be 7afe 313e 1e97 2a3e 5ce2 3f3c
00000170: 3985 633c d962 a23c 5d1f 57bd 195a 353e
00000180: ba09 db3d 0de7 663e cd76 243c d80e 933e
00000190: afb0 d33c 9781 40be ac76 233d e60c 47bd
000001a0: 4770 373d 0215 fa3c 88e1 5abe 8614 1ebd
000001b0: 1e5f 863d 69cc 2bbe 2a46 28be ba5a 4bbd
000001c0: 8867 ae3d 8384 613e 6189 0f3e 8538 5b3e
000001d0: 7d5e 23bd 6b3f 7cbd 18d1 5abd 1854 343b
000001e0: b75e 473e 7783 64bd 54eb 26bd d0a1 383e
000001f0: 170a 4fbe 9cac 523d 43ae 343e dadd 65be
00000200: 28ae 80bd 857a 6a3e b13f 21be 5554 a0bd
00000210: a7a4 063e cd03 19bc d2a5 0ebc 64d4 25bc
00000220: 3b2e b93b 0fbf 683e 9930 9b3c 1735 163d
00000230: e364 96bd 1417 2cbe e0c5 85bd 3fd1 8bbd
00000240: 882c 313e ab2b 063e 1148 343e b7ed 9b3d
00000250: 9557 353e 7f24 603e c026 99bc f4bf 50bd
00000260: 43a8 bcbb f566 d63d 0809 4a3e ba40 30bd
00000270: 8463 423e aa3e 9fbc a86c 533e 235d 26be
00000280: 202c ecbc d1ee 9ebd 373f 5fbd bcb2 98bd
00000290: bad4 c13c 7e1d 833e 6f18 4d3d fe48 943d
000002a0: e6a7 3c3e 9dd4 7ebd 815c 733e 1fe2 7bbd
000002b0: cbcd 5e3e f596 70bc 8480 dc3d 3b44 173e
000002c0: 57b3 36bd 03d5 153e f083 46bc bd0f 16bd
000002d0: 06df 583d 43ac 203e 2e4a 533e a6f2 a3bd
000002e0: 7a2d b0bd 5914 1d3e b4db 86bd fddf 10bd
000002f0: dabb 623e 35ab 19bd 253b 233e 57b7 76bc
00000300: a33d cc3d 818a 2d3e f8cb 0b3e 60da 603e
00000310: 0ee7 c73d 12e2 b3b9 ea9a 993d 665f 283e
00000320: 38ec 20bc b733 5b3e c360 10bd 3752 6a3e
00000330: 194f 623d 0572 9bbd a81c 613e f032 ef3d
00000340: d2dd 583e cc1a 0c3d cd30 3b3e dd44 443e
00000350: cc16 25be 34c6 66be 3cf4 343e 7559 453d
00000360: 9ef2 4cbe 395f 253e 9746 a83d 2cbd 3cbd
00000370: bff6 55bc dbd7 523e dc2d 5bbd 6543 e33d
00000380: ee21 303e 1993 ac3d d503 b6bc bf59 633e
00000390: c1b5 29be 5605 59be db56 8abd e82c 8cbd
000003a0: a502 4d3e fab1 563e 5929 1ebe 0926 07be
000003b0: 95d7 183e 64e5 6cbe 7b42 4ebe 5f94 ecbc
000003c0: 7c92 373e 68cd e43d 215c 2f3e 39de 043e
000003d0: e4af 313c 2280 ecbc 4fb2 32bd d7a4 8bbd
000003e0: afbe bb3d 4fa1 5cbe 280f 94bb a73a 5a3e
000003f0: f80c 24be 0056 383e 8548 443e 88ac 28be
0.06040204 0.09407571 -0.19347864 0.010121482 0.15975139 -0.017010342 -0.05176798 0.004439271
0.0025548518 0.1356021 -0.072291575 -0.0799953 0.028355153 -0.22653662 0.03449826 0.016882671
0.2102313 0.21768121 0.22256447 0.18473485 0.0831989 0.15425596 -0.06484852 -0.041994568
-0.01564364 0.202277 0.1753567 0.0023908957 0.14327896 -0.013498073 0.08444875 -0.14053549
-0.049876153 -0.0031359477 -0.0066882516 -0.20656972 0.20936136 0.17717299 -0.06425587 -0.078349665
0.11938372 -0.041912347 0.2600076 -0.003272843 0.1657248 -0.013459589 -0.012967494 0.16068892
0.0061582383 0.029414816 0.03301805 0.26073125 0.23388888 0.23943031 0.2427481 -0.06909116
0.15704943 0.16636631 0.06391794 -0.07393473 0.10156514 0.034141626 0.1946212 -0.22577001
0.19641916 -0.0025713826 0.24462 0.23582877 0.15852189 -0.021929827 0.19614638 0.14664827
-0.026557447 0.07126312 -0.0114977285 0.2548995 0.00300792 -0.060454976 0.070562266 0.20934962
0.10847869 -0.047204815 0.15216663 -0.071383536 -0.09066493 0.07124586 0.16251636 -0.19309852
-0.17362826 0.17382231 0.16659209 0.011711683 0.013886743 0.019822525 -0.052520145 0.17710151
0.106952146 0.22549076 0.01003809 0.28722262 0.025841085 -0.18799435 0.039908096 -0.048596285
0.04478481 0.030527595 -0.21375096 -0.03859379 0.06561111 -0.16777195 -0.16433015 -0.04964707
0.08515841 0.22023205 0.1401725 0.21408279 -0.039885033 -0.061583918 -0.053422064 0.0027515944
0.19469725 -0.055789437 -0.04075177 0.18030477 -0.20218693 0.051434144 0.176446 -0.22447911
-0.06283218 0.228983 -0.15746953 -0.07828585 0.13148747 -0.009339285 -0.008706527 -0.010121439
0.005651263 0.22729133 0.018944072 0.036671724 -0.07343461 -0.16805679 -0.06531882 -0.0682702
0.17302144 0.13102596 0.17605616 0.076137 0.17709191 0.21888922 -0.018695235 -0.05096431
-0.005757363 0.10468856 0.19730008 -0.043030478 0.18983275 -0.01943906 0.20646918 -0.16246466
-0.028829634 -0.07760394 -0.054503646 -0.07455966 0.023661006 0.25608438 0.05007213 0.07240485
0.18423423 -0.062214483 0.23765756 -0.061494943 0.21758191 -0.014684428 0.107667 0.14772122
-0.044604626 0.14632039 -0.012116417 -0.036636103 0.052947067 0.15690713 0.20633766 -0.08005266
-0.08602424 0.15339793 -0.06584874 -0.035369862 0.22141972 -0.03751679 0.1594053 -0.01505836
0.09972694 0.16947366 0.13652027 0.21958303 0.09760867 -0.00034309976 0.07500251 0.16442642
-0.009821944 0.21406446 -0.03524853 0.22882925 0.055251215 -0.07590107 0.21983588 0.116796374
0.21178368 0.034205243 0.18280335 0.19166894 -0.16121978 -0.22536546 0.17671293 0.048181016
-0.20014426 0.16149606 0.08216589 -0.046078846 -0.013059317 0.20590155 -0.05351053 0.11096839
0.17200443 0.08426494 -0.022218624 0.22202204 -0.1657324 -0.21193442 -0.067548476 -0.06844503
0.2002054 0.2096633 -0.1544546 -0.13198103 0.14925988 -0.2313438 -0.20142548 -0.028879343
0.17926973 0.11171991 0.17124988 0.12975396 0.010845158 -0.028869692 -0.04362708 -0.0681855
0.091672294 -0.2154591 -0.0045184083 0.21311437 -0.16020572 0.18001556 0.19168289 -0.16472065

bias f4 [2]
00000000: 9ed1 193e 46d5 533e
0.15021369 0.20686826
