saved_models/run16/model_3000.pth (torch, 141798 bytes, 6 tensors)

weight f4 [256, 4]
00000000: c43a adbd a884 843f d242 07c0 bdf3 873c
00000010: 3ff9 05bf f78c d93f d124 25be 190f 9abe
00000020: 47ab 313f 822e 3f3f b8a3 12c0 e05b 043f
00000030: 4cdc e7bf 491b 5e3f cfb7 fb3e f1d4 e0bd
00000040: ca96 4a3f 867b e83f 10b9 5ec0 fba5 903e
00000050: c281 abbe af36 90be 4c30 04c1 ff9f 31bf
00000060: 8379 78be 3739 0fbf d74b 22c0 e7d3 853e
00000070: 8d8f 15c0 81cd cc3e bbe0 393e 7d0a a2bd
00000080: d6e4 56bf dff1 cc3f 1f08 733f af5a 62bf
00000090: e03f 02be 63da 973e 865d 953f 3c3c a0bd
000000a0: 8286 babe 4adb 4cbe ad4a 9cc0 01d2 04bf
000000b0: 9e41 53c0 be6d ea3c f681 8dbf 7b89 8bbd
000000c0: 8950 e43f 194d b7bf d6e2 bebf 32e4 af3d
000000d0: 4618 ae3e f6c9 983f 1146 d4bf d44a 61be
000000e0: 7078 fa3f aac9 e3be 1387 66be b72e b93e
000000f0: 3ae9 60bf 1586 8abf 08fa 8e3e 4d09 8cbe
00000100: 656d d33e d7f8 b83f cbe8 f73e e0cc 10bf
00000110: 6205 4cc0 d72b 15be 9cba 7abf 88ad e03c
00000120: e5a0 b2bd d37e 833f a127 edbf ac63 30be
00000130: 7039 30c0 288b ac3f eeb3 41bf a68f e73d
00000140: 9daf 15bf 7d84 b4bf 0d3a 78bf 8eea c63d
00000150: 455c 19c0 3618 6d3f b997 363e d47e 333e
00000160: 20be 3d40 d46d 263f b902 1140 1765 cbbe
00000170: 0add a3be 8abd bebf 3313 bdbf 7b1e 57bf
00000180: c7e9 4e3e ef37 78bf fed2 84c0 4394 82bd
00000190: 610d 22bf 95a8 06bf 334f 3ebf 08e7 a43e
000001a0: a009 c7be 3564 933e 7f08 24c0 7398 08bf
000001b0: d814 e23f b064 0c3f 1452 d9bf d599 923f
000001c0: 3ebb 373f 0793 d5bf 2c02 adbf 1128 393f
000001d0: 9e9d 1d3f 8199 bc3f 3eef 98bf a351 013f
000001e0: 4337 0bbf 395d 2d3f 7524 9fbf 9651 9d3e
000001f0: 3826 6dbf d7a4 6b3d 3469 a33e c53f 283f
00000200: 954f b63c 9b47 9d3c 763f 03bf 7ae2 033d
00000210: 3cfa c5bf 3c9f ba3f c1dc 0fbf f681 b3be
00000220: d243 34be 6054 b0be 409d b4bf 7a1c 4039
00000230: 6b49 18be 351a fa3f c387 cdc0 b0b5 a3be
00000240: 6fe5 5540 3dc2 ba3f b06a b4be 3cc3 9cbd
00000250: 52be ecbf 52d0 1740 883a 153f c2bb b33e
00000260: daf6 7d3e 86c3 823e 601f 663f 8808 003d
00000270: 8495 f13e 60e2 0ac0 0dc5 4a3f 6d67 ed3e
00000280: d38d 26be a5de 93be 0e18 d03f 6fe9 633f
00000290: 51a1 08be b650 99bf 3275 4cc0 7e1c f6be
000002a0: 7c9c 6a40 9d1f 24be fcc5 b4bf a19d ca3c
000002b0: 84e5 0fbd 9b40 f8be c0ea 74c0 87fb e83e
000002c0: 8ef3 843f 9222 9d3f c024 673e 8c66 babe
000002d0: f722 dcbf f258 c13f 4ee4 003f 1a3d 20be
000002e0: 0dfb f73e ff7c c43f a568 4ebe 449c 08bf
000002f0: 08ff 283d ea17 38bd 3cc8 88bf dd81 b4bd
00000300: a71a 10bf de24 a03f a491 d7bf d332 913f
00000310: 4f0c 3bbf 674d dabe 0902 32bf eca2 e63e
00000320: d502 e8bb 0516 f2b9 1107 b2bc f8e3 a13a
00000330: 2361 883e 5aea f03e c805 09be 6f24 883f
00000340: aea3 5d40 6099 203e 1d81 5cbf 2b2a c9bd
00000350: e735 fdbf 7a6a c73f 39e9 94bf d217 0f3f
00000360: f33a f1bd 6e90 2a3d 3164 22c0 76dc 9abe
00000370: 06d9 3fbf e390 cc3f 41c9 90bf a9df 0dbe
00000380: 5fd9 a4be b736 dc3f b2cd 7cbf 0070 373f
00000390: 0340 ccbe 2692 73bf d616 cc3f 0e97 373e
000003a0: f2f4 56be f4d6 c13f cf0f d43d 6b20 86be
000003b0: ff2a 48be 1f5a 8fbe bede 10c0 0266 1cbe
000003c0: 0b8c 843e affe 463f c8af 1ac0 b6fc 3ebf
000003d0: b5d8 f4bf df5b 923f 8c68 84bc 5898 39ba
000003e0: 488a 5d40 60b8 5ebf e765 14c0 e1e8 683e
000003f0: 7006 7ebb 6c9d 973f 7b61 943f 3c1c f83e
-0.08458474 1.0352983 -2.1134534 0.016595716 -0.52333444 1.6996144 -0.16127326 -0.30089644
0.69401973 0.7468034 -2.2912426 0.5170269 -1.8114104 0.86760384 0.49163672 -0.10978115
0.79136336 1.8162696 -3.4800453 0.28251633 -0.33497435 -0.2816672 -8.261791 -0.6938476
-0.24265103 -0.5594668 -2.535879 0.2613823 -2.3368866 0.40000537 0.18152134 -0.07912157
-0.83942926 1.6011313 0.94934267 -0.8841962 -0.12719679 0.29658803 1.1669166 -0.07823989
-0.36430746 -0.20005527 -4.8841157 -0.5188294 -3.30088 0.028616782 -1.1055286 -0.06813332
1.7837077 -1.4320403 -1.4912975 0.08588447 0.34002894 1.1936634 -1.6583883 -0.22001201
1.9568005 -0.44489795 -0.22512464 0.36168453 -0.87855875 -1.0822169 0.27925134 -0.27350846
0.412944 1.445094 0.48419794 -0.56562614 -3.1878285 -0.14567505 -0.97940993 0.027426496
-0.087220944 1.0273079 -1.8527719 -0.17225522 -2.7535057 1.3479967 -0.75665176 0.11306696
-0.5847109 -1.4102932 -0.9696358 0.097127065 -2.3962567 0.9261507 0.17831315 0.1752885
2.9647293 0.65011334 2.2657912 -0.39725563 -0.32004577 -1.4901593 -1.4771484 -0.84030885
0.20206366 -0.9696035 -4.150756 -0.06375935 -0.63301665 -0.52600986 -0.743396 0.32207513
-0.3887453 0.2878739 -2.5630186 -0.5335762 1.7662611 0.54841137 -1.6978173 1.1453196
0.71770084 -1.6685494 -1.3516288 0.7232676 0.6156863 1.4734346 -1.1948011 0.5051519
-0.543812 0.6772037 -1.2433001 0.30726308 -0.9263644 0.05753025 0.319162 0.65722305
0.022254745 0.019199183 -0.5126871 0.032198407 -1.546699 1.4579844 -0.5619622 -0.3506009
-0.17603996 -0.34439373 -1.4110489 0.00018321155 -0.14871757 1.9539248 -6.4228225 -0.31974554
3.3421285 1.4590527 -0.35237646 -0.076544255 -1.8495581 2.3720899 0.58292437 0.35104185
0.24801198 0.25539798 0.89891624 0.031258136 0.47184384 -2.1700668 0.79206926 0.4636797
-0.16265039 -0.28880802 1.6257341 0.89028066 -0.13342787 -1.1977756 -3.194653 -0.48068613
3.665801 -0.16027685 -1.412292 0.024733366 -0.035130993 -0.4848679 -3.826828 0.455044
1.0386827 1.2276175 0.22572613 -0.36406362 -1.719817 1.5105269 0.50348365 -0.15648308
0.48433724 1.5350646 -0.20157106 -0.5336344 0.04125884 -0.04494468 -1.0686107 -0.08813832
-0.5629067 1.2511251 -1.6841321 1.1343635 -0.73065656 -0.42637178 -0.69534355 0.45046175
-0.0070804157 -0.00046174243 -0.021731885 0.0012351265 0.2663661 0.47053796 -0.13381112 1.0636119
3.4631152 0.15683508 -0.8613451 -0.09822496 -1.9782075 1.5579369 -1.1633674 0.5589572
-0.11778822 0.041641645 -2.5373652 -0.30246323 -0.74940526 1.5981716 -1.1311418 -0.13854851
-0.3219709 1.7204198 -0.98751366 0.71655273 -0.39892587 -0.9514488 1.5944469 0.17928717
-0.20991877 1.5143723 0.10354578 -0.26196608 -0.19547652 -0.27998444 -2.263595 -0.15273288
0.25888094 0.77732366 -2.4169788 -0.74604356 -1.9128634 1.1434287 -0.016163133 -0.0007079891
3.461565 -0.87000084 -2.3187196 0.22745086 -0.0038761161 1.1844916 1.1592249 0.4845904

bias f4 [256]
00000000: b8d7 80bf 779e 7940 6fb4 b13f 6faf 033f
00000010: 0825 9fbf aa64 c93f 808a 9740 c0ef 15c0
00000020: 567b 93be b8cd c8c0 2183 f43e 41aa 98bf
00000030: 676a b7bf e70a 2b40 ca3b 6b40 9c71 8ec0
00000040: 9acc 2840 fb04 33c0 09b6 1e40 cb16 5bbf
00000050: 6b46 05c0 a23c f3bf e1f9 3abf e6dd e8be
00000060: 0c92 6440 f558 2540 5683 ccbf cc1d 1fc0
00000070: bb95 2640 61c8 4640 cf74 4640 6ab2 4ac0
00000080: 2470 80bf 299e 69c0 1088 c140 fff3 9c3f
00000090: 12d2 5b40 51bf 0d3e d0ed aac0 9280 4c40
000000a0: 0fa1 a340 34da 88bf 1e66 1cc0 4984 fd3e
000000b0: a2be 92c0 49d1 fb3d 2024 61c0 bbef cc40
000000c0: b1dc 1cc0 bc52 86c0 ab3f 0dbe a41d 1840
000000d0: 5acd 5bc0 b92d 97bf 85b9 1840 5f8c 14c0
000000e0: 9531 85c0 73ad c0c0 6a15 88c0 d2f6 8040
000000f0: e720 26c0 2861 babc 3405 75bf 8a21 6bbf
00000100: 380f febc 7da7 4f40 50f9 32c0 b96b 8340
00000110: 32fe 03bf be5b 89c0 4884 6d3f cada 9dc0
00000120: 7eec 8b3f 4ee4 9e40 b30a 5fc0 4481 2f40
00000130: bec4 8940 af92 5640 baaa 0f40 67c9 1dc0
00000140: 74f9 cfbf 60ca b2c0 282d 57bf eeed f9be
00000150: a342 4a40 df10 cc3f 2820 3440 907a b4bf
00000160: 8b87 abc0 7a3e 4ebf a7c5 da3e df50 8ec0
00000170: 3600 a6be 9f39 64c0 46d8 5a40 ec27 9fc0
00000180: fa13 103f 6ea4 29c0 70d1 9640 b87d 023e
00000190: 4561 dac0 8fbb a73f 4f64 adbf 7b7b c4c0
000001a0: 7b73 cebf 3d59 eebf 9477 9ac0 c11d aa40
000001b0: 6089 53c0 dd6e 46c0 515f 3dc0 63fc 83be
000001c0: acce 6dbb cac8 5dc0 bb79 0840 4f91 0dc0
000001d0: 85dc 38c0 c17b ebbc a017 33c0 0d1f 91bf
000001e0: 9f22 6240 3094 6ac0 d85a b1c0 febb 913b
000001f0: 42d6 6a40 0c01 903f b49b 32bf 372e b6bf
00000200: bf15 0d3b 22cd 91bf 7858 9840 2528 04bf
00000210: fc45 5e40 9619 7bc0 cb74 c340 6b05 843f
00000220: 963c 9f3f c026 143f 0ab8 f0be 61a5 19c0
00000230: 2c73 68be 232f 4540 9b70 39bf c5b8 c2bf
00000240: 805f d240 7389 0340 3f99 6240 70b9 4bbf
00000250: 29d6 bebe df9c 953e e440 8640 62f6 c3bf
00000260: 5566 4bc0 33a7 0fc0 84a4 4d40 ca42 f0c0
00000270: f97c d33f ea1c e1bf 8336 35c0 d157 a6c0
00000280: 002f 1fc0 7335 62bf bfd0 4d40 9a79 6940
00000290: a463 18c0 dfd4 91c0 54e7 b1bf 9a38 943e
000002a0: 0a64 cf3e f292 abc0 c61c c1c0 7465 ac40
000002b0: c6dc e7c0 d00d 23c0 0c61 9dbe 52a9 60c0
000002c0: 0631 1740 b1fa 9dbf be69 c8c0 a311 a440
000002d0: 98a6 f2bf 9208 1cbf 6dfa bcc0 91d3 03c0
000002e0: 789e a23f 7004 2840 3ef2 a3be fc62 9040
000002f0: 73ec 693e 3036 ffbf 28d7 89c0 7105 ea3f
00000300: d783 56c0 be05 b740 57d6 4abf f251 b940
00000310: b652 e5bf 077f 36c0 9f2f cc3f 292d 90c0
00000320: ae06 a540 5c2a 94c0 9259 6440 a351 3dc0
00000330: 8481 d7bf a895 cdc0 439c eabe 496e c83f
00000340: c11d c7c0 818f 7bc0 c281 e8bf 825c 89bf
00000350: 1778 6f3f 1db8 09c0 bc9a 47bf 4f25 53be
00000360: c823 823e c8da 7bc0 cd2b 2b3b c29c 47c0
00000370: 857a eabf 7cf4 3840 1e68 0bc0 7dc8 bdbf
00000380: def6 b7bf b870 83c0 a527 ad40 878b 9dbf
00000390: 2732 2bbe d7ed 36c0 befc 9dc0 6afc d7be
000003a0: 202e c33f 746f 60c0 b0f8 fe3f 68ed 9cc0
000003b0: 1dcc fdbe bb28 e23e 9834 9bc0 bdd7 a3bc
000003c0: 9864 6bc0 a574 afc0 eeab 9bbf 7bb4 a43f
000003d0: afc6 7ac0 e6e3 8740 df9c 9b3f 1c12 13bf
000003e0: d3ea f73f 2200 3440 0603 c140 963b 93c0
000003f0: c57f b5bf a329 ae40 34c7 8740 e619 76c0
-1.0065832 3.900297 1.3883189 0.51439565 -1.2433176 1.5733845 4.7356567 -2.3427582
-0.28805035 -6.275112 0.47756293 -1.1926957 -1.4329346 2.6725404 3.6755242 -4.4513683
2.637488 -2.797179 2.4798605 -0.85581654 -2.082423 -1.9002879 -0.73037535 -0.45481795
3.571414 2.5835545 -1.597758 -2.4861937 2.6028888 3.1059802 3.1008794 -3.1671395
-1.0034223 -3.6502783 6.047859 1.2261962 3.4346967 0.13842513 -5.34153 3.1953473
5.1134105 -1.069159 -2.4437327 0.49514988 -4.5857706 0.12295777 -3.51783 6.404264
-2.45097 -4.1975994 -0.13793819 2.3768091 -3.4344087 -1.1810828 2.3863232 -2.3210676
-4.1623025 -6.021173 -4.252614 4.0301294 -2.5957582 -0.022751406 -0.95711064 -0.9184805
-0.031013116 3.2445977 -2.7964668 4.1068997 -0.51559746 -4.292449 0.9277997 -4.9329576
1.0931547 4.965369 -3.485028 2.7422647 4.3052664 3.3527029 2.2447953 -2.4654176
-1.6248002 -5.587204 -0.8405328 -0.48814338 3.1603172 1.5942649 2.8144627 -1.4099903
-5.360296 -0.8056408 0.42728922 -4.447372 -0.32422036 -3.566017 3.4194503 -4.9736233
0.5628048 -2.650661 4.713066 0.1274327 -6.8243737 1.3104113 -1.3546237 -6.1400733
-1.6128992 -1.8620983 -4.827097 5.316132 -3.3052597 -3.1005166 -2.9589427 -0.25778493
-0.0036286516 -3.4653802 2.1324298 -2.211994 -2.8884594 -0.028745534 -2.798317 -1.1337601
3.533363 -3.6652946 -5.5423393 0.0044474592 3.6693273 1.125032 -0.69768834 -1.4232854
0.0021527854 -1.1390727 4.7607994 -0.51623756 3.4730215 -3.9234366 6.108007 1.0314153
1.2440364 0.5787163 -0.4701541 -2.400719 -0.22700185 3.081002 -0.7243745 -1.5212637
6.5741577 2.0552642 3.5406034 -0.7957983 -0.37272766 0.29221246 4.195421 -1.5309565
-3.1781209 -2.24458 3.2131662 -7.508153 1.6522514 -1.7586949 -2.8314521 -5.19822
-2.4872437 -0.8836281 3.2158659 3.648047 -2.3810816 -4.5572352 -1.3898721 0.28949434
0.4050601 -5.3616877 -6.0347624 5.3873844 -7.2457 -2.547718 -0.30738103 -3.5103345
2.3623672 -1.234213 -6.262908 5.127153 -1.895709 -0.6095058 -5.9055696 -2.059788
1.2704611 2.6252708 -0.32020754 4.512083 0.22844104 -1.9938412 -4.307514 1.828291
-3.3517969 5.719451 -0.79233307 5.791253 -1.7915866 -2.8515031 1.5952033 -4.5055127
5.1570654 -4.630171 3.567967 -2.9581077 -1.68364 -6.4245186 -0.45822343 1.5658656
-6.222382 -3.9306338 -1.8164599 -1.0731356 0.9354262 -2.1518624 -0.7797048 -0.20619701
0.25417924 -3.9352283 0.0026118637 -3.1189427 -1.831864 2.8899221 -2.1782298 -1.4826809
-1.4372213 -4.1075096 5.4110894 -1.2308205 -0.1671835 -2.8582666 -4.9371023 -0.42184764
1.5248451 -3.5068026 1.9919643 -4.9039803 -0.4956979 0.441717 -4.85017 -0.020000333
-3.6780148 -5.482989 -1.2161844 1.2867578 -3.9183767 4.2465696 1.2157248 -0.5744951
1.9368538 2.812508 6.031619 -4.6010237 -1.4179617 5.4425826 4.243067 -3.8453307

weight f4 [128, 256]
00000000: 54b1 833f 6ff0 fdbe 6224 83bf e385 9cc0
00000010: bea4 ed3f c040 8ac0 a9f6 d93e e3f6 f73f
00000020: 3752 14bf d98c c73f 44d7 bd3f 3242 0040
00000030: 8494 6abf 9795 723f d2d1 51be eb0e 11bd
00000040: 6a9f 98bf e925 ed3e 4a67 023e 84b2 2dbf
00000050: 1515 23c0 9dd8 14bf 968b 193e 2f7f 133f
00000060: 7d37 053f 6fe0 44c0 4173 f33f 2625 b43e
00000070: 7a90 113f 9811 3bc0 8e4b 81bf 5af2 8dbf
00000080: c506 50be 3700 f1bf 4600 1d40 f58c 90bf
00000090: a4c9 c33f 95b5 efbf b272 e940 278f 4d3c
000000a0: 8ed8 10be b748 5a3f 2419 95bf e489 28c0
000000b0: c75e 223f 255e eebf 2041 50bf 71b3 9cbf
000000c0: 7c02 b43e 5622 89be 16c1 40bd 6976 fabf
000000d0: d00b 19bf f556 9b3f 5b90 1dbf 513b 403e
000000e0: 4d9e 9abf 3073 4440 9dea d6bf 266a 8a3f
000000f0: 08dd b1be 7023 27c1 bb93 0cc0 c0b0 dcbe
00000100: a7a3 2d3b f7c8 fabd d4bc 02bf b30c cebe
00000110: 987d 97bf eceb 80be 690c 9fbf 2116 2140
00000120: 9233 e4bf 456a 613e 8bfa 16bf d633 9e3e
00000130: 14c5 d0bf ee54 fb3f ae6e b3be 58d1 913f
00000140: ef77 afbe 0748 4c40 043f 6c40 ee58 14bf
00000150: d8b2 bc3d 9ad6 5cbe b0e4 cebe 491e 293f
00000160: 23ab 843e 8b28 a83f 6a9a 813c 4926 203e
00000170: 5229 2bc0 da90 10c0 39ac 98bf e638 503e
00000180: 13a6 c0be 4ba3 0cc0 ee84 d03f 09d6 4640
00000190: 78c0 a540 3a4d 043f df05 37be 754a 9c3f
000001a0: 0aa2 da3f 7f18 c63f 32e3 2c40 6771 1940
000001b0: ddf8 0940 4417 87bf 886e 793f 6263 cb3d
000001c0: 4b57 9bc1 d24d 3b3f 3ff4 08c0 bf28 dabe
000001d0: c1ca 0c40 dcbf f93e e8cf 00be c7fe 0ebe
000001e0: 363d 38bf 667d 0440 b77f 8d3f 007f 1f40
000001f0: 1d48 03be be86 41bf 8713 223c f049 643e
00000200: 3c81 29c1 0453 ee3f df6c 6e3c a9d9 04c0
00000210: ab17 a4bf 1503 373f 1344 80bf ac18 afbf
00000220: df10 05be 55cc 83be 9c05 123d f26a 91bd
00000230: cae6 b0c0 5244 a8bf 5d86 12bf 76c9 2340
00000240: b99b aabf c267 263f 3549 fabd 9edd 16bf
00000250: d2ad d0bf abd0 d2c0 e2da e4bf c920 ff3e
00000260: a81b b1be 88a7 973f 4c88 85bf 8bca 8e41
00000270: e428 d0bf a5ee 6e3f 7b9f e53e a16c 3e3f
00000280: 376c c13f e617 b73f cdad 183f b583 4f3e
00000290: 65ba d7bf 8989 90bf 8c6e 8fbf ad82 44bf
000002a0: 0e5a df3f c0fe 0040 bf67 6640 b480 27c0
000002b0: 7610 7d40 150b a3bf eef3 113f a61e 8dbf
000002c0: ff3d e9be d563 493e 5153 2a40 407d bac0
000002d0: cb5a 45be 9c3d 493c 21db ce40 48a0 133f
000002e0: fb72 d83e 9b70 75bf a24b 463e 0138 a7bf
000002f0: babe 0ec1 7ed3 863d ab99 4340 05db fcbd
00000300: 583e 8a3e cd31 4240 1373 f23e e54a 0fbf
00000310: da60 bbbe f9d8 f53e 6b97 cdbf dc89 6940
00000320: 87fb 1840 8c83 02c0 095a 3540 4b15 3e3d
00000330: 0fbd 3640 cfe6 8a40 4f68 dbbf 6cef 943e
00000340: 6e31 ad3f 15d1 8d3f b2b5 1e3e b99a 9ebe
00000350: d344 8c3f 22a5 e93d 49c1 053f f445 d5bd
00000360: 8942 923f 6ce3 5cbe fae9 4ec1 5ee4 91be
00000370: 52e7 aabd b5a5 cebf c7e0 8b3f ed07 053f
00000380: 4408 f0be d069 e63f 6bee 81c0 a264 e6c0
00000390: 2263 f9bf 014e 38c0 3314 2240 8cfa c33a
000003a0: 0900 423e 03c0 533f f6ab 80c0 0421 0240
000003b0: dda5 3ebf 1b90 ddbe cda6 6abf 079a 3fc0
000003c0: bac4 e73f 9660 db3e 4e5a 623f f501 f93f
000003d0: e630 383f 8df0 0abf 8d4a acbf e1f5 12c0
000003e0: 827d ebbe 7e0d 62be e122 15bf a502 bf3f
000003f0: 293f 0bc0 7bfc 4abf c8f6 9c3f 5363 2fbf
1.0288491 -0.495975 -1.0245478 -4.8913436 1.85659 -4.320404 0.42571 1.9372219
-0.5793795 1.5589858 1.4831319 2.0040402 -0.91632867 0.94759506 -0.20490196 -0.035414618
-1.1923649 0.46317986 0.12734714 -0.6785052 -2.5481617 -0.58143026 0.14994654 0.5761594
0.52037793 -3.0761983 1.9019548 0.35184592 0.5686108 -2.9229488 -1.0101182 -1.1089585
-0.20315082 -1.882819 2.4531417 -1.1293017 1.5295911 -1.872729 7.295251 0.012546337
-0.14145109 0.85267204 -1.1648297 -2.6334162 0.6342587 -1.8622481 -0.8134937 -1.2242261
0.35158145 -0.2678401 -0.04705914 -1.9567386 -0.5978365 1.2135912 -0.61548394 0.18772627
-1.207956 3.0695305 -1.6790348 1.0813644 -0.34738946 -10.446152 -2.1965168 -0.431036
0.002649525 -0.12245362 -0.5106938 -0.40244064 -1.1835203 -0.25179994 -1.2425662 2.5169756
-1.7828238 0.22013195 -0.5897605 0.30898923 -1.6310143 1.9635293 -0.3504538 1.1392012
-0.3427119 3.1918962 3.6913462 -0.57948196 0.09213799 -0.21566239 -0.4040885 0.66061836
0.25911817 1.3137373 0.0158207 0.15639605 -2.674397 -2.258841 -1.1927558 0.20334205
-0.37626705 -2.1974666 1.6290567 3.1068137 5.1797447 0.5168034 -0.17873333 1.2210222
1.70807 1.5476226 2.701367 2.3975465 2.1558144 -1.0553975 0.9743428 0.09931065
-19.417624 0.7316562 -2.1399076 -0.42609212 2.199875 0.4877919 -0.1257931 -0.13964377
-0.719684 2.0701537 1.10546 2.4921265 -0.12820478 -0.75596225 0.009892351 0.2229383
-10.594051 1.8619084 0.014552324 -2.075785 -1.2819723 0.7148908 -1.0020775 -1.3679404
-0.12994717 -0.2574183 0.03564988 -0.07100476 -5.5281725 -1.314585 -0.5723627 2.5591712
-1.3328773 0.6500207 -0.122209944 -0.5893191 -1.6303046 -6.587972 -1.7879298 0.498297
-0.34591413 1.1848001 -1.043222 17.848898 -1.6262479 0.9333289 0.44848236 0.74384505
1.511115 1.4304168 0.596402 0.20265086 -1.6853758 -1.1291972 -1.1205611 -0.76761895
1.7449358 2.0155487 3.6000822 -2.6172304 3.9541297 -1.2737757 0.5701283 -1.1024978
-0.45555112 0.19666989 2.6613352 -5.8277893 -0.19272916 0.012282755 6.464249 0.57666445
0.42275223 -0.9587495 0.19364789 -1.3063966 -8.921564 0.06583308 3.0562541 -0.12346462
0.2700069 3.0342896 0.4735342 -0.55973655 -0.3659733 0.480171 -1.6061834 3.6490393
2.390352 -2.039279 2.8336203 0.046407025 2.8552892 4.340675 -1.7141207 0.29088914
1.353071 1.1079432 0.15498999 -0.3097742 1.0958503 0.1140845 0.52248055 -0.10413733
1.1426555 -0.2157113 -12.932123 -0.28494543 -0.08344902 -1.614432 1.0927972 0.5196522
-0.46881306 1.8001041 -4.0603538 -7.1997843 -1.9483378 -2.879761 2.5324829 0.0014951988
0.18945326 0.8271486 -4.0209913 2.033265 -0.7447184 -0.43274006 -0.9166077 -2.993776
1.8106911 0.42847127 0.88419044 1.9453722 0.71949613 -0.542733 -1.3460251 -2.2962573
-0.45994192 -0.2207546 -0.58256346 1.4922682 -2.17573 -0.79291505 1.2262812 -0.6851093

bias f4 [128]
00000000: f778 48c0 349f 96bd 2277 52c0 18b1 983c
00000010: c103 2e40 28ed 6340 bcf6 2cc0 dd83 a83f
00000020: 56ca eabf 793a 17bd 898a 47c0 56ca acbd
00000030: 0b09 1cc0 5f24 813e d5f7 4dbd 7d90 7040
00000040: 7aa4 9cbd 3cfa d53e a237 d4bf 51ed edb9
00000050: 8221 e6bf 9db9 a23e d99d c2bf efef f8bf
00000060: ae89 b7bd 5dc7 f73f 41d5 debf 25f8 213c
00000070: 90ea 65c0 2936 ccbb 7018 313c cc68 76bd
00000080: 8c0a 603c 6ce7 edbd d3cb e0bf 0295 3cbc
00000090: 875b 0441 c3f9 d3bc b037 96bf 95b6 73bd
000000a0: 7225 9cbf ab55 ebbe aaf0 5bbd 2c6f 33c0
000000b0: e4ae 0ac0 3261 d8bf 0b5e febf 96fd dd3c
000000c0: 5bb4 323c 50cc 68c0 265b 6ebf 3263 84be
000000d0: 1ff8 8fbf 4411 0d3d 068d a7bb 699d e9be
000000e0: 29a9 1540 a873 2dbb 616a 0d40 3b61 11bd
000000f0: ae62 42bf 5eb0 35bd 434e 0ac0 974e ddbf
00000100: 06fc 933c 1288 c540 a03b cebf 5c45 fb3e
00000110: c227 5bbc 6174 dbbf 72a9 4cc0 2e1f dcbf
00000120: 161c c53c 3115 e0bf adbc 0040 95e3 65bf
00000130: 798e f73c 2db7 3fbb 6cf9 91bd 4b01 5a40
00000140: f804 b6bf 6e88 8ec0 63fc 893c 318a 03be
00000150: 4c58 fcbf a9ad 6e40 a3c2 22c0 4618 c1bf
00000160: c24c 9bbd edc9 983e 3211 65bd 72ab 94bd
00000170: b509 3ebf 5237 c6be 29b8 07c0 f14e 20c0
00000180: e7a8 1abd ece1 50c0 c895 8c40 ba97 0bbd
00000190: a954 00c0 0845 cdbf bcc8 f4bf c835 efbf
000001a0: cfae e340 a48b 793e 9ae8 19c0 e2eb 04c0
000001b0: 70c0 88c0 7be2 07c0 3b59 4abd d0aa 0ac0
000001c0: 1149 dfbf 8346 62bd de2a 4cbd 8190 aa3c
000001d0: ecc1 5fbf c1d0 d23c 2803 ff3c 49c8 8e40
000001e0: 5610 0041 ab44 6abd 3951 8ebd 15ea 6840
000001f0: 9ab7 b43f 8894 4abf 3792 d7bf eace e6bc
-3.132383 -0.07354584 -3.2885213 0.018639132 2.7189791 3.5613499 -2.7025595 1.3165241
-1.8342998 -0.036921 -3.1178305 -0.0843703 -2.438052 0.2522306 -0.05028518 3.7588189
-0.07648559 0.41792476 -1.6579478 -0.00045380977 -1.7978976 0.31782237 -1.5204421 -1.9448222
-0.08961807 1.9357716 -1.740883 0.009885822 -3.5924416 -0.0062320423 0.010809049 -0.060158536
0.01367439 -0.11616406 -1.7562202 -0.011510136 8.272346 -0.025875932 -1.1735744 -0.059500296
-1.2198927 -0.45963797 -0.053696312 -2.8036604 -2.1669245 -1.6904662 -1.987245 0.027098458
0.010907258 -3.6374702 -0.9310783 -0.2585693 -1.1247596 0.034440294 -0.005113247 -0.45627907
2.3384497 -0.0026466642 2.2096179 -0.035493117 -0.75931823 -0.04435765 -2.1610267 -1.7289609
0.01806451 6.17286 -1.6111946 0.49076355 -0.013376178 -1.7144891 -3.1978421 -1.7197015
0.024061244 -1.7506467 2.0115159 -0.8980039 0.030219303 -0.0029253468 -0.071276516 3.406329
-1.4220266 -4.454154 0.01684398 -0.12845685 -1.9714446 3.7293494 -2.5431297 -1.5085533
-0.07583 0.29841557 -0.0559246 -0.07259263 -0.7423356 -0.3871408 -2.1206152 -2.5048182
-0.037758734 -3.2637892 4.393284 -0.034080245 -2.0051672 -1.6036692 -1.9123759 -1.8688288
7.115089 0.24369675 -2.4048219 -2.0768971 -4.273491 -2.1231983 -0.049401503 -2.1666756
-1.7444173 -0.055243026 -0.04984557 0.020820858 -0.87405276 0.025734307 0.031129435 4.461949
8.003988 -0.057194393 -0.06949086 3.6392872 1.4118531 -0.7913289 -1.6841496 -0.028174836

weight f4 [2, 128]
00000000: d3f5 10c1 d05d 9abc a35c 6040 a100 a03c
00000010: 0005 5c40 4d19 0c40 d0e0 85c0 8ffd a240
00000020: dc0d a53f 123c 2f3d 461d 40c0 17ba 8f3b
00000030: 7de6 8ec1 abea ddc0 e1ac 333b b051 823f
00000040: e5bd 89bd fd66 783f 7da7 8440 d0c8 07bc
00000050: 0d1d b3bd d5b8 bcc0 f7e8 96c1 9598 7cc0
00000060: d873 803d 595a 9740 e349 54bf 5ac0 09bb
00000070: ac12 00c1 7fb5 c3bc 1505 9dbd e60f 82bc
00000080: fe96 9f3d d418 e7c0 b114 4540 315b 5c3d
00000090: 3315 b840 e2ff 3c3d a68f 2cc1 774d e5bc
000000a0: 17c7 5dc1 8285 9740 1f0e c83c 510b c5c1
000000b0: baca 5f40 fe94 8f3f c989 b1c1 2be5 2c3d
000000c0: bb14 48bd a077 4bc0 4853 7a40 c941 74c0
000000d0: 43a7 8cc1 b5ab 95bc ac7d e93c 29dc 42c0
000000e0: 3895 2640 9292 2a3d db2b 0841 0e5c 313c
000000f0: 7e18 f5bf aade 33bd dea1 b5c1 59f5 a7c1
00000100: 0c2d 9fbc 8ba3 7440 aec7 b0c0 5140 d8be
00000110: 2a71 083d 54fe f53f 214b 68c1 e02e 19bf
00000120: 5c86 3f3c 2f4c 61bf c5dc cb40 58d0 7d3f
00000130: 5a9e 80bc 9574 7d3d 76c5 19bd b774 803e
00000140: 34fc 0840 38a5 afc0 71a7 0dbd f735 0a3e
00000150: 9717 afc1 1e93 6840 496c b0c1 f04b bec1
00000160: d6dc a9bc 5333 5140 a765 14bd 14f2 7c3d
00000170: 31cd b6c1 2b81 99c0 06a5 b2c1 c522 29c0
00000180: cad6 a43d af4d 01c1 8534 4c40 e545 643c
00000190: a1ba b3c1 1820 9340 58a4 b2c1 53ef 9fc1
000001a0: 31a9 a240 05a2 4040 9ed6 d2c0 fb8a 2bbf
000001b0: 5b94 b8c0 6c86 0ec1 776a 99bc 6986 92c0
000001c0: 8e90 ad3c e1a3 a7bc 286d 1fc0 a69c 82ba
000001d0: 7737 6f3f 7bf8 203b 65fb 583c 86e2 6940
000001e0: cb42 3e40 1857 88bb 7bcd 2cbc c20f 0c41
000001f0: 579b ae40 aa9b a8c1 874a 413f 862e 8a3d
00000200: c157 1fc0 edff 633d 76cc 33c1 f472 043c
00000210: 83ae 3e40 8847 a740 658a 38c1 d023 9f3e
00000220: 1651 95c1 a790 5cbd ecc1 13c0 25a3 893d
00000230: 89af 6bc0 8ab9 b9bf 1650 913b ee0a 6e40
00000240: c641 473d d3da 9540 630c 2bc1 50a7 aebb
00000250: 80e0 8bc1 ec22 8ec0 afc6 fabf 5915 503f
00000260: 7aad 103c 14b3 d140 b08a aac1 d15a 093c
00000270: 1ff5 08c1 f1a7 40bd 1349 943d 0081 893d
00000280: cea0 8e3c 1693 f83f 926c 62c1 7a5f 823c
00000290: 8e0c 9940 5fa4 ec3a 9521 1ebf d220 7838
000002a0: 41c2 b540 eba0 90c0 4b00 8e3d 7f78 dcbf
000002b0: a238 5dc1 c66b aac1 cbd1 0dbf 9cbe 7e3b
000002c0: 8eec 8dbd 53e3 97c0 5f0d c5c0 7fba 5340
000002d0: f208 b440 4d70 843d 0317 803d 7025 c4c0
000002e0: 615f 4cbe ad1d 07bb efa3 6640 a98b 023d
000002f0: 82bc ca40 9737 e13b 69ac 14bc 940d 95bf
00000300: 15de 853d a6e6 9240 2e25 0dc0 6757 1641
00000310: c967 5fbc 7e03 80c1 a9e6 97c0 6de2 90c1
00000320: faf2 283d d495 13c1 b20b 0541 f1ed 64c1
00000330: b42f 843d 4f8b 9a3d 3138 873c b26c e640
00000340: f872 7ec1 bb57 12c0 3cdf 0bbd d33e 36be
00000350: a9f3 9a3f e500 bf40 29cf 0140 6720 5140
00000360: 6b08 b33b ec6e f840 cefc 793d 0b49 343d
00000370: fe9b 18c0 f1c9 f8c0 3edb bebf 9894 61c1
00000380: b30f 9f3d c448 233f 200d be3f 59a6 25bc
00000390: 9a88 0fbf fc49 5ec1 15b2 0640 5d8f ff3f
000003a0: 02ec 723f c10b b540 5058 28c1 9a57 9fc0
000003b0: b1cf 46c1 74e1 9dc0 6990 78bd be1e a1c1
000003c0: fac2 adc1 7e73 cd3c 4128 9b40 8777 d7b9
000003d0: b313 0ac1 9384 293c 7ad5 cc3c 63e4 a940
000003e0: 1f96 9040 bba9 fd3b 1b58 873d 491b e640
000003f0: 6d84 c440 e6cf 43bf b52b 8ec1 78dc 8a3d
-9.060016 -0.018843561 3.505654 0.01953155 3.4378052 2.1890442 -4.183693 5.093452
1.2894855 0.042781897 -3.0017867 0.0043861973 -17.862543 -6.934896 0.0027416276 1.0181179
-0.06725673 0.9703215 4.1454453 -0.0082876235 -0.08745775 -5.8975625 -18.863752 -3.9468129
0.062720954 4.729779 -0.8292524 -0.0021019191 -8.004559 -0.023890255 -0.07666985 -0.015876722
0.07792471 -7.221781 3.079388 0.053797904 5.752588 0.046142466 -10.78507 -0.02799104
-13.861106 4.7350473 0.024420796 -24.630526 3.4967484 1.1217344 -22.192278 0.04221074
-0.048847895 -3.1791763 3.911333 -3.8165152 -17.58167 -0.018270353 0.028502308 -3.0446875
2.6028576 0.041643687 8.510707 0.01082517 -1.91481 -0.04391352 -22.704037 -20.994799
-0.01943066 3.8224819 -5.524375 -0.4223657 0.033311047 1.921824 -14.518342 -0.5983715
0.011689749 -0.8800687 6.3706994 0.9914603 -0.015700508 0.06187876 -0.03754183 0.25089046
2.1403933 -5.4889183 -0.034583513 0.13497148 -21.886518 3.6339793 -22.052874 -23.787079
-0.020735186 3.2687576 -0.036229756 0.0617543 -22.850191 -4.7970176 -22.330578 -2.6427472
0.0804878 -8.081466 3.1907055 0.01393268 -22.466127 4.5976677 -22.330246 -19.991858
5.0831532 3.009889 -6.5886984 -0.6700894 -5.76811 -8.907818 -0.018727524 -4.5789075
0.021187093 -0.020463886 -2.4910374 -0.0009964898 0.9344401 0.0024562168 0.013243531 3.654451
2.9728267 -0.004160773 -0.010547037 8.753847 5.4564624 -21.076008 0.75504345 0.06747155
-2.489731 0.05566399 -11.237417 0.008084048 2.9794014 5.227482 -11.533788 0.3108201
-18.664593 -0.05384889 -2.308711 0.067205705 -3.6825888 -1.4509747 0.004434596 3.719417
0.04864671 4.682962 -10.690524 -0.005330004 -17.48462 -4.441763 -1.9591883 0.81282574
0.008830423 6.55311 -21.317719 0.008383469 -8.559844 -0.04703516 0.072405 0.06714058
0.017410662 1.9419887 -14.151506 0.015914667 4.7827826 0.0018054357 -0.6176999 5.9158374e-05
5.6799626 -4.5196433 0.0693365 -1.7224272 -13.826326 -21.302624 -0.55398244 0.0038870936
-0.06929885 -4.7464995 -6.157882 3.3082578 5.626092 0.06466732 0.06254389 -6.12957
-0.19958259 -0.0020617053 3.6037557 0.03187147 6.335511 0.006873082 -0.009074309 -1.1644769
0.065364994 4.5906553 -2.2053943 9.396338 -0.013635584 -16.001705 -4.7469068 -18.11056
0.041247346 -9.224079 8.315355 -14.308091 0.06454411 0.07546102 0.016506286 7.2007685
-15.903069 -2.2866046 -0.03414844 -0.17797403 1.2105609 5.968859 2.028269 3.2676027
0.00546365 7.7635403 0.06103211 0.04401497 -2.384521 -7.774651 -1.4910657 -14.098778
0.07766666 0.63782907 1.4847755 -0.010110461 -0.5606781 -13.893063 2.1046193 1.9965626
0.9489137 5.657685 -10.521561 -4.9794436 -12.425706 -4.933771 -0.060684595 -20.14001
-21.720203 0.025079485 4.848664 -0.0004109705 -8.629809 0.01034655 0.025004137 5.309129
4.5183253 0.0077411807 0.06608602 7.1908307 6.1411653 -0.764891 -17.771341 0.06780332

bias f4 [2]
00000000: 1c65 fe40 52c6 f240
7.9498425 7.586709
